final/save/1l_0.95_200_morelayer/save0_14000.pth (torch_old, 50952 bytes, 8 tensors)

layer.0.weight f4 [32, 28]
000000 30 0d 22 be 7f 25 a8 3c d2 32 0e be 90 81 95 3d
       -0.15825343 0.020525692 -0.13886574 0.07300103
000010 2b 49 0e 3c f2 4a 89 3e 22 b2 0b bd 3b de 27 3d
       0.008684437 0.2681499 -0.034105428 0.04098342
000020 a1 34 5a be 81 01 fc 3c ce 9e ec bc 11 14 16 3e
       -0.21309139 0.030762436 -0.028884318 0.14656092
000030 58 a2 46 3e 85 43 80 bc dc 32 a4 bc c7 6e cc bc
       0.19397867 -0.015657196 -0.020043783 -0.024955167
000040 41 ca d3 3b 7d a7 6d 3d a6 f3 84 3e 19 e1 6f 3e
       0.0064633195 0.058021057 0.2596714 0.23425712
000050 a4 e8 1f 3e 8b 63 6b be c0 ba bd 3c a3 7b e1 bd
       0.15616089 -0.22987191 0.023160338 -0.1100991
000060 3f 03 cb 3c 54 2f 07 bd da 4a 27 bd 69 70 a9 3d
       0.024781821 -0.03300412 -0.04084287 0.08273394
000070 3f e0 8f 3c cb b6 6c bb 60 a0 b9 bd d2 71 94 bd
       0.017562984 -0.0036119695 -0.09063792 -0.07248272
000080 c0 6a bd bd 65 a4 55 bd 40 2c 2c 3e 8d 55 02 bd
       -0.092488766 -0.052158732 0.16813755 -0.03181987
000090 ae 74 28 3e b8 7a ed bd e6 ae 01 3e 19 91 e2 bd
       0.1645076 -0.11595672 0.12664375 -0.110628314
0000a0 c6 1b 5b be cc 88 15 be 11 93 b0 3d e9 e5 a3 3e
       -0.21397313 -0.14602965 0.08621801 0.32011345
0000b0 19 1e 2d 3e 5d f4 ea bd 7d 62 37 bc 11 e0 84 be
       0.16906013 -0.1147239 -0.011192915 -0.259522
0000c0 39 75 0a 3e 58 a9 a0 3e d5 58 25 bc 29 b3 20 bd
       0.1352128 0.313792 -0.01009198 -0.03923336
0000d0 e9 fd 22 bd 53 cd 19 3e 2e 87 88 bd d3 c7 55 3c
       -0.03979293 0.15019731 -0.066664085 0.01304813
0000e0 1c 6c bf 3d 1d 6b 9b bd 63 7b 71 3e 89 29 5c 3e
       0.09346792 -0.075887896 0.23582225 0.2150022
0000f0 b2 73 c7 3d ef 26 95 3d 33 d3 09 be 94 3c 46 3d
       0.09738864 0.072828166 -0.13459472 0.048397616
000100 83 22 c8 3c 2c 6b ad 3d ab 64 68 bc c7 49 37 3d
       0.024430519 0.08467707 -0.014184157 0.044748094
000110 25 52 72 bd 83 6b 11 3e 51 b8 e0 3d 2a 7a 34 3e
       -0.05916037 0.14201169 0.109726556 0.17624727
000120 20 bf 76 bc 3e 42 83 3e 89 4c ee bc f8 76 81 3d
       -0.015060216 0.25636476 -0.02908923 0.063215196
000130 eb 72 51 3e fd 46 88 bc 32 d0 76 3e 47 76 4d 3e
       0.20453994 -0.016635412 0.24102858 0.2006465
000140 87 ee f0 bc ab 92 4b bd 5d 4e 6a 3d e1 d3 81 3c
       -0.029410614 -0.04970042 0.05720364 0.015848102
000150 5d 39 52 be eb be 3b 3e 38 80 3e 3e ce 37 22 be
       -0.20529695 0.18334548 0.18603599 -0.158416
000160 43 61 f9 bd 09 4b 28 3d 79 57 9e bd 74 5f 4e 3e
       -0.12176754 0.041087184 -0.07731528 0.201536
000170 04 d9 26 3e ec 43 c1 bd f2 00 0d 3e 32 54 4c 3c
       0.16293722 -0.09436783 0.13769892 0.012471246
000180 4c 9c 45 bd c6 83 6e 3c b6 43 ab bd 49 b0 91 3e
       -0.04824476 0.014557784 -0.08362524 0.28454807
000190 92 18 d3 3d 11 d9 97 bc 3e 26 9b 3c 80 39 00 3e
       0.10307421 -0.018536123 0.018939134 0.12521935
0001a0 65 0d d9 3d df a7 79 3e f5 56 3b 3e 0a 08 f8 3d
       0.10598258 0.24380444 0.1829489 0.12110908
0001b0 40 27 86 3d ee 3d 37 be 69 27 c1 bd dc bf 05 be
       0.06550455 -0.17894718 -0.09431345 -0.1306147
0001c0 11 45 6e bd bb cd 35 be c8 96 eb bd 5d 5a 9f 3e
       -0.058171336 -0.17754261 -0.115033686 0.3112363
0001d0 5c e3 35 3e 44 83 8f be b4 b5 70 bd 2e 63 2d 3d
       0.17762512 -0.28029835 -0.058767036 0.042330913
0001e0 e7 85 1c bd 37 f0 21 3d 66 b5 80 3e ea 9e be 3d
       -0.038213637 0.039535727 0.25138396 0.09307654
0001f0 57 eb 5b be 77 60 1f be 38 1c a2 bd 9a 51 27 bc
       -0.21476494 -0.15564142 -0.079155385 -0.010212326
000200 b4 12 06 3e b9 bc 3d 3e b7 d2 bd 3b 30 40 89 be
       0.13093072 0.18529023 0.0057929414 -0.26806784
000210 1c 1c 52 be ab a2 3c bd e1 93 05 3e 68 24 1a 3e
       -0.20518535 -0.04605357 0.13044693 0.1505295
000220 8b d0 fe 3d 58 f3 4b 3c 3a a4 ac bd a8 97 17 be
       0.1244212 0.012448154 -0.08429761 -0.14803946
000230 3a 8d f1 3d d8 b4 7e 3e 72 bc 4e be a6 45 22 bd
       0.11794515 0.24873674 -0.20189074 -0.039617203
000240 49 85 00 be ff 96 29 be 13 1c ea 3d 8c ad ba bd
       -0.12550844 -0.16561507 0.11431136 -0.09115133
000250 24 3e af bd ee fc 66 3d 7d 2d c8 bd 83 92 aa bd
       -0.08556774 0.056393556 -0.09774301 -0.08328726
000260 b8 16 b6 bd cc f2 27 38 7e 80 be 3c 59 59 8c be
       -0.08891052 4.0042025e-05 0.02325463 -0.27411917
000270 c2 56 65 be f1 66 8f be 99 e9 83 3d a8 bd 91 bd
       -0.22396377 -0.28008226 0.064410396 -0.07116252
000280 0b e6 9c 3d 6c d8 33 3e b7 a2 47 3e 7d c4 96 3e
       0.07661065 0.17563027 0.19495665 0.29446784
000290 ed b9 28 3d 59 c3 97 bd 9d bc 51 3d 75 d4 c4 3d
       0.041192938 -0.074103065 0.051205266 0.096108355
0002a0 7b 5b 81 3e b2 65 42 3e af a4 37 3e 21 08 f6 3d
       0.25265107 0.18984106 0.17933916 0.12013269
0002b0 f9 3e 0a 3e bb 24 c0 3e b0 26 1b 3e 74 2b 06 3e
       0.13500585 0.37528023 0.15151477 0.13102514
0002c0 89 6c 12 3e 5e 41 70 bd d2 6d 17 3e b6 21 12 3e
       0.14299215 -0.05865609 0.14787987 0.14270672
0002d0 4f ee ee 3d 9d c4 90 3b 8b f5 61 3e 5c 01 a2 bd
       0.116665475 0.0044179694 0.22066323 -0.079104155
0002e0 3c cc ce 3d ef c2 ab 3e 2d 72 47 bc 0f ca 56 3e
       0.10097548 0.3354716 -0.012173218 0.20975517
0002f0 fc 7e 5b 3c fe d6 da 3c 8a 29 08 bd be 5f 2e 3e
       0.013396975 0.026713844 -0.03324274 0.1702871
000300 fc 50 5e be a9 2b 20 be c2 a8 b1 bd 2b c7 c4 3c
       -0.2171058 -0.15641655 -0.08674766 0.024020752
000310 d0 8d 7f 3e 8b fc 7f 3e 4f ca 6c bd b2 6a 17 be
       0.24956441 0.24998681 -0.057810124 -0.14786795
000320 c4 8d 1b 3c 94 10 02 3c 7d 2d 55 3e 48 65 45 3e
       0.009494249 0.007938523 0.20818134 0.19276917
000330 07 91 3e 3e 92 74 85 bd 88 34 08 be 38 f1 a9 bd
       0.18610011 -0.06516375 -0.13301289 -0.08297962
000340 d1 99 99 3d 6c 6b 92 bd 66 ba 1b 3e 8e ee 1a be
       0.07500041 -0.07149395 0.15207824 -0.15130064
000350 60 97 08 be 5e 27 84 bc e3 c6 39 bd c7 ae 3f 3d
       -0.13338995 -0.016132053 -0.04535569 0.04679754
000360 e0 58 5e 3e f8 b6 26 be 74 0e 9a bb fe b9 c2 bd
       0.2171359 -0.16280735 -0.00470143 -0.095081314
000370 9f b8 d6 bc 66 98 91 bd 07 13 6e 3d f6 91 2d 3e
       -0.026211081 -0.07109146 0.058123615 0.16950211
000380 a9 6c 87 3e 39 ee 10 bd f6 99 31 3e 01 fe 8c 3d
       0.2645009 -0.035383437 0.17343888 0.06884385
000390 dd 4d 89 bd a0 0f 5f 3e 8e 45 53 3d 8e bd 8b 3d
       -0.06704304 0.21783304 0.051580004 0.06823264
0003a0 53 d0 f4 3c 04 9a e8 bd e1 e9 3c be e5 80 45 be
       0.029884493 -0.11357501 -0.18448593 -0.1928745
0003b0 ff ba 60 bd 79 04 2a 3e 68 7a 88 3e 99 e2 06 be
       -0.054865833 0.16603269 0.2665589 -0.13172378
0003c0 a6 5f 1e 3d 1e e0 52 be 22 e4 5f 3d 87 7f 6e bd
       0.038665436 -0.20593306 0.054660924 -0.05822709
0003d0 01 08 0b be a8 a0 dd 3c 44 fe b4 3d c5 d2 25 be
       -0.13577272 0.027054146 0.0883756 -0.16193683
0003e0 ab c3 b1 3c 84 9a 58 bc 11 dc eb 3c a3 20 23 3d
       0.021699747 -0.013220433 0.02879146 0.039826047
0003f0 53 2d 00 3d 0e a6 20 3e ca a8 14 be 2f 7a 72 be
       0.031293225 0.15688345 -0.14517513 -0.23679422

layer.0.bias f4 [32]
000000 e1 02 92 bc 01 2a 18 be 12 cf 9d 3c ab 80 ac bb
       -0.017823638 -0.14859773 0.019263778 -0.005264362
000010 a5 28 ac bc ed 30 80 3e f8 8d 01 3d 36 14 58 3c
       -0.021015475 0.25037327 0.031629533 0.013188412
000020 ed 93 bf bd e8 28 1c 3e 34 e9 21 3e b2 35 2f bd
       -0.093543865 0.1524998 0.15811616 -0.042775817
000030 71 fd 5b 3e 93 85 85 3d 80 3e a8 3d 50 48 bb 3c
       0.21483399 0.06519618 0.08215046 0.02286163
000040 c2 98 04 3e 38 4e ce 3c c2 e8 2c bd 35 1d 2d bd
       0.12948897 0.025183782 -0.042214163 -0.042264182
000050 9a 6e 59 3e 39 04 f2 bd ce 68 58 bd 82 35 90 3e
       0.21233597 -0.11817212 -0.052834325 0.28165823
000060 3a eb a8 bd 79 51 d9 bc 07 c3 13 3e 0c c9 b4 bd
       -0.08247991 -0.026528107 0.14429866 -0.08827409
000070 04 ce b8 3d 6b e0 d3 3d be 3f dc 3c a0 51 36 bd
       0.09023669 0.10345539 0.026885863 -0.044511437

layer.2.weight f4 [64, 32]
000000 1f 71 86 bd 47 c6 36 3e c1 0c 8b 3e 30 2d 34 bd
       -0.06564545 0.17849074 0.27158168 -0.043988407
000010 81 e1 bd 3e de 48 67 be 60 d7 c7 bc b8 6a f4 be
       0.37086108 -0.2258639 -0.024394691 -0.4773767
000020 b7 8f bd 3b 1b c4 e1 bc 83 21 14 3d 14 15 82 3e
       0.0057849544 -0.02755933 0.03616477 0.25406706
000030 38 48 05 be 5c e1 8a 3e 6a f5 9d bd 0c cb f0 3d
       -0.1301583 0.2712506 -0.07712825 0.11757478
000040 cd 91 be 3d 49 43 c2 bd 83 b7 84 be 1f 0b d9 bc
       0.09305153 -0.0948549 -0.25921258 -0.02649456
000050 47 77 91 bd 84 e5 88 3d 69 3f 89 3c 77 28 86 be
       -0.071028285 0.06684402 0.01675387 -0.26202747
000060 b1 5f 5f 3d 36 06 53 3e 23 91 0d 3d a4 cd 93 be
       0.054534618 0.20607838 0.03456224 -0.2886783
000070 6d 59 38 bc 24 9f 55 be ac f7 02 3d 31 6f ff 3d
       -0.0112517895 -0.20861489 0.03197448 0.1247238
000080 05 ba b7 3d 20 06 f1 3c dd 87 30 3e 00 d6 f7 3d
       0.08971027 0.029421866 0.17239328 0.12101364
000090 f9 f8 a3 bc f4 ca 90 3d b7 c1 fb bd 8b 8c 10 bd
       -0.02001618 0.0706996 -0.122928075 -0.035290282
0000a0 aa 39 a9 3d 1d 89 84 bd e0 84 80 bd 24 84 1d be
       0.08262952 -0.06471465 -0.06275344 -0.15382439
0000b0 9e 13 4e 3d 5e a1 04 be cb b6 40 3e 2c 8d a7 3d
       0.050311677 -0.12952182 0.1881973 0.08181223
0000c0 04 39 c6 3c 1e c5 60 3c 02 f2 37 3d b4 6d 57 bd
       0.024197109 0.013718871 0.04490853 -0.052594855
0000d0 b8 8d 54 3e 3c a9 13 be 3e eb f1 bd 7c 22 48 3e
       0.20757186 -0.14420027 -0.11812447 0.19544405
0000e0 00 8e 18 be 49 25 2c ba 2b 00 68 bd bb e2 e1 bd
       -0.14897919 -0.0006566835 -0.056640785 -0.110295735
0000f0 bd 2c 66 bd a7 21 f8 3c 33 fd 2c be 89 93 9f 3d
       -0.05619501 0.030289484 -0.16893463 0.07791812
000100 42 0b 2a 3e 8e 4f f5 bd 7b 7d fe bc b8 64 f3 3d
       0.16605857 -0.119780645 -0.031065693 0.11884445
000110 0f 4c 35 be b1 02 8f be 19 e8 52 bb 38 69 30 bf
       -0.17704795 -0.2793174 -0.0032181798 -0.6891055
000120 a6 f4 8d bd 9f a5 57 be 1b ab 63 3e a2 f3 58 be
       -0.069314286 -0.21059273 0.2223324 -0.21186689
000130 70 a0 1f 3e 61 7c 6b be 1d 78 c9 be 3a 3c 93 be
       0.15588546 -0.22996666 -0.39349452 -0.28756887
000140 46 a6 25 3e 25 9c d5 3b ae d6 9f bd 0e 8a 99 be
       0.1617671 0.006518858 -0.07804619 -0.2998814
000150 32 16 19 3e be 1c 83 bd 8d d2 12 3e fd 80 06 3d
       0.14949873 -0.064019665 0.14338131 0.032837857
000160 66 0b 8f be e9 fd 87 be e9 2a 0c be 74 5e 9a bd
       -0.27938384 -0.26560906 -0.13688244 -0.07537547
000170 41 42 53 be e9 0a 74 be 1d ac e0 3b bb 62 00 3d
       -0.20630743 -0.23832287 0.006856455 0.031344157
000180 cd 30 93 bd 08 71 ae bd b4 13 39 3e 90 f5 06 be
       -0.071870424 -0.08517653 0.18073922 -0.13179612
000190 b6 c5 da be 58 e7 c3 3c 25 cf 8e 3d 13 b3 bb 3e
       -0.42728966 0.023914024 0.069731034 0.3666006
0001a0 a7 62 bf 3d 8d 2a c0 bd ce 0c d4 be 40 69 79 be
       0.09344988 -0.09383116 -0.4141602 -0.24356556
0001b0 61 23 01 bd 4f 04 fd bc f7 b1 89 bc 21 fe 64 3e
       -0.03152788 -0.030885844 -0.016808493 0.22362567
0001c0 ec 0c 0e be 23 c5 02 be 88 d0 37 be ba 0e 43 be
       -0.13872117 -0.12770514 -0.17950642 -0.19048586
0001d0 15 86 00 be 1a 3c e1 be 7c 8a 11 be ec 51 25 3e
       -0.12551148 -0.43991166 -0.14212984 0.16144532
0001e0 2c 50 3a be 36 44 7c 3e 7b 33 39 3c 09 b6 bf 3d
       -0.18194646 0.24635395 0.011303778 0.09360892
0001f0 eb bd d2 3d e6 99 37 3d 17 2a fb 3d bc 31 8e bd
       0.1029013 0.044824503 0.122638874 -0.0694308
000200 3d 98 41 be 34 b5 a3 3e 7c 72 21 3d db 7b 51 3e
       -0.1890573 0.31974185 0.03941582 0.20457403
000210 b5 cc 67 be ef 1d 47 bc ba 5f 61 3b 65 33 a4 be
       -0.22636683 -0.012153133 0.0034389333 -0.3207046
000220 a0 46 eb bd b4 20 b0 bc d9 df 8a be 78 49 90 bd
       -0.1148808 -0.021499969 -0.27123907 -0.07045263
000230 31 b1 78 bb d4 8f 89 be bb ca cc bd 97 cb 88 3e
       -0.0037947411 -0.26867545 -0.09999605 0.26717827
000240 44 27 fb 3d 67 93 5f 3e 6a d4 1d 3e 10 cd 46 3e
       0.12263349 0.21833573 0.15413061 0.19414163
000250 c2 88 33 3c f5 13 4a 3e 36 47 42 bd 17 e9 b6 bd
       0.010957899 0.19734176 -0.047431193 -0.08931177
000260 67 69 fd 3d 6a 2b 7a 3d 6f 81 26 bd 22 30 5b 3b
       0.123736195 0.06107656 -0.04065078 0.0033445437
000270 ad 62 b5 bd 0e da 8d 3d ed 7a 92 be 5c 48 8a be
       -0.088567115 0.06926356 -0.2860941 -0.2700833
000280 8f b9 63 bd b6 64 a6 3d 20 2a 29 be 25 48 ba 3d
       -0.055596884 0.08124678 -0.16519976 0.09095792
000290 d3 c1 02 bf 9a 1d ad 3d 02 d4 d0 bc 75 fe a8 3d
       -0.51077 0.08452912 -0.025491718 0.08251659
0002a0 99 5f 3d 3d 7f 7e 9d 3d 13 1f c6 be 47 1e 41 be
       0.046233747 0.07690143 -0.38695583 -0.18859206
0002b0 1d b2 17 bd f5 9a 7e be 63 a7 a7 3c e8 c7 60 3e
       -0.037035096 -0.24863799 0.020465558 0.21951258
0002c0 32 81 fe bc f4 a6 c1 3d 11 91 84 3d 16 da 35 3e
       -0.031067465 0.09455672 0.06472982 0.17758974
0002d0 1a 72 c5 bc 30 4a 1c 3d 85 8d aa be d2 3e 81 3e
       -0.02410226 0.03815669 -0.33311096 0.2524324
0002e0 58 f4 10 3d 65 df e2 bd 7f 3b 9a 3c 0a 3e 2f 3e
       0.035389274 -0.110777654 0.018827198 0.1711351
0002f0 c7 7c 13 bd 86 24 a2 3d 14 41 8e ba 7c b3 c3 bd
       -0.03600767 0.079171225 -0.0010853135 -0.09555718
000300 78 6d 08 be 55 0f f0 ba 77 0c 3b be 4c 20 8f bd
       -0.13323009 -0.0018315116 -0.18266474 -0.06988582
000310 a8 5d 97 be f6 d2 52 3e fc 79 4d 3e d3 36 db 3e
       -0.29563642 0.20588288 0.20066065 0.42815265
000320 23 f7 9d 3d 3f c8 68 3d d5 ba 87 be de b4 27 be
       0.07713153 0.056831595 -0.2650973 -0.16377589
000330 0a b9 24 be 43 df ea 3d c7 96 2f 3d 27 ef 76 3e
       -0.16086212 0.11468365 0.0428684 0.24114667
000340 0c 16 4d 3b 71 8c 2e bd 3d 63 83 3d 7c 59 ef 3d
       0.0031293659 -0.042614404 0.064154126 0.1168699
000350 f5 5c c5 bd b8 56 95 be 68 0b c6 bd fe c3 cc 3c
       -0.09636871 -0.29167724 -0.09670144 0.0249958
000360 01 fb 20 3d 7c 8f 44 3e 8c da 1c 3e d9 9f 31 3e
       0.039301876 0.1919536 0.15317744 0.17346133
000370 cc ee 12 3e 48 08 38 3e ae 5b 81 bc a8 03 00 be
       0.14348906 0.17971909 -0.015790787 -0.12501395
000380 78 6a 2d bc 22 61 93 3e 4d cd 91 bd ac f3 68 bd
       -0.010584466 0.28785044 -0.07119236 -0.05687301
000390 5d a2 65 3e 5a bc 37 3e 58 ce 42 bd b8 e5 b7 be
       0.22425218 0.17942944 -0.047560066 -0.3591745
0003a0 16 80 2b bd 18 14 ed 3d fb 63 05 3e 74 4e 4a 3e
       -0.0418702 0.11576098 0.13026421 0.1975649
0003b0 48 c6 08 3e 9f 5d 6a bd 31 30 db bc 0e f0 b1 3d
       0.13356888 -0.05721819 -0.026756378 0.08688365
0003c0 21 5c 9e bd ad 76 11 3e 8f 66 5c 3e e0 17 16 3e
       -0.07732416 0.14205427 0.21523498 0.14657545
0003d0 0d ee cd 3d 25 da 2f 3d fe 36 84 3d 78 fe 88 bd
       0.1005517 0.04293265 0.064558014 -0.06689161
0003e0 01 cd 22 3d 84 2d 1d bd 0d 10 e2 3c 89 36 0c bd
       0.03974629 -0.038373485 0.027595544 -0.034231696
0003f0 aa 33 f1 bd 90 73 ed bc 32 ae 2f be 84 63 18 3e
       -0.11777432 -0.028985769 -0.17156294 0.14881712

layer.2.bias f4 [64]
000000 5d f0 5a be 3d fd 99 bc 8d 5e 37 3e 54 85 07 3d
       -0.21380754 -0.018797511 0.17907162 0.033086136
000010 2a 1e 8a bd 40 f6 85 3d c7 b3 02 bd a5 57 c6 bd
       -0.067440346 0.06541109 -0.03190973 -0.096846856
000020 c0 21 12 be 76 6b 6d 3e e8 6d fb bd a7 24 3c 3e
       -0.14270687 0.23185524 -0.12276822 0.18373357
000030 a1 e6 dc bd 80 e2 89 bc dc 5a db bd 9a 17 e9 3d
       -0.107861765 -0.016831636 -0.107106894 0.11381455
000040 1a 09 aa 3e cb 3b 03 be 44 9c 0d bd f3 a1 e0 3d
       0.3321007 -0.12815778 -0.034572855 0.10968389
000050 68 d2 43 3e 70 9b c4 3e a4 f0 4f bd 57 e5 18 be
       0.19123232 0.3839984 -0.050766602 -0.14931236
000060 2d 8a 9e 3d c9 61 c1 bd d1 86 ca bd 7f b2 fe 3e
       0.07741199 -0.09442479 -0.098889954 0.49745557
000070 38 1d 87 3e 88 47 46 3c 19 18 bf 3b eb ef fa 3d
       0.2638948 0.012102015 0.00583173 0.12252792
000080 0c 4b c8 3d 92 2f 71 3e 7b cb 0a bd 6f c6 36 be
       0.09779939 0.23553303 -0.03388546 -0.17849134
000090 a0 f2 11 3d 3a 81 30 be 22 4a 59 be 01 94 c1 3e
       0.035631776 -0.17236796 -0.21219686 0.3780823
0000a0 b1 f2 4d 3e 52 fc 4b 3e 3d 76 7a 3e 91 b1 80 3d
       0.2011211 0.19920471 0.24459167 0.06283868
0000b0 ce 9e a4 bd ec a7 b3 3e 99 7b 9f bd 84 66 59 bd
       -0.08038102 0.35089052 -0.07787246 -0.053076282
0000c0 a9 03 b6 3e 3c bf af bd 5f b6 33 3e 3a 10 1e 3e
       0.35549667 -0.08581397 0.17550038 0.15435877
0000d0 7c e3 58 3e a4 0c e7 3d b1 f6 8f be 65 0d b4 bd
       0.21180528 0.11281708 -0.28117898 -0.08791617
0000e0 65 f9 91 bd d6 f3 df 3e bb 07 c6 3e 80 48 7c bd
       -0.07127646 0.4374072 0.38677773 -0.06159258
0000f0 8a 98 d9 bd f2 33 53 3e b2 c8 34 bd c5 63 be 3d
       -0.10624798 0.20625284 -0.04413671 0.09296373

layer.4.weight f4 [128, 64]
000000 d4 6f 1b be d1 b9 36 bd 21 81 e5 3e 82 78 13 3e
       -0.15179378 -0.044610802 0.4482508 0.14401439
000010 7c 06 13 3e 36 8c 85 be 47 35 43 3d 50 f1 bc bd
       0.14357942 -0.26083535 0.04765823 -0.09225714
000020 51 aa b9 3d df 1a 2f 3c b3 cf c2 3d f3 f0 5f 3d
       0.090656884 0.010687559 0.09512272 0.054673146
000030 bc d5 ec 3d 62 17 ce 3d 5c 2e b4 3d d2 01 6b bd
       0.11564204 0.10063054 0.08797905 -0.057374783
000040 1a f5 81 bd b6 66 4e be b2 52 d2 3e a9 d7 29 3e
       -0.063455775 -0.20156369 0.41078717 0.16586174
000050 0f 99 31 3d 6a d8 d5 bc 26 68 f7 bb 1b a4 3b 3e
       0.04335886 -0.02610417 -0.0075502573 0.1832432
000060 25 05 04 3e 39 0e 0f 3d d1 89 cc 3e a6 d0 31 bd
       0.12892587 0.034925673 0.39948896 -0.043411873
000070 f5 68 d9 3d a6 30 d8 3c 5b 72 d3 bb a6 d6 99 be
       0.10615722 0.026390385 -0.006452841 -0.30046576
000080 a1 e0 0b 3e bf c6 d3 3d 94 7c 3f 3e 04 f6 17 be
       0.13659908 0.10340642 0.18699867 -0.14839941
000090 b5 e1 c1 bd ad ae 81 3d 70 e0 82 bd 65 aa 6e bc
       -0.09466878 0.06332145 -0.06390464 -0.014566992
0000a0 f6 62 84 bc 2d a8 f4 3c 8c 6f a1 3d 15 f3 3d bc
       -0.01616047 0.029865349 0.07882604 -0.0115936
0000b0 8c 2a 30 3d 64 36 20 bd 04 8c 1c be 3d a0 7d 3e
       0.043009326 -0.03911437 -0.15287787 0.24768157
0000c0 fb 75 04 bb 50 96 27 bc fd 67 59 bd ae 2e 36 3d
       -0.0020211923 -0.010228708 -0.053077687 0.04447811
0000d0 13 fe 7f bd a2 3c e5 bd 2a 07 f5 bd df 16 b8 3d
       -0.062498163 -0.111932054 -0.11964257 0.08988737
0000e0 48 70 3e 3e 7a 33 ac bd b5 62 8c 3d 01 24 c3 3d
       0.1859752 -0.08408256 0.06854764 0.095283516
0000f0 93 76 12 be c7 fd 04 3f 57 ab 8a 3d ec 1c 81 3e
       -0.14303045 0.51949733 0.06770962 0.25217378
000100 b5 33 3f 3d 99 7e ff b9 d5 0f bd 3e 90 48 b5 be
       0.04668017 -0.00048731713 0.3692614 -0.35406923
000110 19 f8 36 3e c8 69 93 3e 03 dd 88 be 8f 23 36 bd
       0.17868079 0.28791642 -0.2673112 -0.044467505
000120 c5 bb 0b bd 87 45 05 be b4 0a 81 3d c8 4d 3b 3e
       -0.034114618 -0.13014804 0.063008696 0.1829139
000130 8b 41 97 bc dd cf 56 be cb b2 25 bd bb 71 07 3e
       -0.01846387 -0.20977731 -0.040453713 0.13226978
000140 72 d4 15 be d3 3c fa 3d 3f 8c 84 3e 14 1a b6 39
       -0.14631823 0.122186325 0.2588825 0.00034733175
000150 dd 31 f6 3c 7f be 96 3d bc b2 b4 3c 7b ac ea bd
       0.030053074 0.07360553 0.022057883 -0.11458679
000160 ef 7f ad bc 0f f0 61 3d ae 8e a3 3d d7 b6 1f bc
       -0.021179168 0.05516058 0.07986198 -0.009748182
000170 6d 08 65 3b 69 3d a1 3d 4d a7 db bd 0f 41 22 3d
       0.003494765 0.07873041 -0.107252695 0.039612826
000180 a7 29 13 3c dc 93 2c 3d c9 a2 0f be 49 d1 16 3d
       0.008982099 0.042133197 -0.14026941 0.036820684
000190 ee 77 8d 3d 4b b0 be 3c e0 85 a0 3d 3a 1d 85 3d
       0.069076404 0.023277422 0.07838035 0.06499715
0001a0 a7 3f 54 3e ec 08 4a bd 75 f3 f3 bc be 11 1f 3b
       0.20727406 -0.049324915 -0.029779175 0.002427205
0001b0 e8 2a f4 3d 0a d5 ba 3b 59 09 a4 3e 73 b5 19 3e
       0.11922246 0.0057016658 0.32038382 0.15010624
0001c0 4e 33 3f 3c ab 7d 7e 3e df e5 ff 3d 69 fd a0 bd
       0.011669947 0.24852626 0.12495016 -0.07860834
0001d0 d3 3f 95 3d 62 d8 e7 3d 17 e5 7a 3d e3 39 2e 3e
       0.07287564 0.113205686 0.061253633 0.1701427
0001e0 d2 b5 07 bd 21 76 27 3c 9a 2f c2 3d 62 67 3c be
       -0.03313238 0.010221035 0.094817355 -0.18398812
0001f0 c9 d8 46 3d 4b ad ba 3e 09 d7 87 3d ea 02 12 3e
       0.048546586 0.36460337 0.066328116 0.14258924
000200 48 9f b3 3c 50 06 57 bd ec ab a7 3e a9 df f2 be
       0.021926537 -0.052496254 0.32748353 -0.47436264
000210 8b d2 16 3e 0c 1b 8c 3e 24 12 9a bc ec bc 4f bd
       0.14728753 0.27364385 -0.018807478 -0.05071728
000220 1d 83 6f 3d a2 bf 79 bd 9e 4c 59 3a 7c 91 cd ba
       0.05847465 -0.06097377 0.000828931 -0.0015683617
000230 a1 c8 ed bc 56 78 2b be 7a 06 11 3a d5 ce 3e 3e
       -0.029026331 -0.16745123 0.0005532276 0.18633588
000240 03 86 93 bb aa 3b cb 3c 06 c5 45 3e 01 1f 8a 3d
       -0.0045020594 0.024808723 0.1931344 0.06744195
000250 d8 dd b0 3d 41 38 7d 39 b3 13 2f 3d 05 55 01 be
       0.08636063 0.00024148916 0.042743396 -0.12630089
000260 2b b1 8a 3e 01 36 a1 bd 86 87 8f 3e 17 30 7f be
       0.27088293 -0.078716286 0.28033084 -0.24920689
000270 0f 57 f8 3c 6a 59 2a 3e a8 09 e3 bb 8c 83 e1 3e
       0.03031495 0.16635671 -0.0069286413 0.44045675
000280 db 8d 07 3d bc 34 04 3d a8 1a 5d be a9 55 86 bc
       0.03309427 0.032276854 -0.215922 -0.016398268
000290 40 f3 8b 3e f1 f6 31 3d db 43 69 3b 66 0c d5 3d
       0.27334023 0.043448392 0.0035593424 0.104027554
0002a0 c3 dc a7 3d c1 f9 40 3c 7c 0a c8 bd b7 df da 3d
       0.08196404 0.011778296 -0.09767625 0.106872015
0002b0 09 c3 39 3e 55 3d dc bd bf ae 35 3e 43 a0 f9 3d
       0.18140806 -0.10753886 0.17742442 0.121887706
0002c0 41 2b 7d 3b ff 2b 5b bb 8f eb 73 3d a5 08 a6 bd
       0.0038630518 -0.0033442972 0.059550818 -0.081071176
0002d0 1c af a0 3d c5 31 df 3d 40 8c 22 bc 12 fe 6a 3e
       0.078458995 0.10898165 -0.0099211335 0.22948483
0002e0 b2 2a 33 3e 80 c6 c9 3d 0e 61 80 3d e4 0d d3 bd
       0.17496756 0.09852314 0.06268512 -0.10305384
0002f0 27 f7 03 bd 4c fc dd 3e 5a df 94 3d 0e 40 c4 3d
       -0.032218125 0.4335655 0.072691634 0.0958253
000300 9f 77 bb be 82 10 eb 3b a1 7c 9c 3e cf 55 cd 3d
       -0.366147 0.0071735987 0.30563834 0.10026132
000310 cd 34 73 bf 8f da 89 3e ce 3c c3 3c e3 bb ac 3c
       -0.9500244 0.2692456 0.023832705 0.021085685
000320 67 5e 63 bc 24 8d 26 3d 28 b0 c9 bd a7 41 21 bd
       -0.013877488 0.040661946 -0.09848052 -0.03936925
000330 f7 87 f0 bd 9c a3 fb 3d c7 8d 38 bd 09 2f d3 bc
       -0.11744683 0.122870654 -0.045057084 -0.025779264
000340 35 5c a2 3d 93 e7 91 3e a9 6a 39 3e 30 1d a3 3d
       0.07927743 0.2849699 0.18107094 0.079645514
000350 8e 0e f0 bd 10 30 a7 bc 76 8e 6e bd 53 05 83 bc
       -0.11721526 -0.02040866 -0.05824133 -0.01599375
000360 73 d0 9b 3c 24 0b 7a bd cb 0c 01 3e f7 78 9f be
       0.019020295 -0.06104578 0.12602536 -0.31146976
000370 b4 71 fd 3d bf ae 57 bd 8a 36 f3 3c 12 77 eb bd
       0.12375203 -0.052656885 0.029689092 -0.1149732
000380 5f d0 6b 3d 34 e6 0a 3e 69 46 e1 bd d5 c9 b1 bd
       0.057571765 0.13564378 -0.10999758 -0.086810745
000390 cf 66 82 3c d1 ea c6 be 6b 25 5b 3d 4f 98 10 bb
       0.015918164 -0.38851026 0.05350248 -0.002206344
0003a0 b6 d2 d3 3c 30 88 8f bd 7d 36 c1 bc 75 4e 85 bd
       0.02585731 -0.070083976 -0.023585552 -0.06509105
0003b0 d7 ef e5 bc 0c 8a c7 3d a5 33 6c bd ef a5 c7 3c
       -0.028068466 0.09743127 -0.05766644 0.024371115
0003c0 85 6d ce 3c 2c cb 96 be c5 ee 90 3d 83 d7 12 3e
       0.025198707 -0.29451883 0.07076792 0.14340024
0003d0 d7 5f 27 bd 0b 2f a6 bd 7e de 26 bd 24 e9 a3 be
       -0.040862884 -0.081144415 -0.04073953 -0.3201381
0003e0 17 b6 ea bd 77 37 07 bc 5c 6e e1 3d b5 dd da 3d
       -0.11460512 -0.00825297 0.110073775 0.106868185
0003f0 c5 42 2c be c9 86 b2 3e bd fe 93 3d 64 a0 cb 3d
       -0.16822346 0.34868458 0.07226322 0.099427015

layer.4.bias f4 [128]
000000 5f 20 b6 3d d8 7c 46 3d c0 17 c3 3d cb 10 75 3e
       0.08892893 0.048458904 0.09526014 0.23932187
000010 d3 08 0d be d3 a5 76 be 37 ac dd 3d 43 00 9f 3d
       -0.13772897 -0.24086694 0.10823863 0.07763722
000020 07 e7 24 3e a9 b8 4a 3e 94 df 92 3e 1b 4e e1 3e
       0.16103755 0.19797005 0.28686202 0.44004902
000030 66 1e 60 3e 06 a7 b0 3d 21 e2 82 3e 5d 0e 11 3e
       0.21886596 0.08625607 0.25563148 0.14165635
000040 d4 cb 7d 3e 95 5b 13 be a9 14 4c 3e f9 0f 5a be
       0.24784786 -0.14390405 0.19929756 -0.21295156
000050 26 98 e7 bd fe ab 35 3e 91 6c 4e 3e 72 3a b2 3d
       -0.11308317 0.17741391 0.20158602 0.08702554
000060 3b 10 0e 3e e7 35 f1 3c ef cc aa be 5e 8c 93 be
       0.13873379 0.029444648 -0.33359477 -0.2881803
000070 05 b2 64 3d 8e 1f fc bd bd 79 07 3e f9 0c 53 3e
       0.055833835 -0.12310706 0.13230033 0.20610417
000080 6f 0e a6 be 2c 0b 85 3e 3c c4 1e 3e bc a0 2d 3e
       -0.32432887 0.25985086 0.15504545 0.16955847
000090 d9 1d 01 bd 02 ad 8b 3d d2 93 98 3e 46 ba 9e 3e
       -0.031522606 0.06820108 0.29800278 0.3100149
0000a0 f3 1d 54 be 1f d1 a5 be ff fd 99 3d c8 eb 73 3e
       -0.2071455 -0.3238611 0.07519149 0.23820412
0000b0 4e 67 bb 3e e1 f8 67 3e 43 c1 17 bd 0a 02 53 3e
       0.36602253 0.22653534 -0.037049543 0.20606247
0000c0 b4 a0 0c 3e 38 fb 17 3e ad 93 3e 3e df a2 c4 3d
       0.13733178 0.14841926 0.18611021 0.09601378
0000d0 35 36 18 3e 51 6f 7c 3e 48 66 c3 3d 7f 66 07 3e
       0.14864428 0.24651839 0.09540993 0.13222693
0000e0 9d 47 bd 3e 6e 27 0f be 96 ec 9a 3e 6a dc 95 bd
       0.369687 -0.13979885 0.30258626 -0.07317431
0000f0 17 a5 24 bd 23 f3 50 3d 33 70 4d 3e ac 8b df bd
       -0.040196504 0.051013123 0.20062332 -0.10915312
000100 65 85 ce bd 44 c5 30 3e 26 33 3b 3e f7 e5 a7 be
       -0.10084037 0.17262751 0.1828123 -0.32792637
000110 37 4e 58 3e f6 ab 0b 3d 53 f1 e4 3e 47 60 49 be
       0.21123587 0.03409954 0.44715366 -0.19665633
000120 28 c4 ec 3d 49 35 7a 3e b6 1e dd bc 54 a4 56 3e
       0.11560851 0.24434389 -0.026992183 0.20961124
000130 cc 85 84 3d 70 49 81 3e c9 dd 96 3e ea 65 31 3e
       0.06470832 0.2525134 0.29466084 0.17324033
000140 db 33 14 3e ab 61 5a 3e 8b d5 1f 3d 96 6d 83 3d
       0.14472906 0.2132632 0.03902201 0.06417386
000150 49 d0 54 3e a5 a6 8e 3d 08 1d 74 3e 47 68 6b 3e
       0.2078258 0.06965379 0.238392 0.22988997
000160 07 bd f2 3d 88 b2 a2 3d 8d 73 04 3d ea fb a9 3c
       0.1185246 0.079442084 0.03233676 0.020750005
000170 97 8a be 3d 7d 3f 42 3e 49 53 bf 3e 1d 83 58 3e
       0.09303778 0.18969531 0.3736823 0.21143766
000180 5f 9d 09 3e 79 e0 53 3e 92 dd ad 3d 25 03 c9 bd
       0.13438939 0.20691098 0.08489527 -0.09815053
000190 5b 92 08 be 57 1d a3 3e 7e de 67 3d 8f ab a4 3c
       -0.1333708 0.31858322 0.05660867 0.020101337
0001a0 33 9e e8 bc f4 f5 34 3e 31 e5 31 3e ea a8 d5 3d
       -0.028395748 0.17671949 0.17372586 0.104326084
0001b0 ff 07 e7 3d 4d d4 97 3e ac 94 55 3e b9 f0 a7 3d
       0.11280822 0.2965416 0.20857495 0.08200211
0001c0 30 0d 3f 3e 60 32 51 3e 60 8d 29 bb ba 50 50 3c
       0.18657374 0.20429373 -0.002587162 0.012714559
0001d0 94 1f 72 3e df d5 d5 3c 43 ff 9a 3d d5 f0 60 3e
       0.23644859 0.026102958 0.075682186 0.2196687
0001e0 5e 5a 97 3e 91 4c ad be 62 1d b4 3d 17 41 70 3d
       0.29561132 -0.33847478 0.08794667 0.058655825
0001f0 b0 70 85 3e 8a 5d 77 3d 7b 78 98 3d b1 f8 25 3d
       0.26062536 0.06039194 0.07444855 0.040520374

layer.6.weight f4 [8, 128]
000000 0a a8 82 bd 0d d2 ca be 37 e1 d3 be 1c 69 82 3e
       -0.06379707 -0.3961338 -0.41382763 0.25470817
000010 4c 32 c0 bc 37 5c 06 be 74 2f 8c be 7a 66 2b 3f
       -0.023461483 -0.13121115 -0.27379954 0.6695324
000020 a6 c9 e9 be 0f 06 c1 bd d2 8e 55 3d 08 f1 0a 3e
       -0.45661658 -0.09424984 0.052138157 0.13568509
000030 57 3d e4 3d de d0 96 3b 2d 5e 88 3e ae 91 2f 3e
       0.11144512 0.0046025356 0.2663435 0.17145416
000040 7a d2 ba 3d ce e4 33 be 1d 79 57 be fc 2c 23 be
       0.091221765 -0.17567751 -0.21042295 -0.15935129
000050 99 b9 21 be 1b 3e 2c 3d 27 6a 9a 3e 6e a7 8c bd
       -0.15793456 0.042051416 0.30159113 -0.06867872
000060 20 70 a3 be cb e4 32 3f c5 2b e8 bd 0b 23 0b be
       -0.31921482 0.6988036 -0.113364734 -0.13587587
000070 b3 11 db 3b 58 0f 05 be 12 67 28 be a1 fe 1b 3e
       0.0066854595 -0.12994134 -0.16445568 0.15233852
000080 19 7a e4 bd 03 d3 dd be c9 ac 2c 3f 97 55 33 3e
       -0.11156101 -0.43325052 0.6745115 0.17513119
000090 64 37 51 3e 22 6f cb be ab 3c 15 3e bf c0 18 3e
       0.20431286 -0.39733225 0.14573924 0.14917277
0000a0 54 f6 da 3f 17 2b 75 be c9 84 8e be f9 e4 d7 be
       1.7106423 -0.23942219 -0.27835682 -0.4216688
0000b0 5f bd 63 3e 9b 82 09 bf f9 43 83 be 2d 77 28 3e
       0.22240208 -0.53714913 -0.25637797 0.16451712
0000c0 15 61 be 3d d9 1b 8f 3e 0f b9 a5 3d 4d d0 cb be
       0.09295861 0.27950934 0.08091938 -0.39807358
0000d0 50 e8 49 3e c5 0c 02 3d 51 0e d7 3d de 37 91 be
       0.19717526 0.03175046 0.105007775 -0.28362936
0000e0 8d f1 7b 3d 42 19 e6 bd d5 33 a2 be b9 b8 cb bc
       0.061509658 -0.11235286 -0.3168017 -0.024868356
0000f0 6a bc 8a 3c a3 80 14 bf 38 d5 20 bf 0d e2 4d bd
       0.016935546 -0.58008784 -0.62825346 -0.050264407
000100 42 c0 a9 be 8c 09 87 3e 73 b3 3a be 32 19 3f be
       -0.33154494 0.2637447 -0.18232517 -0.18661955
000110 bc ec b6 3d 44 df 86 3e c9 27 0a 3e bb fd bb bd
       0.08931872 0.26342213 0.1349174 -0.091792546
000120 1f 5c 9d 3e 86 52 3c 3e 4f ab 65 be 6c dd b8 be
       0.30734345 0.18390855 -0.2242863 -0.3610643
000130 ed 69 aa 3e 51 c1 b8 3e 76 28 d6 3d 27 67 be bd
       0.3328394 0.3608499 0.10456936 -0.092970185
000140 3c ce b8 3d be 81 40 3e 3e dd 33 be 07 f7 91 be
       0.09023711 0.18799493 -0.17564866 -0.2850878
000150 41 13 87 3d 90 6e 8d 3e 9c f4 49 3e d5 e5 ad 3e
       0.06595469 0.27623415 0.19722217 0.3396441
000160 72 e6 83 3e 8d d9 80 be 35 64 55 be 85 fc d2 3c
       0.25761753 -0.25165978 -0.20839007 0.025755176
000170 bc 84 b5 3e 04 1f 5f 3e f8 7c 4a 3e a8 0e 81 3d
       0.3545283 0.21789175 0.19774234 0.063016236
000180 38 65 b2 3e 17 5d 1f 3d 27 8a 0b bd 0e 54 23 3e
       0.3484285 0.038907137 -0.0340673 0.15950033
000190 7b 30 45 be ed 9b 12 3e 29 56 4d 3f de 1c 0a be
       -0.19256775 0.14317293 0.80209595 -0.13487574
0001a0 f5 3c cc bd ca 39 87 3e 21 e1 49 bd 04 db bf be
       -0.09972564 0.26411277 -0.049286965 -0.37471783
0001b0 d4 b6 cf be 40 e4 b2 be ea f2 36 bf c1 3f f1 3c
       -0.40569174 -0.34939766 -0.7146441 0.029449346
0001c0 06 78 13 3d 7c 82 93 be 9a 0f eb 3e 41 cd d6 3e
       0.036003135 -0.2881049 0.4591034 0.4195347
0001d0 ca e6 e6 3d 65 3f f8 bd 43 cb ce be 31 73 a5 be
       0.11274488 -0.121214665 -0.4038945 -0.32314447
0001e0 07 3f 02 3e 2f 33 a3 bd bf f6 de bc 12 92 bd be
       0.12719356 -0.07968747 -0.027217267 -0.37025505
0001f0 ba 34 75 3e 69 45 3e 3f 16 e0 3f 3f 0c 28 c0 3f
       0.23945895 0.7432466 0.74951303 1.5012221
000200 2d 7b cf 3d 3c 06 f3 3d 8f ab ed 3d ca 5c a7 3e
       0.10130916 0.118664235 0.11604988 0.3268798
000210 09 71 9d be bf 4b 36 be 96 2c 68 3e e1 da 23 be
       -0.307503 -0.17802332 0.22673258 -0.16001464
000220 be 28 a6 3e be b4 d3 be cf 9a 33 bf 9b ee c9 3e
       0.3245296 -0.41348833 -0.70158094 0.39439854
000230 0a a7 bc 3e d2 76 d9 be f8 f0 40 be 94 48 be 3e
       0.3684619 -0.42473465 -0.18841922 0.37164748
000240 1c 7b 0d 3e 54 c3 ff be 7d 1c 00 bf 38 5f a7 3c
       0.13816494 -0.4995371 -0.5004347 0.020431146
000250 20 5a d4 bd d9 e7 e3 be d2 af 8a be 74 07 18 bf
       -0.103687525 -0.44512823 -0.27087265 -0.5938637
000260 41 2d 88 3e 88 0c ed be d8 f8 da bd 0d 93 0c be
       0.26597026 -0.46298623 -0.106919944 -0.1372797
000270 83 d5 2c bd b8 6e 9e bd f7 c9 3a be c8 46 4f 3e
       -0.04219581 -0.07735962 -0.18241106 0.20241845
000280 96 5e 4f be 34 14 08 3e 08 47 41 be e7 51 c9 be
       -0.20250925 0.13288957 -0.18874753 -0.393203
000290 90 dd 11 3e 32 40 48 3e 28 36 ae 3e dc 35 82 3e
       0.14244676 0.19555739 0.34025693 0.25431716
0002a0 13 cc e2 bd 69 ed cb bd 7c 47 fe be 3b b3 08 3e
       -0.1107408 -0.09957392 -0.49663913 0.13349621
0002b0 63 1a d3 3e 49 57 1b 3e 8f 69 33 bd ac ee 31 bf
       0.4123107 0.15170015 -0.04380184 -0.6950481
0002c0 10 0f df be af a6 84 be 64 3b 11 3e ed 6c 58 3e
       -0.4356618 -0.2590842 0.14182812 0.21135302
0002d0 ba a0 a6 3e 32 6a bb 3e 90 b7 8a 3d 47 73 80 3e
       0.325445 0.36604458 0.06773293 0.2508795
0002e0 df a2 53 3e 3b 28 37 be 3c e9 a6 3e 2d 9d 31 3e
       0.20667599 -0.1788644 0.3259982 0.17345114
0002f0 69 56 8b bd 3a 35 af 3e bd f5 c8 3e 06 b0 72 be
       -0.06803591 0.34220296 0.39249983 -0.2369996
000300 f4 bd b1 3f f0 f8 a3 3d a8 e6 81 3e 50 73 a3 bd
       1.3886094 0.080064654 0.2537129 -0.079809785
000310 69 df fe 3d e1 ec 67 3e c2 9e 94 3e 4a b3 d8 3f
       0.12444956 0.22648956 0.29027373 1.6929715
000320 8f 04 3d 3e 31 9a 07 3e ad c6 5d be a1 b9 01 3e
       0.1845877 0.13242413 -0.2165782 0.12668468
000330 1a fc b4 3e a0 c4 16 3e bc 52 23 3e a1 61 fe 3e
       0.35348588 0.14723444 0.1594953 0.4968386
000340 14 98 53 3e 22 d0 b1 be 2e f7 b2 be e8 1f 21 bf
       0.20663482 -0.34729105 -0.34954208 -0.6293931
000350 c2 84 00 bf db 9b ea be 64 3b 09 3e 64 5c 58 3e
       -0.5020257 -0.45822033 0.13401562 0.21128994
000360 ba b1 6a bf e1 0b d2 be 90 1a 14 be c1 17 a1 bd
       -0.9167744 -0.41024688 -0.14463258 -0.07865859
000370 66 2c 0c be 3c 23 4f 3e 6e 1b 15 3e 42 3b 3c 3d
       -0.13688812 0.20228285 0.14561245 0.04595495
000380 bc 67 5e be 96 15 17 bf bc f2 39 bf 7b db 88 bd
       -0.21719259 -0.5901731 -0.7263601 -0.066824876
000390 91 26 e2 3d db 4c 04 bf 08 aa a4 be 53 0d 26 be
       0.11042512 -0.5167977 -0.32160974 -0.1621602
0003a0 d5 e2 c1 3d 10 e3 bb be 72 4a 50 bf 1b 0e 28 bf
       0.09467093 -0.36696672 -0.81363595 -0.65646523
0003b0 f7 65 1d 3f 9e eb 57 3e d9 4c 9e 3e fb 60 0e bf
       0.6148371 0.21085975 0.30918005 -0.5561673
0003c0 02 db 65 bf ee b0 37 3e f6 bc 78 bd 6b ee d3 3f
       -0.89787304 0.17938587 -0.060727082 1.6557134
0003d0 08 d9 d8 be 2d a9 2c bf df cb 26 3c 7f c0 47 3e
       -0.42353082 -0.6744564 0.010180443 0.19507025
0003e0 bd 52 d2 bd 1b 8b 1b be f1 9d 80 ba b8 cc 1a 3f
       -0.10269687 -0.15189783 -0.0009812695 0.60468626
0003f0 18 e8 f8 be 3b f9 8f be 61 15 f4 bd d0 43 8e bc
       -0.48614573 -0.28119835 -0.1191814 -0.01736632

layer.6.bias f4 [8]
000000 ea a3 2c 3e 65 45 01 3e 59 23 24 3b 0c 18 34 3e
       0.16859403 0.12624128 0.0025045483 0.17587298
000010 09 de b0 bc f2 e1 90 bb b8 28 b9 3b 5e 42 26 bd
       -0.02159025 -0.004421466 0.005650606 -0.040590636
