final/save/1l_0.95_200_morelayer/save0_7500.pth (torch_old, 50952 bytes, 8 tensors)

layer.0.weight f4 [32, 28]
-0.15359604 0.005829068 -0.13330445 0.06251378 -0.009703707 0.21810123 0.021919709 0.07602643
-0.17644379 0.043152917 -0.060006518 0.15340474 0.13386643 -0.042262472 0.026139772 0.018026484
0.017409584 0.058288485 0.2388466 0.24352832 0.10636443 -0.19672447 0.03156625 -0.1197937
0.059226636 -0.038199462 -0.11226682 0.08879436 -0.0020930634 -0.05386703 -0.12271621 -0.05330706
-0.09080522 0.03774895 0.17838866 -0.01471464 0.17589743 -0.08325683 0.15924424 -0.09620611
-0.16657451 -0.13623172 0.08874131 0.28984675 0.16506559 -0.046502825 0.019384148 -0.22247106
0.16853568 0.24182202 -0.03860007 -0.086491935 -0.06524549 0.16697377 -0.039176904 0.06268839
0.102233216 -0.039883513 0.18498425 0.18088368 0.12605219 -0.07777496 -0.12787497 0.06576167
-0.015611967 0.055447925 -0.031550985 0.060358655 -0.09456928 0.11645663 0.0099087935 0.12219426
-0.04121923 0.0918347 -0.021524169 0.024145657 0.18667838 -0.028062457 0.22057872 0.15589674
-0.072035916 -0.09864145 0.042615306 0.045491096 -0.1916345 0.19348107 0.11317341 -0.15502836
-0.09660786 -0.044992972 -0.07198253 0.20315081 0.14003825 -0.060844563 0.15831357 0.050968774
-0.024851523 0.048008256 -0.095165096 0.24128972 0.10658489 -0.07549681 0.00944938 0.16320036
0.05327289 0.23244038 0.19561253 0.10650709 0.080647044 -0.17650361 -0.09957241 -0.11554713
-0.043528028 -0.1886148 -0.14853843 0.24388936 0.11971226 -0.23408651 -0.00850905 0.08683442
-0.06263089 -0.028482404 0.20878509 0.121839136 -0.1829353 -0.13878223 -0.02129531 -0.026762733
0.09173666 0.12883665 0.101709865 -0.19010295 -0.08493452 -0.03878883 0.15475655 0.12566295
0.097209595 -0.07714372 -0.044939328 -0.10208282 0.07583888 0.2341595 -0.16773246 -0.0021221624
-0.15548399 -0.15796454 0.07987314 -0.121103235 -0.06831255 0.10825882 -0.081815936 -0.10777669
-0.071161315 -0.015947487 0.038579863 -0.24668214 -0.21213847 -0.17316644 0.09143517 -0.08943724
0.09025592 0.14421761 0.16437054 0.25795856 0.046409737 -0.094347365 0.023150561 0.06929234
0.22158565 0.22871388 0.13186514 0.108806655 0.13583194 0.18650544 0.13760525 0.13182914
0.11782007 -0.09112285 0.119842246 0.09012516 0.10341768 -0.0008135801 0.092089735 -0.08549134
0.11596554 0.16666965 -0.0038900978 0.18339103 -0.08262424 0.036067408 -0.06604488 0.14573418
-0.23094414 -0.19502458 -0.106082514 -0.032761108 0.17150679 0.23391643 -0.088957846 -0.050908193
0.086602956 0.012295935 0.13706626 0.14765066 0.19283801 -0.05290408 -0.13512626 -0.07743746
0.08345235 -0.090240315 -0.00046080654 -0.115870655 -0.114990026 -0.012864254 -0.07042635 -0.017878179
0.18436955 -0.07726533 0.07088842 -0.018966403 0.031934414 -0.014944354 0.00968144 0.12460044
0.2102635 -0.08013677 0.14260298 0.13367023 -0.07186287 0.2590615 -0.013035747 0.018854259
-0.0025790378 -0.09972555 -0.17822377 -0.21927609 -0.046346027 0.11995776 0.16463086 -0.11646963
0.030955873 -0.19607106 0.07680181 -0.07194503 -0.13707043 0.0452108 0.11239707 -0.1316562
0.03498106 0.05243831 -0.018798962 -0.05730774 0.022400716 0.11462422 -0.08708928 -0.15061888
00000000: 4848 1dbe c401 bf3b f680 08be 3a07 803d
00000010: 4cfc 1ebc ee55 5f3e f690 b33c bfb3 9b3d
00000020: aead 34be 1dc1 303d 65c9 75bd 2216 1d3e
00000030: 4814 093e 6a1b 2dbd 1323 d63c 47ac 933c
00000040: 8b9e 8e3c e8bf 6e3d 3494 743e 7d5f 793e
00000050: 98d5 d93d 2472 49be 9d4b 013d 6656 f5bd
00000060: a197 723d 0a77 1cbd 26ec e5bd d1d9 b53d
00000070: c72b 09bb ada3 5cbd a352 fbbd 8158 5abd
00000080: 16f8 b9bd a59e 1a3d 84ab 363e ac15 71bc
00000090: 751e 343e 8f82 aabd ec10 233e b607 c5bd
000000a0: 8292 2abe 5480 0bbe 01be b53d cb66 943e
000000b0: f406 293e bf79 3ebd 81cb 9e3c 74cf 63be
000000c0: 9e94 2c3e 31a0 773e 1b1b 1ebd af22 b1bd
000000d0: 6d9f 85bd 2cfb 2a3e f677 20bd c562 803d
000000e0: a65f d13d e55c 23bd 836c 3d3e 9239 393e
000000f0: d313 013e 7a48 9fbd a8f1 02be 0eae 863d
00000100: 56c9 7fbc 5d1d 633d 9b3b 01bd a33a 773d
00000110: 8aad c1bd d080 ee3d 7e58 223c fc40 fa3d
00000120: 7fd5 28bd d513 bc3d 7453 b0bc 1dcd c53c
00000130: 9e28 3f3e 3de3 e5bc 63df 613e 65a3 1f3e
00000140: 9187 93bd 8704 cabd 638d 2e3d df54 3a3d
00000150: d63b 44be e71f 463e 76c7 e73d c1bf 1ebe
00000160: 57da c5bd 8d4a 38bd 946b 93bd c406 503e
00000170: 3066 0f3e 2638 79bd f41c 223e a2c4 503d
00000180: 6c95 cbbc 4ea4 443d ebe5 c2bd a714 773e
00000190: 2e49 da3d 129e 9abd 93d1 1a3c ff1d 273e
000001a0: ad34 5a3d da04 6e3e a74e 483e 6420 da3d
000001b0: 472a a53d 5dbd 34be 9fec cbbd f9a3 ecbd
000001c0: 724a 32bd 3d24 41be 751a 18be 22be 793e
000001d0: b42b f53d 60b4 6fbe 8b69 0bbc 3fd6 b13d
000001e0: a044 80bd ee53 e9bc c2cb 553e cc86 f93d
000001f0: 6453 3bbe ee1c 0ebe 8173 aebc 853d dbbc
00000200: 6ee0 bb3d c1ed 033e 434d d03d 59aa 42be
00000210: 26f2 adbd 09e1 1ebd 8078 1e3e caad 003e
00000220: d315 c73d 87fd 9dbd 4d12 38bd cc10 d1bd
00000230: 6a51 9b3d 82c7 6f3e 0fc2 2bbe fa13 0bbb
00000240: 3237 1fbe 75c1 21be 8794 a33d f904 f8bd
00000250: 73e7 8bbd cdb6 dd3d 1d8f a7bd 06ba dcbd
00000260: 06bd 91bd 4ea4 82bc eb05 1e3d 3e9a 7cbe
00000270: d43a 59be 8b52 31be 5d42 bb3d df2a b7bd
00000280: 19d8 b83d c8ad 133e c050 283e 2513 843e
00000290: 2318 3e3d 3139 c1bd 3fa6 bd3c 24e9 8d3d
000002a0: 59e7 623e f933 6a3e a807 073e 06d6 de3d
000002b0: 8717 0b3e 48fb 3e3e 64e8 0c3e 38fe 063e
000002c0: a64b f13d 9e9e babd da6f f53d 8a93 b83d
000002d0: a6cc d33d 7046 55ba 8b99 bc3d 1516 afbd
000002e0: 577f ed3d 73ab 2a3e 03f1 7ebb dcca 3b3e
000002f0: e636 a9bd 6bbb 133d 8a42 87bd 573b 153e
00000300: 9f7c 6cbe 86b4 47be ca41 d9bd 8330 06bd
00000310: 7a9f 2f3e ca87 6f3e 882f b6bd 1c85 50bd
00000320: e45c b13d e474 493c 195b 0c3e bc31 173e
00000330: 5477 453e f3b1 58bd 8a5e 0abe 8897 9ebd
00000340: 11e9 aa3d eacf b8bd 6898 f1b9 984d edbd
00000350: e47f ebbd 98c4 52bc b13b 90bd 4275 92bc
00000360: 5fcb 3c3e 493d 9ebd f32d 913d 6e5f 9bbc
00000370: a9cd 023d 2ad9 74bc e79e 1e3c 842e ff3d
00000380: 514f 573e bf1e a4bd 8406 123e d9e0 083e
00000390: d72c 93bd b5a3 843e e393 55bc 3f74 9a3c
000003a0: 1305 29bb e93c ccbd 4b80 36be e989 60be
000003b0: 55d5 3dbd 6aac f53d fe94 283e a187 eebd
000003c0: 2c97 fd3c dac6 48be 444a 9d3d ea57 93bd
000003d0: 315c 0cbe f62e 393d 6f30 e63d e2d0 06be
000003e0: 4d48 0f3d 8ec9 563d 4800 9abc 85bb 6abd
000003f0: b581 b73c 1ac0 ea3d dd5b b2bd d63b 1abe

layer.0.bias f4 [32]
-0.034711465 -0.13985582 -0.05016062 -0.030455902 -0.04665033 0.20119138 -0.0245895 0.00912102
-0.11349063 0.11200745 0.12900418 -0.009656578 0.18065709 0.03543045 0.10341812 0.039949678
0.07282489 0.047479257 -0.05631325 -0.0292387 0.15328644 -0.13112111 -0.04228339 0.2622992
-0.1313844 -0.046232365 0.12159931 -0.116502404 0.06280272 0.09487803 -0.0019610126 -0.05765316
00000000: 9c2d 0ebd 5d36 0fbe 3975 4dbd a87e f9bc
00000010: 6b14 3fbd 1d05 4e3e eb6f c9bc 5570 153c
00000020: c76d e8bd 2964 e53d ac19 043e a036 1ebc
00000030: 2cfe 383e 851f 113d e1cc d33d 46a2 233d
00000040: 3725 953d 9c79 423d b9a8 66bd 0086 efbc
00000050: 1ff7 1c3e 9d44 06be 5931 2dbd 154c 863e
00000060: a289 06be 265e 3dbd 0f09 f93d d098 eebd
00000070: b69e 803d 6a4f c23d 5584 00bb b825 6cbd

layer.2.weight f4 [64, 32]
-0.013905017 0.22256847 0.23398434 -0.089155 0.3063905 -0.11131472 -0.039107203 -0.15611753
0.11863439 0.0687124 -0.0055055427 0.22224137 -0.16885751 0.25795716 0.08545895 0.1346132
0.029492171 -0.027540015 -0.103119045 0.012725049 -0.1024327 0.06966665 -0.0363056 -0.24316506
0.0071302056 0.20356528 0.059661694 -0.24523243 -0.019473597 -0.17046459 0.03913328 0.11749167
0.023350703 0.05546899 0.15835775 0.13234115 0.017676821 -0.031195587 -0.114788614 6.1987506e-05
0.07538004 -0.0992203 -0.06781974 -0.1326195 0.04284439 -0.10910918 0.18847522 0.107454196
0.03266089 -0.016854066 0.03910302 -0.018423544 0.20694867 -0.12074225 -0.14637782 0.17276749
-0.12705214 0.01705967 -0.0780264 -0.10515767 -0.031699844 0.058997426 -0.16421431 0.06770895
0.1428165 -0.020244693 -0.049212296 0.117851876 -0.09627157 -0.23035061 -0.0018253175 -0.31761944
0.028799178 -0.17246757 0.19694208 -0.17170118 0.14897238 -0.1740162 -0.24397005 -0.24209231
0.1326931 0.04098944 -0.0074878363 -0.20986588 0.12933894 -0.090444565 0.12245612 0.043272283
-0.18861817 -0.2473396 -0.117657214 -0.030471578 -0.18820834 -0.20195296 0.042809375 -0.0067901583
0.0017186919 -0.00028252296 0.17193606 -0.09880636 -0.25274986 0.00905425 0.06772477 0.34032986
0.021299003 -0.035797354 -0.3019097 -0.13535327 -0.0083033405 -0.027203126 0.038290784 0.17191726
-0.13056388 -0.108454324 -0.14209206 -0.13693501 -0.12443258 -0.3967395 -0.08666823 0.16876517
-0.11657887 0.23830377 -0.019947717 0.073133655 0.09194282 0.03889154 0.12484 -0.013961827
-0.1831541 0.21888469 0.05930704 0.17625174 -0.12641035 -0.013245917 0.039919652 -0.23751514
-0.12785155 -0.06336668 -0.15655671 -0.108349174 0.00858897 -0.21704961 0.04831133 0.25477356
0.14027058 0.12920582 0.053517357 0.13665411 0.015883947 0.061007734 -0.05148781 -0.050469033
0.111463636 0.07377565 -0.018231526 0.052974533 -0.07835477 0.058046773 -0.23239285 -0.23338504
-0.025613803 0.07345244 -0.122572966 0.0731684 -0.19114463 0.1328676 -0.0500274 -0.057808373
0.029696053 0.004945552 -0.19660386 -0.05507765 -0.042772543 -0.2283738 -0.046509698 0.17809491
-0.03526539 0.08854331 0.035082985 0.16186605 -0.03610718 0.06523699 -0.2501333 0.2479741
0.047338612 -0.11974963 0.012801016 0.10178869 -0.022494385 0.048599288 -0.065311685 -0.058070946
-0.09887721 -0.04206289 -0.19661725 -0.027495224 -0.17381622 0.12389389 0.18708467 0.29560226
-0.04353076 0.023370164 -0.20521545 -0.14283454 -0.14097275 0.03773676 0.08705343 0.22200377
0.049005635 0.003940216 0.036465827 0.093591966 -0.070378445 -0.29153696 0.021829791 0.036094647
-0.011866403 0.14420845 0.16454923 0.19765154 0.08509632 0.13784657 -0.031284686 -0.07792021
-0.037380494 0.2817624 -0.06927486 -0.075538695 0.1777894 0.18365225 -0.03963462 -0.2162892
0.041786753 0.07125019 0.06696384 0.18152955 0.12310092 -0.0580581 -0.031045163 0.0999172
-0.10915562 0.15082432 0.24523814 0.14105622 0.08441178 0.060778014 0.051094897 -0.08615866
0.028421763 -0.016127165 0.04427416 -0.042333756 -0.088678226 -0.011829708 -0.16659847 0.12576783
00000000: ded1 63bc fde8 633e 9799 6f3e e696 b6bd
00000010: 37df 9c3e f9f8 e3bd e02e 20bd 46dd 1fbe
00000020: 96f6 f23d 16b9 8c3d d767 b4bb 3e93 633e
00000030: fce8 2cbe f612 843e 1a05 af3d 0bd8 093e
00000040: 9199 f13c 999b e1bc 1430 d3bd b97c 503c
00000050: 3cc8 d1bd 63ad 8e3d 2eb5 14bd 4300 79be
00000060: 80a4 e93b 6b73 503e d25f 743d 361e 7bbe
00000070: 1887 9fbc 458e 2ebe 384a 203d 799f f03d
00000080: f949 bf3c 7433 633d 8928 223e 7084 073e
00000090: fbce 903c e38d ffbc 4b16 ebbd 4aff 8138
000000a0: da60 9a3d 0334 cbbd 13e5 8abd 68cd 07be
000000b0: 997d 2f3d a274 dfbd a6ff 403e f210 dc3d
000000c0: 6dc7 053d 8a11 8abc 7d2a 203d f9ec 96bc
000000d0: 5aea 533e b647 f7bd 11e4 15be f6e9 303e
000000e0: f519 02be b9c0 8b3c 4ecc 9fbd e85c d7bd
000000f0: b2d7 01bd 49a7 713d cc27 28be fdaa 8a3d
00000100: 7d3e 123e 33d8 a5bc d592 49bd 535c f13d
00000110: 072a c5bd 08e1 6bbe 7e3f efba 049f a2be
00000120: 41ec eb3c 579b 30be 2fab 493e 6fd2 2fbe
00000130: 378c 183e 4d31 32be 49d3 79be 0ce7 77be
00000140: b3e0 073e 8be4 273d 865c f5bb 15e7 56be
00000150: 6d71 043e 003b b9bd 46ca fa3d 473e 313d
00000160: 1f25 41be 9846 7dbe 44f6 f0bd 889f f9bc
00000170: b0b9 40be c2cc 4ebe e258 2f3d fa7f debb
00000180: bb45 e13a 971f 94b9 0210 303e fd5a cabd
00000190: 6e68 81be 4758 143c 49b3 8a3d b73f ae3e
000001a0: 3f7b ae3c 3fa0 12bd e893 9abe 0c9a 0abe
000001b0: bc0a 08bc 17d9 debc ccd6 1c3d 140b 303e
000001c0: 8ab2 05be 4d1d debd 9580 11be b138 0cbe
000001d0: 82d6 febd 7121 cbbe 1d7f b1bd c7d0 2c3e
000001e0: e7c0 eebd e705 743e 6569 a3bc 19c7 953d
000001f0: 844c bc3d bc4c 1f3d 1dac ff3d 26c0 64bc
00000200: c08c 3bbe 4f23 603e f0eb 723d 567b 343e
00000210: b771 01be 6705 59bc ca82 233d 2b37 73be
00000220: 84eb 02be 64c6 81bd 6750 20be 2ce6 ddbd
00000230: c0b8 0c3c 4142 5ebe 1ae2 453d ae71 823e
00000240: 17a3 0f3e 884e 043e 0435 5b3d 0eef 0b3e
00000250: 0d1f 823c 3fe3 793d e2e4 52bd 9eb8 4ebd
00000260: 0c47 e43d b017 973d 485a 95bc d3fb 583d
00000270: 7778 a0bd 74c2 6d3d 64f8 6dbe 7dfc 6ebe
00000280: 0ad4 d1bc 3c6e 963d 8907 fbbd 50d9 953d
00000290: 6bbb 43be 720e 083e 88e9 4cbd 79c8 6cbd
000002a0: 2345 f33c 4c0e a23b 8652 49be 1a99 61bd
000002b0: 4332 2fbd d2da 69be f480 3ebd 835e 363e
000002c0: 7172 10bd 3256 b53d 2db3 0f3d 37c0 253e
000002d0: 1fe5 13bd f99a 853d 7911 80be ecec 7d3e
000002e0: 22e6 413d 4b3f f5bd 5abb 513c 9776 d03d
000002f0: 2546 b8bc 0c10 473d 22c2 85bd cddb 6dbd
00000300: 2280 cabd 234a 2cbd 0856 49be aa3d e1bc
00000310: e1fc 31be 14bc fd3d 2093 3f3e 2e59 973e
00000320: 4f4d 32bd c972 bf3c 0024 52be 3843 12be
00000330: 295b 10be dc91 1a3d 1249 b23d f554 633e
00000340: 22ba 483d ed1c 813b 315d 153d 25ad bf3d
00000350: 9322 90bd 5544 95be 64d4 b23c fbd7 133d
00000360: 4d6b 42bc 61ab 133e 987f 283e 2a65 4a3e
00000370: fb46 ae3d a727 0d3e 5f24 00bd a294 9fbd
00000380: 4a1c 19bd 2943 903e fadf 8dbd 08b4 9abd
00000390: 6d0e 363e 560f 3c3e e957 22bd eb7a 5dbe
000003a0: 9628 2b3d 9feb 913d 5624 893d e2e2 393e
000003b0: 561c fc3d 55ce 6dbd 6d52 febc 64a1 cc3d
000003c0: fb8c dfbd b171 1a3e b51f 7b3e 0b71 103e
000003d0: 15e0 ac3d 5ef2 783d e248 513d f473 b0bd
000003e0: c2d4 e83c 1e1d 84bc d258 353d 2966 2dbd
000003f0: ee9c b5bd 64d1 41bc ca98 2abe 48c9 003e

layer.2.bias f4 [64]
-0.23099837 -0.03264976 0.17087224 0.092103995 -0.048219472 0.08036284 -0.024392659 -0.06449456
-0.12463648 0.21900682 -0.15677357 0.13490452 -0.13041045 0.017315159 -0.10893961 0.14341247
0.27245578 -0.099957794 -0.009545784 0.1338865 0.16708244 0.27706328 -0.024287159 -0.2007895
0.023622446 -0.037455212 -0.08254335 0.51639473 0.14423326 0.040721226 -0.008924599 0.14446115
0.07752451 0.16759779 -0.04870434 -0.1373532 0.04258867 -0.20905241 -0.18742995 0.2651093
0.18000838 0.20686892 0.18619503 -0.011263691 0.013113322 0.27406493 -0.115613714 -0.024290832
0.27802742 -0.11179469 0.071750864 0.03222352 0.23520933 0.12680621 -0.26695576 -0.05393298
-0.057639044 0.35011733 0.28867024 -0.09505347 -0.09818779 0.22385114 -0.08280363 0.054753903
00000000: d68a 6cbe c1bb 05bd 22f9 2e3e 05a1 bc3d
00000010: c881 45bd 4695 a43d 1dd3 c7bc b915 84bd
00000020: 6941 ffbd 5343 603e 4089 20be 6924 0a3e
00000030: 518a 05be 85d8 8d3c bb1b dfbd b8da 123e
00000040: 537f 8b3e acb6 ccbd ec65 1cbc 8b19 093e
00000050: a917 2b3e 3ddb 8d3e ddf5 c6bc c39b 4dbe
00000060: dc83 c13c a36a 19bd 7d0c a9bd 7232 043f
00000070: e2b1 133e 4dcb 263d 7b38 12bc a0ed 133e
00000080: 2cc5 9e3d c19e 2b3e 347e 47bd 51a6 0cbe
00000090: 7571 2e3d d611 56be a3ed 3fbe 68bc 873e
000000a0: 1e54 383e 72d5 533e e9a9 3e3e 588b 38bc
000000b0: 42d9 563c 3d52 8c3e e2c6 ecbd 91fd c6bc
000000c0: 9c59 8e3e 9df4 e4bd 1ef2 923d cffc 033d
000000d0: b7da 703e 7dd9 013e 6dae 88be d4e8 5cbd
000000e0: eb16 6cbd 9442 b33e 96cc 933e 65ab c2bd
000000f0: ae16 c9bd 3c39 653e f394 a9bd a145 603d

layer.4.weight f4 [128, 64]
-0.23087856 -0.04586275 0.35104963 0.04485669 0.14717492 -0.20548677 0.018832564 -0.06864058
0.06473596 -0.012252251 0.13771448 0.027349051 0.07694262 -0.010503892 0.014256364 -0.004836683
-0.057069734 -0.18771888 0.31281993 0.13685425 0.040188555 -0.040479984 0.0034767138 0.07279953
0.16414985 0.05681525 0.2429135 -0.010013332 0.09066094 0.04221053 0.006915351 -0.31018296
0.05504492 0.1338188 0.13678826 -0.16233346 -0.0856738 0.073432826 -0.042546988 -0.022208463
-0.030045858 -0.03411587 0.0482507 -0.0022414157 0.06428446 -0.04145838 -0.118475564 0.19512756
-0.03868292 0.01606119 -0.057346977 0.01858393 -0.023246884 -0.10261121 -0.08115765 0.08575872
0.18126208 -0.08525624 0.05116935 0.007834265 -0.06515889 0.43768483 0.085195035 0.14397457
0.0033422967 0.028808279 0.2933299 -0.2723536 0.15083487 0.11547602 -0.15170012 -0.03488353
0.068542525 -0.11121889 0.048203573 0.1528724 -0.062310293 -0.1098443 -0.037260547 0.07992072
-0.18669185 0.036666464 0.23609135 -0.025917485 0.022514036 0.10534123 0.01318185 -0.10113037
-0.077073686 0.0751527 0.009039591 -0.053949874 -0.026297545 0.07126407 -0.09423221 -0.0053981342
-0.017114483 0.004731606 -0.093473405 -0.08476014 0.060811255 -0.0109333 0.0918655 0.054371566
0.17270142 -0.06854225 -0.050229277 -0.0034520098 0.049570203 -0.013358688 0.15286994 0.13163157
0.010109858 0.19721906 0.12434435 -0.0740993 0.008217253 0.0495002 0.045047063 0.10899485
-0.0059357155 -0.027168062 0.08155979 -0.15365529 0.031174608 0.31422108 0.03987448 0.15629844
0.021513194 -0.055950418 0.21433339 -0.3665394 0.12532404 0.15578319 -0.030914292 0.007640772
-0.007242126 -0.036667634 0.01763904 0.008529026 -0.062171813 -0.068476304 -0.06433498 0.16499658
-0.01600805 0.056753457 0.14996007 0.06910933 0.09354791 0.025582127 0.023397382 -0.1023187
0.23667923 -0.057735577 0.15515216 -0.23943141 -0.0010085413 0.14613329 0.014901835 0.37256017
-0.0049405172 0.011034869 -0.14142793 -0.07720026 0.22705856 -0.036764 0.00047063842 0.1142932
0.08826535 0.017886613 -0.09172521 0.13820563 0.15593119 -0.11524902 0.08731939 0.048406642
0.005022025 -0.057710454 0.080384724 -0.087672725 0.05869142 0.104202546 -0.0067194584 0.18503979
0.101502866 0.11161352 0.07177191 -0.08997213 0.009996318 0.35272402 0.094301745 0.0905146
-0.26955336 0.023191331 0.31232452 0.085310124 -0.3853233 0.2117758 0.076019704 0.005176979
0.013280375 0.05583519 -0.07909235 -0.11526354 -0.15054345 0.11894299 -0.095280185 -0.030650776
0.09069789 0.20509882 0.16839698 0.074703984 -0.094006404 -0.0006599416 -0.05815054 -0.032818764
-0.10709418 -0.032865796 0.1410395 -0.4023613 0.105730034 -0.08291305 0.051596016 -0.08735992
0.034808252 0.12468072 -0.09630937 -0.12695715 0.03919894 -0.35761878 0.01308225 0.0047300034
0.022420833 -0.06485746 -0.006443801 -0.07331928 -0.04608751 0.106232025 -0.05692881 -0.031307638
0.036232237 -0.33597186 0.089200236 0.15676865 -0.056443263 -0.09448244 -0.019824948 -0.08204822
-0.09661593 -0.013999771 0.12069349 0.10502631 -0.10807962 0.3243512 0.07018948 0.07711574
00000000: 6e6b 6cbe 94da 3bbd c7bc b33e a6bb 373d
00000010: 06b5 163e 206b 52be c046 9a3c 6f93 8cbd
00000020: 4994 843d aabd 48bc 0605 0d3e 1e0b e03c
00000030: 1894 9d3d 8418 2cbc 8693 693c 0a7d 9ebb
00000040: f4c1 69bd 6139 40be ef29 a03e 8523 0c3e
00000050: c19c 243d 57ce 25bd 94d9 633b ec17 953d
00000060: e616 283e 1cb7 683d 51be 783e f50e 24bc
00000070: 71ac b93d f3e4 2c3d 2b9a e23b 4dd0 9ebe
00000080: c876 613d cc07 093e 3912 0c3e be3a 26be
00000090: bf75 afbd f363 963d c045 2ebd 86ee b5bc
000000a0: bb22 f6bc 15bd 0bbd 87a2 453d b7e4 12bb
000000b0: 92a7 833d 43d0 29bd 51a3 f2bd 85cf 473e
000000c0: fb71 1ebd c292 833c aae4 6abd 533d 983c
000000d0: 4070 bebc d325 d2bd fb35 a6bd 45a2 af3d
000000e0: c49c 393e d39a aebd f496 513d 4a5b 003c
000000f0: 0672 85bd 3a18 e03e bc7a ae3d 126e 133e
00000100: 6f0a 5b3b 57ff eb3c 562f 963e ee71 8bbe
00000110: 7574 1a3e b17e ec3d 4757 1bbe 08e2 0ebd
00000120: 0660 8c3d bbc6 e3bd 1c71 453d 958a 1c3e
00000130: 1439 7fbd 0cf6 e0bd 849e 18bd 79ad a33d
00000140: 262c 3fbe 932f 163d eec1 713e e850 d4bc
00000150: 5b6f b83c 25bd d73d b0f8 573c 701d cfbd
00000160: cfd8 9dbd a9e9 993d cb1a 143c 8bfa 5cbd
00000170: f36d d7bc e6f2 913d d1fc c0bd d5e2 b0bb
00000180: ac33 8cbc 970b 9b3b fc6e bfbd b996 adbd
00000190: 3915 793d 9521 33bc fb23 bc3d b8b4 5e3d
000001a0: a4d8 303e e15f 8cbd 37bd 4dbd 1d3b 62bb
000001b0: 200a 4b3d 66de 5abc f089 1c3e 6dca 063e
000001c0: d1a3 253c cbf3 493e 40a8 fe3d 60c1 97bd
000001d0: a8a1 063c b9c0 4a3d 4583 383d b138 df3d
000001e0: 6480 c2bb 8e8f debc d208 a73d d057 1dbe
000001f0: e461 ff3c 96e1 a03e 6c53 233d b30c 203e
00000200: 703c b03c 442c 65bd 367a 5b3e 0dab bbbe
00000210: f254 003e a185 1f3e f83f fdbc 715f fa3b
00000220: 5b4f edbb cd30 16bd bf7f 903c 54bd 0b3c
00000230: dfa7 7ebd 4e3d 8cbd 0fc2 83bd ddf4 283e
00000240: 5023 83bc 5076 683d 228f 193e 3189 8d3d
00000250: 0c96 bf3d 9c91 d13c deab bf3c 778c d1bd
00000260: 0a5c 723e 247c 6cbd 35e0 1e3e 822d 75be
00000270: 0831 84ba f7a3 153e d326 743c 35c0 be3e
00000280: 10e4 a1bb 98cb 343c 7cd2 10be 2b1b 9ebd
00000290: 0a82 683e d995 16bd 05c0 f639 8e12 ea3d
000002a0: 77c4 b43d f286 923c 6dda bbbd c785 0d3e
000002b0: 6dac 1f3e ae07 ecbd 82d4 b23d 0b46 463d
000002c0: cd8f a43b cc61 6cbd bfa0 a43d c28d b3bd
000002d0: 6a66 703d 2568 d53d e72e dcbb 127b 3d3e
000002e0: bce0 cf3d a195 e43d 27fd 923d 4f43 b8bd
000002f0: 99c7 233c 3e98 b43e 4621 c13d b85f b93d
00000300: e602 8abe bffb bd3c 00e9 9f3e 13b7 ae3d
00000310: 1849 c5be c1db 583e 38b0 9b3d a6a3 a93b
00000320: ee95 593c 71b3 643d 2cfb a1bd 4a0f ecbd
00000330: 1028 1abe 6298 f33d 4222 c3bd 5617 fbbc
00000340: d1bf b93d 6d05 523e 4270 2c3e 67fe 983d
00000350: 6e86 c0bd eeff 2cba 432f 6ebd f86c 06bd
00000360: 3254 dbbd 499e 06bd a96c 103e 4d02 cebe
00000370: fd88 d83d 51ce a9bd 5856 533d c2e9 b2bd
00000380: 1993 0e3d 9b58 ff3d d93d c5bd 0e01 02be
00000390: 118f 203d cf19 b7be ef56 563c 25fe 9a3b
000003a0: e5ab b73c fdd3 84bd 8526 d3bb 6b28 96bd
000003b0: 42c6 3cbd 2d90 d93d 2f2e 69bd 703c 00bd
000003c0: 4168 143d 8104 acbe 9dae b63d f687 203e
000003d0: 0d31 67bd 0280 c1bd ee67 a2bc e608 a8bd
000003e0: 93de c5bd 4c5f 65bc 262e f73d 0918 d73d
000003f0: d958 ddbd 5c11 a63e 81bf 8f3d dbee 9d3d

layer.4.bias f4 [128]
0.048711315 -0.013055352 0.011157489 0.22962067 -0.09914685 -0.109025136 0.09284152 0.071400955
0.14611006 0.1854375 0.20772202 0.334856 0.10864987 -0.034033578 0.22928508 0.049898032
0.19337083 -0.14514282 0.13614364 -0.16975887 1.5160401e-05 0.12675333 0.14111784 0.057568513
0.06711731 -0.0043917256 -0.22907384 -0.16565852 -0.012962694 -0.060539544 0.11180214 0.14678447
-0.23241404 0.2274418 0.13206916 0.1260657 -0.017428882 -0.004359154 0.2700243 0.19007349
-0.21872845 -0.21739279 0.024990372 0.1787174 0.31701642 0.1880947 -0.0743095 0.14211233
0.07725054 0.11322035 0.0926263 0.06342444 0.12740529 0.12659131 0.047333874 0.08944255
0.30046666 -0.08139775 0.22877157 -0.037209615 -0.0026226302 -0.011258814 0.18585353 -0.17364965
-0.03320298 0.17472462 0.08265618 -0.22236939 0.12552826 0.01582845 0.33105654 -0.09708951
0.06123075 0.21342191 -0.077574626 0.16332668 0.049824655 0.18954477 0.24270332 0.09895394
0.13800144 0.18030426 -0.05359904 0.016380876 0.12269178 0.038637295 0.21199752 0.21174768
0.032593943 0.06185668 0.01450452 0.026103036 0.100230835 0.13393256 0.30320027 0.16471505
0.15187354 0.12839748 0.028990747 -0.03957476 -0.10264139 0.27700126 0.052039646 -0.047342803
-0.054470446 0.16301121 0.121001996 0.10285205 0.08011863 0.23472403 0.1888479 0.033400044
0.13746488 0.12459093 -0.011106999 0.06466383 0.17329754 -0.021545148 0.01811698 0.17312895
0.29398942 -0.2194298 0.056967963 0.020286705 0.21361023 0.04137997 0.060651273 0.056094676
00000000: 8485 473d 1de6 55bc e7cd 363c ae21 6b3e
00000010: 810d cbbd 9248 dfbd b223 be3d aa3a 923d
00000020: e09d 153e 54e3 3d3e 15b5 543e 3f72 ab3e
00000030: d383 de3d cb66 0bbd b5c9 6a3e e161 4c3d
00000040: 0103 463e 52a0 14be 3d69 0b3e 45d5 2dbe
00000050: 6d59 7e37 a0cb 013e 3281 103e f6cc 6b3d
00000060: cd74 893d 77e8 8fbb 5592 6abe 63a2 29be
00000070: 7b61 54bc 50f8 77bd 85f8 e43d ab4e 163e
00000080: f2fd 6dbe 81e6 683e 233d 073e 5e17 013e
00000090: 04c7 8ebc 3cd7 8ebb a040 8a3e a0a2 423e
000000a0: 5afa 5fbe 379c 5ebe 9cb8 cc3c b201 373e
000000b0: fa4f a23e e69b 403e 942f 98bd e585 113e
000000c0: 8835 9e3d 12e0 e73d dcb2 bd3d ace4 813d
000000d0: 8876 023e 27a1 013e 2ae1 413d a82d b73d
000000e0: c4d6 993e ddb3 a6bd 1843 6a3e 1c69 18bd
000000f0: 6fe0 2bbb e376 38bc 6350 3e3e 37d1 31be
00000100: d9ff 07bd 03eb 323e a547 a93d cdb4 63be
00000110: 7b8a 003e aaaa 813c 3e80 a93e ddd6 c6bd
00000120: 18cd 7a3d 468b 5a3e 72df 9ebd 1c3f 273e
00000130: f014 4c3d 0618 423e 3887 783e 5da8 ca3d
00000140: 4050 0d3e aea1 383e ab8a 5bbd 3031 863c
00000150: d445 fb3d 2442 1e3d e115 593e 62d4 583e
00000160: 3a81 053d 6e5d 7d3d 5ea4 6d3c 09d6 d53c
00000170: d345 cd3d 9e25 093e 113d 9b3e 10ab 283e
00000180: bd84 1b3e a17a 033e 017e ed3c 2519 22bd
00000190: a635 d2bd 1cd3 8d3e 8627 553d 87ea 41bd
000001a0: 671c 5fbd 69ec 263e e5cf f73d 18a4 d23d
000001b0: 3c15 a43d 7f5b 703e 5861 413e 7cce 083d
000001c0: 98c3 0c3e 8829 ff3d 21fa 35bc 786e 843d
000001d0: e974 313e 737f b0bc 106a 943c b748 313e
000001e0: c885 963e 35b2 60be 3d57 693d 4e30 a63c
000001f0: a4bc 5a3e 0b7e 293d 786d 783d 88c3 653d

layer.6.weight f4 [8, 128]
-0.08647582 -0.27473947 -0.2680857 0.2059056 0.00482088 -0.09710589 -0.258097 0.42761347
-0.2676421 -0.03527669 0.03903199 0.07968929 0.09281813 0.0067302072 0.24297462 0.13825086
0.07227091 -0.15795553 -0.18128385 -0.11018217 -0.066041805 0.014873818 0.17263353 0.008285784
-0.26796147 0.4774603 -0.08200649 -0.079553366 0.0010833429 -0.093576156 -0.16012181 0.16177447
-0.067779325 -0.27747318 0.47165346 0.1453828 0.03832372 -0.21335669 0.13298446 0.11392831
1.4953742 -0.17701837 -0.19083026 -0.26264736 0.15847419 -0.3832223 -0.16473128 0.15230864
0.06468906 0.12945962 0.07312952 -0.28572363 0.14170124 0.012622859 0.1112561 -0.20106806
0.06734596 -0.10541227 -0.23239544 0.06316547 0.007814813 -0.36756054 -0.3842279 -0.013991324
-0.253288 0.053469956 -0.09654267 -0.14586754 0.0818632 0.12632991 0.103548184 -0.029681265
0.23286921 0.1193023 -0.22017716 -0.22727965 0.27914566 0.16470456 0.07327466 -0.093753606
0.08948556 0.13274947 -0.12997656 -0.22888038 0.053693864 0.16917764 0.14441058 0.23387854
0.08698639 -0.2088166 -0.20074359 0.023426304 0.22597796 0.1724942 0.12973541 0.06227796
0.21977876 0.0041581136 -0.0017256251 0.20486546 -0.08627966 0.06079638 0.620135 -0.24365081
-0.092192665 0.21031801 -0.12984097 -0.3015344 -0.25446874 -0.20895988 -0.5267385 -0.059563424
0.07259188 -0.18892384 0.30800113 0.25908306 0.09122603 -0.011519017 -0.27892774 -0.25015002
0.09660812 -0.055099826 -0.0021645278 -0.25873515 0.19005339 0.50321794 0.48135284 1.2396678
0.10852212 0.10014767 0.0792654 0.29808855 -0.24119724 -0.13267238 0.190393 -0.1008925
0.2554067 -0.3114486 -0.43982148 0.2529366 0.2293461 -0.17634134 -0.16065383 0.2645178
0.11654603 -0.149233 -0.35996315 0.041671354 -0.03842203 -0.239059 -0.16206764 -0.2455286
0.078724995 -0.3379944 -0.04996787 -0.13141736 -0.056101646 -0.0471502 -0.14057335 0.12898044
-0.16411346 0.098613605 -0.17564984 -0.18317218 0.12728135 0.15045597 0.10703159 0.16845793
-0.050167084 -0.07512371 -0.30120543 0.09927694 0.39562595 0.1180415 -0.05837422 -0.3979033
-0.20974787 -0.1598332 0.115456924 0.14198537 0.15234049 0.25370753 0.052476782 0.056549374
0.12478779 -0.116632156 0.16403793 -0.033055376 -0.017182643 0.29303244 0.32665926 -0.17435211
1.1163002 0.07839688 0.105820015 -0.04222529 0.0937274 0.21753806 0.13974826 1.4250369
0.10742055 0.08177164 -0.1452506 0.08543046 0.17131938 0.05966763 0.14992689 0.28724694
0.097707026 -0.086665355 -0.15493374 -0.34750652 -0.26121724 -0.18409212 0.14362554 0.17286214
-0.5316164 -0.24375783 -0.08685272 -0.08234935 -0.16335712 0.1497223 0.13050362 0.0488173
-0.16206715 -0.4051981 -0.38675588 -0.021848962 0.13701442 -0.33128244 -0.26889613 -0.11747638
-0.011548996 -0.1337631 -0.4222938 -0.3266544 0.526549 0.15766053 0.2634315 -0.332095
-0.47180113 0.113196574 -0.086134136 1.1304837 -0.21313415 -0.32882413 0.0075589526 0.07906155
-0.1086528 -0.12823905 -0.016264018 0.4868247 -0.24590726 -0.27604735 -0.07372598 0.050536767
00000000: 3c1a b1bd a7aa 8cbe 8742 89be ebd8 523e
00000010: 79f8 9d3b 74df c6bd 4a25 84be 27f0 da3e
00000020: 6308 89be 4a7e 10bd 02e0 1f3d 2334 a33d
00000030: 6f17 be3d 1289 dc3b 57ce 783e a291 0d3e
00000040: c502 943d 18bf 21be 79a2 39be 31a7 e1bd
00000050: ed40 87bd 50b1 733c d8c6 303e 19c1 073c
00000060: 3f32 89be ad75 f43e 05f3 a7bd e0ec a2bd
00000070: f5fe 8d3a dba4 bfbd f9f6 23be 35a8 253e
00000080: e3cf 8abd f710 8ebe 907c f13e 3bdf 143e
00000090: 55f9 1c3d 2d7a 5abe 142d 083e 3f53 e93d
000000a0: 6c68 bf3f 4e44 35be 0269 43be b779 86be
000000b0: 0f47 223e b735 c4be 51af 28be ccf6 1b3e
000000c0: b37b 843d 1091 043e eec4 953d 5e4a 92be
000000d0: 211a 113e 1cd0 4e3c 3dda e33d c9e4 4dbe
000000e0: aeec 893d 63e2 d7bd 12f9 6dbe e65c 813d
000000f0: b409 003c e530 bcbe 85b9 c4be de3b 65bc
00000100: f7ae 81be 5003 5b3d 2ab8 c5bd 4d5e 15be
00000110: e5a7 a73d a15c 013e 1211 d43d 2026 f3bc
00000120: 4475 6e3e c454 f43d 1f76 61be ffbb 68be
00000130: 2eec 8e3e 50a8 283e 0611 963d e401 c0bd
00000140: 3544 b73d 7aef 073e 9318 05be 9e5f 6abe
00000150: 19ee 5b3d e73c 2d3e 5ee0 133e db7d 6f3e
00000160: ec25 b23d 05d4 55be ba8f 4dbe 85e8 bf3c
00000170: c466 673e 52a2 303e 5cd9 043e 2d17 7f3d
00000180: af0d 613e c940 883b 5f2e e2ba 40c8 513e
00000190: 64b3 b0bd a005 793d 2bc1 1e3f 997f 79be
000001a0: 82cf bcbd 9b5d 573e 08f5 04be b862 9abe
000001b0: ba49 82be 94f9 55be 56d8 06bf c7f8 73bd
000001c0: 0dab 943d 4075 41be 53b2 9d3e 89a6 843e
000001d0: b6d4 ba3d 42ba 3cbc 9ecf 8ebe aa13 80be
000001e0: 7ada c53d 5bb0 61bd c0da 0dbb ef78 84be
000001f0: 5b9d 423e e4d2 003f e173 f63e 6fad 9e3f
00000200: d840 de3d 391a cd3d e655 a23d 109f 983e
00000210: 69fc 76be 45db 07be 62f6 423e baa0 cebd
00000220: abc4 823e 3176 9fbe 4830 e1be e880 813e
00000230: b4d9 6a3e d392 34be 7082 24be e16e 873e
00000240: afaf ee3d 89d0 18be 174d b8be 95af 2a3d
00000250: 6b60 1dbd e2cb 74be 0ff5 25be d96b 7bbe
00000260: 923a a13d 9a0d adbe 1cab 4cbd 4692 06be
00000270: d7ca 65bd 9120 41bd 76f2 0fbe 7313 043e
00000280: 5c0d 28be eef5 c93d 8ddd 33be 7d91 3bbe
00000290: 0b56 023e 2111 1a3e 6133 db3d 3c80 2c3e
000002a0: 007c 4dbd 76da 99bd 9937 9abe b551 cb3d
000002b0: 7c8f ca3e bebf f13d ce19 6fbd fbb9 cbbe
000002c0: 25c8 56be 50ab 23be ae74 ec3d 9d64 113e
000002d0: 25ff 1b3e f4e5 813e e5f1 563d 51a0 673d
000002e0: be90 ff3d d7dc eebd 8ff9 273e 1365 07bd
000002f0: 9dc2 8cbc 5908 963e e23f a73e 5c89 32be
00000300: ede2 8e3f 8b8e a03d 2ab8 d83d 6df4 2cbd
00000310: 27f4 bf3d 4cc2 5e3e 2b1a 0f3e 9c67 b63f
00000320: 4eff db3d e477 a73d 93bc 14be 2af6 ae3d
00000330: 596e 2f3e 0b66 743d 6f86 193e 0812 933e
00000340: 9f1a c83d 9b7d b1bd f3a6 1ebe 60ec b1be
00000350: 44be 85be a582 3cbe 9312 133e c602 313e
00000360: 0318 08bf a79b 79be d7df b1bd c7a6 a8bd
00000370: 1747 27be cd50 193e bea2 053e a6f4 473d
00000380: eef4 25be 2076 cfbe de04 c6be 98fc b2bc
00000390: 824d 0c3e da9d a9be c1ac 89be 7597 f0bd
000003a0: 0038 3dbc 32f9 08be e536 d8be 3f3f a7be
000003b0: eacb 063f c371 213e 7ee0 863e 5b08 aabe
000003c0: eb8f f1be 9bd3 e73d 1867 b0bd b1b3 903f
000003d0: d73f 5abe a35b a8be 17b1 f73b 06eb a13d
000003e0: 5c85 debd 1951 03be 1e3c 85bc 1641 f93e
000003f0: 1dcf 7bbe 1456 8dbe a6fd 96bd a4ff 4e3d

layer.6.bias f4 [8]
0.15156834 0.018025871 -0.0016644368 0.15616022 -0.019784378 -0.011880665 -0.0075232536 -0.043909457
00000000: bb34 1b3e feaa 933c 3b29 daba 77e8 1f3e
00000010: d912 a2bc 1fa7 42bc a085 f6bb 67da 33bd
