final/save/1l_0.95_200_morelayer/save3_15500.pth (torch_old, 50952 bytes, 8 tensors)

layer.0.weight f4 [32, 28]
00000000: ee06 c5bd 637f 51be 00f5 533e 04fd 6fbe
00000010: 943e edbc 1f9f 2e3e 6813 763d 7b96 c83d
00000020: f2ae 9e3d 4e7b 99bd 4c84 c83d a74c 0ebc
00000030: bf65 4d3d c589 173e 56f1 8bbd 6718 603e
00000040: 3b90 df3d e9f6 463e 1141 093e 5179 983d
00000050: 86ad f43d ff86 1fbd de00 993c 77bf 793e
00000060: abf7 333d 5f48 df3c fedc ebbd 63ac 80bd
00000070: dca0 523e bca9 053e 140c ad3d e67b 853e
00000080: 88f4 a43d 62be 32bd 91a4 763c 4ef5 98bd
00000090: 4570 f8bd 80dc 49bc 88b8 0dbd a9c6 263d
000000a0: 3f4a cbbd 1864 3abc 032a 95bd 7955 de3d
000000b0: 1295 7d3c 396d 3a3e 7491 c7bd d510 133e
000000c0: c9b0 ba3d 134d 843d 947d e7bd bbd1 2bbe
000000d0: 9fb6 12bd f2f1 373d 2ded 433e b658 663d
000000e0: cc65 223e 3670 a03d 6ada 20bd d6c1 4f3d
000000f0: f214 673d 06be eb3a 67ee 583e 65ec 1dbd
00000100: 2ee4 64bd f39c c13a cfe0 1e3e ba31 c6bc
00000110: b415 463e 54e7 75bd 0755 b23d 9829 a2bd
00000120: 61bd cf3b e83f d9bd cef7 29be ee92 23ba
00000130: 5398 2abe bd1b c73c 4038 1dbe 83a1 86be
00000140: d7db 91bc a1d6 be3d 8295 293c 647f 1b3e
00000150: da25 1ebd eae9 8ebb 6fcb 5f3d 999a 8ebd
00000160: fa4e b43d a96b c83d a56e 933e 940c 823e
00000170: 7c46 12be deee 803e 33ff 673e 4ab9 9f3d
00000180: af8a 6bbd 6ea7 d5bd 846f c0bd 7d4f 2cbe
00000190: 1542 293e d9e2 28bd 8003 e4bd 518b 2cbe
000001a0: eed9 eebd d44b 2abe 1a14 25be 0972 0abe
000001b0: de52 07bd 4007 10bc f676 b13d eb03 ecbc
000001c0: 32af 7ebe 2a9b 4bbe 7447 74bc d8a6 60be
000001d0: 85f7 66be 0362 edbd 65c3 823b 0070 6dbc
000001e0: 7bf0 803d e34f b5bd 80d6 503d 32d2 b1ba
000001f0: cfef 4b3e 5c76 813d 2d2c 5f3e 5f18 893e
00000200: 4692 423e 73b7 153e 291f bd3d 4d76 973c
00000210: 6a97 3e3e 38e0 f43c 5161 243d beb1 fe3c
00000220: f204 c93b 7bef a1bd 8c89 d2bd d688 90bd
00000230: 6c25 cc3c cc72 2bbd 0af4 9a3d fbac d43d
00000240: c14a 0abe 489f f03d 7f50 333e e6db 4e3e
00000250: ee41 013e 9348 813e 4f9f 6e3e 15ef f33d
00000260: b3af 54bd 2fe7 8cbd f00a 03be a837 773d
00000270: 9933 0cbe 0ce0 bfba bfae 48be 5ab2 d1bd
00000280: 90e9 1bbe 53ba bfbd d19c 26be 10e5 7cbc
00000290: 88ea 82bd 69f1 f13b ffaf d8bb 56b7 c0bd
000002a0: b4cb 213e 0619 b53d fe98 dc3d 9bef cbbd
000002b0: 67d6 e5bd 92bd 7dbe 2cc4 9e3c 7922 af3d
000002c0: 769a 703e 1bf9 01be 41ca 92be 2794 233d
000002d0: 039a ab3c 52f0 963d 6d03 003e a2c0 5c3e
000002e0: 6d72 bd3d 00ba dcbd ee4f e0bb f6e3 a2bc
000002f0: af50 c33d e6f4 4d3d b9f5 06be de22 a43e
00000300: 84c6 413e fb5c 21b9 3f02 87bd 6453 cc3d
00000310: 13e8 ce3d b41b 543d 385b b13d dc30 5f3e
00000320: 64c9 37bd b5f4 0c3c 5f4e 0cbe 38a3 013e
00000330: 9b6f 6d3e fbb9 b1bd a82b 673d 2e60 503e
00000340: d4aa 753d 21e0 9abd 77c1 0b3d 346e 963e
00000350: a3d4 2c3e 46ff d53d 7ea8 33bd 5c0c 243e
00000360: d34b f93d c87e edbd ad8d 5dbc f8ec 223e
00000370: 3e33 8bbd 87e6 013d e2ac d5bb 9c0f afbc
00000380: 07f9 0b3e b1b7 4d3d ece0 40be bf16 3f3e
00000390: 533d e63d 24be c43d a95e 78be 388a b1be
000003a0: 58d9 76be d076 423d a8bc 153e a1e3 183e
000003b0: d8cc b63d ad02 e8bc af42 e6bd 66bf 733d
000003c0: 0cdc 47bd babf a8bd b572 b1bd 9a44 10be
000003d0: c82e 0fbd e293 00be a222 843d debc 663e
000003e0: fa46 793c 61d1 153e 15e8 f3bc d886 8bbc
000003f0: deb3 28bd a7e6 cdbd 35c3 1ebe 70c2 5ebe
-0.09620462 -0.2045875 0.20698929 -0.23436362 -0.028960504 0.17052887 0.0600771 0.09794327
0.07748212 -0.07494222 0.097908586 -0.0086852675 0.05014586 0.14798649 -0.068331406 0.21884309
0.10916182 0.19430126 0.13403727 0.07445014 0.119471595 -0.0389471 0.018677171 0.24389444
0.043937366 0.027256189 -0.1151676 -0.0628288 0.20569175 0.1305303 0.08449569 0.2607109
0.08054453 -0.043638594 0.015053884 -0.07468663 -0.12130789 -0.012320638 -0.03459981 0.0407168
-0.09926271 -0.011376403 -0.07283404 0.10856146 0.015477436 0.18205728 -0.0974454 0.1436189
0.0911575 0.06460013 -0.11303249 -0.16779225 -0.035818692 0.04490847 0.19133444 0.056236945
0.15859145 0.078339025 -0.039270796 0.050721966 0.05641646 0.0017985709 0.21184693 -0.03855552
-0.05588167 0.0014771506 0.15515445 -0.024193633 0.19344217 -0.060035065 0.08707624 -0.0791809
0.0063397144 -0.10607892 -0.16598436 -0.0006239851 -0.1665967 0.024305219 -0.15353489 -0.262951
-0.017805023 0.09318281 0.010350587 0.15185314 -0.038610317 -0.004361381 0.05463737 -0.06963081
0.08804126 0.097861595 0.28795353 0.2540022 -0.142847 0.2518224 0.22655945 0.07799013
-0.057505306 -0.10432325 -0.0939627 -0.16827197 0.16529115 -0.041231964 -0.1113348 -0.1685002
-0.116626605 -0.16630489 -0.1612095 -0.13520063 -0.033038013 -0.008790791 0.08665268 -0.028810462
-0.24871519 -0.19883409 -0.014909614 -0.21938646 -0.22555359 -0.1159096 0.003990578 -0.014492035
0.06295868 -0.08853128 0.050985813 -0.0013566671 0.19915698 0.063214034 0.21794195 0.26776406
0.19001111 0.14620762 0.09234459 0.018489027 0.18612447 0.029892072 0.04013187 0.031090613
0.0061346227 -0.079070054 -0.10280141 -0.070573494 0.024920188 -0.041857526 0.07566078 0.10384556
-0.13505079 0.117491305 0.17511176 0.20201072 0.12622806 0.25250682 0.23302959 0.11910836
-0.051925372 -0.06880032 -0.12797141 0.060355812 -0.13691558 -0.0014638915 -0.1959791 -0.10239096
-0.15225816 -0.093617104 -0.16270758 -0.015435472 -0.063923895 0.0073835147 -0.0066127772 -0.094099686
0.15800363 0.088426635 0.107713684 -0.099578105 -0.112225346 -0.24779347 0.019380651 0.08551497
0.23496422 -0.12692682 -0.28669932 0.03993621 0.020947462 0.07370056 0.12501307 0.21557859
0.092503406 -0.10777664 -0.006845466 -0.01988409 0.095368735 0.05028238 -0.13179673 0.32057852
0.18923384 -0.00015388794 -0.06592225 0.09976843 0.101028584 0.051784232 0.08659977 0.21795982
-0.044869795 0.008603265 -0.13701771 0.1265992 0.23187105 -0.08678051 0.05643812 0.2034919
0.059977368 -0.075622804 0.03412005 0.29380953 0.1687799 0.1044908 -0.04386186 0.1602034
0.121726654 -0.11596447 -0.013522548 0.15910709 -0.06796883 0.03171399 -0.0065208534 -0.021369748
0.13669215 0.05022401 -0.18835801 0.1866102 0.112421654 0.09606579 -0.2425486 -0.34675765
-0.24106348 0.04747659 0.14622748 0.14930584 0.089257896 -0.028321588 -0.11243188 0.059508704
-0.048793837 -0.08239694 -0.08664457 -0.1408867 -0.034956723 -0.12556413 0.06451918 0.22532985
0.015214676 0.14630653 -0.029773751 -0.017032072 -0.04118716 -0.10053759 -0.15504153 -0.2175386

layer.0.bias f4 [32]
00000000: 6359 26be 877d 273e 09a8 df3d 051b 0c3c
00000010: 3664 38be 6640 5abe 3a64 81bd abed 4dbd
00000020: f7a8 f13d dfd7 2dbe 01b7 eabd 1fce 9d3d
00000030: 82f8 063e 7984 973e 3e2e d13d f28a 4d3f
00000040: 1a98 7f3e eb4f 23bd 0701 cfbd 885a 6e3e
00000050: 5316 953d cb9c aa3e 7081 e5bd 307f b73c
00000060: ffc8 cb3d 83b2 253d ef0f e33d 8410 26be
00000070: d5eb 7a3e 5bb0 3a3d 0094 a9bd 3a32 573e
-0.16245036 0.16356479 0.10920722 0.008551364 -0.18006977 -0.21313629 -0.06317945 -0.050275486
0.117998056 -0.1697688 -0.114606865 0.0770533 0.13180736 0.29593256 0.10213898 0.8029014
0.24960366 -0.039871138 -0.10107618 0.23276722 0.07279649 0.3332275 -0.11206329 0.022399515
0.09950446 0.040453445 0.110870235 -0.16217238 0.24504025 0.045578342 -0.08280182 0.21015254

layer.2.weight f4 [64, 32]
00000000: d6d5 abbc 0219 043d f811 60bc 3924 6d3e
00000010: ce9c 03bd 5de9 4b3d 0cf9 f6bd a8bc 9d3b
00000020: f4e8 fd3d 2123 bbbd a04a 193b 5c80 9fbd
00000030: d157 933e 5d96 003e 746e 8d3e 76e9 ddbe
00000040: 94b7 1d3e e395 013c a1ae ef3d 9dd9 89be
00000050: 006a bebd e0f3 10bc 7454 ff3d e418 a6bd
00000060: 8601 01bd 6e99 f33d 8f0f 2f3d d0b7 2f3e
00000070: 4713 49be e291 42be 7ac1 ff3d d1d0 babc
00000080: 065a 8dbd a607 5cbd c936 c0bd d68f 9fbe
00000090: 8933 d53b b220 6ebe cbe7 12be b5ca e93d
000000a0: d13d 96be 7429 aa3d 518a 50be 4594 e63d
000000b0: a821 3bbe 9b9a 873d 3b82 073e 74ee 07bf
000000c0: 230d 3bbd ff85 2cbd 3f62 25be 9c1f 833e
000000d0: 4673 e83d 2d23 2a3e fc73 5e3e 9c99 203e
000000e0: 3b72 703d 6868 80be 28c6 e73d c790 dabd
000000f0: 49da 513d 9efe 63bd faee 68be 0e84 e6bd
00000100: 1bd3 10be 4259 293d 854e b73d 54c0 c9be
00000110: cbaf 81be a88b 4fbe 2391 fa3d a764 3b3e
00000120: 0165 643e 7ea6 5cbe 7b1f 803b e1e9 85bd
00000130: 4bd1 863e 27a6 86bd a7d9 48be 696f efbe
00000140: 2408 0a3e 7e6a 133e 6681 86bd 2c8d 82be
00000150: c1d4 a03c 44e1 8e3c 6116 343d f5e1 093c
00000160: 8f1f f6bd ec05 08bf 729c 103e 5276 8b3d
00000170: 85a0 53be 851f 87be bfa5 0f3d e8ce 553d
00000180: 1f6c 71be 7acc 163e aee4 123e 2174 e9be
00000190: 7fba 9dbe 7566 50be a6bd c43d 949b 7f3e
000001a0: 67fe a13e 5d74 54be abc5 a9bc cb53 e9bd
000001b0: a5ee 533e 844c aabc 0ccc 42be c450 d3be
000001c0: 2003 603d 60a8 0a3e 74a7 53be 14a7 60be
000001d0: 5eec 083e 49b3 91bd 0664 073d 20ab c43c
000001e0: f799 33be b23c 69bf 1c6f 063e ca8f 093d
000001f0: 9df0 91bd 9b32 36be fcf2 03bd d43f c73d
00000200: e3f6 43bd e650 7fbd b893 893d 3d6c 8eba
00000210: 0f3e cf3d 4599 0cbe 1cd3 8dbc 51f7 88bc
00000220: 7f74 8dba 8778 06be b7be 11be fb79 ee3d
00000230: 0677 90bd f394 a6bd 1f55 d1bd 0001 01bf
00000240: 2258 1f3e 8873 1abd 6c7a c8bb 0950 6d3d
00000250: bc69 bebd c71d 61bc c509 113d 85ed 003d
00000260: 9c85 843d fce7 b9bc f8ae 3cbe b00c 023d
00000270: 2736 cd3d e71d 1b3e a688 a9bd 44bb 023e
00000280: 077b 2c3e 1c6a 2e3e fbdc 84bd ae92 f0be
00000290: d75c 1d3e c340 4fbe d47d 86bc 332d 303d
000002a0: 89c6 833e 683f 123d 0bb1 6abd 68d9 233c
000002b0: eabe bd3d 5b61 bcbd 621d 1bbd 410a 133f
000002c0: 144f ee3d eaa6 aa3d c43d f23d f9b4 05bd
000002d0: c783 0b3e 0b03 52be 9f51 543e b312 db3d
000002e0: 1f2f 8dbd 51ed 3fbf 0c1f 203e dbf7 d33c
000002f0: fe81 a6bd 6b24 0dbe a1cd 98be c0bc bcbd
00000300: 6f02 ce3d d39b 85bc 7800 873d aab9 25be
00000310: 2463 38be 6d66 0cbe 7e16 efbd a662 06bd
00000320: ca57 92bd bb0e 713c b598 3cbe fde5 293e
00000330: fdea 05bd 2c4a 943e a235 353e 1291 8dbe
00000340: add6 113d 2208 24bd 1c65 8dbe cf6d 963e
00000350: 49c8 d7bc e3a5 3ebd 7342 193e ff76 ea3d
00000360: ad29 c83d b0eb babe b8ba f4bd b0e5 993b
00000370: 0995 b23d b1dc dabd 4e4a 91be be67 3bbe
00000380: 8263 7a3d 4ff3 c0bc c42b f93c 1394 a3bd
00000390: 5de6 d23d 4b1c 1dbd d91b 6c3d 01c4 7d3d
000003a0: b427 a23d 4794 073e ec93 023e f4a9 eabc
000003b0: fb5a a33c defa 333e da20 7ebe 73b9 363d
000003c0: 84ac ca3d c05e de3d e1b2 90be 6d9a b7bc
000003d0: 3803 6e3d 63f7 bfbd fac7 313e d457 0ebc
000003e0: dfe5 50be 4f6e 83bc d1f0 43be f55b fcbd
000003f0: 79ba eabd 5299 18be 67f1 923c a5b5 eb3d
-0.020975988 0.03225041 -0.013676159 0.23158349 -0.032131962 0.0497831 -0.12059221 0.0048137493
0.12397948 -0.0913756 0.0023390427 -0.077881545 0.28777936 0.12557359 0.27623332 -0.4334218
0.15402061 0.007909271 0.1170323 -0.26923838 -0.09297562 -0.008847207 0.1246728 -0.08110216
-0.031495593 0.11894499 0.042739447 0.17159963 -0.1963626 -0.19000962 0.124880746 -0.02280465
-0.06901936 -0.05371823 -0.093854494 -0.31164426 0.0065063876 -0.2325466 -0.14346235 0.114156164
-0.29344037 0.08308688 -0.20365264 0.11258749 -0.18274558 0.066212855 0.13233273 -0.53098226
-0.045666825 -0.042119976 -0.16150759 0.25610054 0.11350112 0.16614981 0.21723932 0.15683597
0.05870269 -0.25079656 0.11317092 -0.10672145 0.051233564 -0.055662744 -0.22747412 -0.11255656
-0.1414303 0.04134489 0.08950523 -0.39404547 -0.25329432 -0.20268118 0.12234714 0.18300115
0.22304155 -0.21547887 0.0039100028 -0.065387495 0.26331553 -0.0657466 -0.19614278 -0.46764687
0.13479668 0.14396092 -0.065676495 -0.2549833 0.019632699 0.0174414 0.043966655 0.008415689
-0.12017738 -0.53134036 0.14122179 0.06809677 -0.20666702 -0.26391235 0.035070177 0.052199274
-0.23576401 0.14726439 0.14345047 -0.45596412 -0.30806348 -0.20351584 0.09606485 0.24961692
0.31639406 -0.20747514 -0.020724138 -0.11392935 0.20696504 -0.020788439 -0.1902315 -0.41272557
0.05469048 0.13540792 -0.20669347 -0.21938735 0.13371417 -0.07114274 0.033054374 0.02400738
-0.17539202 -0.9110824 0.13128322 0.033584394 -0.071259715 -0.17792742 -0.03221415 0.09728971
-0.04784287 -0.06233301 0.06717628 -0.0010865998 0.101192586 -0.13730343 -0.017312579 -0.016719492
-0.0010792165 -0.13131915 -0.14232908 0.1164436 -0.07053952 -0.081338786 -0.10221314 -0.5039215
0.15560964 -0.037707835 -0.0061181094 0.057937656 -0.09297511 -0.01374001 0.035409708 0.031476516
0.064707965 -0.022693627 -0.1842612 0.03175038 0.10020094 0.15148126 -0.08278017 0.12766749
0.16843806 0.17032665 -0.06487461 -0.46986908 0.15367447 -0.20239548 -0.016417421 0.043011855
0.25737408 0.035705 -0.057297748 0.010000564 0.092649296 -0.091982566 -0.03786982 0.5743752
0.11636177 0.083326176 0.11828187 -0.032643292 0.13624488 -0.20508973 0.20734261 0.10696926
-0.06893753 -0.7497149 0.15636843 0.025875023 -0.08130263 -0.13783424 -0.29844382 -0.09215689
0.10059058 -0.016309654 0.06591886 -0.16184106 -0.18006569 -0.13710947 -0.11674212 -0.032808922
-0.07145651 0.014712985 -0.18417628 0.1659164 -0.032694805 0.2896284 0.1769624 -0.27649742
0.03560512 -0.04004682 -0.27616203 0.29380652 -0.02634062 -0.04654492 0.14966755 0.11448478
0.09773574 -0.3650794 -0.11949676 0.0046965703 0.087198325 -0.10686625 -0.28377002 -0.18301293
0.061130054 -0.023553519 0.030416377 -0.07987227 0.102978446 -0.03835706 0.057643745 0.061954502
0.07917729 0.13240157 0.1275174 -0.028645493 0.019940844 0.17576167 -0.2481722 0.044610452
0.09896186 0.10857916 -0.28261474 -0.022412503 0.05810854 -0.09373357 0.17361441 -0.008687932
-0.20400189 -0.01604381 -0.19134833 -0.12322227 -0.11461348 -0.14902237 0.017937375 0.11509255

layer.2.bias f4 [64]
00000000: edd0 9c3e 16e3 8f3e 3fce aa3d b75b 12bd
00000010: 645e fe3e e95e fa3d 35ef 183d 8f57 2b3d
00000020: cf0c 1c3e 2666 9b3c fb18 a53d fe5c eb3e
00000030: 5506 1e3e 76ac a53d 2fa5 1bbd 6759 1a3e
00000040: 5cc4 c2bd 9758 41bd b7a5 a03d 5697 a63e
00000050: d6d9 4bbd c435 0fbe 445a 3f3e 1c3c d73b
00000060: 9c3e c93d 458b debc d17d c0be 6d06 1a3d
00000070: 181f 7d3e 4b32 123e 5fc9 bfbd 69a0 ac3e
00000080: 1484 f0bb 2d19 5a3d e131 b43d 7780 fbbb
00000090: f64b fb3d 984c 3c3e db95 a93d 85bc a93b
000000a0: 2f1f f6bc 8fae 293e 7ba2 66bd 8c25 663e
000000b0: fb1d cd3e c3c9 2a3e 1589 51bd ae9b 53bd
000000c0: 58dc d5bd 6c6a d2be c09d cebc f1d1 d4bb
000000d0: add5 233e b5bf bcbe 2e3a 873e 2414 b0bd
000000e0: adfb 5e3e d0ed ac3d bb50 873d 5315 dd3e
000000f0: 6625 263e caac f23d 2b3e 88bc b60c d0b9
0.30628148 0.2810294 0.083401196 -0.035731997 0.4968139 0.12225134 0.0373375 0.04183155
0.15239261 0.018969607 0.08061405 0.45969385 0.15432103 0.08089535 -0.03799933 0.15073167
-0.09510109 -0.047203626 0.078441076 0.32537335 -0.04976829 -0.13985354 0.18686777 0.006568445
0.09826395 -0.027166018 -0.3759599 0.037603784 0.24718893 0.14276998 -0.0936458 0.33716133
-0.0073399637 0.053246666 0.08798576 -0.0076752263 0.12270348 0.18388593 0.08280536 0.005179944
-0.030044166 0.16570495 -0.056307297 0.2247526 0.40061936 0.16678528 -0.051156122 -0.05166214
-0.10442418 -0.41096818 -0.025221705 -0.0064947535 0.1599948 -0.3686501 0.26411575 -0.085975915
0.21775694 0.08443797 0.06607195 0.43180332 0.16225204 0.11849363 -0.016631206 -0.00039682322

layer.4.weight f4 [128, 64]
00000000: fcce 843c 57b9 113d 8a07 213e 79d5 843d
00000010: cfe5 bfbd d1b3 03be 49cb a13d 545b a93d
00000020: 0360 3f3d 5292 df3d 6889 e93b 574e 483e
00000030: 3511 a5bc 18db 483e 2cea aa37 9dab e33d
00000040: 6a73 8a3c adaa 093c 1351 063e f014 233e
00000050: b37c 61bd 6ccd 123e 7f60 ccbc 36c3 293c
00000060: 1e23 af3d 30d7 03be f100 573e 50ad 9f3d
00000070: cf55 11bd ec6b 32bc a15c fc3d 7f69 153e
00000080: ff7b 3bbd 18ed f93c c612 e3bd 7c88 3a3e
00000090: 046b 213d a08b 90be b33c 4cbd c5e2 23bb
000000a0: 741f 54bd cd6e cc3d 61d0 823d b224 f23d
000000b0: 0875 e23c 3194 e93d c91e 32bf a1d8 14bd
000000c0: f7cf cabd 427f a8bc 1df9 06be 216e 643e
000000d0: c204 853e e7ff 1ebd 2104 083e aa6a 5b3d
000000e0: 2663 aa3d 470c 4ebe 3345 203e 61a2 883d
000000f0: b4ae 2dbd 1d52 f3bd 170e 0ebd 435b 043d
00000100: 3cc4 173e a1b3 293e bd96 513d c5c5 18be
00000110: 212c 4e3e 9788 3cbe bf0e 643d 1153 6dbd
00000120: 34ec a8bc 9aa0 363e 67be 56be b604 433e
00000130: 0687 aa3d 704a eabb 6973 b33d f10f 58bb
00000140: 326f d3bd 08e3 603d aae5 ba3d 3f3c 543c
00000150: bf42 cd3d 4333 e1bd 52dc 23bd 559f f5b9
00000160: 53f0 aa3d ec56 babd 9317 a8bd d250 67bd
00000170: 903b df3d b654 a2bd 9990 d6bd 2ebc 4b3e
00000180: 2909 8dbc 7da3 c03d ffbc 0bbe 7351 a73c
00000190: 5ab5 1c3d dc90 c03c e460 a1bc 55d8 e5bd
000001a0: ca4b 12ba 2fe0 eb3d 87d9 52bc 5f3b da3c
000001b0: 2eb5 2d3e cfe4 febc 6ba6 8cbd 39da 3ebe
000001c0: c393 f2bc 4717 2fbe c0aa 1cbd b90b 1cbd
000001d0: e3c3 6f3d 7b02 ecbd 3cfe ec3d d597 2dbd
000001e0: 8187 233e e934 8cbe 0902 c2bd 430a 053e
000001f0: 1948 bebd eebc cc3d fa7c 34bd ef43 f23d
00000200: 0e62 cabd a856 dc3d 378b c73d 0bd3 073e
00000210: 223c 23be e9be c33d 2db2 143e 286b 243e
00000220: 68a8 6dbc 2ab3 3e3e 1f7b e5bd 0547 02be
00000230: cdda 07be f86a fe3d ecb6 263e 33e3 1abd
00000240: 99d8 1bbe 9dd6 4e3e 6dfd 1abe 29dd b4bd
00000250: c771 ef3d 2edb 853c 5379 963d 3281 273e
00000260: 2bf8 aebc f793 6ebe 7835 8a3e b882 ee3c
00000270: c4a7 c53d a49c a8bd 4122 17be 5dc9 22bd
00000280: 1b80 c2bc d783 fc3d d4ad 0d3d 5d14 053d
00000290: 7157 f33d 2e7a 69be a8e8 bfbd f4fe 313c
000002a0: 2e0a 9f3d ac4e 77bd 3524 b83d 84f6 4ebd
000002b0: fd0d b8bc 3c5b df3d 5d4b 3cbf 0369 5c3d
000002c0: 67db 07bd b5f1 8c3d 99ea 29be 366c 3f3e
000002d0: 5f9a 553e 490b f23d 2a60 eb3d 3e4f 123e
000002e0: 4879 a73d cee7 383e 508b 523d 0502 e7bd
000002f0: 82dc ec3d 6716 e3bc b6e6 0cbd 8a63 e53b
00000300: 4715 b0bd 5c5f 03bd b3da e5bd 0f6f 903d
00000310: 19a0 89bd df5c 843d ac56 4ebd 5dce 3a3d
00000320: 7ca3 9c3d 40b2 afbb ef2b 8cbd 6ec6 e3bd
00000330: bfb1 aebd 3265 2dbd d98e 04be 3e01 b9bd
00000340: 6840 c43b 1117 cbbc 07a2 8bbd c367 2b3d
00000350: a6e2 92bc 47fb 533a c776 98bd 373e f5bd
00000360: 42d5 93bd 68cd 97bd af49 b4bd b5c9 2c3d
00000370: 3beb 9dbd 54b1 ac3d f10b 17bd adc7 c7bd
00000380: e2ca 9ebd ad2e 31bd 44b7 1d3d b345 f8bd
00000390: d655 d4bd af63 c23d ab5f b93d 4b46 103d
000003a0: 390d dbbd 32d9 9f3d d7a6 b43d da3d 503d
000003b0: c2f8 b23d c12f 583d 1cc2 2dbd b009 0dbd
000003c0: 0930 1f3d 9016 203d 2d1e 5fbd f4b7 dbbd
000003d0: bcdb 93bc ea3b 64bc a312 70bc c0cc 9fbc
000003e0: 5042 6c3c ec3b bf3c ec40 5b3d 6fe5 9bbc
000003f0: 7553 b33d e050 a1bd 1335 c9bd a6ec 77bc
0.01621198 0.035577144 0.15725532 0.06486029 -0.093700044 -0.12861563 0.07900102 0.082693726
0.046722423 0.1091658 0.007126976 0.19561134 -0.020149807 0.19614828 2.0374624e-05 0.11116717
0.016900737 0.008402509 0.13116865 0.15925956 -0.055050563 0.14336175 -0.024948357 0.010361483
0.0855162 -0.12875056 0.20996453 0.077967286 -0.035482224 -0.010889988 0.12322355 0.14591025
-0.04577255 0.030508563 -0.11087565 0.18216127 0.0394087 -0.28231525 -0.049862575 -0.0025006991
-0.05178781 0.09982071 0.06387401 0.11823405 0.027643695 0.114052184 -0.69578224 -0.036339406
-0.099029474 -0.020568494 -0.13180967 0.22307636 0.25980192 -0.038818266 0.13282825 0.05356852
0.08319692 -0.20121871 0.15651397 0.06671596 -0.042402938 -0.11880896 -0.034681406 0.032313596
0.14820951 0.16572429 0.051169146 -0.14919193 0.20134021 -0.1841148 0.055678125 -0.057940546
-0.020620443 0.17834702 -0.2097107 0.19044766 0.08326535 -0.007149987 0.08762247 -0.0032968486
-0.10323943 0.054904014 0.09125836 0.012953817 0.100224964 -0.109961055 -0.040005036 -0.00046848753
0.083466195 -0.0909861 -0.082076214 -0.05647356 0.109000325 -0.079263136 -0.104767986 0.19896004
-0.017216282 0.09406183 -0.13646315 0.02042458 0.038258888 0.023506574 -0.019699521 -0.11222903
-0.00055807515 0.11517369 -0.012869245 0.026639638 0.16963646 -0.031114964 -0.06867679 -0.18637933
-0.029611474 -0.17098723 -0.038248777 -0.038097117 0.05853642 -0.115239106 0.11571929 -0.042381126
0.1596966 -0.27384117 -0.094730444 0.12992196 -0.09291095 0.09996973 -0.0440645 0.118293636
-0.09881984 0.10758716 0.0974335 0.132641 -0.15940908 0.095578976 0.14521094 0.16056502
-0.014505483 0.18623033 -0.11205124 -0.12722404 -0.1326706 0.124227464 0.16280717 -0.03781433
-0.15219344 0.20199056 -0.15135737 -0.088312455 0.11691623 0.016339865 0.073473595 0.16357878
-0.02135857 -0.23298632 0.26993918 0.029115066 0.096511394 -0.08233002 -0.1475916 -0.039742816
-0.023742726 0.12329834 0.034589604 0.032490123 0.118819125 -0.22800514 -0.093705475 0.010864008
0.077656135 -0.06037776 0.08991281 -0.050528064 -0.022467608 0.109060735 -0.73552495 0.053811084
-0.033168223 0.068820395 -0.16593398 0.18693623 0.20859669 0.11818559 0.11492951 0.14288041
0.081774294 0.18057176 0.05140239 -0.11279682 0.11565496 -0.027720643 -0.03439971 0.0070003914
-0.08597808 -0.032073364 -0.11223354 0.07052433 -0.06719989 0.06463026 -0.050375625 0.04560696
0.0764837 -0.005361825 -0.06844317 -0.11121832 -0.08529996 -0.042332835 -0.12945117 -0.0903344
0.005989123 -0.024791272 -0.06818014 0.041847 -0.01793034 0.00080864545 -0.0744453 -0.11974757
-0.0721841 -0.07412225 -0.088031165 0.04218455 -0.07710882 0.0843226 -0.036876623 -0.09754882
-0.077535406 -0.043257404 0.038504854 -0.12122669 -0.103679344 0.094916694 0.0905145 0.035223287
-0.106958814 0.078050986 0.08820885 0.050840236 0.08738853 0.052779917 -0.042421445 -0.034433067
0.03886417 0.039084017 -0.054472137 -0.10728446 -0.018049113 -0.0139303 -0.014652881 -0.019506812
0.014420107 0.023344003 0.05352871 -0.0190303 0.087561525 -0.07876754 -0.09824576 -0.015132105

layer.4.bias f4 [128]
00000000: cdc4 f8bc 0c20 ac3e 0db0 2f3e 4257 f7bd
00000010: 29b6 c63e a93b e7bc c303 9f3e 2245 0e3e
00000020: a530 203e 3700 5e3c c1e9 dd3d 8fe1 7b3e
00000030: 92c9 4d3e b5fc 2c3e a4fe 303e 8de4 9e3d
00000040: fa4a 933e d442 123d 00e3 823d 0065 4e3e
00000050: 2205 a53e 5bd7 7c3d f560 363e 12f3 ce3d
00000060: 6c06 233e ff31 653e 5ea5 8b3e b32c 643e
00000070: 8d4b e03d 10e3 d7bd 1f3e 483e 69dd 6f3d
00000080: b5a9 8c3e e984 2c3e 04a8 693e b2cd 763e
00000090: c110 a23e a893 d53b 7138 6dbd fdb2 9d3e
000000a0: 78e9 fa3d 2dab 223e affc 553e 6d58 2e3e
000000b0: a68b 16be 5813 393e b71a 51be 9bf1 813c
000000c0: 45a2 e33d 7ef0 7a3e a2de 483e 13ce d43e
000000d0: 047d b33e dac4 ab3d 50ca 8c3d 5927 013e
000000e0: 4bc6 523e 81d2 7f3e d5db 863e 0389 8a3e
000000f0: 04e8 033e 531b 8abe 329a 543e 3b75 133e
00000100: c6ca 8ebc c5da 8e3e b683 f6bd 421b 8bbd
00000110: 7ffb 84bc 0e0d 223e 3ba3 3f3e 4440 533d
00000120: 098c 63bd 2713 8a3e 94e0 0b3e 75ca 4fbe
00000130: 1dbd ed3d 2066 d53d ea4c 1d3e d31a 423e
00000140: 3563 233e 2644 8c3e 7e38 a73e 9e80 1f3e
00000150: 5d21 293e b13a c23d 33a4 e53d 1f7d 893e
00000160: d768 8d3d 904b f13d dc0e 4c3e 9744 3c3e
00000170: c083 e13b 2200 fb3d e9b5 ddbd 9361 6f3e
00000180: 458c 893e 7d76 083e e878 c13d 9dd8 5d3e
00000190: 1157 f33d df70 b1be 2daf 003e 197a 773e
000001a0: 5222 303e f0e6 4ebb 2802 c93e e989 993e
000001b0: a53e 653e 647f d0bd 9479 0e3e e880 153e
000001c0: 2bbd 10be c783 163e de65 8f3e 0e80 e03d
000001d0: 236a 3e3d e01c db3d 31c7 523d 4445 133e
000001e0: 5790 d83e d754 943e 39ea 5abd 17fd f13d
000001f0: e3ae 21be 324b 093e c61b 6d3e fddb e83c
-0.03036728 0.336182 0.17157002 -0.1207719 0.38810852 -0.02822669 0.31057557 0.1389356
0.15643556 0.013549856 0.10835601 0.24597763 0.20096424 0.16893275 0.17284638 0.07758436
0.2876814 0.035708264 0.06390953 0.20155716 0.3223048 0.061728816 0.17810424 0.10104956
0.15920419 0.22382353 0.27274603 0.22282676 0.1095191 -0.105413556 0.19554947 0.058560763
0.27473226 0.16847576 0.22817999 0.24101904 0.31653407 0.006517846 -0.057915155 0.3080062
0.12251562 0.15885611 0.20897172 0.1702592 -0.14701709 0.18073785 -0.20420347 0.015862277
0.11114935 0.24505803 0.19616178 0.41563472 0.35056317 0.08387156 0.068745255 0.12612666
0.20583455 0.24982645 0.26339594 0.27057657 0.12881476 -0.26973972 0.20761946 0.14400189
-0.017430674 0.27901283 -0.120368406 -0.067923084 -0.016233204 0.15825292 0.18714611 0.05157496
-0.05555347 0.26967737 0.13659889 -0.20292075 0.11608336 0.104198694 0.15361372 0.18955545
0.15955813 0.27395743 0.32660288 0.15576407 0.16516633 0.09483851 0.11212959 0.26853272
0.06904762 0.117819905 0.19927543 0.1838554 0.006882161 0.12255885 -0.10825712 0.23377065
0.2686483 0.1332645 0.09446889 0.21664663 0.11881841 -0.34656426 0.12566824 0.2416767
0.17200592 -0.0031570755 0.39259458 0.2998803 0.22387178 -0.10180548 0.13913566 0.14599955
-0.14134662 0.14698707 0.28007406 0.109619245 0.04648794 0.10698867 0.051459495 0.14381891
0.42297623 0.28970978 -0.05344603 0.11815851 -0.1578937 0.13407591 0.23155126 0.028425211

layer.6.weight f4 [8, 128]
00000000: 5b8d ad3d c1b4 cf3c 8afd 123d 3b47 293d
00000010: 9c4f 953c ca58 cabc 242c 183d 68cd 8b3c
00000020: 4a38 163c 627b bebc 0c87 513b 72d0 31bb
00000030: 94e1 443d c098 c13a 9c00 afbc 4b44 c63c
00000040: fce5 fabc 28f6 4bbd 897b 1c3c fb39 c3bb
00000050: d0ae cf3c e4a3 4b3d 69ac 16bd be4d 6c3c
00000060: 9c79 8d3c dc29 74bc d6cd 4b3c f31e 5bbc
00000070: e476 d3bc fd7e 793b aad2 7cbd 2402 423d
00000080: b462 e13b 878e e4bc d586 213c f815 c239
00000090: dc0f 023d f62b ca3c b94d c8bc dbce ddbb
000000a0: 608b 21bd 4f37 c0bb 571d 6cbb ac67 6dbb
000000b0: 47ad d53b 28c3 103b 4d75 e33c 4c66 83bc
000000c0: c07a 9abc 246d c13c 6952 92bc 658c 133d
000000d0: f5ce bfbb 21c4 ab3c 2e26 ed3c eaec afbc
000000e0: 8419 033d d9ae ffbc 28b7 a83b 88ee dfbc
000000f0: 922a 0abd a028 563c aae1 54b9 97cc 07bd
00000100: 6a98 42bc 7ebf e63c 6c0a 5d3c 2d2f 2dbd
00000110: 41ae 48bd 0046 523d aad7 71bc 3c81 e63a
00000120: d0c5 05bc dbc9 8e3c badc c0bb b057 d73c
00000130: 43d8 1abd aeb8 46bd a383 4f3d fd57 963c
00000140: 0d55 6bbc e638 c03c 2930 98bc 54e0 a6bc
00000150: 8658 8cbc 32cd 0cbd 2bda 10bc c457 b1bb
00000160: 9727 6239 60cc 11bd 2f1e 543c 3dbf 9ebb
00000170: c743 d2bc 0aa6 87bc 7b54 223c fa4d 18bb
00000180: 268b 0b3d 661a 9c3c b55d 94bc 68d7 e1bb
00000190: 7b6d a03c de18 edbb 11cd 7a3a c0ff 94bd
000001a0: 0a16 aabb ae10 ccbc be9e 35ba 2512 053d
000001b0: 879a 423d 8daf 70bd 1366 60bc 0d16 17bc
000001c0: ad01 293d 8767 4ebd 9fb6 0c3a 689f 3d3c
000001d0: 7488 f83c 0faa 503d cbc1 aabc 37f1 55bd
000001e0: 657c 093d caa1 41bd a920 5bbd 2502 06bd
000001f0: 6342 1a3d bb22 4cbd 48f6 35bd 5fc3 943c
00000200: b1e0 463d 5547 1abd 755d a3bb d9c6 a5bd
00000210: 4056 213d 57f1 4ebd 2fc7 b0bc 13aa 183d
00000220: c760 20bd dc7e 163b bb60 11bd b303 c6bc
00000230: afae 473c e51e 4a3b e749 9dbb f404 7bbc
00000240: e7f6 f03b d544 03bd 87ae 13bd fafc 58bd
00000250: 1436 97bb c699 ecbb e1ad c3bc 1261 193c
00000260: 0a13 f93c 53e0 f23c 21e1 efbb b21a a13c
00000270: 3d66 be3b 181d 9fbc c313 d1bc 3507 873d
00000280: ffbb dbbc 4a03 0e3d aa58 d4bc 4b94 b5ba
00000290: ae56 a33d a488 5a3d b807 ba3c 376d 373d
000002a0: 8794 02bd 6853 4aba a14e e3bb 928d 323d
000002b0: 0297 82bb ebe0 bfbc 4090 5a3c 89bc 80bc
000002c0: f6d5 c3bb 749e 38bc 8418 2fbc cc26 ce3c
000002d0: 153e 8b3c 5c07 c0bc 94e9 1ebc ed24 acbc
000002e0: a6b5 5a3c 874e 163d a9b2 a43a 3742 5dba
000002f0: 1116 ebbc be2f 3d3c 5763 4dbb 2f24 723c
00000300: dee3 f7bb 2be2 203d cb7a b23c efbd 9cbd
00000310: ba05 9d3c 57d1 8ebc 6c57 fcbc 4b3c 8fbc
00000320: e612 163d fd86 2cbc e9a9 85bd 9b3c 753d
00000330: be0a 87bc 83b2 13bd c0f2 10bd 8c82 893c
00000340: b73d dfbc c7e1 963c 00a4 cc3a aa2c 68bc
00000350: c3d9 96bb ce50 2e3a 4de7 03ba 7b21 733a
00000360: cbe5 daba 7469 203c 9065 633c d9d3 cb3c
00000370: de3e 3bbc b8eb 993c 10b5 3ebd efda 39bc
00000380: 130b da3c 032c cdbb 2c01 003c 9475 ad3a
00000390: 1fa5 10bd b153 633c bfb2 353d b390 b5bd
000003a0: 6228 a8bc d944 be3c 0bea cbbc 1649 05bc
000003b0: 9487 9ebc eb27 08bd ff57 593c 3b21 fdbc
000003c0: 31d7 1fbc a8ee 96bc 3469 f1bc c9ff 0b3c
000003d0: 0c91 663d 2e96 b43c 2730 52bc 28f6 6f3b
000003e0: ae63 4dbb 278d 56bc fa4d 4c3c 04b0 23bd
000003f0: 695c 19bb 5415 393c 74d9 313c f6e7 6dbc
0.08474227 0.025354745 0.035886325 0.041327696 0.018226437 -0.024700541 0.03715147 0.017065719
0.009168694 -0.023252193 0.0031971363 -0.00271323 0.04806669 0.0014770254 -0.021362595 0.024202487
-0.030627243 -0.0497953 0.009550937 -0.0059578395 0.025351912 0.049716845 -0.036785517 0.014422832
0.017269902 -0.014902558 0.012439212 -0.013374078 -0.025813527 0.0038070076 -0.061724342 0.047365323
0.0068782214 -0.027899994 0.009858807 0.00037018931 0.031753406 0.024679165 -0.024451124 -0.006769044
-0.03943956 -0.0058659683 -0.003602823 -0.0036225123 0.0065209004 0.0022088978 0.027765894 -0.01603999
-0.01885736 0.023611613 -0.017861562 0.036022563 -0.0058535286 0.020967545 0.02894887 -0.021475274
0.032006755 -0.031211304 0.005148787 -0.02733542 -0.033732004 0.013071209 -0.00020301962 -0.033154096
-0.011877159 0.028167482 0.013491254 -0.04228132 -0.048994306 0.05133629 -0.014760891 0.0017586122
-0.008164838 0.017430237 -0.0058856877 0.02628693 -0.0378039 -0.048515968 0.050662648 0.018352503
-0.014363539 0.023464631 -0.018577652 -0.02037064 -0.017132055 -0.034375377 -0.008841078 -0.005412074
0.00021567788 -0.035595298 0.012946649 -0.0048445747 -0.025667084 -0.016558666 0.009907837 -0.0023239837
0.03406825 0.019055557 -0.01811109 -0.0068921335 0.019583454 -0.0072356304 0.00095673004 -0.07275343
-0.0051906155 -0.024910297 -0.00069282565 0.032488007 0.04751065 -0.05876117 -0.013696211 -0.009221566
0.041261364 -0.0503917 0.0005367789 0.01157365 0.030338503 0.05094343 -0.02084436 -0.052231994
0.033565897 -0.047273435 -0.053497944 -0.03271689 0.037660968 -0.04983781 -0.044424325 0.018159566
0.048554126 -0.037665684 -0.004985506 -0.08094568 0.039388895 -0.05052313 -0.021579353 0.03727157
-0.039154794 0.0022963798 -0.03549264 -0.024171686 0.012187644 0.0030841168 -0.0048000696 -0.015321005
0.007353652 -0.032048065 -0.036055114 -0.052975632 -0.004614601 -0.0072204797 -0.023886623 0.009361522
0.030404586 0.029647982 -0.0073205386 0.01966605 0.0058105276 -0.019423053 -0.025522118 0.065931715
-0.026823042 0.034671105 -0.025921185 -0.0013853399 0.07975517 0.053352967 0.022708759 0.04478189
-0.031879928 -0.0007718117 -0.0069368635 0.043592043 -0.0039852867 -0.023422679 0.013340056 -0.0157149
-0.005976434 -0.011268247 -0.010686997 0.025164984 0.016997376 -0.02344101 -0.009699244 -0.021013701
0.013348972 0.036695983 0.0012565452 -0.0008440348 -0.028697046 0.011547027 -0.0031339729 0.014779135
-0.0075650057 0.03927819 0.021787068 -0.076534145 0.01916777 -0.017433805 -0.030803405 -0.017484805
0.036639117 -0.010530231 -0.065265484 0.05987225 -0.016484614 -0.036058914 -0.035387754 0.016785882
-0.027251108 0.018418206 0.0015612841 -0.014170805 -0.004603596 0.0006649614 -0.000503172 0.00092747033
-0.0016700564 0.009790767 0.013879195 0.02488129 -0.011428563 0.018789157 -0.046559393 -0.011343702
0.026616609 -0.00626135 0.007812779 0.0013233894 -0.03531372 0.013874934 0.04435992 -0.0886549
-0.020527069 0.023226188 -0.024891874 -0.008135101 -0.019351758 -0.033241194 0.013265609 -0.030899635
-0.0097558955 -0.018424347 -0.02946911 0.008544871 0.05629067 0.022044268 -0.012828863 0.0036615226
-0.0031339931 -0.013095177 0.012469763 -0.039962783 -0.0023401028 0.011296589 0.0108550675 -0.014520636

layer.6.bias f4 [8]
00000000: 98f9 a03c 2b57 473d d7cb 8b3a cd18 623d
00000010: 15d2 dd3d 6af9 453e 7ba8 a23c fecf cb3c
0.019650266 0.048667114 0.0010665607 0.055199433 0.108310856 0.19333425 0.019855728 0.024879452
