final/save/1l_0.95_200_morelayer/save3_10000.pth (torch_old, 50952 bytes, 8 tensors)

layer.0.weight f4 [32, 28]
00000000: 81cf 98bd da6e 5dbe 201d 473e 3e50 4abe
00000010: 89f6 d6bc 0f7b 213e df1a 8c3d 4bc8 be3d
00000020: 20cf 493d 6f67 a7bd 2711 c73d d8ce 5fbd
00000030: 9168 483d 8e16 263e 9971 8ebd 169a 443e
00000040: 25d6 d03d 3375 383e f242 123e d190 8e3d
00000050: a6bf d73d b0a4 dfbc 13b7 b43c e5bb 7c3e
00000060: f7ee 6d3d ed1a dc3c bea1 eabd 62d2 a3bd
00000070: 24f3 3b3e a85e 093e 46d2 e03d f06f 6b3e
00000080: 9c16 b13d 5e8f 15bd adeb cc3c 5c1c 85bd
00000090: f400 fcbd 3c94 0b3b 5d9f 42bd 4735 a03d
000000a0: edb3 f4bd 65ce 13bd bfdb a8bd 014a e93d
000000b0: f154 723c 5b8c 4b3e a02f bdbd 85d2 203e
000000c0: 858b 893d 26aa 813d bb26 00be 3969 5dbe
000000d0: 1c47 82bd b0d5 043d 7ecf 213e 4de4 353d
000000e0: 7b90 193e a710 b53d 09be 5dbd 0368 353d
000000f0: cace 333d ea9b 163d 136f 503e 2136 90bd
00000100: 9be3 4abd 9354 3bbc d145 273e 7c4e 6d3c
00000110: f971 4d3e 5a77 a0bd aca1 a53d d8fb 60bd
00000120: bfd1 87bb bf66 f8bd 85af 3cbe efaf ef3b
00000130: 9f4e 27be 803a a03c 8331 1bbe b32b 83be
00000140: fc7b 8dbc cf1d bd3d cbd5 213d da1f 063e
00000150: 98fb 1dbd dddc 57bc 29aa ac3d 6b44 a5bd
00000160: 761e b73d 4094 a73d 9bbc 883e 6ea3 823e
00000170: 8816 00be 2efc 4a3e 16ee 5b3e 55c8 d43d
00000180: 55e6 47bd 7603 f9bd e96a 98bd a786 26be
00000190: 32ac 1f3e b0aa 71bc b9ec c9bd 268a 16be
000001a0: 977f c6bd 2c4b 1abe ce60 11be 6fdd e5bd
000001b0: 8ae2 94bc 0fb5 39bc f6cd 193e 897b f1bc
000001c0: bcaa 55be cf5d 30be 4b1e 32bd e5d6 30be
000001d0: 4634 5fbe 518c e7bd 34b3 50ba 1e45 9fbc
000001e0: da99 333d a060 c9bd ab4f 953d c0da 4dbd
000001f0: 6010 343e 305c 583d 7930 683e 37d1 7c3e
00000200: 6694 3c3e 56e1 133e 5892 b93d 311b e63b
00000210: d92c 463e 57ee 0b3d 2a57 3a3d 37e2 403c
00000220: bc3c f73c f324 c1bd a3e5 babd 93bf 34bd
00000230: db06 de3c 7525 4abd 85b7 ac3d be84 c23d
00000240: 6f48 14be 0d59 c53d 621f 153e 36b1 3e3e
00000250: 0f08 1c3e 2bd7 563e b085 673e edda 0f3e
00000260: b420 60bd d4c7 b0bd a21a 07be 827b 9b3d
00000270: 2fd1 0dbe 82e4 fb3c e319 2abe 13a5 80bd
00000280: 54cc 13be fa54 adbd f980 19be 8c70 1cbb
00000290: 9df8 5dbd 7e88 b63b 8be0 133d 4391 f2bd
000002a0: 5ef1 1b3e 9b1f da3d 0d3b 5d3d b470 f9bd
000002b0: 31c5 e1bd 806f 80be d7d9 bf3c 8a4e d03d
000002c0: e03d 583e 1973 f1bd b7d6 8ebe e73f 72bc
000002d0: 7b10 2e3c f6a3 cb3d be72 053e 41c8 413e
000002e0: cae0 d33d cc40 04be 92e4 b7bc b1ed c9bc
000002f0: 68ab 2b3d 2199 613d fdf7 03be 1e49 8c3e
00000300: f02d 6e3e c0d3 ce3c 995a 39bd c13a 113e
00000310: 524f a93d be20 7a3d 7928 ed3c 79d5 443e
00000320: 7a73 53bd 309b 3ebc a92d 0ebe 3639 073e
00000330: b552 433e 6465 81bd 5801 653d 2eef 003e
00000340: 246d 523d c16f 88bd d818 9e3c d6da 8c3e
00000350: 3e9c 413e a2e3 343d 910b 42bd 33f1 183e
00000360: 4987 513d 84ae d7bd 7061 74bc 587a 953d
00000370: aa4d 9ebd 61de 603d b36f 83bc f35a 5a3c
00000380: 1ae9 183e 4879 a93d 23ed 38be 5a8a 223e
00000390: 3b4f ef3d ca58 863d 57f3 67be baf4 a5be
000003a0: ae6e 6bbe de55 503d da44 0f3e 93d5 ce3d
000003b0: a57f c73d 7cdb 39bc 55f0 d9bd 8919 863d
000003c0: 7728 7bbd 662a 13bd ed60 9dbd e5b0 14be
000003d0: 0b06 a8bd 8524 0dbe 1f0e 0c3d 5551 373e
000003e0: 8661 83bc a2a2 1a3e a6bb b7bd e517 96bc
000003f0: ba05 4c3b 0704 9fbd 5077 28be 45f9 61be
-0.07461453 -0.21624318 0.19444704 -0.19757172 -0.026240604 0.157696 0.06841063 0.093155466
0.049269795 -0.08174025 0.097200684 -0.05464062 0.048927847 0.16219541 -0.06955261 0.19199404
0.10197095 0.18013458 0.1428335 0.06961215 0.10534601 -0.027300209 0.022059953 0.24681051
0.058089223 0.026868308 -0.11456631 -0.07999112 0.1835447 0.13415015 0.109776065 0.2299192
0.086468905 -0.03651368 0.025014723 -0.0649955 -0.12304869 0.0021298071 -0.047515262 0.07822662
-0.119483806 -0.036085505 -0.08245038 0.11391068 0.014790759 0.1987776 -0.092375994 0.15705307
0.06716064 0.06331281 -0.12514775 -0.2162217 -0.06361219 0.03243035 0.15801808 0.044407178
0.14996521 0.08841067 -0.05413631 0.044288646 0.04389838 0.036769785 0.20354871 -0.07041574
-0.049533468 -0.011433738 0.16335227 0.014484044 0.20063008 -0.078352645 0.08087477 -0.054927677
-0.0041448767 -0.12128972 -0.1842633 0.007314674 -0.16338585 0.019559145 -0.15155606 -0.25619277
-0.017271034 0.09234201 0.03951053 0.13098088 -0.038570017 -0.0131752165 0.08430893 -0.0806969
0.08941357 0.08182573 0.26706395 0.25515312 -0.12508595 0.19822761 0.21477541 0.10389773
-0.048803646 -0.12158863 -0.074422665 -0.16262303 0.15593031 -0.014750168 -0.098596044 -0.14701137
-0.096923046 -0.15067738 -0.14197084 -0.11223876 -0.018174428 -0.011334672 0.15019974 -0.029477851
-0.20865911 -0.17223285 -0.04348592 -0.17269476 -0.21797284 -0.1130606 -0.00079612737 -0.019442137
0.043847896 -0.09832883 0.07290586 -0.050257444 0.17584372 0.05282229 0.22674741 0.24689184
0.18415985 0.14441428 0.09061116 0.0070222844 0.19353046 0.034162845 0.045493282 0.011772684
0.030180328 -0.09430876 -0.09125831 -0.044128012 0.027102878 -0.049352128 0.08433441 0.09497975
-0.14480756 0.09636126 0.14562753 0.18622288 0.15237449 0.20980518 0.22609591 0.14048357
-0.054718688 -0.08631864 -0.13193753 0.075919166 -0.13849328 0.03074861 -0.16611437 -0.062814854
-0.14433414 -0.084634736 -0.14990605 -0.0023870794 -0.054192174 0.0055704704 0.036102813 -0.11844113
0.15228793 0.106505595 0.054011393 -0.121796995 -0.110239394 -0.25085068 0.023419304 0.1017123
0.21117353 -0.11789531 -0.2789819 -0.014785743 0.010624046 0.099433824 0.13032052 0.18924047
0.103456095 -0.12915343 -0.022447858 -0.024649473 0.041911513 0.055077676 -0.12887569 0.27399534
0.23259711 0.025247455 -0.045252416 0.14182569 0.08267082 0.06106638 0.028949963 0.19222058
-0.0516238 -0.011633679 -0.13884605 0.13205418 0.19074519 -0.06318167 0.055909485 0.1259124
0.051373616 -0.0666194 0.019298956 0.2751071 0.18907258 0.0441624 -0.04737431 0.1493576
0.05115441 -0.10531333 -0.014915809 0.07298726 -0.07729657 0.054899577 -0.016044473 0.013327348
0.14932671 0.08275086 -0.1805921 0.1587309 0.11685034 0.06559904 -0.2265142 -0.32413274
-0.2299144 0.05086314 0.13991109 0.1009933 0.09741143 -0.011343833 -0.10641543 0.06547839
-0.061317887 -0.035929106 -0.07684503 -0.14520605 -0.082042776 -0.13783462 0.034193154 0.1790212
-0.016037714 0.15101102 -0.08971338 -0.01832194 0.0031131343 -0.0776444 -0.16451764 -0.22067745

layer.0.bias f4 [32]
00000000: ae16 38be 0e54 353e 3c21 c33d e8b8 1d3d
00000010: 094f 23be 4a51 3fbe 7749 94bb 2139 11bd
00000020: 552a 1f3e 287a 20be 8943 0abe a4a5 c93c
00000030: 7ed4 243e 56f6 693e 0a4f 8b3d 4ca5 2e3f
00000040: 51f9 833e 86cb 233c de78 05be 6d08 463e
00000050: 46fc 0b3e 1b91 813e 827e 16be 4271 fb3c
00000060: 257f 6b3d 990c c03d 4575 063e aff1 0cbe
00000070: c95e 493e f945 b03c 7a41 2abd d7a2 333e
-0.17977402 0.17707846 0.09527823 0.03850642 -0.15948118 -0.18683353 -0.0045253593 -0.035454873
0.15543492 -0.15671599 -0.13502325 0.024615116 0.16096684 0.22847876 0.06802185 0.68220973
0.2577615 0.009997254 -0.13034388 0.19339152 0.13670453 0.2530602 -0.14696696 0.030693654
0.0574943 0.09377403 0.13130672 -0.1376407 0.19665064 0.02151774 -0.04156635 0.17542587

layer.2.weight f4 [64, 32]
00000000: 5904 c4bc 05fc 0b3d bce1 94bc cdb6 753e
00000010: b37f debc fcde 793d 7892 16be c5bb 38bb
00000020: 4fdc bc3d 9d64 8abd 137c 34bd 91a0 96bd
00000030: 1d6e 893e 946f 083e 38a9 663e 22e9 d2be
00000040: 0186 2c3e 1956 9bbd f992 6e3d 5b48 72be
00000050: 6faa f3bd 8f62 563a fe23 1b3e a9e5 c2bd
00000060: 8a1f 32bc 104d 0b3e 3280 2c3c 91a4 f33d
00000070: c136 34be 42fc 40be 2fa1 183e ba26 98bc
00000080: 2efa 50bd 07b7 96bd 291f d2bd 7618 9fbe
00000090: 8d67 a3bc 1718 45be cb24 19be 61a0 dc3d
000000a0: 673e b1be 31f8 3f3d 3a8e 63be 6833 e33d
000000b0: ac2b 48be 1901 343d baa5 bd3d eefa 15bf
000000c0: cb42 43bd ea5f b0bc 2fe7 1bbe 1b84 833e
000000d0: afb1 bb3d 8a99 3e3e 982c 523e a0e0 2d3e
000000e0: e447 683d 6c9d 2cbe aaa0 183e 917e bdbd
000000f0: 97cc 073d 3faa 9abd b77e 42be ebc1 babd
00000100: af08 03be ce8d f93c 9447 f23d e7aa 96be
00000110: 932d 33be 804a 1cbe 1df1 d43d 1b09 2e3e
00000120: d89a 153e 53c7 45be 7121 353c 001e 94bd
00000130: 60f9 8c3e 4783 a9bd 0bd1 6fbd 28a3 b1be
00000140: f0c8 0d3e 6b1f 163d 626a 083d d8e8 4dbe
00000150: fa40 193d 9a22 883c ef18 013d 3142 743b
00000160: 1323 cebd 9804 a8be cc40 1c3e a9cc a6bc
00000170: 157d 50be 1ac6 7bbe 7de9 d23d 8075 683d
00000180: ff08 6cbe 8997 023e 0c12 243e 94eb d7be
00000190: d35e 90be 41d0 f2bd 9459 983d 8ffc 673e
000001a0: b7a9 8b3e ab90 4fbe 1e4f 69bb 7a9e f1bd
000001b0: a5a9 003e 752f e9bb e5e5 d7bc 75d2 50be
000001c0: 9bc5 093d 1ef2 543d b115 56be 9f84 e0bd
000001d0: e6c1 233e 4786 a5bd 3c90 033d 66d3 793c
000001e0: 4dbc 14be 7e10 2cbf a519 1e3e 5c99 20bd
000001f0: 12d3 fbbc 1ab2 17be c0b3 9fbd bcd4 bf3d
00000200: f9a5 31bd ddb2 70bd b07c 9c3d 81e4 83bb
00000210: 4cb0 ab3d b7f9 fdbd 3873 b1bc a264 a2bc
00000220: 55f6 6239 436c 0abe f797 0bbe 0470 033e
00000230: 7516 8dbd 057f c9bd 3d3c e1bd dc04 f1be
00000240: 2ceb 273e 04b1 0dbd 33ed 1ebc e73c 913d
00000250: a2ee d5bd f625 6abb 9038 413d c78c 6b3d
00000260: b77f 8d3d 2725 32bc 8991 4dbe 4c40 123c
00000270: 298c d33d da05 1a3e ee96 8bbd b4c4 0b3e
00000280: 3169 2e3e 84db 353e 3540 d0bc 0040 cdbe
00000290: b55d 093e b925 f9bd deda 55bd 0b19 413d
000002a0: 3529 913e 28f6 753c b717 88bd df52 a03c
000002b0: 5297 d93d 099e bdbd c80c f53b f223 f93e
000002c0: f6da f23d 146c e03d fbf0 fc3d ba40 89bb
000002d0: 0b83 253e c068 42be afa7 353e 4dc1 e13d
000002e0: 3911 e2bd a2eb f9be 7efa 113e 6c6c 653b
000002f0: 54d7 46bd c650 91bd 5aad 51be ac42 c1bd
00000300: c872 d73d 6adb ecbc da09 ac3d cd86 ffbd
00000310: e47e 25be 3806 d2bd 3dc1 09be 7101 67bd
00000320: 7151 c5bd e6cd a93c ece4 77be 6f06 163e
00000330: a9d8 54bd 8aad 863e 873c 443e df5b 71bd
00000340: 0373 ed3c 4482 6dbd 067c 58be 2a10 8b3e
00000350: 3e83 5a3d ec32 62bd c6c2 fb3d 7b10 fb3d
00000360: afe6 913d 8e20 8fbe bba0 18be 54ae 033d
00000370: 1712 563d 0990 d2bd ac44 37be 32ec 3abe
00000380: 7e5b 9f3d 7fdd 89bc 14a1 003d febd bebd
00000390: 7c71 f13d 9806 1dbd 114f 2c3d 4aa1 7c3d
000003a0: df20 883d c107 093e a248 2e3e 661a 82bc
000003b0: cb65 7f3d 6597 243e ccac 90be 53ae 173d
000003c0: 34f3 d93d 5d84 903d 7a2e 47be 964e 23bb
000003d0: a7a5 703d 2385 d7bd abd0 2a3e bff0 1e3b
000003e0: 4524 21be 5412 58bd df36 48be b5e3 19be
000003f0: 7773 00be 54f8 20be 1993 d93c bfdb f23d
-0.023927854 0.03417589 -0.018174045 0.23995514 -0.027160501 0.06100367 -0.14704311 -0.0028188091
0.09221708 -0.06757472 -0.04406364 -0.07354844 0.26841822 0.13323814 0.2252549 -0.4119349
0.16847993 -0.07584781 0.058245633 -0.23660414 -0.11897742 0.00081781385 0.15150449 -0.095164604
-0.010871777 0.13603616 0.010528611 0.11896623 -0.17599012 -0.18846229 0.14905237 -0.018573154
-0.05101984 -0.073591284 -0.102598496 -0.3107335 -0.019946838 -0.19247471 -0.14955442 0.10772777
-0.34617922 0.046867553 -0.22222224 0.11093789 -0.1954791 0.04394636 0.092601255 -0.58586013
-0.04767112 -0.02153011 -0.15224908 0.25686726 0.0916475 0.18613258 0.20524824 0.16980219
0.056709185 -0.16856927 0.14905038 -0.09252656 0.033154096 -0.07552003 -0.1899365 -0.09119018
-0.12796281 0.030463126 0.11830059 -0.29427263 -0.17497854 -0.15262794 0.10397551 0.16995661
0.1460985 -0.19314317 0.011055336 -0.072322845 0.27534008 -0.08276992 -0.05854897 -0.3469479
0.13846183 0.036651056 0.03330458 -0.20108354 0.037415482 0.016618062 0.03151792 0.0037270898
-0.100652836 -0.32816005 0.15259093 -0.020361261 -0.20360215 -0.24587288 0.102984406 0.05675268
-0.23050307 0.12753119 0.1602251 -0.4217192 -0.28197345 -0.118561275 0.07438961 0.22654937
0.2727792 -0.2027003 -0.0035600136 -0.11797805 0.12564714 -0.007116253 -0.02635474 -0.20392783
0.033635717 0.051988713 -0.20906712 -0.109627955 0.15991935 -0.08082252 0.032119974 0.015248155
-0.14524956 -0.67212665 0.1543947 -0.039208755 -0.030740295 -0.14814034 -0.077979565 0.09366748
-0.043371174 -0.058764327 0.0764097 -0.0040250425 0.08383235 -0.12401145 -0.021661386 -0.019823376
0.00021644805 -0.13517861 -0.13632189 0.128357 -0.06889049 -0.0983868 -0.10997818 -0.4707402
0.16398305 -0.034592643 -0.009700107 0.07091694 -0.10445906 -0.0035728193 0.047173083 0.057507303
0.06909125 -0.010873116 -0.20075049 0.008926462 0.10329468 0.15041295 -0.06815897 0.13649255
0.17032315 0.1775952 -0.025421241 -0.4008789 0.13414653 -0.12165398 -0.05221068 0.047143023
0.2835175 0.0150123015 -0.06645148 0.019570766 0.10624565 -0.092586584 0.0074783303 0.48660237
0.1185817 0.10958114 0.12350651 -0.004188624 0.1616327 -0.18985271 0.17739747 0.11023197
-0.11038441 -0.48812586 0.14255711 0.0035007251 -0.048545197 -0.070954844 -0.20476285 -0.09436545
0.1051994 -0.028913219 0.084003165 -0.12476883 -0.16161686 -0.102550924 -0.13452621 -0.05639786
-0.09634674 0.020728063 -0.2420842 0.14650892 -0.051964436 0.26304275 0.19163714 -0.058925506
0.028985506 -0.05798556 -0.21141061 0.2716077 0.05334782 -0.055224344 0.122930095 0.12259003
0.071240775 -0.27954525 -0.14905064 0.032148674 0.052263346 -0.10281379 -0.1789729 -0.18254164
0.077811226 -0.01682925 0.031403616 -0.09313582 0.117892236 -0.038336366 0.04206759 0.061677255
0.06646895 0.13381864 0.17019895 -0.015881728 0.062352937 0.16073377 -0.28256834 0.037031483
0.106420904 0.07056496 -0.19451323 -0.0024918667 0.05875173 -0.10523441 0.16681163 0.0024252383
-0.15736492 -0.052751854 -0.19552182 -0.1502827 -0.12544046 -0.1571973 0.0265594 0.118583195

layer.2.bias f4 [64]
00000000: 213b 9e3e 9aaa 803e a7a2 313e 5fe7 1bbd
00000010: b674 e43e 1c4e 093e f230 d239 94f3 9bbb
00000020: f5b8 e63d bc02 a0bc f823 653d 00e1 cf3e
00000030: 2068 0d3e 8856 503d 81a8 cfbb dddc ff3d
00000040: f627 b4bd 825a 013d 929a fa3c cdd1 893e
00000050: 3302 46bd 69a7 c4bd 5f16 ff3c 1922 9d3d
00000060: 6b3a a63d 633d 88bd 2406 bbbe 61cf a23d
00000070: a041 393e 94a5 3f3d 7704 eabd 5efe 903e
00000080: 15a7 403c 9fce be3d 200b 5d3d 8efb febd
00000090: ce95 ad3d 0d0d 143e ff82 843d 2b58 c1bc
000000a0: 1399 08be 7cf3 eb3d dfe7 c8bd 45d4 353e
000000b0: e59d b63e e447 8c3d 2849 8dbd 79ca 283b
000000c0: 6099 ddbd 7bd4 ccbe 4032 03bd 0bee 3fbd
000000d0: d175 ea3d cb92 94be 7abe 773e 2fa4 3bbd
000000e0: 60c6 263e 5290 803c 2855 263c 878c b83e
000000f0: 9ed7 b13d 6716 c73d d824 533c 1fe3 043c
0.30904487 0.2513016 0.17347203 -0.03806245 0.44620293 0.13408703 0.00040090788 -0.0047592614
0.112657465 -0.019532554 0.055942506 0.4060135 0.13809252 0.050863773 -0.006337226 0.12493298
-0.087966844 0.031580456 0.030591283 0.26917878 -0.04834194 -0.096022435 0.031138597 0.07672519
0.08116611 -0.066523336 -0.36528122 0.07949711 0.1809144 0.046788767 -0.11426633 0.28319067
0.011758585 0.093167536 0.053965688 -0.12450324 0.084758386 0.14458103 0.06470298 -0.023601612
-0.13339643 0.1152105 -0.09809851 0.17756756 0.3566734 0.068496495 -0.06898719 0.0025755449
-0.108202696 -0.4000586 -0.032030344 -0.046857875 0.11448253 -0.29018244 0.24193755 -0.045810875
0.16286612 0.015693817 0.010152139 0.36044714 0.08683704 0.0972107 0.012887202 0.0081107905

layer.4.weight f4 [128, 64]
00000000: 36cd 593c 5c30 4a3c 4152 0f3e 4d5c 633d
00000010: 9398 d9bd 6e8e a6bd cc30 733d 22eb a93d
00000020: d700 3dbb d105 b43d 8183 b9bc 6c77 213e
00000030: 76f6 0cbd 7384 443e 91fc 883c af5c c93d
00000040: 045c 153d a6b1 433d 7480 c53d a732 1c3e
00000050: 1bff 72bd db54 0e3e d0fe 36bd 1439 003d
00000060: 6196 043e d3d5 e5bd b620 413e 4a71 b03d
00000070: 0e1e 08bd 1d10 913b 2bfc c83d 4962 f33d
00000080: 2c05 29bd 7ca7 023d a945 2abd 9d8f 0a3e
00000090: e9c3 0d3d b677 76be 7584 2abd 9fc3 7e3d
000000a0: 1591 bcbd 33ac 8e3d 012e 7e3d 081e bc3d
000000b0: 19bf d83c cf00 063e 9aac f7be 860d f9bc
000000c0: 7123 d7bd 94ce 2bbd 0a53 24bd c571 6d3e
000000d0: 8ff2 643e 7b2b febc a015 d83d c99d 3a3d
000000e0: 3e92 133d 461d 05be 6b8c d83d 20f7 0e3d
000000f0: 8c3f 16bd 522e 16be ef0d 07bd ed17 b33c
00000100: 7f56 003e dab7 2b3e d300 3f3d f5b1 1abe
00000110: 16e6 3c3e b05a 2cbe 7c80 093d b22e 43bd
00000120: 703d 59bc f17f 213e c5b3 60be 8f39 053e
00000130: f05a 663d 429a 06bc 7ae0 d93d 88d8 b2bc
00000140: d5f4 bfbd a867 d23d c387 2b3d 01e0 54bb
00000150: 6e3f c93d 34b5 ddbd dd06 30bd 7179 623b
00000160: 70af a93d 9be9 9cbd 2b90 a4bd 71b0 48bd
00000170: 6914 e03d f649 ebbd ba2b a6bd 4c97 3e3e
00000180: eb21 a1bc 3a37 e13d e41c abbd b43d 7b3c
00000190: 27a7 163d 7e0d b73c 0c49 01bd 839b a0bd
000001a0: b90a 333b 9fd3 c63d 2e2e fabb 316b 13bb
000001b0: b8b6 223e ff43 67bc 2870 9bbd a41e 3dbe
000001c0: cd5c 62bd c144 2abe 8a7e 68bd 71f4 0bbd
000001d0: 48d3 5d3d 2b16 ccbd 0aa0 e53d c807 c9bc
000001e0: e0aa 003e 3722 5cbe d7d7 e1bd 21f8 e23d
000001f0: 835b cbbd 8dab a53d 9362 8fbd bd93 003e
00000200: f141 29bd 1fe9 f03d 7575 b13d 9f5c 023e
00000210: 4a1c 2abe 4f5f 0d3e 74b2 273e d867 f03d
00000220: 2766 eabc 4f8e 253e 9c05 cbbd 82fc 88bd
00000230: bc1b a3bd 5ddf eb3d 4ea5 193e b42d 94bc
00000240: 98b9 f4bd 291d 393e 3ea8 aabd f86e 9ebd
00000250: 4158 c83d 9df5 ef3b 5a33 e03d 7a71 373e
00000260: 33f7 613c ef9e 57be de63 7f3e 9eb3 aa3c
00000270: 56c8 ce3d d9ef 91bd 826e 07be b7cb 44bd
00000280: 4340 59bb d133 b23d d573 543d 4a7a c43c
00000290: b733 0e3e 773e 27be 9437 17be 6959 a23d
000002a0: 8289 903d 283e 51bd 58f1 d53d 6dbc 57bc
000002b0: 51a5 b03a 67c3 ef3d 7138 f5be 0f75 7b3d
000002c0: b8b0 fcbc 20bd 2e3d 2d66 9ebd e4e4 3b3e
000002d0: aadc 533e 5188 153e 7672 fa3d c81b 0e3e
000002e0: e576 c63d b331 513e 4ebd 923d 0517 e5bd
000002f0: ae4f 043e 554c 8f3c a400 66bd 9930 41bc
00000300: 4715 b0bd 5c5f 03bd b3da e5bd 0f6f 903d
00000310: 19a0 89bd df5c 843d ac56 4ebd 5dce 3a3d
00000320: 7ca3 9c3d 40b2 afbb ef2b 8cbd 6ec6 e3bd
00000330: bfb1 aebd 3265 2dbd d98e 04be 3e01 b9bd
00000340: 6840 c43b 1117 cbbc 07a2 8bbd c367 2b3d
00000350: a6e2 92bc 47fb 533a c776 98bd 373e f5bd
00000360: 42d5 93bd 68cd 97bd af49 b4bd b5c9 2c3d
00000370: 3beb 9dbd 54b1 ac3d f10b 17bd adc7 c7bd
00000380: e2ca 9ebd ad2e 31bd 44b7 1d3d b345 f8bd
00000390: d655 d4bd af63 c23d ab5f b93d 4b46 103d
000003a0: 390d dbbd 32d9 9f3d d7a6 b43d da3d 503d
000003b0: c2f8 b23d c12f 583d 1cc2 2dbd b009 0dbd
000003c0: 0930 1f3d 9016 203d 2d1e 5fbd f4b7 dbbd
000003d0: bcdb 93bc ea3b 64bc a312 70bc c0cc 9fbc
000003e0: 5042 6c3c ec3b bf3c ec40 5b3d 6fe5 9bbc
000003f0: 7553 b33d e050 a1bd 1335 c9bd a6ec 77bc
0.013293555 0.012340631 0.13996221 0.055507947 -0.10624804 -0.08132635 0.05937271 0.08296801
-0.0028839612 0.08790172 -0.022645714 0.15768212 -0.03441473 0.1919115 0.016721996 0.09832131
0.036464706 0.04777684 0.09643641 0.15253697 -0.05932532 0.13899557 -0.044676602 0.031304434
0.1294799 -0.11222424 0.18860134 0.08615358 -0.033231787 0.0044269697 0.09813722 0.11883981
-0.041264698 0.031898007 -0.04157034 0.13531347 0.034610663 -0.24069104 -0.041630227 0.062198278
-0.0920736 0.06966438 0.06205559 0.091854155 0.02645831 0.13086246 -0.48373872 -0.030401956
-0.10504807 -0.041945055 -0.040118255 0.23187931 0.22358154 -0.031026592 0.10551 0.045560632
0.03602814 -0.12999448 0.105736576 0.034903646 -0.036681697 -0.14666107 -0.032972272 0.021861995
0.12532996 0.16769353 0.046631645 -0.15106948 0.18447146 -0.1683147 0.033569798 -0.047651954
-0.013259277 0.15771462 -0.21943577 0.13010238 0.05623907 -0.008215489 0.10638519 -0.021831766
-0.0937287 0.10273677 0.04187752 -0.003248215 0.098265514 -0.108255774 -0.042975295 0.0034557248
0.08285415 -0.07661744 -0.0803531 -0.048996393 0.10941393 -0.11488716 -0.08113809 0.18612403
-0.019669494 0.10996862 -0.0835512 0.015334535 0.036780503 0.0223453 -0.031563804 -0.078421615
0.0027319624 0.09708332 -0.0076348996 -0.002249431 0.15890014 -0.014115333 -0.075897515 -0.1846872
-0.055264283 -0.1662779 -0.056761302 -0.034168664 0.05415657 -0.09965166 0.11212166 -0.024539843
0.12565184 -0.21497427 -0.11027496 0.11082483 -0.09929564 0.08089361 -0.070012234 0.12556358
-0.041322652 0.11763214 0.08664981 0.12730645 -0.16612354 0.13805889 0.16376668 0.117385566
-0.028613163 0.16167568 -0.09913179 -0.06688787 -0.07964274 0.115172125 0.15004465 -0.0180882
-0.11949462 0.1807753 -0.08332871 -0.07736009 0.09782458 0.0073229806 0.109472945 0.17914382
0.013791847 -0.21056722 0.2494044 0.020837601 0.10096805 -0.071258254 -0.13225749 -0.04804584
-0.0033149875 0.087012894 0.05186828 0.023984093 0.13886915 -0.16332422 -0.14767295 0.0792721
0.070574775 -0.051084667 0.10446423 -0.013167483 0.0013477003 0.11707192 -0.47894624 0.061390933
-0.030845985 0.042660832 -0.07734332 0.18349034 0.20689645 0.14602782 0.12228863 0.13877785
0.09690646 0.20429115 0.07165013 -0.11186031 0.1292102 0.017492453 -0.056152955 -0.011791372
-0.08597808 -0.032073364 -0.11223354 0.07052433 -0.06719989 0.06463026 -0.050375625 0.04560696
0.0764837 -0.005361825 -0.06844317 -0.11121832 -0.08529996 -0.042332835 -0.12945117 -0.0903344
0.005989123 -0.024791272 -0.06818014 0.041847 -0.01793034 0.00080864545 -0.0744453 -0.11974757
-0.0721841 -0.07412225 -0.088031165 0.04218455 -0.07710882 0.0843226 -0.036876623 -0.09754882
-0.077535406 -0.043257404 0.038504854 -0.12122669 -0.103679344 0.094916694 0.0905145 0.035223287
-0.106958814 0.078050986 0.08820885 0.050840236 0.08738853 0.052779917 -0.042421445 -0.034433067
0.03886417 0.039084017 -0.054472137 -0.10728446 -0.018049113 -0.0139303 -0.014652881 -0.019506812
0.014420107 0.023344003 0.05352871 -0.0190303 0.087561525 -0.07876754 -0.09824576 -0.015132105

layer.4.bias f4 [128]
00000000: a393 1cbd 3686 923e 2888 1a3e 4257 f7bd
00000010: 7394 ba3e b2ed 29bb 093f 9b3e a9f0 153e
00000020: 5582 113e 155e 903b ef27 d23d f8b0 5a3e
00000030: 24a4 423e 9a7a 3f3e 7f75 313e 49f9 a83d
00000040: af00 8d3e 877d a6bb 6251 993d 1b70 0d3e
00000050: c8cc 883e 702d b33c 3110 fa3d d1e6 8d3d
00000060: afff 193e 77de 3d3e ffa3 723e 350f 4e3e
00000070: 2d7c aa3d bc59 b8bd 6d3c 253e b1bb 9f3c
00000080: 3721 7a3e 570b 053e 287a 3d3e a906 6d3e
00000090: c163 963e 451d 1dbd 9bbc 61bd fc42 823e
000000a0: e9d7 bc3d e292 793e 72d3 f83d 2a7f bc3d
000000b0: 8607 18be fb0a 233e 778b 36be ab94 fe3b
000000c0: a245 ef3d bd2b 623e bb87 353e a233 bf3e
000000d0: 8e03 a43e 6d06 733d ae56 eb3c a0c6 ff3d
000000e0: 18fa 373e d439 7e3e 5af0 713e 90ae 893e
000000f0: 1441 fd3d ba72 59be dccb 4c3e 0ea8 cc3d
00000100: 1cff 8abb b809 6f3e a261 7dbd abad 7ebd
00000110: 7821 8fbc 3f0e 043e 28ae ac3d e311 de3c
00000120: 4a91 50bd ebd1 7b3e f337 ee3d db16 2dbe
00000130: 0d13 c93d 18ed 0d3d a346 023e 1010 123e
00000140: 6636 153e 1ab9 7c3e afbc 8c3e 0453 143e
00000150: def3 db3d 0efe 8c3d 5548 213d 4c4e 783e
00000160: 8f23 143d 6135 b73d 2b53 593e e350 1a3e
00000170: 19d0 2b3c ea8b 053e e121 bebd 0b46 383e
00000180: e224 603e 607a bf3d c471 5b3d b66e 463e
00000190: 6758 153e 6e9d 8abe 5abf 033e 202d 4a3e
000001a0: 9848 033e 6e40 ef3c 0a23 b73e 685a 863e
000001b0: cddc 253e ed05 8cbd fe4e 123e 1e5a b73d
000001c0: 4a0a 22be 54f9 3e3e f93f 853e a50b a53d
000001d0: 5254 993c 39bf ac3d 0295 8c3d 5c8d d03d
000001e0: 78e3 c03e 685a 973e 1c47 53bd 70bd f93d
000001f0: 6253 bdbd a415 e73d da6b 443e 61f5 7b3c
-0.038226735 0.2861802 0.15091002 -0.1207719 0.36441383 -0.002592903 0.3032153 0.14642586
0.14209874 0.0044057467 0.10261523 0.2135657 0.19007927 0.18699113 0.17329977 0.08250672
0.27539584 -0.005080882 0.07486226 0.13812296 0.26718736 0.021872252 0.122101195 0.0692879
0.15038942 0.18541895 0.23695372 0.20122989 0.08324466 -0.090014905 0.16136332 0.019498678
0.24426733 0.12992607 0.1850363 0.23147072 0.2937298 -0.03835799 -0.05511151 0.2544173
0.09220869 0.24372438 0.12149705 0.09203942 -0.1484662 0.15922157 -0.17826639 0.0077691874
0.11683203 0.22086997 0.17727558 0.3734408 0.32033962 0.0593323 0.028727856 0.124890566
0.17966497 0.24826747 0.23626843 0.26890993 0.12365928 -0.21235171 0.19999641 0.099929914
-0.004241837 0.23343551 -0.061860688 -0.06217734 -0.017472014 0.1289606 0.08431655 0.027108138
-0.05091981 0.24591796 0.11631765 -0.1690325 0.09818087 0.03464994 0.12722258 0.1426394
0.14571533 0.24679986 0.27487704 0.14484793 0.10739873 0.068843946 0.03937562 0.24248618
0.036166724 0.08945728 0.21223132 0.15069918 0.010486626 0.13041654 -0.09283806 0.1799547
0.2188907 0.09349513 0.053575292 0.1937817 0.14584504 -0.27073234 0.12865964 0.19743776
0.12820661 0.029205527 0.3576892 0.2624085 0.1619751 -0.06837068 0.14287946 0.08952735
-0.15824237 0.18649799 0.2602537 0.08058862 0.018716965 0.0843491 0.068643585 0.10183212
0.37673545 0.29561162 -0.051581487 0.121943355 -0.0924442 0.112834245 0.19181767 0.015378327

layer.6.weight f4 [8, 128]
00000000: 6bb2 b43d 2451 ec3c b87e 1d3d 3b47 293d
00000010: 3591 893c 58ea adbc 3294 453d 0ddd c63c
00000020: c136 703c 114c bcbc 9b50 933b 2a25 c6ba
00000030: 51dc 693d cf00 44bc 0a28 aebc 8153 153d
00000040: 30ca 2ebd 6ad1 0dbd d202 ba3b 3f48 fabb
00000050: 6a2c c53c 8bc1 233d d425 02bd c5d1 0c3c
00000060: dccb a53c 1b5d f5bc 8afd 4cbc 6af6 b7bb
00000070: a033 d2bc 6022 acba 91ef 7dbd 0559 4a3d
00000080: d43e 143c 9f96 10bd abc6 853c ddaa dc3b
00000090: 0c0b ea3c 390d 353c 3d5a 06bd df92 4bbc
000000a0: 0ad4 04bd fd5d c33c 435c 31bc 5e3b 59bb
000000b0: d514 fb3b db30 b03b 8cee a53c bfdd 88bc
000000c0: ce1b ffb9 9562 1b3d 9bbe 18bc 84dc 1c3d
000000d0: ba47 27bc 79ce 043d bda9 043d 2107 e6bc
000000e0: dd1c c63c dba1 d1bc 238e f23b 9631 d7bc
000000f0: 5bf9 00bd 855a 8b3c b6b1 ec3a ba95 fabc
00000100: 157a d4bc f0f9 0b3d 0849 eb3b 4cbe 3cbd
00000110: d733 3abd 498a 7d3d c68e 03bd e027 093c
00000120: c15e 7bbb 98af ab3c a785 da3b 280f a73c
00000130: 790a debc 8e47 51bd 8ef1 703d 1bdc b03c
00000140: bf8f 4fbc 8c55 d23c dd7b a4bc cc16 e2bc
00000150: ce29 5ebc e8b3 c3bc de13 87bc 9775 1b3b
00000160: 2d6d cebb 151d 0abd fb81 833c 97a7 81bb
00000170: e0a4 eabc 0b7f 6dbc 8dd8 1a3c c426 a4bb
00000180: 4fc0 023d 8a7a a83c 25b4 a7bc 04b9 1dbc
00000190: a732 893c 8232 0ebc 6435 113b ee8d a2bd
000001a0: 4b40 06bc 8295 d0bc fea0 ebbb 2111 b13c
000001b0: 5fde 3e3d 1a1d 79bd 7657 3dbd c3d2 15bb
000001c0: dd91 463d a810 5fbd ef5f 87ba 0f2f d03c
000001d0: 7c31 0a3d 2a63 7f3d d442 acbc 3a59 59bd
000001e0: 3d57 2d3d ba09 40bd 305e 5bbd ff49 02bd
000001f0: 96be 2c3d 2bff 1bbd 7752 2fbd 1ac5 903c
00000200: a46b 5c3d 6110 28bd b7d7 30bb d9c6 a5bd
00000210: 8a8e 0e3d e470 3cbd ffd6 b7bc 643e 263d
00000220: f10e 20bd 6461 9bba dd4a 00bd 3085 88bc
00000230: 4ddf 633b 5793 8c3c f064 b73a ee43 47bc
00000240: 81a4 813c eaee cfbc 4b76 06bd d0c5 52bd
00000250: 060f 84bc 0c37 93bb 8c22 6bbc 3ec1 fe3b
00000260: ddf2 173d cc64 f63c bdb8 83bc 0a0a a33c
00000270: 13a8 ec3b 02b0 c8bc 00c6 bdbc 5ea2 843d
00000280: 024e e0bc 789a 103d b260 c2bc 1ccb 36bc
00000290: fff4 933d f153 673d 68e5 f13c cb55 443d
000002a0: d803 e0bc 7ad2 223c 6b70 cbbb d9bc 473d
000002b0: d770 413c 94e3 c3bc a7b1 3d3c 6192 5bbc
000002c0: d0c1 793b 133e 913b 01fe 45bc ada1 c73c
000002d0: 12ae 7b3c 0176 acbc 958d 5fbc 91ec 9bbc
000002e0: 9aad 343c 1dae 2f3d c785 133b f9c5 843a
000002f0: 50b6 16bd 37a9 4b3c d733 ad3b 29b5 a63c
00000300: 5a29 46bb c9b2 1e3d f9dc e33c 2a90 b3bd
00000310: 6fc1 b03c 24ef 8bbc e87c 02bd 3dc8 a6bc
00000320: c608 273d 6458 5fbc 012b 6abd 189b 803d
00000330: c391 95bc d1da 0ebd c2f9 fabc ece7 ac3c
00000340: bf80 edbc 68d5 ac3c 6152 983b 29b4 3bbc
00000350: 840e 8fbb dce1 133b 293e 1abb be1d 053b
00000360: b867 58ba 3e0e 0b3c 13f3 2b3c 20de 0b3d
00000370: 21b7 d8bb 54de a03c 8b51 4ebd fe31 d3bb
00000380: f9a8 ed3c 6338 6cbb 9b10 063c b4e4 c93a
00000390: bbce e1bc bf78 703c a32e 353d aec3 aabd
000003a0: 7fba 9ebc 486b c03c 4692 b4bc 24ec 3cbc
000003b0: 76ea 98bc 982a 12bd 8dce 13bc 8377 dabc
000003c0: 2c11 3cbc 6c7d 3abc cb5a 2cbd a626 543c
000003d0: 5f1d 7d3d e746 973c 1377 5dbc bc10 923a
000003e0: 6abf 4dbb 9911 59bc d325 7c3c 0ad5 35bd
000003f0: 7ad3 36bc a55d a33c 680b 683c 8da9 4cbb
0.08823093 0.028847285 0.038450927 0.041327696 0.016792873 -0.021229908 0.048237033 0.024275327
0.014661492 -0.02298549 0.004495693 -0.0015117277 0.057094876 -0.011963083 -0.021259326 0.03645659
-0.04267329 -0.03462354 0.0056766057 -0.007638007 0.02406903 0.0399795 -0.031774357 0.008594935
0.02023881 -0.029951623 -0.01251162 -0.0056140916 -0.025659382 -0.0013132803 -0.061996046 0.049401302
0.0090481825 -0.035299893 0.016330084 0.0067342357 0.02856972 0.011050516 -0.0328009 -0.0124251535
-0.03242878 0.023848528 -0.01082522 -0.0033146958 0.0076623955 0.005376918 0.02025535 -0.0167073
-0.00048658106 0.037935812 -0.009322788 0.038296238 -0.010209972 0.03242347 0.032388438 -0.028079571
0.024183685 -0.025589874 0.007402198 -0.026268762 -0.031487804 0.017010937 0.0018058333 -0.030588973
-0.02593712 0.034173906 0.007180337 -0.04607992 -0.045459595 0.061899457 -0.03211858 0.008371323
-0.0038356038 0.020957753 0.0066687646 0.02039297 -0.027104603 -0.05109363 0.058824115 0.02158933
-0.012668549 0.025675558 -0.020078594 -0.027598761 -0.013559772 -0.023889497 -0.016488966 0.0023721212
-0.006299636 -0.03371914 0.01605319 -0.003956746 -0.028643072 -0.014495621 0.009451044 -0.005009504
0.03192168 0.020566244 -0.020471642 -0.009626631 0.016747786 -0.008679034 0.0022157067 -0.07937227
-0.00819404 -0.025461916 -0.0071908226 0.021614613 0.04659879 -0.06081877 -0.046225987 -0.002286122
0.04847895 -0.054459244 -0.0010328273 0.025413064 0.0337386 0.06235043 -0.02102796 -0.05306361
0.042319525 -0.046884276 -0.05355662 -0.03180885 0.042173944 -0.038085144 -0.042803254 0.01767211
0.05381359 -0.041031245 -0.0026984045 -0.08094568 0.034803905 -0.0460061 -0.022441385 0.040586844
-0.03907675 -0.0011854586 -0.031321395 -0.016665071 0.0034770549 0.0171601 0.0013991874 -0.012162192
0.015825512 -0.025382478 -0.032827657 -0.05145818 -0.016120445 -0.004492646 -0.014351498 0.007774501
0.037096847 0.03007736 -0.016079301 0.019902248 0.0072221844 -0.02449799 -0.023165703 0.064762816
-0.027380947 0.035303563 -0.023727749 -0.0111568235 0.07224464 0.056476537 0.029528335 0.04793338
-0.027345583 0.009937877 -0.0062084696 0.048764084 0.011806688 -0.023912229 0.011578 -0.013401599
0.0038109906 0.0044324487 -0.012084485 0.024369085 0.015361326 -0.021052362 -0.013644596 -0.019033702
0.011027718 0.042890657 0.0022510157 0.0010129801 -0.03679496 0.012430481 0.005285721 0.020350056
-0.003023705 0.03874472 0.027815329 -0.087677315 0.021576611 -0.017081805 -0.0318574 -0.020359153
0.04077985 -0.013631914 -0.057169918 0.06279582 -0.018257981 -0.03487665 -0.030636672 0.021106683
-0.028992055 0.021097854 0.004648492 -0.011456528 -0.004365744 0.0022565043 -0.0023535585 0.0020311917
-0.00082552014 0.008487282 0.010494965 0.03414738 -0.0066136275 0.019637264 -0.050370734 -0.0064451685
0.029011237 -0.0036044351 0.00818267 0.0015403242 -0.027564397 0.014677226 0.04423393 -0.08338104
-0.019376038 0.023488656 -0.022042405 -0.01153091 -0.018666487 -0.03568515 -0.0090214135 -0.026668316
-0.0114787035 -0.011382442 -0.042078774 0.012948668 0.06179559 0.018466426 -0.013517159 0.0011143903
-0.003139461 -0.0132488245 0.015389877 -0.044392623 -0.011158818 0.019942114 0.014162876 -0.003122899

layer.6.bias f4 [8]
00000000: ab6f a83c 67d0 403d 6a10 0abc e72b 7a3d
00000010: 97fc b13d aa89 583e f288 463c 7196 ea3c
0.02056106 0.047073748 -0.008426765 0.061077025 0.08690756 0.21146265 0.012117611 0.02863619
