final/save/1l_0.95_200_morelayer/save2_6000.pth (torch_old, 50952 bytes, 8 tensors)

layer.0.weight f4 [32, 28]
000000 6a 1f e6 3d 20 52 3d bd f0 45 f8 3d 77 94 a5 3d
       0.112364605 -0.0462209 0.121227145 0.08084958
000010 0d d3 2e bd 36 fa b5 bd ad b8 f4 bd e5 78 70 3e
       -0.042681742 -0.088856146 -0.119492866 0.23483618
000020 a5 a4 53 3e 01 c5 b2 3c 6d 4f 8d bd 46 fd c4 3d
       0.20668276 0.021822454 -0.06899915 0.096186206
000030 7d d4 b7 3c 30 68 ea 3d 51 47 d5 3c eb 08 4c 3e
       0.02244019 0.114456534 0.026034983 0.19925277
000040 40 27 00 3c 16 de 23 3e 42 59 27 be c7 9a a4 bd
       0.007821858 0.16002688 -0.16342643 -0.08037334
000050 39 87 05 3e 65 9d 20 bd a6 c4 59 be cc e1 3f 3d
       0.13039865 -0.039212603 -0.21266422 0.046846196
000060 ca 13 c9 3d b3 2d 7e 3d 4d cf e1 3d fb 12 b3 bd
       0.098182276 0.0620553 0.110258676 -0.087438546
000070 f9 79 15 be 13 d2 6b 3e 03 aa e5 bd c0 f7 1f bc
       -0.1459731 0.23029356 -0.11214068 -0.009763658
000080 ad a7 29 3e ce 37 1e 3e 18 ff 15 3e 43 89 02 3e
       0.1656787 0.15450975 0.14648092 0.12747674
000090 04 f9 ac bd 9d 35 02 3e 59 ab 9c bc 55 42 38 3d
       -0.084459335 0.12715764 -0.019124674 0.044985134
0000a0 1c 60 cf bc ec 50 ae bd 77 a1 57 3e 36 94 ab bb
       -0.025314383 -0.085115284 0.21057688 -0.005236174
0000b0 8f b4 08 3e 92 12 01 3e b5 25 5c bd 38 2c 11 bd
       0.13350128 0.1260474 -0.053746898 -0.03544256
0000c0 da 1a ed bc 62 d1 1b be c2 ab 59 3d 59 65 c6 bd
       -0.028943468 -0.15216592 0.053142317 -0.09687299
0000d0 bc 70 2a bd 4d 1d 0d 3e e9 46 00 bd e9 6c a5 3d
       -0.041611418 0.13780709 -0.031317625 0.080774136
0000e0 8a e5 83 3e 91 83 07 3e c7 60 00 3e cf 5e 67 3e
       0.25761062 0.13233782 0.12536918 0.2259476
0000f0 56 b8 63 3e 5d 8d 0e 3e 86 98 cd bd 02 57 c8 bd
       0.22238287 0.13921113 -0.10038857 -0.097822204
000100 9a 58 a8 3d b1 e3 da bd b0 04 30 3b c1 2f eb bd
       0.082200244 -0.1068796 0.0026858263 -0.11483718
000110 61 11 ef 3c 2e a4 f3 bd 88 a2 2f be 44 b7 0d 3e
       0.029183092 -0.11896549 -0.17151845 0.13839442
000120 79 a0 d8 bd bb 5e ec 3d 29 bf fa bc 8f df c6 bd
       -0.10577483 0.11541506 -0.03060873 -0.09710609
000130 da 56 49 bb 7f 92 ae bd 3d e1 17 3d 8f 38 fb 3c
       -0.0030721934 -0.08524036 0.03708004 0.030666618
000140 2a 69 23 3d f5 a0 c6 bd 74 1a 22 3d 5c 3d f9 3d
       0.039895214 -0.09698669 0.03957601 0.121699065
000150 13 52 bd bd 1a c2 90 bd 78 7e 21 3e b8 a8 63 3e
       -0.0924417 -0.07068272 0.157709 0.2223233
000160 81 4c 1a 3d 45 c9 7d 3d d5 ac 6a 3d 09 26 cf bd
       0.037670616 0.061959524 0.05729373 -0.101146765
000170 ac 9b 7b 3e 55 5f 3a be e4 e6 43 be be 5a 43 be
       0.24571103 -0.18200429 -0.19131047 -0.19077584
000180 da 27 8b 3e 9c ae 0a 3e f3 f7 d4 3c 39 57 12 3e
       0.27178842 0.1354317 0.025997138 0.14291085
000190 da 24 3f bd 22 08 45 3e 95 90 64 bd 89 98 e7 bd
       -0.046666004 0.19241384 -0.055801947 -0.11308391
0001a0 c4 99 41 bd d9 f7 d1 bd c2 f8 6a bc da f3 e6 bd
       -0.047265783 -0.10252351 -0.014341535 -0.1127698
0001b0 28 c1 a5 3d d2 b7 28 3e 97 11 24 3e cd 44 13 3e
       0.08093482 0.16476372 0.16022335 0.14381714
0001c0 62 f5 09 be f0 4b 9c 3d 39 18 6a 3d 4d 50 35 3e
       -0.13472512 0.076316714 0.057152007 0.17706414
0001d0 e9 65 c7 bd 79 89 e8 bd 9d b9 6c be 3c 34 77 be
       -0.09736235 -0.11354346 -0.23117681 -0.2414102
0001e0 9b cc d9 bd 46 ec 95 3c 1a a8 d1 bd 2a 3d 46 3e
       -0.106347285 0.01830114 -0.10237141 0.1935927
0001f0 97 56 56 3e 29 59 a1 3d df 21 9a 3d 99 c7 6a bd
       0.20931469 0.07878334 0.07525992 -0.057319257
000200 bc 0b a5 3d 8f dc 5a be d9 b6 46 3d cb 62 4e be
       0.08058879 -0.21373199 0.04851422 -0.20154874
000210 12 6e de bd c1 87 3d 3e 8d 80 e1 bc 6d 05 6e bd
       -0.10860838 0.18508817 -0.027527118 -0.058110643
000220 94 de 3d 3d ee 28 8a 3c 58 54 0b 3e da 04 21 3e
       0.046354845 0.01686522 0.13606393 0.15724507
000230 e3 e5 69 3d 33 04 a4 b9 d7 63 c1 3d a8 7b 21 3e
       0.057104003 -0.00031283646 0.09442871 0.15769827
000240 75 e9 3d 3d db 33 da 3d 05 39 ae bd bd 2e 44 3d
       0.04636522 0.10654422 -0.08506969 0.047896136
000250 9d dd 22 3e 54 92 6b bc 8b fb 47 3e 42 fc 00 be
       0.15904851 -0.014378149 0.1952955 -0.12596229
000260 9d cb 27 3c 1f 50 30 3d 1a d2 06 be c7 e6 fc bd
       0.010241416 0.04304516 -0.13166085 -0.12348705
000270 39 32 1b bc af e8 a1 3e eb 60 41 bd fc 4b 3d 3d
       -0.009472423 0.31622836 -0.04721157 0.046215042
000280 f0 ac 5e 3e 2b 17 8e bc 78 95 34 3e 1d f6 26 3e
       0.21745658 -0.017345032 0.17635143 0.16304822
000290 f0 6b da 3c 99 79 73 bd 9d af dd 3c b5 80 0a 3e
       0.026662797 -0.059442136 0.027061278 0.1352566
0002a0 ab d6 05 3e 4d a3 d3 3d b3 6a 8a 3d 13 08 25 be
       0.1307017 0.103338815 0.067586325 -0.16116361
0002b0 79 b4 f4 3a f0 57 80 3e 13 e4 dd bb 8c 9b b1 bd
       0.0018669508 0.2506709 -0.0067715733 -0.08672246
0002c0 4c a3 3d 3e ab 50 39 be 9d 55 ce bc e2 2b d8 3c
       0.18519324 -0.18097179 -0.025187308 0.026388112
0002d0 fb 1c 3a 3e 24 45 31 3d 20 c5 d6 3d c5 98 5f bd
       0.18175118 0.04327883 0.10486817 -0.05458905
0002e0 8b 66 56 3e 1e b8 0a 3e f1 8a 31 3e 9b f2 0c 3d
       0.20937555 0.13546798 0.17338158 0.034411054
0002f0 9f 26 e8 3b f3 c2 c3 3d b4 5e 30 bd 94 9e f3 3c
       0.007084682 0.09558668 -0.043059066 0.029738702
000300 fd 27 64 bd 97 40 ff 3d 37 5d b7 3a ad f1 30 3d
       -0.0557022 0.124634914 0.0013989572 0.04319923
000310 ad c2 95 bc 7c 00 10 be a9 1f b6 bd 7b ba c7 bd
       -0.018281305 -0.14062685 -0.088927574 -0.09752365
000320 7e 05 1b 3d 40 64 d6 3c f8 a1 33 be 7f 55 ce 3c
       0.037847035 0.02617085 -0.17542255 0.025187252
000330 e3 ad 14 3e 4b 51 df bd b2 8b fe 3d 48 df 17 3d
       0.14519458 -0.10904177 0.124289885 0.037078172
000340 14 af a1 bd 7d 9a 1b be 7a 54 d6 bd 25 a3 8c 3d
       -0.078947216 -0.15195651 -0.104653314 0.06867055
000350 a4 da 4c 3d f0 a7 5a 3e 76 f1 8a 3d 69 11 2b 3e
       0.0500132 0.21353126 0.06784336 0.1670586
000360 98 e8 13 3e 79 74 86 3e 64 79 6b 3d 35 a8 e8 bd
       0.14444196 0.26260737 0.057488814 -0.11360208
000370 87 72 2d 3e f6 db 49 bd bc 26 0d bd 87 cf 17 3e
       0.1693822 -0.049282037 -0.034460768 0.14825259
000380 8a 1f c8 bd 4d 72 1a 3b d2 95 ac 3d 31 c3 9c 3d
       -0.097716406 0.0023566664 0.084270135 0.07654417
000390 d4 a3 14 3e 12 7a 72 3d d2 13 f5 bc f7 b5 19 bd
       0.1451562 0.059198447 -0.029916678 -0.03752705
0003a0 eb 08 0a be ee 52 b6 3d 28 73 13 be 34 3e f3 3d
       -0.13479964 0.08902536 -0.14399397 0.11877099
0003b0 34 f5 47 3d 82 7a 29 3e 54 26 34 bc 98 29 7b 3d
       0.04881783 0.1655064 -0.010995466 0.061318964
0003c0 53 02 2d 3e aa 57 f2 bd 7f 86 46 3e 5a 27 15 3d
       0.16895418 -0.11833127 0.19387244 0.03641448
0003d0 c5 7c bf 3d d7 47 2e 3e ec da 46 3e 34 81 81 3e
       0.0934997 0.17019592 0.1941945 0.25293887
0003e0 f4 e0 ee 3d 47 e7 ee 3d a9 2b 1c be 4a 95 96 3a
       0.11664 0.116652064 -0.1525103 0.0011488583
0003f0 d5 ea c0 3d 11 7e 12 3e 16 a3 e8 bc 7e 7d 4d be
       0.09419791 0.14305903 -0.028398078 -0.20067403

layer.0.bias f4 [32]
000000 b6 aa 5a bd 72 38 4d 3d e6 e7 d7 3d 3a c0 b7 3d
       -0.05338546 0.05010266 0.10542278 0.08972211
000010 84 e8 aa 3d 14 ca 9b 3c 03 cd 95 bc f7 9b f2 bd
       0.0834513 0.019017257 -0.018286234 -0.11846154
000020 08 6e 28 3e d2 d4 d9 bd 97 46 03 3c bd de 68 bd
       0.16448224 -0.106362954 0.008012435 -0.056853045
000030 62 75 75 3e 76 00 11 3e 67 d6 d3 bc 67 9a 05 be
       0.23970559 0.14160332 -0.025859071 -0.13047181
000040 b8 8e 77 3e 8d 74 1e 3d d3 f8 b4 3d e6 93 44 3e
       0.24175537 0.03868537 0.08836522 0.19197044
000050 26 fb 57 bd 0b 3c 0b be 26 5e e7 bd 47 92 57 3d
       -0.05272975 -0.13597123 -0.11297254 0.052629735
000060 85 9e e5 bd e3 af f4 bc 2b eb 7c 3b d6 72 77 3d
       -0.11211876 -0.029869026 0.003859232 0.06041225
000070 49 a0 9e bd a9 d1 08 3d f7 d7 0b bd 26 e2 1f 3e
       -0.07745416 0.033403073 -0.034141507 0.15613613

layer.2.weight f4 [64, 32]
000000 0c ac 3f 3c 4b 03 a0 3d 56 d2 87 be b8 0d cb bc
       0.011698734 0.07813128 -0.2652766 -0.024786815
000010 30 8b 13 be ee 5b 88 3b 91 12 2a 3e e7 09 34 3e
       -0.14408565 0.0041613495 0.16608645 0.17581902
000020 a4 f7 1b 3e 90 8c 9f 3c 20 30 9e 3d f5 b7 33 be
       0.15231186 0.019476205 0.07724023 -0.17550643
000030 12 e8 0f 3e fe 58 5f bc 52 11 0b be ce fb ca bd
       0.14053372 -0.013632057 -0.13580826 -0.09911309
000040 2b 83 b4 bd 19 e8 30 3d 2c 8a 0c be c2 2a 49 3d
       -0.08814081 0.043190096 -0.13724583 0.049113043
000050 64 73 6a bd a7 65 41 be 88 ce a0 be 74 62 d2 bd
       -0.05723895 -0.18886434 -0.3140757 -0.10272685
000060 e4 89 03 be 81 1a cd 3d 08 44 e1 3d ff cf 14 bc
       -0.1284557 0.10014821 0.10999304 -0.009082793
000070 19 80 76 3d 8f ee d6 3c 6f f3 b8 bb 04 1a e6 3c
       0.060180757 0.0262368 -0.005644254 0.028088577
000080 c0 b8 c3 bc 3f 8c d5 bc 89 53 00 3e b4 eb 4b 3d
       -0.023891807 -0.026067851 0.12531866 0.04978533
000090 52 fd 64 3d 90 f7 91 bd 8e 1c 4d bd b5 2c 85 be
       0.055905648 -0.07127297 -0.05007606 -0.2601067
0000a0 e6 59 b1 3d bf ad b1 3a 0e 90 8e bd 4d 0e 26 3e
       0.08659725 0.0013555809 -0.0696107 0.16216393
0000b0 8f 21 0d 3e 5f 19 c6 bd ac c7 6f bd 0b 96 c2 bd
       0.13782333 -0.09672808 -0.05854003 -0.09501275
0000c0 94 72 29 be fb 45 0f be ae b9 58 3e 6b f2 36 be
       -0.16547614 -0.13991539 0.21164581 -0.17865913
0000d0 2a c6 23 bd 97 1f e7 3d 44 cc 9f 3d c5 92 83 bd
       -0.039983906 0.11285322 0.078026325 -0.064244784
0000e0 00 f9 6c 3e 4e 0f 56 bd ae c3 f3 3c 8d 7e 6f bd
       0.23141861 -0.05226069 0.029756393 -0.058470298
0000f0 38 fd 62 bd a4 a8 07 3e 48 ee 35 be fa a7 6e 3c
       -0.05541727 0.13247925 -0.17766678 0.014566416
000100 e5 4b a4 3d 38 f5 4c 3d 12 8b 6a 3e c6 f8 f2 3d
       0.08022288 0.050038546 0.22904614 0.11863856
000110 73 66 a4 3d 58 5e 3b 3d de 87 97 bd db 3e a7 3d
       0.08027353 0.04574427 -0.073989615 0.081662856
000120 ab a5 a0 bd 89 14 36 3e fe 59 58 be 62 08 03 3c
       -0.07844099 0.17781271 -0.2112808 0.007997604
000130 e2 cc 87 bd 8c 74 dc 3a 51 28 53 3e f0 81 3d 3e
       -0.06630875 0.0016819402 0.20620848 0.18506598
000140 f8 e5 cb 3d b5 dc d9 bd d7 3a 14 3e 32 9b 1c bd
       0.099559724 -0.106378 0.1447557 -0.038233943
000150 24 08 46 be 47 37 83 3d 3f 83 02 3e 7a 96 21 3e
       -0.19339043 0.06407028 0.12745379 0.15780059
000160 b9 53 4e 3d ae 20 08 be 96 4f ca 3d c6 55 4a 3e
       0.050372813 -0.13293716 0.09878461 0.19759282
000170 80 10 c2 3d 24 b2 14 3e ea af 20 be ac 42 aa 3c
       0.094758034 0.1452108 -0.15692106 0.020783745
000180 50 05 84 bd 9b c9 8f 3d b4 8e a8 bd 09 f0 12 3e
       -0.06446326 0.07020875 -0.082303435 0.14349379
000190 5a 54 db bd d4 f6 5f 3e de e9 8d 3d c8 58 b3 3c
       -0.10709448 0.21871501 0.06929372 0.02189292
0001a0 d5 67 b0 bd 0d ca 9b 3c 32 12 50 3e 63 26 47 bc
       -0.086135544 0.019017244 0.20319441 -0.012155148
0001b0 6e cd 5f 3e 3f 3b 30 bd 3f 11 2b bd d5 62 33 bc
       0.21855709 -0.04302525 -0.041764494 -0.010948856
0001c0 21 86 1d 3d dd 6e d1 3d 5a 68 0a bd 35 2e 09 be
       0.038457993 0.102262236 -0.033790924 -0.13396533
0001d0 61 ef 1d 3e e7 fb 54 bd 57 0d e6 3c 8c e3 cb bd
       0.15423347 -0.051998045 0.028082533 -0.099555105
0001e0 4f 70 ba bd 9d 42 20 3d f8 d7 28 bd f1 56 5d bd
       -0.091034524 0.039126027 -0.04122159 -0.054037992
0001f0 e6 81 95 bd 14 54 29 3e 3c 46 77 bd 6b 1a 82 3d
       -0.07300167 0.1653598 -0.060369715 0.06352695
000200 80 16 d9 bc 9f df 3d 3d 25 e4 24 3d 88 ec eb bd
       -0.026499987 0.04635584 0.040256638 -0.11519724
000210 7b ba 09 3e e5 dc 3c be 1f cf d5 3d ec db 0d be
       0.13450043 -0.1844364 0.10439896 -0.13853425
000220 c0 66 ec 3c fb fa 14 3e 0c 20 03 be 40 49 33 3e
       0.028857589 0.14548866 -0.12805194 0.17508411
000230 f7 a0 0c be 9b 75 39 3e 9c 60 21 3d c2 3e 91 3d
       -0.13733278 0.18111269 0.039398775 0.07092048
000240 10 85 19 be 15 05 54 bc 9f 1b a2 3d f3 60 8a bc
       -0.14992166 -0.012940665 0.079154246 -0.016891932
000250 2a 1a 92 3c dc c8 af 3d 56 e2 0f be c6 ad a8 bd
       0.017834742 0.08583233 -0.14051184 -0.0823627
000260 d8 76 8c b9 22 ef fb bd 65 36 10 3e c8 b9 ab bd
       -0.00026791426 -0.1230147 0.1408325 -0.08385044
000270 ec 4c 82 3d 36 c4 1d 3e a1 3c 00 3e 73 57 9b bc
       0.06362328 0.1540688 0.12523128 -0.018962597
000280 79 9d 0d 3d 10 ee 7b bd bf a0 91 3e 0f be 18 bd
       0.034574006 -0.06150633 0.28442952 -0.03729063
000290 43 7f 69 bd 8c 67 08 3e c1 a0 66 bd 86 a1 3d be
       -0.05700613 0.1332075 -0.05630565 -0.18518648
0002a0 40 c9 69 3d 63 5f 47 3d 54 2e bd bd 78 6c b2 3d
       0.057076693 0.048674952 -0.09237352 0.08712095
0002b0 bf 05 8f bd 24 35 64 be 73 20 c5 3d 6f 4c be 3d
       -0.06983518 -0.22285897 0.0962533 0.09291922
0002c0 f9 cb 97 3d e0 ec 8e bc 5c 89 87 3c 87 b4 0f 3e
       0.074119516 -0.017446935 0.01654499 0.1403371
0002d0 91 23 b8 3d 2b d4 9a 3d 81 f7 67 3e 83 5e 6f 3d
       0.08991159 0.07559999 0.22653009 0.058439743
0002e0 41 a3 01 3e 7e cf 17 be 99 cb 82 3d 90 c6 70 be
       0.12659933 -0.14825246 0.063864894 -0.23513246
0002f0 18 11 21 be 67 d8 17 be 86 86 22 3e c9 95 26 3e
       -0.15729177 -0.14828645 0.15871629 0.16268076
000300 ba c7 43 be 2d 2c f1 bd 8d d3 b2 bd 8f 26 1f be
       -0.19119158 -0.11776004 -0.08731756 -0.15542053
000310 f5 45 46 be 24 c9 08 3e f5 99 e4 bd 07 e4 11 3e
       -0.19362624 0.13357979 -0.111621775 0.14247142
000320 7a 7d 2d 3e 37 dd 4e 3d 8d 57 8b 3c ca 6c 06 3e
       0.16942397 0.050503936 0.01700952 0.13127437
000330 83 2d 95 3d 76 e5 a7 bd ab 01 3a 3d 18 e8 6b bc
       0.07284071 -0.08198063 0.045411747 -0.014398597
000340 75 b8 af 3d 61 fd 36 3e 9b 5d 8c bd fc 9a 6c 3e
       0.08580104 0.17870094 -0.06853791 0.23105997
000350 85 b4 b6 3d 76 60 26 be 7b a7 f3 bd 97 cf f5 3c
       0.0892115 -0.16247734 -0.11897179 0.030006213
000360 e2 32 13 be e8 5a 2a 3e c6 34 a6 bb 50 06 4b be
       -0.14374879 0.1663624 -0.005072209 -0.19826627
000370 86 62 a7 3d 30 59 62 3d 3e 51 db 3d 86 48 7a bc
       0.08173089 0.055260837 0.10708855 -0.01527608
000380 dd 8f 93 bd cd 63 3c 3b a9 ac 62 3e ff b8 89 be
       -0.07205174 0.002874601 0.22136177 -0.26898953
000390 59 2b ab bd ae 31 93 bb c6 4c 27 be bd 01 6d bd
       -0.08357877 -0.0044920063 -0.1633788 -0.057862986
0003a0 07 89 c8 bb a5 b7 89 bd 7c d3 e1 3c 01 27 5a bc
       -0.0061198506 -0.067244805 0.027566664 -0.013314963
0003b0 25 19 17 bd 97 52 0d be 4a 4d ce bd 2a c8 74 bd
       -0.036889214 -0.13801037 -0.100733355 -0.059761204
0003c0 cf 09 23 be a2 83 0c 3e 7c 87 81 3c f4 02 1b 3e
       -0.1592171 0.13722089 0.015811674 0.15137845
0003d0 8f 90 e8 3d ea 24 7e bc 00 43 3b 3e 27 6d 9b 3d
       0.11355697 -0.015511731 0.18287277 0.075891785
0003e0 09 9d 98 bd 47 0b 1b 3e 48 b2 17 be 1d d8 73 be
       -0.07451827 0.1514102 -0.14814103 -0.2381291
0003f0 01 fe 70 be 22 53 f8 3d 2b c2 63 3e c5 d8 31 3e
       -0.23534395 0.12125231 0.22242038 0.17367847

layer.2.bias f4 [64]
000000 ee 15 c0 bd cb dc ed 3c bb 57 d0 bd 6b a5 ad 3e
       -0.09379183 0.029035946 -0.10172983 0.33915266
000010 f4 f4 46 be eb 22 99 3b 5f 39 4d 3e 89 6f b1 bc
       -0.1942938 0.004673352 0.20041417 -0.02165963
000020 e5 1b 8a 3e 51 e9 16 be db b4 67 bd 38 97 8a 3e
       0.26974407 -0.1473744 -0.05656896 0.27068496
000030 21 40 09 3d 1e af 51 3d e5 c9 f4 3a 7f 91 c4 bd
       0.033508424 0.051192395 0.0018675892 -0.09598064
000040 03 33 e2 3d 90 81 5d be dc dd 3f bd 47 46 b3 3a
       0.11044886 -0.21631455 -0.04684244 0.001367756
000050 d9 71 1b bd 68 50 43 3e 45 15 b7 3d ce 5c 05 3e
       -0.03795037 0.19073641 0.08939604 0.13023683
000060 3c fc fa 3d d1 c1 ba bc 5b 29 2b be 8d 75 9e bc
       0.12255141 -0.022797497 -0.16714995 -0.019343162
000070 3f 77 8e bc c5 af 0a be cc 70 69 3c fe 33 34 3d
       -0.017390845 -0.13543613 0.014248084 0.043994896
000080 15 be ba 3b 61 a6 2d be 19 d1 37 be 8f 73 ce ba
       0.005698929 -0.16958 -0.17950858 -0.0015750992
000090 8a 4a 80 3c aa b0 59 3e 1e e4 e1 bd 51 42 2a be
       0.015660543 0.21258798 -0.11029838 -0.1662686
0000a0 0e 25 21 3e 9f fc 39 3e e3 dd 02 be 82 c0 c3 3d
       0.15736791 0.18162774 -0.12779956 0.09558202
0000b0 bc 63 34 3e 49 8b 46 bd d1 88 33 3e f7 a6 47 bd
       0.1761617 -0.048472676 0.1753266 -0.048743214
0000c0 3c 68 16 3d f2 67 2e 3e 89 5f 40 3e 16 71 14 3e
       0.0367205 0.1703184 0.18786444 0.14496264
0000d0 c3 f0 9d bd b9 3a fd 3d 48 23 fa bc 89 94 c1 bd
       -0.07711937 0.12364716 -0.030534402 -0.09452159
0000e0 1a 0c 8a 3e 7e 44 46 bc 81 57 85 bb 0c eb 7f 3d
       0.26962358 -0.012101291 -0.004069269 0.062480018
0000f0 bb 88 be bc 23 32 54 bd ef 6b 33 3e 84 24 93 3d
       -0.023258558 -0.051805627 0.17521642 0.07184699

layer.4.weight f4 [128, 64]
000000 20 92 94 3e 30 1f 1c 3e f9 cb ce bc 73 8c 4e 3d
       0.29017735 0.15246272 -0.025243746 0.05042691
000010 50 c0 28 3d f6 80 ab 3d 40 71 50 be 0c 6d dd be
       0.04119903 0.08374207 -0.20355701 -0.4324726
000020 05 12 9a bd e2 c0 03 bf a5 41 b8 3e e6 a1 a5 3d
       -0.07522968 -0.5146619 0.35987583 0.0808752
000030 aa 41 94 3d 61 bb f4 3e a7 f8 06 3d 99 28 59 3e
       0.07239087 0.4779921 0.032951977 0.21206893
000040 f7 56 b8 3d 07 8a 6d bb 7a 9c f6 3c d9 50 97 3c
       0.09000962 -0.00362456 0.03010391 0.018471168
000050 7e 8e f7 bc 40 7e 27 3d c9 b7 b5 3d 0f 57 d2 3c
       -0.030219313 0.040891886 0.08872945 0.025676278
000060 1b ac 43 be 26 8b 69 3d 0d 2c 5f 3c e4 53 92 3d
       -0.19108622 0.057017468 0.013621342 0.07144907
000070 dc 29 ce 3c d6 19 56 3e 40 27 83 3e fe eb a5 3c
       0.025166444 0.20908293 0.25615883 0.020254131
000080 a3 5e a9 bb f5 61 97 bc 9f 2d 90 bc 16 76 2b 3d
       -0.0051687523 -0.018479327 -0.017599879 0.041860662
000090 4d 99 6d 3d 1f b6 83 bd b2 d7 6c be e2 17 7d 3e
       0.058007527 -0.06431221 -0.23129156 0.24716142
0000a0 f9 14 75 3e 3a 5a 9b 3d 9b fd 56 bd 26 de af 3e
       0.23933782 0.07585569 -0.05248795 0.34349173
0000b0 ac 1b 00 bd 0b b5 f3 be 25 6e 8b bc 38 42 17 be
       -0.03127639 -0.47599062 -0.017020294 -0.14771354
0000c0 52 d7 9e bd 74 c7 21 3c bf 26 97 bd 0f 73 b7 3d
       -0.07755913 0.0098742135 -0.07380437 0.089574926
0000d0 5c 95 4a 3d 11 05 96 bd 76 53 b9 3d 83 f0 a2 bc
       0.049458846 -0.07325185 0.09049122 -0.019890076
0000e0 18 83 85 3c f8 25 5a 3e 36 fa 2f 3e 28 c0 5b 3e
       0.016297862 0.21303546 0.17185292 0.2146002
0000f0 e2 62 1a 3e 50 8e 34 3e b9 d5 e1 3d 4f 2a 90 3c
       0.15076783 0.17632413 0.110270925 0.0175983
000100 c2 b1 1c 3e 9e 3a 57 bd 7c 26 9c bd 7d 0f b4 bd
       0.15302184 -0.052546136 -0.07624528 -0.08792017
000110 9b 43 f2 bd b6 b1 a6 3d 9b 39 04 bd 65 af 01 3d
       -0.11829301 0.081393644 -0.0322815 0.03166141
000120 57 a5 9c 3d e7 96 08 3e d0 02 93 3c bb 94 49 bd
       0.076487236 0.13338815 0.017945677 -0.049214106
000130 24 7d d2 bb 0c 83 74 3e af ba 3c 3a fc 6a 8b bd
       -0.0064236093 0.23878115 0.0007199449 -0.06807515
000140 73 2b 56 3d cf f1 de 3d 50 e9 b4 3d d4 75 01 3e
       0.05228753 0.10885965 0.08833563 0.12642604
000150 49 f7 bd bd c2 ab b8 3d a9 e2 b1 3d 88 78 ba bc
       -0.092756815 0.09017135 0.0868581 -0.022762552
000160 ad 1e aa 3d 21 cc 73 be eb 49 ee 3d 2a 66 6e bc
       0.08306632 -0.23808338 0.116351925 -0.014550725
000170 3c ee 31 bd a5 41 7c 3e 60 39 d8 be 6e 69 3c be
       -0.04344009 0.24634416 -0.42231274 -0.18399593
000180 f7 61 19 3e ac c2 d2 3c 46 d1 03 bd 1f 62 10 be
       0.14978777 0.025727592 -0.032182 -0.1409993
000190 9e 94 a6 3d e8 ce 9a 3c 4b 48 13 3e 10 78 d1 3d
       0.08133815 0.018897489 0.14383046 0.10227978
0001a0 cf 2f d1 3d 11 f8 65 3d 1c b0 7f 3d ab 7d 81 be
       0.10214197 0.056144778 0.06242381 -0.2529119
0001b0 df 73 03 3e 3c 65 29 3d 2c 70 29 bc 07 73 21 3e
       0.1283717 0.04135631 -0.010341685 0.15766536
0001c0 cc d8 e8 bd d2 4e cc bc fc 06 cd bc b3 7b 6a be
       -0.11369476 -0.024939928 -0.025027744 -0.2289875
0001d0 09 fd a8 3d ea b9 a2 3c fe dc b1 bd 67 ac ff bd
       0.082513876 0.019864041 -0.08684729 -0.12484055
0001e0 2d c8 fa ba 0f 3e 58 be 67 17 bb 3c 20 2a a1 3c
       -0.0019133143 -0.21117423 0.022838308 0.019673407
0001f0 9c 31 01 3c dd 50 48 3d 7f 37 41 be d8 57 b0 3c
       0.007885363 0.048905242 -0.18868826 0.021526262
000200 43 68 9a be 86 10 2e bd 13 91 ab bd ac ad 1d bd
       -0.3015767 -0.042496227 -0.0837728 -0.038495705
000210 e1 69 8c bc 2f 0e 9f 3d d9 a1 f6 3d f2 c5 08 3e
       -0.01714033 0.07766377 0.12042589 0.1335676
000220 26 63 00 bd f7 3f 2c 3e 98 98 10 bd a8 35 7e 3d
       -0.031344555 0.16821276 -0.035301775 0.06206289
000230 a8 dc c9 bc dd d1 9e 3d aa 07 b1 bd be 2d fd 3d
       -0.02464135 0.07754872 -0.0864404 0.1236224
000240 dc b2 f4 3c 12 0f a1 3d 7b e9 1e 3d 0d aa 17 bd
       0.029870443 0.078642026 0.038796883 -0.037027407
000250 50 b2 0b 3e ea e5 aa bc af 4b ab bd 52 7f f2 3d
       0.1364224 -0.020861585 -0.08364045 0.11840691
000260 41 a0 0c bc 0f 4a b0 bd 42 37 eb 3d 87 d7 d4 bc
       -0.008583129 -0.086078756 0.11485149 -0.025981678
000270 7f 36 f5 3d f2 9d f8 bd 95 18 d8 be b0 f1 08 be
       0.11973285 -0.12139501 -0.42206255 -0.13373446
000280 e0 7a a3 bd 31 58 ce bd 26 2a 22 be 3f 5a 4c bd
       -0.07982421 -0.10075415 -0.15836391 -0.049890753
000290 f3 11 27 bc 8c d7 29 3c 52 81 3e 3c 64 2e 8d 3c
       -0.0101971505 0.010366332 0.011627512 0.017234035
0002a0 3a 9e 5d bd 90 d4 09 3e 86 ed a8 3b c0 ba cb be
       -0.054105975 0.13459992 0.005155268 -0.39790916
0002b0 e0 5d e4 3d ca de 8e 3e 37 ef 31 bd da e2 32 3d
       0.11150718 0.2790435 -0.043441024 0.043673374
0002c0 7e 3e 3e 3d 18 83 85 bd b9 f0 81 3d 3b 26 50 3c
       0.046446316 -0.06519145 0.06344742 0.012704427
0002d0 a3 d1 18 be fa 62 96 3d 40 44 e6 bb cd f5 f1 bc
       -0.1492372 0.07343097 -0.007027179 -0.029536152
0002e0 bd 8f 5b bd 7a c6 06 be 34 9b 83 bd 87 85 10 bf
       -0.053603876 -0.1316165 -0.06426087 -0.56453747
0002f0 1d 08 ad 3c 98 48 03 3e 12 e4 5d be af 10 ed bc
       0.021122033 0.12820661 -0.21669033 -0.02893862
000300 4d 28 05 be e1 cf 5b 3d 81 32 a9 3d 29 8e 6e bd
       -0.13003655 0.053665046 0.08261586 -0.058241043
000310 50 0d 8e bb dd 6b 6d bc 8e 01 d1 3c 1f 3f 40 bd
       -0.004335083 -0.014491049 0.025513437 -0.046935197
000320 ae 81 97 bc d0 15 78 be 40 68 13 bf 7d ce 01 3e
       -0.018494453 -0.24227071 -0.5758095 0.12676425
000330 47 15 70 be 89 73 33 3e c5 79 8e be 12 62 b3 3d
       -0.23445617 0.17524542 -0.27827278 0.0875894
000340 61 95 db bc d4 7a 08 3e aa e2 09 3c cc aa 66 bc
       -0.026804628 0.13328105 0.008415857 -0.014078807
000350 69 7a 9d 3c 1e 5b 04 bd d1 a4 b6 bd 36 e9 12 3e
       0.019223409 -0.03231346 -0.08918155 0.14346775
000360 06 b3 51 bd 89 67 4c be 8f 89 09 bd 09 77 04 be
       -0.05119612 -0.1996137 -0.03357845 -0.12936033
000370 4b 14 1f 3d 86 f2 70 be 36 d8 e6 be 4c 4c 46 be
       0.038837712 -0.23530015 -0.4508683 -0.19365042
000380 76 5e 1e 3d d0 76 7b bb 82 32 53 3d 6e e8 09 bd
       0.038664304 -0.0038370378 0.05156184 -0.033668928
000390 34 90 66 be 93 c6 3b 3c 53 67 29 be db 7a 9b 3d
       -0.22515947 0.011460918 -0.16543321 0.07591792
0003a0 05 59 3b 3e 02 fd 84 3d 6b 61 d9 bd a6 a7 0e bf
       0.18295677 0.0649357 -0.10614284 -0.5572456
0003b0 bd 3d 6e bc 54 9b 7c be 6e 17 61 3d fd 5a 49 3d
       -0.014541087 -0.24668628 0.054953985 0.04915904
0003c0 f9 41 00 3e ea 13 b7 bd eb f1 3e 3d 58 5e 82 be
       0.12525167 -0.08939345 0.04661743 -0.25462604
0003d0 8f b6 6a bd 86 26 4c 3d 50 50 bf bd 21 5f 9b bd
       -0.057303008 0.049841426 -0.0934149 -0.07586504
0003e0 32 b6 09 3d 26 13 00 bf 79 ca aa bd 63 89 94 be
       0.03362102 -0.5002922 -0.083394 -0.29011068
0003f0 2d 12 c9 3d af cd 47 3e b5 e7 28 be 03 b2 42 bc
       0.0981792 0.19512056 -0.16494639 -0.011883262

layer.4.bias f4 [128]
000000 4d 78 80 bd 48 59 8c 3b 1a cd 11 3e e6 1e b7 3d
       -0.062729456 0.004283104 0.14238396 0.0894144
000010 6f 97 51 3e 14 37 28 3e 6a 56 47 3e 1d c5 b1 bd
       0.20467924 0.1642726 0.19466558 -0.086801745
000020 c3 74 91 bd 40 1d 07 3c 34 0c 65 3d 0c 5b 62 3e
       -0.07102349 0.00824672 0.05591984 0.22105044
000030 4e 5c eb bc fb 9e 84 3d 09 dc 80 3e e5 40 c8 3d
       -0.028730538 0.064756356 0.25167874 0.09778003
000040 c4 8f 9d 3c e9 37 b2 3d d6 4c 1f 3e 6d d0 26 3d
       0.019233592 0.0870207 0.15556654 0.040726114
000050 a0 01 48 3e 61 11 35 3e e3 68 dc bc bd 6a 0a be
       0.1953187 0.17682411 -0.026905483 -0.1351728
000060 81 8c a9 3d 8e e6 3d 3d 34 d9 bf 3d 5f 05 df 3d
       0.08278752 0.046362452 0.093676 0.10889696
000070 2b 54 80 bd f3 b2 a3 3d 8b 3d c1 3d 69 4f 38 bd
       -0.06266054 0.07993116 0.094355665 -0.044997606
000080 18 ad 5f bd fa 39 07 be f0 c1 eb 3a d9 15 d8 3d
       -0.054608434 -0.1320571 0.0017986875 0.10551042
000090 62 f4 0e 3e fd 89 e0 3d 83 d0 f5 bc 96 70 9f 3d
       0.13960412 0.10963819 -0.030006653 0.07785146
0000a0 74 e1 e8 3d fb 5c b4 3c c8 f8 9d 3c a0 72 70 3e
       0.11371127 0.022016993 0.019283667 0.23481226
0000b0 c3 41 37 3e d6 45 d1 bd 67 5d 1e 3d 27 7b 7b 3d
       0.1789618 -0.10218398 0.038663294 0.061396744
0000c0 7e e3 8b 3c 88 37 7f 3e 32 8d b5 bd b0 89 04 3d
       0.01707625 0.24923527 -0.088648215 0.03235787
0000d0 d8 44 de 3d 31 e8 d0 3d 34 9a 7e 3d 3a 24 9e 3b
       0.10852975 0.10200537 0.06215878 0.004826096
0000e0 48 76 4e bb bc 63 b3 3d f0 15 96 3e 56 fa ae 3d
       -0.0031503607 0.08759257 0.29313612 0.085438415
0000f0 24 18 b4 3d 33 56 0a 3c 8f 7d f9 3b 9a f5 3a bd
       0.08793667 0.008443403 0.0076138447 -0.04564438
000100 a3 6c 94 3d 88 9a 83 3c 0d 71 00 3e a8 03 15 3e
       0.07247283 0.016064897 0.12543125 0.14552176
000110 7a a2 82 3d 66 21 4e bd 1f 4f 37 3e 98 f2 da bd
       0.06378646 -0.05032482 0.17901276 -0.10690802
000120 78 97 25 3e ae c5 8a 3d f4 06 37 bd cf 3c 87 3c
       0.16171062 0.06775986 -0.044684365 0.016508488
000130 e7 b9 1d 3e 63 1a 3d 3e 36 d6 13 3d f0 46 96 ba
       0.15402947 0.18467097 0.03609296 -0.0011465233
000140 42 01 6b bc 8a d3 0d 3d e7 6a db bc 24 c1 98 3d
       -0.014343562 0.034625567 -0.026784373 0.07458714
000150 41 dc 8b bc 1f df 18 3e d8 72 2f be f7 eb aa 3d
       -0.017072799 0.14928864 -0.17133653 0.08345788
000160 aa 42 4f 3d 82 f1 0f bc 26 48 3a bd be 51 4e 3e
       0.050600685 -0.008785607 -0.045478962 0.2014837
000170 bc c2 39 3e de d7 0f 3e 2a 73 17 3e 51 06 66 3d
       0.18140692 0.1404719 0.14790025 0.056158368
000180 25 b6 74 3c 8d 1e 3e 3b 96 d5 b3 bd b2 19 ae bd
       0.014936005 0.002900991 -0.08780973 -0.08500995
000190 2b bc 83 bd b0 5e 09 3e 75 1b f7 bd 12 4f a0 3c
       -0.064323746 0.13415027 -0.12065784 0.019568954
0001a0 be 31 30 3e 10 5f 81 bd 56 ad 02 3e 90 f7 a5 3d
       0.17206475 -0.0631696 0.12761435 0.081038594
0001b0 34 f3 0d 3e b2 2d 2b be 68 38 db bd ac 80 b4 3d
       0.13862306 -0.1671665 -0.10704118 0.08813605
0001c0 19 91 b9 3d 0a 43 f3 3d 07 05 ee bc 8d 2f 08 3e
       0.09060878 0.11878021 -0.029055132 0.13299389
0001d0 1f ea 09 3e 39 a0 0a 3e 83 0a f7 3d f7 84 9e 3d
       0.13468216 0.13537683 0.12062552 0.07740205
0001e0 8b 55 04 3e 6b 2b 56 3d 53 ca 86 be a5 af 1a bd
       0.12923257 0.0522875 -0.26326236 -0.037765164
0001f0 63 8f 2f 3e d3 8f 73 3e 57 c1 0a 3e 0a 62 01 3c
       0.17144541 0.23785333 0.13550316 0.0078969095

layer.6.weight f4 [8, 128]
000000 a6 1f 4a bc f9 4c a2 bc 12 ac 34 bd 4f 57 91 3c
       -0.012336647 -0.019812094 -0.04410941 0.017741827
000010 50 68 17 bd 3b a4 8f bc 93 c7 8b 3d 7f 77 08 bc
       -0.036964715 -0.017534366 0.06825175 -0.008329271
000020 15 fa 6f 3c cd 30 3d bd 8a 0f 50 bc 0e 63 55 bd
       0.014647027 -0.04618912 -0.012699017 -0.05209642
000030 27 0f 0e bc 34 25 9f 3c cc 8d 22 3d bb 85 19 3c
       -0.008670605 0.01942692 0.03968601 0.009370263
000040 70 49 1d 3d 35 30 3d 3d 44 59 9f 3d 64 4c f7 3c
       0.038400114 0.046188552 0.07780698 0.030187793
000050 9a 07 bc 3c 16 81 83 3d ce 1a 47 bc 51 01 3f bc
       0.022952843 0.064211056 -0.012152387 -0.011658029
000060 42 dc 83 ba 09 e8 c3 3c 6c a0 0a 3d 6d ab 01 bb
       -0.0010060149 0.023914354 0.033844396 -0.0019786016
000070 d3 3c 3c 3d c4 05 ac bd 49 4a 61 bd 14 25 1e bd
       0.045956444 -0.08399537 -0.055002484 -0.03860958
000080 62 dd a1 bd bc 63 18 3d 2a b0 4e bd f4 e5 93 39
       -0.079035535 0.03720449 -0.050460972 0.00028209353
000090 4f 11 0d bd b3 7b 94 bc 28 44 4f 3c 8c 96 36 3c
       -0.034440335 -0.01812539 0.012650527 0.011144292
0000a0 b0 80 bc 3a 6d a4 42 bc c0 a5 df bc f4 02 a5 3c
       0.0014381614 -0.0118800225 -0.027300715 0.02014301
0000b0 14 1d ec bc 1a 73 e2 bc bd db 1e 3c d1 58 15 bd
       -0.02882246 -0.027642775 0.009695944 -0.036461655
0000c0 5a d6 4e 3d 62 b0 7f 3d ee df 99 bd f2 79 65 bd
       0.05049739 0.06242407 -0.07513414 -0.0560245
0000d0 a9 81 95 3d b8 b4 26 bd 25 88 0e 3b 95 28 6f 3d
       0.07300121 -0.04069969 0.002174863 0.05838831
0000e0 12 27 e7 bc e9 6d 26 bd 12 bd 61 3c 2f de c9 3c
       -0.028216872 -0.040632162 0.013777988 0.024642078
0000f0 2e 4b 10 bd bc f3 9e bb 1c 35 f6 bc 26 cd a5 3c
       -0.035227947 -0.0048508327 -0.030054621 0.020239424
000100 0c 2f 13 3d 6b d0 4b 3d 5b f3 31 3d 28 09 0b 3d
       0.03593354 0.04975931 0.043444972 0.03394428
000110 f0 6e 05 3d 82 dc 01 bd f5 11 c1 3c 9a 60 6b 3d
       0.0325765 -0.031704433 0.023568133 0.057465173
000120 79 28 8b bc d9 f2 9a 3c 4f 04 9f bd 28 cb 66 bc
       -0.016987072 0.018914627 -0.07764494 -0.014086522
000130 3d 47 af 3c fc 32 4f bd e4 3b cf 39 68 ac f4 3b
       0.021396274 -0.050585732 0.0003952674 0.0074668415
000140 96 43 34 3d dd 3b 1f 3d 6f 2a 56 bd 3b b3 2a bd
       0.044009767 0.03887545 -0.05228656 -0.041674834
000150 da 95 36 3c a3 4b bf bc ab 2e 0a bd dc bb a7 3b
       0.011144126 -0.023351496 -0.033735912 0.00511883
000160 8f 1e 9e 3c 6d 0e 51 3c 27 36 66 3c df 9d 00 bd
       0.01930168 0.012759787 0.014050997 -0.031400558
000170 04 33 55 bc 04 5a 09 bc d3 42 82 bb b8 c7 16 bc
       -0.013012651 -0.008383278 -0.003975251 -0.00920289
000180 e4 de af 3c 59 36 d5 bc 47 62 fb 3c 87 5d e1 3b
       0.021468587 -0.026026892 0.03068651 0.0068776044
000190 e2 df b9 3c 83 76 c0 bd 89 1f a5 3a aa 87 6e bc
       0.022689763 -0.09397604 0.0012597899 -0.014558712
0001a0 6d 34 5c 3c 66 35 8e bd da 3d f2 3b 8c 00 5a 3d
       0.013440234 -0.06943779 0.007392627 0.053223178
0001b0 d4 2a ff bb 41 df b6 bc f4 9d 0a bd f4 5d ad 3c
       -0.007787088 -0.022323253 -0.033842042 0.021162964
0001c0 cd 55 c2 3c e6 cc d2 3c c1 bb 54 bc 18 4d 80 bc
       0.023722554 0.025732469 -0.012984217 -0.015661761
0001d0 dc 63 a7 bc 66 3d b1 3d 40 7b 09 3d 29 7c b6 bc
       -0.020433359 0.08654289 0.033564806 -0.022276001
0001e0 ac 36 b1 3c 4c 09 08 bd ca 02 98 3b c9 66 20 3c
       0.021632515 -0.03321199 0.0046390044 0.009790131
0001f0 cf 7a 55 3b c0 db 0d 3d d9 67 3b 3c eb 45 04 3d
       0.003257442 0.034633398 0.011438333 0.03229324
000200 5d 9c b4 bb b6 7c af 3b 88 af 3d bd c5 46 5b bc
       -0.005511804 0.005355443 -0.046309978 -0.013383572
000210 f2 5f 29 3d 85 89 06 bc 09 89 a3 3d a0 dc 7d 3d
       0.041351266 -0.008211498 0.07985122 0.061977983
000220 c5 d4 24 3c d2 76 20 3c ce b5 15 3d 6a f0 bc bc
       0.010060494 0.009793954 0.036550336 -0.023063857
000230 0b 00 d4 3c fb 24 c8 3c c8 b4 31 3d 53 fe 0f bd
       0.025878927 0.024431696 0.043385297 -0.03515465
000240 29 3b 32 3d 67 b9 8b bc 9b a6 59 bc 58 f0 47 3d
       0.04351345 -0.01705618 -0.013284351 0.048813194
000250 89 cb 9b 3b f5 56 93 3d b6 2b 45 bd 89 1b ab bc
       0.004754488 0.0719432 -0.04813739 -0.020887153
000260 20 97 39 bd ec ad 59 3c d3 2b bc bb 7c 99 3c bc
       -0.04531014 0.013286095 -0.005742529 -0.011511203
000270 32 65 90 3c e3 af 6c bc c6 6a ea 3c 46 cf cc bc
       0.017626379 -0.014446232 0.028615367 -0.02500118
000280 e9 ce 81 3d 3d 1f 6d 3c d7 1e f2 3c bc f7 0e bd
       0.06338293 0.01447278 0.029555721 -0.034904227
000290 9d 0d 8d bc 19 39 d8 3c c4 a8 bc 3c 10 b1 a0 3c
       -0.017218405 0.026394414 0.023029692 0.01961568
0002a0 93 06 4b 3c cd cd 18 bd 08 be 55 bc 0f af 12 3d
       0.012391704 -0.037305642 -0.013045795 0.03581148
0002b0 dd 89 e1 bb 1c 22 5b 3c 0c 8a 52 3c 15 8a 08 bd
       -0.0068828897 0.0133748315 0.012850296 -0.03333481
0002c0 37 73 81 bb a8 05 91 3c a4 27 a9 3d 1b ad f3 bc
       -0.0039505023 0.017702892 0.08259514 -0.029745629
0002d0 c7 1f 4e bc d1 64 b3 bc e3 0d b1 3c b1 ad 59 3c
       -0.0125808185 -0.021898659 0.021613067 0.01328604
0002e0 45 09 e3 bb 0d 2d 7b 3b 0b ad 7e bc 40 70 ea 3c
       -0.0069285952 0.0038326413 -0.015544186 0.028617978
0002f0 ca 90 b4 bb df ae 61 bd ef 57 c0 bb aa a2 6e bd
       -0.0055104243 -0.05509841 -0.0058698575 -0.058260597
000300 bc 44 01 3a 27 b6 da bc 46 76 1f 3d a4 e6 04 3d
       0.00049312017 -0.026698185 0.038931154 0.03244652
000310 7a ab 08 bd 38 65 9f 3c f2 fc f1 3a 46 a1 73 3d
       -0.033366658 0.019457445 0.0018462224 0.059479974
000320 1e 45 2c bd c1 cf 13 bc 9a 98 43 bd 53 fb 65 3c
       -0.042058103 -0.0090217 -0.047752954 0.014036971
000330 db 71 e2 bc 1e 45 0d 3d 67 c2 46 bc 6a 2c 7c 3c
       -0.027642181 0.034489743 -0.01213131 0.0153914485
000340 fc 14 8a bd 26 60 9f bb c5 e1 e0 b9 7f 00 c1 bc
       -0.06742284 -0.0048637567 -0.0004289282 -0.023559807
000350 79 f5 40 3c 2e 67 0d bd c4 04 2e 3c 62 7b 8f 3c
       0.011777275 -0.034522228 0.010621253 0.017514888
000360 d0 7f ff bc f2 ae c2 bc a8 77 3e bb 94 5f bc 3c
       -0.031188875 -0.023765061 -0.002906302 0.022994794
000370 4a 60 18 3d c8 e7 47 bd df 16 af 3c 52 cd b2 bb
       0.037201203 -0.04880503 0.02137321 -0.005456605
000380 ac 54 23 3c ca 17 c7 3c 47 e8 ea bc 2e 2c 79 bb
       0.009968918 0.024303336 -0.028675212 -0.0038020718
000390 7c c0 d0 3c af a2 a6 bc 00 91 1e bd 77 67 35 bd
       0.025482409 -0.020341245 -0.0387125 -0.044288125
0003a0 c5 4a 3a bc 91 92 7f bd 78 10 44 bc 93 30 9b 3c
       -0.0113703655 -0.062395636 -0.011966817 0.01894406
0003b0 72 86 74 bc ad 1e 0e bc cf c5 da bc 7d 5c 10 bc
       -0.014924632 -0.008674306 -0.02670565 -0.008811113
0003c0 39 de b8 3b 8d 35 2a bb 89 29 2a 3d 93 8e 8a bc
       0.0056417254 -0.002597186 0.041543517 -0.016913688
0003d0 44 69 82 3c 95 85 7f 3d 7b 1d 2b bc 00 e0 8f bb
       0.015919335 0.062383253 -0.01044404 -0.0043907166
0003e0 fc a2 f1 bc 54 bd a6 3c 17 5b 26 bc 1a 6c 10 3b
       -0.029496662 0.02035395 -0.010153553 0.002203709
0003f0 57 47 d6 3c a2 d5 9d 3c db 25 8a 3b 7c 91 ca 3b
       0.026157064 0.019266907 0.0042159385 0.006181894

layer.6.bias f4 [8]
000000 d6 0d 20 bd ce fc 28 bd 3c 59 60 bd 9c d8 0a bd
       -0.039075695 -0.04125672 -0.0547726 -0.03389798
000010 b1 5e 03 3e f4 57 f9 3d 59 7d e9 bc 34 f9 ed bc
       0.1282909 0.12174979 -0.028502153 -0.029049493
