final/save/1l_0.95_200_morelayer/save1_5500.pth (torch_old, 50952 bytes, 8 tensors)

layer.0.weight f4 [32, 28]
0.070116304 -0.08105496 -0.17039151 -0.1232922 0.12081477 0.15225008 0.14829907 0.20237207
-0.09254828 0.06683912 -0.099996544 0.08813276 0.08559385 -0.0026955672 -0.10242022 0.024863059
0.10304283 0.06328219 -0.07151423 -0.19795738 0.12317031 -0.01899378 0.14080323 -0.11340693
-0.06365402 -0.053407118 0.0653061 0.058632273 0.15673214 0.20303372 0.052884478 -0.0001537078
-0.11614833 -0.12551726 0.18704596 0.020081075 -0.111158244 -0.02374708 0.045781873 0.05878317
-0.03820917 0.12544891 -0.12767898 0.059585135 -0.022260696 -0.03358767 -0.10266166 0.044802237
0.14866753 -0.06799555 0.07774433 0.14646848 -0.03210855 -0.102084205 0.0691607 -0.0073071956
0.16075525 -0.16286021 0.1955729 0.0009188501 0.08714441 -0.030918842 0.031836882 -0.011568887
0.1122357 0.20980515 -0.040087778 0.19048798 -0.08063154 -0.014452608 -0.021068797 -0.04085243
0.036288958 0.026143078 0.1676151 0.14623514 0.16418064 0.16641809 0.15580752 -0.13370153
0.016398968 -0.065891646 0.17458886 0.09236846 -0.037506454 0.18594666 0.19346035 -0.084965095
-0.12781462 0.15950713 -0.118421786 -0.029908257 0.2293637 -0.0067381277 -0.015310333 -0.05679634
0.13247402 -0.12459687 -0.047041673 0.20807672 0.0650115 -0.058342353 -0.044484433 -0.077432714
0.05423158 0.08253472 -0.046479806 0.2017129 -0.09981787 0.024846854 0.118170016 0.19473386
0.10266346 -0.14218181 0.09615803 0.027998755 0.15378466 -0.011719184 -0.092696466 -0.024271091
0.0018191921 -0.10052544 0.10601487 -0.03594136 0.0027664318 -0.18459244 0.022581011 0.13653661
-0.029784529 0.0066653574 -0.032931875 0.02546216 -0.030623382 0.15451767 0.015715472 0.04349714
-0.0055531426 0.08364419 -0.022528712 0.09565572 -0.11894071 0.08260003 0.1702224 0.121334024
-0.060939267 0.006815722 0.103352204 -0.16018458 -0.023589544 0.071138896 0.16250175 0.030514583
0.21098353 -0.005129078 0.13660125 0.107998595 0.06685949 0.17233403 0.18510954 0.14173636
0.10661096 -0.10649612 -0.060602818 -0.09022053 0.15423419 -0.04929934 -0.16129665 0.06177788
-0.12515347 0.15505852 -0.082026236 -0.003245772 0.011804496 -0.034777503 0.12714769 0.18756667
0.15836051 0.05961498 -0.016101627 -0.036575854 0.20457736 0.048764266 0.008642257 -0.04604544
-0.10690601 0.09500874 0.08300159 0.10613905 0.00093442976 -0.117106505 0.066420004 -0.0037230842
0.06983365 0.07615988 0.04836026 0.027432235 0.028697511 -0.09410757 0.041566942 0.20849077
-0.123284005 0.21788855 -0.075393915 -0.051158763 -0.16115163 -0.16774853 0.12256789 -0.096519455
-0.16407625 -0.12529118 -0.05536826 0.073145024 -0.12842712 -0.19141544 0.10823742 0.048101492
0.0686676 0.12687777 0.22995806 -0.024145763 0.24077123 0.17899951 0.03035333 0.13582025
0.15011725 0.030099064 -0.089826085 -0.07554801 0.0023128793 -0.012339306 0.1335378 -0.07222394
-0.0936397 0.058822885 -0.19352351 -0.04841829 -0.06585755 0.036318395 0.021545168 0.16618074
0.096713506 0.19247 0.022840925 -0.17633082 -0.01358083 -0.2289568 0.029720662 -0.17979018
0.089313254 0.037006024 -0.14459023 -0.10374213 0.18665707 -0.080066785 0.17338933 0.16073042
00000000: 2399 8f3d 2500 a6bd 1d7b 2ebe 9f80 fcbd
00000010: bc6d f73d 72e7 1b3e b6db 173e a03a 4f3e
00000020: f489 bdbd f3e2 883d fdca ccbd f37e b43d
00000030: d44b af3d 1da8 30bb b1c1 d1bd 9dad cb3c
00000040: 1f08 d33d 189a 813d 0d76 92bd 57b5 4abe
00000050: b740 fc3d d898 9bbc b92e 103e e441 e8bd
00000060: 0a5d 82bd 6cc1 5abd 34bf 853d 6528 703d
00000070: 647e 203e 12e8 4f3e 659d 583d a02c 21b9
00000080: 2ddf edbd 9987 00be fa88 3f3e 1181 a43c
00000090: efa6 e3bd 3c89 c2bc c685 3b3d 9fc6 703d
000000a0: 3881 1cbd ae75 003e 47be 02be 8b0f 743d
000000b0: 105c b6bc 3a93 09bd 4740 d2bd 8d82 373d
000000c0: 4d3c 183e 4041 8bbd 6b38 9f3d d5fb 153e
000000d0: 4184 03bd 8611 d1bd 20a4 8d3d 3371 efbb
000000e0: 069d 243e d4c4 26be 4344 483e fdde 703a
000000f0: c578 b23d 8349 fdbc 6467 023d 6e8b 3dbc
00000100: d5db e53d 29d7 563e 1533 24bd 480f 433e
00000110: 2622 a5bd a2ca 6cbc 7898 acbc e154 27bd
00000120: bba3 143d 022a d63c 4ba3 2b3e aabe 153e
00000130: f81e 283e 8169 2a3e 028c 1f3e 0ee9 08be
00000140: 2157 863c 33f2 86bd 6cc7 323e ad2b bd3d
00000150: 5ea0 19bd cd68 3e3e 781a 463e 2e02 aebd
00000160: d6e1 02be d655 233e 1f87 f2bd 2902 f5bc
00000170: 51de 6a3e 83cb dcbb 31d8 7abc 47a3 68bd
00000180: 45a7 073e a52c ffbd c5ae 40bd 1012 553e
00000190: c024 853d 64f8 6ebd 4f35 36bd 0b95 9ebd
000001a0: ef21 5e3d f707 a93d 9c61 3ebd d48d 4e3e
000001b0: 506d ccbd a18b cb3c 1f03 f23d 5068 473e
000001c0: 3841 d23d 1c98 11be 80ee c43d a55d e53c
000001d0: ba79 1d3e d201 40bc a5d7 bdbd 2bd4 c6bc
000001e0: f571 ee3a 48e0 cdbd 531e d93d 3f37 13bd
000001f0: 064d 353b cd05 3dbe d0fb b83c 41d0 0b3e
00000200: affe f3bc 1269 da3b 93e3 06bd 0596 d03c
00000210: e3dd fabc e139 1e3e bcbd 803c 0f2a 323d
00000220: 23f7 b5bb a54d ab3d 228e b8bc 25e7 c33d
00000230: 3097 f3bd 342a a93d c84e 2e3e f97d f83d
00000240: 749b 79bd 6c56 df3b 52aa d33d 6d07 24be
00000250: dc3e c1bc 45b1 913d dc66 263e b8f9 f93c
00000260: 110c 583e d311 a8bb 33e1 0b3e 5e2e dd3d
00000270: a1ed 883d 5578 303e 5b8d 3d3e 5623 113e
00000280: d956 da3d a31a dabd a93a 78bd 8bc5 b8bd
00000290: 91ef 1d3e 1bee 49bd f32a 25be cd0a 7d3d
000002a0: 3b28 00be a9c7 1e3e 5ffd a7bd 05b7 54bb
000002b0: a567 413c db72 0ebd 0133 023e 7a11 403e
000002c0: 4229 223e d62e 743d 8fe7 83bc 90d0 15bd
000002d0: ba7c 513e 0abd 473d 4198 0d3c 259a 3cbd
000002e0: 8af1 dabd f193 c23d bdfc a93d 6e5f d93d
000002f0: 85f4 743a 89d5 efbd 3607 883d fdfe 73bb
00000300: f204 8f3d b6f9 9b3d 6815 463d 91b9 e03c
00000310: 0b17 eb3c 78bb c0bd 1942 2a3d 9b7e 553e
00000320: 537c fcbd 2d1e 5f3e 2068 9abd da8b 51bd
00000330: ef04 25be 45c6 2bbe e004 fb3d feab c5bd
00000340: 9b03 28be 554c 00be d4c9 62bd 0fcd 953d
00000350: 6682 03be 6902 44be 95ab dd3d 1206 453d
00000360: 99a1 8c3d 3fec 013e 207a 6b3e 56cd c5bc
00000370: bc8c 763e a64b 373e 8ca7 f83c 7714 0b3e
00000380: 56b8 193e 5092 f63c bdf6 b7bd eab8 9abd
00000390: ad93 173b cd2a 4abc 22be 083e 25ea 93bd
000003a0: 2cc6 bfbd 44f0 703d 072b 46be 4252 46bd
000003b0: 53e0 86bd 99c2 143d 7e7f b03c 492b 2a3e
000003c0: bb11 c63d db16 453e e41c bb3c 1190 34be
000003d0: 2182 5ebc a773 6abe bf78 f33c eb1a 38be
000003e0: dee9 b63d a193 173d 760f 14be c176 d4bd
000003f0: 0823 3f3e 0efa a3bd f98c 313e 8496 243e

layer.0.bias f4 [32]
-0.09085174 0.036205452 -0.12548973 0.043501314 0.05247536 0.12514955 -0.1179344 0.13356812
-0.15708967 0.11203305 0.045329574 0.08441182 0.07091132 0.11429719 -0.14460841 -0.173427
0.12851356 -0.08530084 0.06376928 0.055430617 0.15673065 -0.04791126 0.058296483 0.091016985
0.25553712 0.108223625 0.067349374 0.25714213 0.46906728 0.0594386 0.044575468 0.14204101
00000000: 7a10 babd 2b4c 143d 6180 00be 6f2e 323d
00000010: 67f0 563d 3427 003e 9787 f1bd 15c6 083e
00000020: 1ddc 20be 9571 e53d 81ab 393d 1be0 ac3d
00000030: f439 913d a514 ea3d 3a14 14be d996 31be
00000040: 0f99 033e 35b2 aebd 7899 823d 370b 633d
00000050: 007e 203e 993e 44bd 4bc8 6e3d 1d67 ba3d
00000060: c3d5 823e 59a4 dd3d 78ee 893d 22a8 833e
00000070: 9629 f03e e475 733d c494 363d 3373 113e

layer.2.weight f4 [64, 32]
0.1162461 0.14586827 0.066468954 -0.059313852 -0.04098573 0.029524602 0.1641265 0.13113005
0.093920514 0.16684695 -0.013195977 0.11284602 0.05605774 0.14912404 0.046844795 0.043241028
0.061113648 0.18686908 0.21792035 0.102632724 0.01159958 -0.016140757 -0.020177025 -0.20572603
0.00089174765 0.0035641203 0.15654093 -0.109260656 0.030543985 0.015724448 0.116040036 -0.036711957
0.17210807 0.23124361 -0.09997402 -0.092048265 -0.14067563 -0.021101898 0.20716727 -0.18027847
0.020610552 0.27060068 -0.102420576 0.067172706 -0.19324139 -0.26834136 -0.22001627 0.078879505
0.11602379 0.24712804 0.06643397 -0.05246682 -0.14782916 0.18652506 -0.20227073 -0.08536385
-0.08969853 0.08221854 -0.01896574 -0.15772033 0.09840743 0.17946218 -0.24466784 0.018221391
0.1501125 0.11916029 0.05929256 0.00900696 0.06512828 0.08811655 -0.07038295 -0.031659044
0.2123297 0.2012163 0.0985769 0.082927555 0.14906566 -0.16890994 -0.05290508 0.17584494
-0.033046346 0.12137525 -0.022215812 -0.07094799 -0.15737107 0.00046286025 0.028634036 0.02633714
0.12234403 0.05528146 0.003823455 -0.044723537 0.11956492 -0.12120181 0.108505584 0.02755458
0.15952511 -0.16603033 0.040456288 0.072187416 -0.072975144 -0.12870386 -0.017394446 -0.11454535
0.044068936 0.11947748 0.12483298 0.15002981 0.22761907 -0.1612352 0.10506072 -0.11973882
-0.019101173 -0.14757116 0.090692595 -0.2411669 -0.15861654 0.087081224 -0.06985325 0.12184744
0.3090214 -0.08412564 0.0029339609 0.08922145 -0.25333548 -0.029971987 0.17510498 0.054299597
-0.075162984 -0.026261605 -0.07329323 -0.20627606 0.07675844 -0.09735257 0.09602376 -0.073747076
-0.16440436 0.12537867 -0.075458206 0.014480239 0.060605887 -0.09756454 -0.03504626 -0.11903772
0.20704544 0.15397148 0.039699517 -0.31862104 -0.047305975 -0.17941703 -0.016268497 -0.05844325
-0.04870514 0.0695671 0.13682044 0.10834991 -0.014796453 -0.1337493 0.15811189 0.116922066
0.031703237 -0.13897245 -0.038760718 -0.24911794 0.0683044 0.10537529 -0.0916491 -0.104410164
-0.027852697 -0.104947455 -0.19003382 0.050294682 0.22672187 -0.07585352 0.039235663 -0.032083917
0.08755762 0.14937583 -0.2391736 -0.05297949 0.021330113 -0.009935729 -0.048874214 0.12313453
-0.28499144 -0.13494547 0.14564367 -0.07617025 0.027154116 0.009909529 0.032510992 0.2348912
-0.15879196 0.07729321 -0.0054169088 -0.22118963 0.037575517 0.08927966 -0.04418608 -0.2021792
-0.16234855 0.050939314 0.061731227 0.18422183 -0.037716046 -0.13610332 -0.0054749963 0.087159425
-0.01715848 0.1057967 0.0811607 0.23838088 0.30938023 -0.004946107 0.053072352 0.06108825
-0.11297165 0.04141808 0.09626046 0.18183573 -0.041745573 0.107144065 0.04275086 0.1545793
-0.111800194 -0.14545505 0.009209354 -0.010982267 -0.032118242 0.004537769 0.058244452 -0.021429168
-0.17332873 -0.06892477 0.09410569 0.06834939 -0.1487118 0.0733421 0.16972433 0.15796046
-0.31432408 0.05718836 0.053985953 0.07544543 0.33035484 -0.17007053 0.19482914 -0.0717254
0.13897319 0.08342515 -0.115442425 -0.005881172 -0.20465803 0.22382244 0.061058454 -0.15820713
00000000: 6f12 ee3d 7e5e 153e e020 883d 15f3 72bd
00000010: a7e0 27bd 94dd f13c c710 283e f546 063e
00000020: 6659 c03d edd9 2a3e f033 58bc d01b e73d
00000030: cd9c 653d f9b3 183e 54e0 3f3d 811d 313d
00000040: 4e52 7a3d 9c5a 3f3e 8326 5f3e 1b31 d23d
00000050: 2a0c 3e3c 9f39 84bc 4a4a a5bc d8a9 52be
00000060: 2cc4 693a 0494 693b 444c 203e 0dc4 dfbd
00000070: 6137 fa3c 8fd0 803c 66a6 ed3d 475f 16bd
00000080: 193d 303e 20cb 6c3e 2ebf ccbd cd83 bcbd
00000090: 460d 10be e3dd acbc a823 543e eb9a 38be
000000a0: 76d7 a83c 2c8c 8a3e e1c1 d1bd d891 893d
000000b0: 12e1 45be 0a64 89be f24b 61be 948b a13d
000000c0: e19d ed3d 220f 7d3e 890e 883d 73e7 56bd
000000d0: 8760 17be 6d00 3f3e 0f20 4fbe 3ed3 aebd
000000e0: ddb3 b7bd 3262 a83d 0a5e 9bbc 7081 21be
000000f0: d689 c93d efc4 373e 358a 7abe 0745 953c
00000100: 17b7 193e 4f0a f43d c1dc 723d ee91 133c
00000110: fa61 853d 7376 b43d f024 90bd eaac 01bd
00000120: f56c 593e a50b 4e3e b0e2 c93d ecd5 a93d
00000130: aba4 183e baf6 2cbe ffb2 58bd b210 343e
00000140: 9b5b 07bd 9693 f83d effd b5bc 2e4d 91bd
00000150: e225 21be 0dac f239 ed91 ea3c fcc0 d73c
00000160: 828f fa3d d06e 623d ee92 7a3b 0730 37bd
00000170: 74de f43d a838 f8bd 2d38 de3d 24ba e13c
00000180: 8d5a 233e db03 2abe 7eb5 253d ffd6 933d
00000190: fe73 95bd f2ca 03be cc7e 8ebc c196 eabd
000001a0: a181 343d 9cb0 f43d 6fa8 ff3d 6aa1 193e
000001b0: f914 693e d71a 25be 132a d73d a039 f5bd
000001c0: 107a 9cbc e51c 17be 0abd b93d 75f4 76be
000001d0: 606c 22be a457 b23d 390f 8fbd 278b f93d
000001e0: 0e38 9e3e 104a acbd b247 403b bcb9 b63d
000001f0: 30b5 81be d087 f5bc b84e 333e 4169 5e3d
00000200: 0def 99bd 9422 d7bc c31a 96bd 083a 53be
00000210: 8733 9d3d c960 c7bd 1ba8 c43d b508 97bd
00000220: 9e59 28be 4463 003e d589 9abd 863e 6d3c
00000230: e13d 783d ebcf c7bd ab8c 0fbd 0cca f3bd
00000240: b803 543e b3aa 1d3e f69b 223d 4c22 a3be
00000250: e9c3 41bd 19b9 37be 8345 85bc 3062 6fbd
00000260: 0a7f 47bd 3279 8e3d a81a 0c3e 8fe6 dd3d
00000270: d26c 72bc 94f5 08be 15e8 213e d674 ef3d
00000280: 41db 013d cb4e 0ebe 8fc3 1ebd c618 7fbe
00000290: 2de3 8b3d 00cf d73d 86b2 bbbd ffd4 d5bd
000002a0: 572b e4bc b1ee d6bd 3a98 42be cc01 4e3d
000002b0: c729 683e 1759 9bbd 93b5 203d 6d6a 03bd
000002c0: 6951 b33d faf5 183e ede9 74be 0601 59bd
000002d0: 7dbc ae3c 78c9 22bc 5430 48bd f52d fc3d
000002e0: 66ea 91be 252f 0abe 9d23 153e 26ff 9bbd
000002f0: 4f72 de3c 945b 223c 3f2a 053d 5287 703e
00000300: 5c9a 22be e74b 9e3d 5380 b1bb 897f 62be
00000310: c9e8 193d 41d8 b63d 77fc 34bd 1008 4fbe
00000320: b33e 26be bea5 503d e2d9 7c3d a6a4 3c3e
00000330: 247c 1abd ab5e 0bbe 9967 b3bb a480 b23d
00000340: f18f 8cbc f1ab d83d 9537 a63d 1e1a 743e
00000350: 1667 9e3e f412 a2bb 6562 593d ac37 7a3d
00000360: ae5d e7bd 01a6 293d 3424 c53d 2533 3a3e
00000370: 68fd 2abd 596e db3d 871b 2f3d 094a 1e3e
00000380: 80f7 e4bd 2bf2 14be d5e2 163c f7ee 33bc
00000390: 6b8e 03bd 91b1 943b bc91 6e3d 398c afbc
000003a0: 167d 31be 6e28 8dbd 7cba c03d c4fa 8b3d
000003b0: e847 18be 6234 963d 37cc 2d3e 63c0 213e
000003c0: 16ef a0be 573e 6a3d 6020 5d3d 2283 9a3d
000003d0: 4524 a93e f826 2ebe 4a81 473e c4e4 92bd
000003e0: fd4e 0e3e ceda aa3d 146d ecbd d9b6 c0bb
000003f0: e091 51be b631 653e 6e18 7a3d 0d01 22be

layer.2.bias f4 [64]
-0.18621764 0.009177346 -0.033079445 0.04868596 -0.015299155 0.024602272 0.16128951 -0.10286232
0.21314609 0.05566727 -0.039239217 0.048200477 0.100518756 0.16903117 0.32383713 -0.0076871496
0.10148018 0.06683354 0.07870232 -0.080132775 0.035754547 0.19732086 0.030441398 0.007930717
0.168053 0.13832077 -0.109576546 -0.10522374 -0.22941479 -0.120591134 0.11794955 0.16669475
0.034657948 -0.12845296 0.07304116 0.15885296 0.22659743 0.42334035 0.21617329 0.0485022
-0.11475523 -0.20363148 -0.05122073 0.16111393 0.14058101 -0.06448323 0.21300796 0.24089387
0.051580824 0.22283322 -0.14148326 0.23498404 0.13072751 -0.20605901 -0.054429315 -0.16971546
0.1236075 -0.03235731 -0.060726423 0.045639604 0.2456996 0.15668702 -0.20828769 0.10077486
00000000: d6af 3ebe 945c 163c 507e 07bd ee6a 473d
00000010: 4fa9 7abc b48a c93c 1429 253e 7ba9 d2bd
00000020: f842 5a3e 5d03 643d 4db9 20bd dd6d 453d
00000030: c7dc cd3d 8216 2d3e fbcd a53e 7ce4 fbbb
00000040: d7d4 cf3d 06e0 883d af2e a13d a71c a4bd
00000050: 5c73 123d 7b0e 4a3e 3d60 f93c d7ef 013c
00000060: 1616 2c3e f6a3 0d3e ab69 e0bd 8b7f d7bd
00000070: b6eb 6abe 7cf8 f6bd 898f f13d 07b2 2a3e
00000080: 7ef5 0d3d 2c89 03be 9b96 953d 5aaa 223e
00000090: 2809 683e 11c0 d83e 885c 5d3e 3eaa 463d
000000a0: ca04 ebbd c584 50be d4cc 51bd 0dfb 243e
000000b0: 78f4 0f3e c90f 84bd c21e 5a3e e2ac 763e
000000c0: 6a46 533d 642e 643e fde0 10be a89f 703e
000000d0: 6fdd 053e 2201 53be 46f1 5ebd e4c9 2dbe
000000e0: ee25 fd3d 1989 04bd 45bc 78bd 98f0 3a3d
000000f0: ad98 7b3e 9072 203e 5e49 55be 0d63 ce3d

layer.4.weight f4 [128, 64]
0.10040872 0.17643817 -0.058009334 -0.11021781 -0.042679712 -0.26455235 0.0338741 0.16158438
-0.06014275 0.08886615 0.040720213 0.033904966 0.05878236 0.070157304 0.12719466 -0.11529201
0.18168944 0.12849538 0.026429672 -0.0751153 0.027827421 -0.19783781 0.10823914 -0.026217297
0.14155011 -0.13572069 -0.104735024 -0.021727262 -0.03144608 0.049495734 0.022772979 -0.029695833
-0.08938238 -0.041363925 -0.039063383 -0.17105657 -0.0443577 -0.01051091 0.14376545 -0.16911627
-0.07443802 -0.09149545 0.06320471 0.03441542 -0.09658264 -0.060001668 -0.048588946 -0.1285255
-0.1551485 0.07458755 -0.086109154 -0.05508808 0.065548316 0.035476044 -0.033854783 0.03133733
-0.064890295 0.034101006 0.060766503 0.09883014 0.035608787 -0.04374222 -0.04635399 -0.072079554
-0.05815959 -0.28235367 -0.03056075 0.07247803 0.074955665 0.17122038 0.12907523 0.0028281554
-0.27787432 -0.07233025 0.12103684 -0.18364626 0.09616703 0.02315527 0.0093838135 -0.072465
-0.31154442 0.067890905 -0.08596929 0.050570287 -0.07566224 0.090942994 0.12712193 -0.18922889
0.08470086 0.041635673 0.12709962 -0.06650187 -0.104741596 -0.0760587 -0.104884386 0.06393534
-0.07419849 0.07009327 -0.093367815 0.06345156 -0.061223205 -0.043264985 -0.049728513 -0.17038603
0.15801391 -0.1707881 0.13617969 0.056002438 0.11248191 0.13204965 -0.06750687 0.05646622
0.09098001 0.06690978 0.04603525 -0.13094804 -0.108513765 0.019791756 -0.032621898 0.1086306
0.09550777 0.06423046 -0.09652905 0.006036234 0.05355703 -0.110910505 -0.12829664 -0.050204974
0.010437345 0.23213248 0.05038026 -0.107297 -0.031196859 0.07077466 0.06779224 -0.02093618
0.02172957 -0.05888217 -0.044592 0.026395762 -0.05315831 0.17568345 0.03513252 -0.11614963
0.178436 0.16805238 -0.075575486 -0.033735916 -0.06180245 0.058970045 -0.026706422 -0.18992974
0.077256374 -0.01108306 -0.03193816 -0.053510353 -0.12892094 -0.028702438 -0.09018959 0.08302738
-0.041021895 0.016912457 0.102928974 -0.08918738 -0.02449799 -0.09552971 0.122975 -0.023065258
0.04520336 -0.13849461 -0.029913723 0.008319034 0.046702392 0.10302546 0.110872015 -0.08901007
0.01987405 0.018646194 -0.20751187 0.02978219 -0.06917476 -0.06440779 0.04657718 0.079193495
-0.08880416 0.04122311 -0.13015072 0.03675788 0.17602554 0.06426108 0.017222257 0.045790415
0.10100368 -0.041881863 0.08148731 -0.085315734 0.08354007 0.23261258 -0.049527194 -0.030387511
0.10110343 0.021511307 0.04021432 -0.04944563 0.0842427 -0.064541645 -0.14064339 0.14016984
-0.17395674 -0.17428598 -0.061165236 -0.03216287 -0.0311468 0.028616905 0.0473814 0.10833718
-0.089397915 0.14619316 0.007552069 -0.008601658 0.13310151 0.020326007 0.06756756 0.0643662
0.01311516 0.03806525 0.12890333 0.13677552 -0.038781233 -0.05258903 0.082721435 0.17198879
-0.031542238 0.051325988 -0.07225043 -0.13438395 -0.04701957 0.067693055 -0.10374194 0.07208653
-0.024675459 0.05883261 0.05393856 0.05181956 0.063024394 0.10871705 -0.032089885 0.034377262
-0.05252053 0.1134978 -0.13111609 0.115229234 0.12659727 -0.036200777 0.0959579 -0.07122541
00000000: 16a3 cd3d 35ac 343e 329b 6dbd e0b9 e1bd
00000010: ecd0 2ebd 6873 87be 91bf 0a3d 6076 253e
00000020: 3f58 76bd 75ff b53d 3dca 263d efdf 0a3d
00000030: c6c5 703d a2ae 8f3d 513f 023e 381e ecbd
00000040: cc0c 3a3e 4b94 033e 0a83 d83c 0dd6 99bd
00000050: 55f6 e33c ff95 4abe 7bac dd3d a8c5 d6bc
00000060: 83f2 103e 5dfa 0abe 517f d6bd 5ffd b1bc
00000070: 9bcd 00bd 0abc 4a3d 668e ba3c ad44 f3bc
00000080: 1c0e b7bd 386d 29bd ed00 20bd 7429 2fbe
00000090: 6bb0 35bd f435 2cbc 4037 133e d12c 2dbe
000000a0: f672 98bd f761 bbbd 7971 813d 2ff7 0c3d
000000b0: 1fcd c5bd 4fc4 75bd 3405 47bd 309c 03be
000000c0: 40df 1ebe 5bc1 983d ff59 b0bd 0aa4 61bd
000000d0: 323e 863d 544f 113d 50ab 0abd 925b 003d
000000e0: 34e5 84bd 7fad 0b3d 4ce6 783d 7567 ca3d
000000f0: 85da 113d 0b2b 33bd aedd 3dbd 729e 93bd
00000100: c038 6ebd a990 90be 8a5a fabc 5d6f 943d
00000110: 5b82 993d 6554 2f3e 4c2c 043e 9358 393b
00000120: 8b45 8ebe e221 94bd 2ae2 f73d c40d 3cbe
00000130: 38f3 c43d 1fb0 bd3c 91be 193c 8868 94bd
00000140: c082 9fbe 630a 8b3d ab10 b0bd ca22 4f3d
00000150: cef4 9abd 5240 ba3d 402c 023e 38c5 41be
00000160: a577 ad3d 2b8a 2a3d 6726 023e 2232 88bd
00000170: c382 d6bd aac4 9bbd a0cd d6bd 88f0 823d
00000180: 61f5 97bd 0f8d 8f3d a037 bfbd e4f2 813d
00000190: 2fc5 7abd a036 31bd 20b0 4bbd ad79 2ebe
000001a0: 66ce 213e 13e3 2ebe b072 0b3e d062 653d
000001b0: ea5c e63d 0638 073e 0b41 8abd 2049 673d
000001c0: ba53 ba3d ff07 893d 758f 3c3d 3e17 06be
000001d0: 773c debd 5222 a23c 8a9e 05bd b879 de3d
000001e0: 9499 c33d 428b 833d 06b1 c5bd 9acb c53b
000001f0: 9e5e 5b3d 0c25 e3bd 3260 03be bba3 4dbd
00000200: 6601 2b3c 23b4 6d3e 885b 4e3d 88be dbbd
00000210: 8e90 ffbc 4ef2 903d a8d6 8a3d 5a82 abbc
00000220: 3602 b23c 6e2e 71bd 1aa6 36bd ed3b d83c
00000230: 87bc 59bd 5de6 333e 1ee7 0f3d dbdf edbd
00000240: edb7 363e ec15 2c3e 52c7 9abd ac2e 0abd
00000250: 9124 7dbd 938a 713d 6dc7 dabc f17c 42be
00000260: 9738 9e3d b995 35bc 97d1 02bd ac2d 5bbd
00000270: da03 04be 6021 ebbc 52b5 b8bd 420a aa3d
00000280: 9306 28bd fe8b 8a3c 6dcc d23d e0a7 b6bd
00000290: 02b0 c8bc 15a5 c3bd 51da fb3d 5af3 bcbc
000002a0: 2927 393d 88d1 0dbe a00d f5bc 8f4c 083c
000002b0: 024b 3f3d 03ff d23d de10 e33d e94a b6bd
000002c0: e7ce a23c e7bf 983c fe7d 54be c8f9 f33c
000002d0: 7fab 8dbd 3be8 83bd b7c7 3e3d 3330 a23d
000002e0: f5de b5bd 90d9 283d 3b46 05be 6e8f 163d
000002f0: 0a40 343e 509b 833d b115 8d3c bb8e 3b3d
00000300: 04db ce3d 518c 2bbd d2e2 a63d 04ba aebd
00000310: 0e17 ab3d fe31 6e3e 07dd 4abd 3bef f8bc
00000320: 510f cf3d 7b38 b03c c5b7 243d 8087 4abd
00000330: 7087 ac3d 692e 84bd d204 10be af88 0f3e
00000340: b721 32be 0678 32be 6688 7abd 37bd 03bd
00000350: 9327 ffbc 006e ea3c 0013 423d e2df dd3d
00000360: 4116 b7bd a9b3 153e 5977 f73b f8ed 0cbc
00000370: c34b 083e ba82 a63c dc60 8a3d 6dd2 833d
00000380: f8e0 563c 4fea 1b3d 3cff 033e e20e 0c3e
00000390: 12d9 1ebd 9867 57bd db69 a93d d41d 303e
000003a0: 6f32 01bd 333b 523d 09f8 93bd f29b 09be
000003b0: 9897 40bd a8a2 8a3d a776 d4bd 1aa2 933d
000003c0: 3024 cabc 76fa 703d aeee 5c3d bf40 543d
000003d0: ef12 813d 0ba7 de3d af70 03bd 2ccf 0c3d
000003e0: c41f 57bd 8971 e83d 4c43 06be 4efd eb3d
000003f0: b7a2 013e 4447 14bd 9385 c43d a1de 91bd

layer.4.bias f4 [128]
0.16788541 0.1775132 0.2040434 -0.10779957 -0.1471576 0.18638748 -0.07786853 0.2914421
0.19212021 -0.18273066 0.11885278 0.13271493 0.11260679 0.036999185 -0.008497128 -0.13986264
-0.08233812 -0.14233656 -0.048390195 -0.012452636 0.08214966 -0.14385541 0.13074966 -0.1277213
-0.040581536 0.14606267 -0.04133495 0.013427703 0.00980036 0.11704108 0.09390422 0.040068667
0.23141888 -0.12392262 -0.022619743 0.13369754 0.14781262 0.12206865 0.20440067 0.049041536
-0.002024158 0.1085149 0.13796297 -0.100043416 0.23283768 0.28254807 -0.08958979 0.09232762
-0.06778898 0.10978324 -0.17564824 -0.043865878 -0.124109335 0.18139204 0.17667519 0.06824665
0.1747432 0.063642114 -0.032273345 0.121082336 0.023487028 -0.113518335 -0.013131023 -0.06056033
-0.104982235 0.087744795 0.12738112 0.10135718 -0.060543753 0.23559572 -0.1854906 -0.004636157
0.07216962 0.12413563 0.20335142 0.04883108 -0.24325426 0.1965687 -0.09266656 -0.06253826
0.16192776 -0.072055176 -0.06380975 -0.0363817 0.052348174 0.1682486 0.08298314 -0.028115124
0.06659825 0.115898274 0.13267587 0.20257384 0.025626749 0.12777475 -0.027290013 -0.054194342
-0.077240355 0.06410208 -0.0011515142 0.010338894 0.102032155 0.024218913 -0.11060609 0.15672122
0.20367558 0.08516262 -0.025623579 0.102464624 0.05833888 0.07831192 0.042908594 0.093911186
0.14973086 -0.09934196 0.30087695 -0.029780898 0.019382482 0.18192376 -0.020032993 0.25690883
-0.07900838 0.023082133 0.15317743 0.16275148 0.0027315668 0.11137946 0.15023474 -0.030265113
00000000: 27ea 2b3e 05c6 353e c1f0 503e 05c6 dcbd
00000010: 7bb0 16be 5cdc 3e3e 8979 9fbd e637 953e
00000020: 29bb 443e bf1d 3bbe 1669 f33d 6ce6 073e
00000030: 649e e63d 758c 173d 8a37 0bbc 2738 0fbe
00000040: e3a0 a8bd adc0 11be cc34 46bd 2406 4cbc
00000050: 153e a83d d54e 13be 3de3 053e 5fc9 02be
00000060: d338 26bd 7491 153e d64e 29bd deff 5b3c
00000070: b091 203c 3cb3 ef3d db50 c03d 0b1f 243d
00000080: 12f9 6c3e 25cb fdbd 0a4d b9bc 02e8 083e
00000090: 315c 173e 21ff f93d 694e 513e c7df 483d
000000a0: bca7 04bb 0f3d de3d 2a46 0d3e 90e3 ccbd
000000b0: 006d 6e3e 24aa 903e da7a b7bd 4316 bd3d
000000c0: f3d4 8abd 09d6 e03d 22dd 33be b5ac 33bd
000000d0: 092d febd d6be 393e 57ea 343e e6c4 8b3d
000000e0: e2ef 323e cc56 823d 0e31 04bd 04fa f73d
000000f0: de67 c03c 4d7c e8bd 8123 57bc 1c0e 78bd
00000100: ed00 d7bd 8bb3 b33d 3270 023e 5a94 cf3d
00000110: bafc 77bd 0140 713e 3ff1 3dbe e7ea 97bb
00000120: aacd 933d d23a fe3d 5b3b 503e 1903 483d
00000130: a517 79be 4e49 493e f7c7 bdbd 0f14 80bd
00000140: 64d0 253e aa91 93bd b0ae 82bd fa04 15bd
00000150: 0a6b 563d 5c49 2c3e 11f3 a93d b051 e6bc
00000160: aa64 883d 135c ed3d 2fdc 073e 846f 4f3e
00000170: 30ef d13c 62d7 023e 4e8f dfbc e3fa 5dbd
00000180: 3130 9ebd f447 833d 68ee 96ba 7764 293c
00000190: 3cf6 d03d be66 c63c 7285 e2bd 877b 203e
000001a0: 5590 503e bd69 ae3d 8ae8 d1bc f9d8 d13d
000001b0: c0f4 6e3d 0062 a03d ecc0 2f3d 8254 c03d
000001c0: 0c53 193e cc73 cbbd 8b0c 9a3e 12f7 f3bc
000001d0: 03c8 9e3c 394a 3a3e 3b1c a4bc 8e89 833e
000001e0: 25cf a1bd be16 bd3c 8bda 1c3e 53a8 263e
000001f0: 1604 333b ea1a e43d 23d7 193e 8bee f7bc

layer.6.weight f4 [8, 128]
0.22150993 -0.12054259 0.10496067 -0.06341863 -0.054489527 0.17841677 -0.14122623 0.12618181
-0.12668009 -0.09153346 0.047413103 0.032255337 -0.017670108 0.018508445 -0.0023226654 -0.12011388
-0.09058327 -0.052891865 0.39808977 0.25354186 0.14856844 0.16225216 0.054987993 0.023853114
-0.0782736 -0.09706782 -0.034266 -0.19829878 -0.12255022 -0.013017439 -0.12862262 0.2634277
-0.03221833 -0.086333096 0.0020487136 0.11830396 -0.079916105 -0.17261764 0.14376082 0.12023656
-0.269625 0.05223149 -0.082748435 0.12280279 0.14213045 0.11459202 -0.0011206539 0.06257728
0.14722921 -0.06289665 -0.013149033 0.021063268 0.028797312 0.39412814 -0.13298278 -0.07128071
-0.09089997 -0.15944204 -0.20562427 0.12665679 0.07019411 0.78437674 0.10344784 -0.07481738
0.056822304 0.00025168413 0.015214994 0.17739461 0.29364207 -0.1531421 -0.08153206 -0.010770063
0.08708488 0.06358073 -0.027710415 -0.1252738 -0.10559412 0.09323259 -0.11067226 -0.12973477
0.13908914 -0.088572435 0.0040087365 0.073221445 0.011327447 -0.098994724 0.017215319 -0.17472988
0.46989802 0.19723357 -0.12623689 -0.008028016 -0.13164635 0.40760455 0.39869735 -0.12392632
0.066686854 -0.08814953 -0.016542796 -0.06741958 -0.050680794 0.011291694 -0.036791142 0.0417796
0.13927771 0.1828662 0.44580358 0.05051702 -0.098518595 0.17862837 0.057625312 0.07324993
-0.008405718 -0.055668723 0.118958354 -0.13223667 0.061781693 0.0887825 0.16003302 -0.09896679
0.07978425 0.18848781 0.16929272 0.18118134 0.8062285 -0.13886483 0.051954594 -0.13390237
0.30048788 0.13125308 0.06991025 -0.10524256 0.009834851 0.062819 0.2458192 0.088886626
0.071591094 0.0058624744 0.06820941 0.13074367 -0.19273812 -0.071707726 -0.16833115 -0.07373525
-0.06245505 -0.05115312 -0.01976125 -0.08383554 -0.04565672 -0.03291529 -0.14585975 -0.0009650381
-0.0009742013 0.05701928 -0.0633025 -0.2088864 0.33259612 -0.013949537 0.41394138 -0.15538579
0.030806968 -0.06724887 0.25324243 0.032974888 0.36271966 -0.06477703 0.22119239 0.07360675
-0.051778857 0.052261356 0.048778765 0.16731691 0.130272 -0.10985912 -0.0082476 0.1553817
-0.09097621 -0.17733258 -0.07608576 0.0855589 1.1617354 -0.008446779 -0.093361706 0.06628109
0.058801185 -0.024521083 0.4749178 -0.090322055 -0.057925336 0.098372735 -0.10451275 -0.06093247
-0.090442106 0.35519272 -0.1847126 0.15233056 0.17035286 0.1974519 -0.01636643 0.4395836
-0.10198821 -0.11814207 -0.037971575 0.14278722 -0.07894924 0.12550338 0.039061554 -0.22548217
-0.061580546 0.031436395 0.0010592246 0.1956078 -0.1298066 0.08476136 0.3021929 -0.16554381
-0.23590808 0.11951206 0.24007563 0.11151307 0.09720619 -0.14884537 -0.26981255 0.034611803
0.021945981 -0.066457026 0.14916766 -0.098271385 0.13662557 -0.028965635 0.061680835 -0.10587638
0.14452423 -0.21602492 -0.16623588 -0.017103111 0.46404976 0.05867039 0.11244805 0.1336828
0.08724311 0.040973213 0.058558557 -0.104905784 -0.076455295 0.001006651 -0.13490352 0.19022411
-0.021456713 -0.025113136 0.054577325 0.1382068 -0.058851358 0.12237998 0.0448601 -0.024125632
00000000: 80d3 623e 09df f6bd 9ff5 d63d a0e1 81bd
00000010: 6930 5fbd e3b2 363e 9c9d 10be ce35 013e
00000020: 6db8 01be e575 bbbd 3e34 423d 2c1e 043d
00000030: e7c0 90bc 069f 973c dc37 18bb 44fe f5bd
00000040: b983 b9bd 24a5 58bd 6cd2 cb3e 3dd0 813e
00000050: 5322 183e 6e25 263e 173b 613d 9b67 c33c
00000060: e94d a0bd 7ecb c6bd 815a 0cbd d60e 4bbe
00000070: 9cfb fabd 1947 55bc a6b5 03be ffdf 863e
00000080: 5ef7 03bd 68cf b0bd b643 063b 5949 f23d
00000090: 0eab a3bd aec2 30be 0936 133e 963e f63d
000000a0: 4a0c 8abe b0f0 553d 0378 a9bd 0780 fb3d
000000b0: a58a 113e 39af ea3d e8e2 92ba 8428 803d
000000c0: 41c3 163e f5cf 80bd 0b6f 57bc e08c ac3c
000000d0: 57e8 eb3c 2acb c93e a32c 08be 9ffb 91bd
000000e0: c329 babd c644 23be 2b8f 52be 51b2 013e
000000f0: eec1 8f3d eacc 483f 76dc d33d db39 99bd
00000100: 81be 683d 79f4 8339 4f48 793c efa6 353e
00000110: 4158 963e 48d1 1cbe 48fa a6bd eb74 30bc
00000120: 8f59 b23d 9d36 823d f400 e3bc c647 00be
00000130: bb41 d8bd baf0 be3d 23a8 e2bd 31d9 04be
00000140: 626d 0e3e 7765 b5bd b85b 833b 20f5 953d
00000150: c296 393c bfbd cabd 2407 8d3c 64ec 32be
00000160: 7996 f03e 99f7 493e 3e44 01be f187 03bc
00000170: 4dce 06be 8bb1 d03e 0f22 cc3e 15cd fdbd
00000180: 1e93 883d be87 b4bd c284 87bc 4713 8abd
00000190: aa96 4fbd cc00 393c 4fb2 16bd 1621 2b3d
000001a0: d19e 0e3e 4741 3b3e 5e40 e43e efea 4e3d
000001b0: 1ec4 c9bd 5bea 363e 8508 6c3d 0f04 963d
000001c0: 23b8 09bc e304 64bd 70a0 f33d 0d69 07be
000001d0: cd0e 7d3d 99d3 b53d b2df 233e 1aaf cabd
000001e0: ed65 a33d f302 413e 125b 2d3e 9a87 393e
000001f0: fe64 4e3f 9532 0ebe 57ce 543d b41d 09be
00000200: 8cd9 993e 3567 063e 1b2d 8f3d 6989 d7bd
00000210: 5b22 213c 3fa7 803d 07b8 7b3e 310a b63d
00000220: 5a9e 923d 001a c03b 60b1 8b3d abe1 053e
00000230: 245d 45be 80db 92bd 005f 2cbe 8202 97bd
00000240: ded0 7fbd ef85 51bd 58e2 a1bc f8b1 abbd
00000250: 8a02 3bbd 2fd2 06bd 425c 15be 9cfa 7cba
00000260: 8b61 7fba 0c8d 693d bea4 81bd 51e6 55be
00000270: 0a4a aa3e 998c 64bc 20f0 d33e 741d 1fbe
00000280: e55e fc3c c7b9 89bd fea8 813e ad10 073d
00000290: 64b6 b93e d2a9 84bd 4280 623e 23bf 963d
000002a0: 1116 54bd 0110 563d 3ecc 473d 2055 2b3e
000002b0: 0666 053e d1fd e0bd f120 07bc 611c 1f3e
000002c0: bc51 babd ac96 35be dad2 9bbd 8139 af3d
000002d0: bfb3 943f 5c64 0abc 6c34 bfbd 61be 873d
000002e0: 83d9 703d 70e0 c8bc 6d28 f33e c5fa b8bd
000002f0: 1e43 6dbd a577 c93d c80a d6bd 5394 79bd
00000300: b639 b9bd d2db b53e 4d25 3dbe 8bfc 1b3e
00000310: fb70 2e3e d530 4a3e e412 86bc 1a11 e13e
00000320: 32df d0bd 78f4 f1bd 1588 1bbd d036 123e
00000330: 24b0 a1bd f583 003e 02ff 1f3d cce4 66be
00000340: e23b 7cbd 73c3 003d aed5 8a3a 694d 483e
00000350: 05ec 04be 5d97 ad3d 07b9 9a3e 5184 29be
00000360: e391 71be bdc2 f43d 63d6 753e f760 e43d
00000370: 0a14 c73d ec6a 18be df24 8abe 1bc5 0d3d
00000380: 0fc8 b33c 9f1a 88bd 68bf 183e 8242 c9bd
00000390: 93e7 0b3e 5749 edbc 0ba5 7c3d b7d5 d8bd
000003a0: 29fe 133e a335 5dbe bd39 2abe d31b 8cbc
000003b0: ee97 ed3e 5d50 703d 2a4b e63d 25e4 083e
000003c0: 84ac b23d 87d3 273d 19db 6f3d d8d8 d6bd
000003d0: 9894 9cbd 9af1 833a 2624 0abe 1cca 423e
000003e0: fdc5 afbc 10ba cdbc 798c 5f3d 1586 0d3e
000003f0: 1f0e 71bd 5ba2 fa3d 39bf 373d 1ea3 c5bc

layer.6.bias f4 [8]
0.07602614 0.16487817 0.07590204 0.14251117 -0.06694186 -0.03258858 -0.0330812 -0.071872234
00000000: 98b3 9b3d d3d5 283e 8772 9b3d 73ee 113e
00000010: d018 89bd 9a7b 05bd 2780 07bd c031 93bd
