final/save/1l_0.95_200_morelayer/save3_8500.pth (torch_old, 50952 bytes, 8 tensors)

layer.0.weight f4 [32, 28]
0	0xbd7f3051	-0.062301937
1	0xbe542acd	-0.20719452
2	0x3e4442a4	0.19166046
3	0xbe431dc9	-0.19054331
4	0xbca8cf2f	-0.020606605
5	0x3e13e8f3	0.14444332
6	0x3d8c8b13	0.06862464
7	0x3ddeb9b6	0.10875265
8	0x3cb91849	0.022594588
9	0xbd9a496c	-0.07533535
10	0x3dd908fc	0.10597417
11	0xbd563abc	-0.052302107
12	0x3d20c33b	0.039248686
13	0x3e26de87	0.16295825
14	0xbda75df9	-0.08172221
15	0x3e3ba574	0.18324834
16	0x3de6063a	0.112316564
17	0x3e2654d8	0.16243303
18	0x3e19b83d	0.15011688
19	0x3da52fae	0.08065735
20	0x3dc39663	0.09550168
21	0xbd1ec336	-0.038760386
22	0x3cd8731b	0.026422074
23	0x3e65e86e	0.22451946
24	0x3d943393	0.072363995
25	0x3d79f515	0.061024744
26	0xbdd4a1f7	-0.10382455
27	0xbd9f620b	-0.07782372
28	0x3e30fbea	0.17283598
29	0x3e01e5a8	0.12685263
30	0x3de8d8a9	0.1136945
31	0x3e5ebac8	0.21750939
32	0x3d9fa3d2	0.07794918
33	0xbcce310d	-0.025169874
34	0x3d060a12	0.032724448
35	0xbd8d70b6	-0.069062635
36	0xbdda15e6	-0.10648708
37	0x3b887959	0.0041648564
38	0xbd4b0540	-0.049565554
39	0x3dad899d	0.08473513
40	0xbdef19ef	-0.11674868
41	0xbd29ae81	-0.041426186
42	0xbd9d42b1	-0.07678736
43	0x3ded2c08	0.11580664
44	0x3b93b17e	0.0045072427
45	0x3e5fb555	0.21846516
46	0xbdb490b9	-0.08816666
47	0x3e1c69b8	0.15274704
48	0x3d9db3e0	0.07700324
49	0x3db04e96	0.08608739
50	0xbdf39d34	-0.118952185
51	0xbe50d9bd	-0.2039556
52	0xbd8c6d56	-0.06856792
53	0x3c079a78	0.008276574
54	0x3e14c637	0.14528738
55	0x3d06965f	0.03285825
56	0x3e1d4c9c	0.15361255
57	0x3db90bf5	0.09035484
58	0xbd4671b8	-0.048448294
59	0x3d3efdd4	0.046628788
60	0x3d2c488b	0.04206137
61	0x3d523fec	0.051330492
62	0x3e4d24e1	0.200336
63	0xbdb458dd	-0.08806012
64	0xbd28292a	-0.041054882
65	0xbc88aee8	-0.016684964
66	0x3e28850c	0.16457003
67	0x3c6c2828	0.014413871
68	0x3e4f1ead	0.20226546
69	0xbdb9a599	-0.09064788
70	0x3dc4b89f	0.09605526
71	0xbd485079	-0.04890487
72	0xbc9e4c7f	-0.019323586
73	0xbddb9e1f	-0.107235186
74	0xbe3723a5	-0.17884691
75	0x3c275965	0.010214184
76	0xbe3359e8	-0.17514765
77	0x3ce80784	0.028323896
78	0xbe1e45b3	-0.15456276
79	0xbe6f8e2f	-0.23394082
80	0xbcd841bf	-0.026398538
81	0x3d834492	0.06409563
82	0x3d3de4af	0.046360668
83	0x3e07bedd	0.13256402
84	0xbd2e5b56	-0.042567573
85	0xbcab4f65	-0.020911882
86	0x3daea558	0.085276306
87	0xbd9cadd6	-0.07650344
88	0x3dc27b05	0.0949612
89	0x3da1e599	0.079051204
90	0x3e85ae41	0.26109508
91	0x3e7b9a50	0.24570584
92	0xbdf7b2ce	-0.12094651
93	0x3e372772	0.17886141
94	0x3e545893	0.20736913
95	0x3dcab791	0.09898294
96	0xbd27a915	-0.040932734
97	0xbe06804a	-0.13134876
98	0xbd83cfcf	-0.06436121
99	0xbe1f8370	-0.15577483
100	0x3e20d8a9	0.1570765
101	0xbc694fe5	-0.01424024
102	0xbdab290e	-0.0835744
103	0xbe08a7bd	-0.13345237
104	0xbdce1ea7	-0.1006444
105	0xbe1ba448	-0.15199387
106	0xbe10ef46	-0.14153776
107	0xbdefcc1c	-0.11708853
108	0xbc5e3572	-0.013562547
109	0xbceb377a	-0.028712977
110	0x3e2c4fa6	0.16827258
111	0xbc6c647c	-0.014428254
112	0xbe440208	-0.191414
113	0xbe1d6689	-0.15371145
114	0xbd2ca285	-0.04214718
115	0xbe24d13d	-0.16095443
116	0xbe5a40fe	-0.21313855
117	0xbdeabd46	-0.11461882
118	0x3c043f51	0.008071736
119	0xba033fcb	-0.00050067593
120	0x3d15813a	0.036500193
121	0xbdd382ed	-0.103277065
122	0x3d96aee8	0.073575795
123	0xbd41c33d	-0.047305334
124	0x3e13a0df	0.14416836
125	0x3ce82194	0.028336324
126	0x3e56d09c	0.20978016
127	0x3e79664c	0.2435543
128	0x3e4db6da	0.20089284
129	0x3e088f7a	0.13335982
130	0x3dc1a004	0.09454349
131	0x3c144d6d	0.009051663
132	0x3e41c2da	0.18921986
133	0x3c7121e8	0.014717557
134	0x3d1f4750	0.03888637
135	0xbcbc10e5	-0.022957275
136	0x3d2c0d6c	0.042004988
137	0xbdaf33e7	-0.085548215
138	0xbd87cea4	-0.066312104
139	0xbd1d3a4b	-0.03838567
140	0x3cfa127d	0.030526394
141	0xbd490fd9	-0.04908738
142	0x3db0c54e	0.08631383
143	0x3dcc784c	0.09983882
144	0xbe12cb0a	-0.14335266
145	0x3dace069	0.0844124
146	0x3dfe9922	0.124315515
147	0x3e17bb79	0.14817609
148	0x3e201a9f	0.15635155
149	0x3e4a3aa6	0.19748935
150	0x3e6aaad9	0.22916736
151	0x3e0c2825	0.13687189
152	0xbd46e7e1	-0.04856098
153	0xbdc0d7b7	-0.09416144
154	0xbdfa9017	-0.12234514
155	0x3dbb7f62	0.09155156
156	0xbe0a2490	-0.1349051
157	0x3d2a97cc	0.04164867
158	0xbe2aae1a	-0.16667977
159	0xbd814933	-0.0631279
160	0xbe1ed94f	-0.15512584
161	0xbda07cf2	-0.078363314
162	0xbe19b167	-0.1500908
163	0x3b55e5f3	0.003263828
164	0xbd35b722	-0.044364102
165	0x3bf07f92	0.0073394263
166	0x3d3dbdbf	0.046323534
167	0xbde44516	-0.111459896
168	0x3e0f0b15	0.13969071
169	0x3dd2d87a	0.10295196
170	0x3d100d58	0.035168976
171	0xbde77d7b	-0.113032304
172	0xbdc9f730	-0.098616004
173	0xbe7e435f	-0.24830388
174	0x3c797af0	0.0152270645
175	0x3db76786	0.089552924
176	0x3e3d76c0	0.18502331
177	0xbdfe5b4d	-0.12419758
178	0xbe9177f1	-0.2841182
179	0xbcdec327	-0.027192665
180	0xba3b665d	-0.0007148737
181	0x3dc78bc8	0.09743458
182	0x3de6dfef	0.11273181
183	0x3e37debc	0.1795606
184	0x3ddfcb55	0.109274544
185	0xbe1bac9b	-0.15202563
186	0xbce273d5	-0.027643124
187	0xbd199dbd	-0.037503947
188	0x3cb5f129	0.02220972
189	0x3d193fc7	0.03741434
190	0xbe14eddf	-0.14543866
191	0x3e71d6a0	0.23617029
192	0x3e6e164b	0.23250692
193	0x3c6babd4	0.014384229
194	0xbd1a4c12	-0.037670203
195	0x3e006221	0.12537433
196	0x3d97ccc4	0.07412103
197	0x3d785c0d	0.06063466
198	0x3c60abe8	0.013712861
199	0x3e3939d6	0.18088469
200	0xbd7b6a82	-0.06138087
201	0xbc7b34a1	-0.015332372
202	0xbe0f74fa	-0.14009467
203	0x3e097eb9	0.13427247
204	0x3e372ccc	0.17888182
205	0xbd70f31e	-0.058825605
206	0x3d57476a	0.05255834
207	0x3dffe7fd	0.1249542
208	0x3d4665e2	0.048437007
209	0xbd8b981c	-0.06816122
210	0x3c087ade	0.008330075
211	0x3e8af975	0.27143446
212	0x3e499138	0.19684303
213	0x3cada71e	0.021197852
214	0xbd1996c8	-0.03749731
215	0x3e16486c	0.14676064
216	0x3d5fac8e	0.05460792
217	0xbdcf6659	-0.10126943
218	0xbc0db116	-0.008648178
219	0x3d5ad0c3	0.053421747
220	0xbd872f4f	-0.0660082
221	0x3d8171bf	0.063205235
222	0xbce71cf1	-0.028212043
223	0xbab4727e	-0.0013767031
224	0x3e0cc8ed	0.13748522
225	0x3da5ed8c	0.08101949
226	0xbe454b32	-0.19266966
227	0x3e15f675	0.14644797
228	0x3dd473b1	0.10373629
229	0x3da2ca6f	0.079487674
230	0xbe594aef	-0.21219991
231	0xbe9b67fd	-0.30352774
232	0xbe62c532	-0.22145537
233	0x3d291806	0.041282676
234	0x3e0563a9	0.13026299
235	0x3daa97ec	0.08329758
236	0x3dd85d38	0.10564655
237	0xbb40b557	-0.0029404962
238	0xbdcb4bd7	-0.09926575
239	0x3d6e8aaf	0.058237728
240	0xbd970936	-0.07374804
241	0xbcee4588	-0.02908589
242	0xbd899769	-0.06718332
243	0xbe131a33	-0.14365463
244	0xbdb0faf2	-0.08641614
245	0xbe0be89f	-0.13662957
246	0x3d0c3479	0.03422973
247	0x3e21ad42	0.15788749
248	0xbc8f4e36	-0.017493349
249	0x3e11053b	0.14162152
250	0xbdb99b23	-0.09062793
251	0xbcd6afab	-0.026206812
252	0x3c0bdb94	0.008536238
253	0xbd930884	-0.071793586
254	0xbe2a35e1	-0.16622116
255	0xbe587e8d	-0.21142025

layer.0.bias f4 [32]
0	0xbe2b9e9c	-0.16759723
1	0x3e2f021e	0.17090651
2	0x3db5d463	0.088784
3	0x3d19a90e	0.03751474
4	0xbe123227	-0.14276944
5	0xbe3eb7b1	-0.1862476
6	0xbbfd527d	-0.0077307806
7	0xbd14fc84	-0.03637363
8	0x3e291b7e	0.16514394
9	0xbe15c66e	-0.14626476
10	0xbde6b459	-0.11264867
11	0x3bfce148	0.0077172853
12	0x3e213087	0.15741168
13	0x3e61bda6	0.22045001
14	0x3d6f3e47	0.058409
15	0x3f2211c2	0.63308346
16	0x3e809913	0.25116786
17	0x3d113c27	0.035457756
18	0xbdfa752a	-0.122293785
19	0x3e487151	0.19574477
20	0x3e14cd41	0.14531423
21	0x3e64e0a7	0.22351323
22	0xbe17f5f3	-0.14839916
23	0x3cc99163	0.024605459
24	0x3d53ccfb	0.051709156
25	0x3dcbf520	0.09958863
26	0x3dff5292	0.12466921
27	0xbe0e4f24	-0.13897377
28	0x3e46cb51	0.19413497
29	0x3c6cd6f0	0.014455542
30	0xbd2b0d6c	-0.041760847
31	0x3e229e19	0.15880622

layer.2.weight f4 [64, 32]
0	0xbcfb47d8	-0.030673906
1	0x3d033bd5	0.032039482
2	0xbcaf5e14	-0.021407165
3	0x3e792b08	0.24332821
4	0xbce702ae	-0.02819952
5	0x3dad66fd	0.08466909
6	0xbe24420f	-0.16040824
7	0xbbc2617d	-0.0059320317
8	0x3dcb85b5	0.09937612
9	0xbd747586	-0.05968239
10	0xbd6072af	-0.05479687
11	0xbd877294	-0.06613651
12	0x3e7f75a4	0.2494722
13	0x3e014d6a	0.12627187
14	0x3e6d3e0a	0.23168197
15	0xbec1b446	-0.3783285
16	0x3e249609	0.16072859
17	0xbdbd0ef4	-0.09231368
18	0x3d5f1b02	0.054469116
19	0xbe5f2530	-0.2179153
20	0xbe169766	-0.14706191
21	0x3c2f8072	0.010711776
22	0x3e1d3cab	0.15355174
23	0xbdd33f2d	-0.10314784
24	0x3b7cc9aa	0.003857235
25	0x3e10be69	0.14135136
26	0xbc219181	-0.009861351
27	0x3de7f660	0.11326289
28	0xbe37945c	-0.17927688
29	0xbe3f62d1	-0.18690039
30	0x3e166fae	0.1469104
31	0xbcb34cc6	-0.021887194
32	0xbd1214ee	-0.03566449
33	0xbd9ce721	-0.07661272
34	0xbde62dca	-0.11239202
35	0xbe99451f	-0.29935548
36	0xbc5d399e	-0.013502507
37	0xbe3570b0	-0.17718768
38	0xbe296734	-0.16543275
39	0x3df19819	0.117965885
40	0xbebb0c02	-0.365326
41	0x3d1db03e	0.038498156
42	0xbe7239a8	-0.23654807
43	0x3ddfa006	0.10919194
44	0xbe3e18e2	-0.1856418
45	0x3ccaadb7	0.024741037
46	0x3d8dbb4a	0.06920488
47	0xbf10a8a5	-0.5650733
48	0xbd5766d5	-0.052588303
49	0xbcd55ea6	-0.026046108
50	0xbe35989d	-0.17733999
51	0x3e82913b	0.25501427
52	0x3d8709aa	0.0659364
53	0x3e4361d3	0.19080286
54	0x3e4730e1	0.1945224
55	0x3e2864de	0.16444728
56	0x3d5c17f5	0.053733785
57	0xbe13d6f2	-0.14437464
58	0x3e102233	0.14075546
59	0xbdbe6640	-0.092968464
60	0x3d0444eb	0.032292288
61	0xbd9bb45e	-0.07602762
62	0xbe33262e	-0.17495033
63	0xbdab2620	-0.08356881
64	0xbdf00ed2	-0.11721577
65	0x3c93fa30	0.018063635
66	0x3ded95ce	0.116008386
67	0xbe903e1d	-0.2817239
68	0xbe10f70d	-0.14156742
69	0xbe0cb5d4	-0.13741237
70	0x3dc4cd4c	0.0960947
71	0x3e2b9418	0.16755712
72	0x3dde3139	0.10849232
73	0xbe2f1e81	-0.1710148
74	0xbc34da49	-0.011038371
75	0xbd96390d	-0.073351
76	0x3e8aef8a	0.2713588
77	0xbda1f2f9	-0.079076715
78	0xbd1b66e9	-0.03793994
79	0xbe8925f8	-0.2678678
80	0x3e120782	0.14260677
81	0x3c48f6a9	0.01226584
82	0x3d029f23	0.031890046
83	0xbe3a95ab	-0.18221156
84	0x3d53a5a8	0.051671654
85	0x3c8ca901	0.017170431
86	0x3ccda20e	0.025101688
87	0x3cda069f	0.026614485
88	0xbdc44725	-0.09583882
89	0xbe9d845d	-0.30765048
90	0x3e09ff3c	0.1347627
91	0xbd1c0c99	-0.03809795
92	0xbe45f6b7	-0.19332395
93	0xbe74887b	-0.23880188
94	0x3dbb1d4a	0.09136446
95	0x3d7cd9e5	0.061731238
96	0xbe61c4ff	-0.22047804
97	0x3defc1e3	0.11706903
98	0x3e19283e	0.14956757
99	0xbec84150	-0.3911233
100	0xbe81bbf4	-0.2533871
101	0xbd6e184c	-0.05812864
102	0x3d702a5b	0.058634143
103	0x3e627766	0.2211586
104	0x3e7e10b0	0.24811053
105	0xbe3a817f	-0.18213461
106	0xbb6a9c28	-0.0035798643
107	0xbdf11ec2	-0.11773445
108	0x3dabcc70	0.08388603
109	0x3c19b68e	0.009381903
110	0x3d2dda48	0.042444497
111	0xbe0f6d30	-0.14006495
112	0x3cd450c9	0.025917428
113	0x3d21b164	0.039475814
114	0xbe346747	-0.17617522
115	0xbd9ea293	-0.07745852
116	0x3e38770e	0.18014166
117	0xbdad5b0b	-0.08464631
118	0x3cb2cf09	0.021827238
119	0x3d2684ae	0.040653877
120	0xbe04f03d	-0.12982269
121	0xbf116fa5	-0.5681098
122	0x3e198553	0.14992265
123	0xbd9038e2	-0.070420995
124	0xbc55a73a	-0.013040358
125	0xbe12a274	-0.14319783
126	0xbdcaf808	-0.099105895
127	0x3dc8ea72	0.09810342
128	0xbd5f98a0	-0.054588914
129	0xbd732ede	-0.059370868
130	0x3d97bad6	0.07408683
131	0xbb51421b	-0.003193027
132	0x3d963d67	0.0733593
133	0xbde77354	-0.11301294
134	0xbc325a32	-0.010885762
135	0xbcc8d138	-0.024513826
136	0x3b50df6d	0.0031871453
137	0xbe09b98c	-0.13449687
138	0xbe149d43	-0.14513116
139	0x3e0be715	0.1366237
140	0xbd88c2ab	-0.06677755
141	0xbdcd2632	-0.10017051
142	0xbdc9b47d	-0.098488785
143	0xbedc148f	-0.42984435
144	0x3e287f73	0.16454868
145	0xbced39ae	-0.028958168
146	0xbc126759	-0.008935773
147	0x3da470d0	0.0802933
148	0xbdcbbaec	-0.09947762
149	0xba87423e	-0.0010319424
150	0x3d3613a6	0.044452332
151	0x3d502d43	0.050824415
152	0x3d942032	0.07232703
153	0xbc5c2d25	-0.013438498
154	0xbe4f957f	-0.20271872
155	0x3c8e1c89	0.017347591
156	0x3dcea4d1	0.1009003
157	0x3e16ad91	0.14714648
158	0xbd8c681a	-0.06855793
159	0x3e0b7ff5	0.1362303
160	0x3e2750dd	0.1633944
161	0x3e2bf273	0.16791706
162	0xbce7fba1	-0.028318228
163	0xbec3fc16	-0.38278264
164	0x3dead9d7	0.11467331
165	0xbdc65c6d	-0.096855976
166	0xbd872e04	-0.06600574
167	0x3ce6e48a	0.028185148
168	0x3e839700	0.2570114
169	0xbb42238b	-0.0029623236
170	0xbd490de7	-0.049085524
171	0x3c8033d9	0.015649723
172	0x3db2babc	0.08727023
173	0xbdb1b019	-0.08676166
174	0x3cd60830	0.026126951
175	0x3ec6e878	0.38849235
176	0x3de29ec2	0.11065437
177	0x3dbbaca3	0.09163787
178	0x3ddae8fb	0.10688969
179	0x3be23a30	0.006903909
180	0x3e1ed736	0.15511784
181	0xbe409f6e	-0.18810818
182	0x3e416abc	0.18888372
183	0x3dcc3baf	0.09972321
184	0xbdcf9c08	-0.101371825
185	0xbed318d2	-0.41229874
186	0x3e0b5582	0.13606837
187	0x38419cfb	4.6160985e-05
188	0xbd17b089	-0.03703359
189	0xbd5a7514	-0.05333431
190	0xbe614648	-0.21999466
191	0xbde674e4	-0.11252764
192	0x3de27af7	0.1105861
193	0xbd2389a6	-0.039926194
194	0x3db535f4	0.08848181
195	0xbdd83dec	-0.10558686
196	0xbe14ad0f	-0.14519142
197	0xbdbbda53	-0.091725014
198	0xbe193ef0	-0.14965415
199	0xbd83941a	-0.064247325
200	0xbddabba3	-0.1068032
201	0x3d0e406f	0.034729417
202	0xbe878ebc	-0.26476085
203	0x3e0cdc50	0.13755918
204	0xbd6568e9	-0.056008253
205	0x3e81ded0	0.25365305
206	0x3e343db6	0.17601666
207	0x3ccee1be	0.025254127
208	0x3cec1489	0.028818386
209	0xbd872f49	-0.06600816
210	0xbe5ffde2	-0.21874192
211	0x3e872d45	0.26401725
212	0x3d8227a3	0.06355216
213	0xbd693482	-0.05693484
214	0x3de498b6	0.1116194
215	0x3e1184de	0.14210841
216	0x3d7f5346	0.062335275
217	0xbe7c1c5e	-0.24620196
218	0xbe2cca9e	-0.16874167
219	0x3d12dca4	0.03585495
220	0x3d2cdd8c	0.04220347
221	0xbdb6e8c8	-0.08931118
222	0xbe1a2259	-0.15052165
223	0xbe3687f8	-0.17825305
224	0x3da39847	0.07988029
225	0xbca4b88f	-0.020107536
226	0x3cd296d5	0.025706688
227	0xbd91034b	-0.07080706
228	0x3e006f35	0.12542422
229	0xbd47de3f	-0.048795935
230	0x3d0f983b	0.035057288
231	0x3d73394c	0.059380814
232	0x3d6c0fea	0.057632364
233	0x3e09c3e8	0.13453639
234	0x3e4ab5c6	0.19795904
235	0xbc04ce41	-0.008105815
236	0x3da0e4fa	0.07856174
237	0x3e292b16	0.16520342
238	0xbe8248aa	-0.25446063
239	0x3d82b194	0.063815266
240	0x3dd868c8	0.105668604
241	0x3d607797	0.05480155
242	0xbe232e0e	-0.15935537
243	0x3c5c1d8f	0.013434782
244	0x3d586fc1	0.05284095
245	0xbddc9bb7	-0.10771888
246	0x3e2d0c70	0.16899276
247	0x3b40ed31	0.0029438252
248	0xbe13d72b	-0.14437549
249	0xbda44621	-0.080211885
250	0xbe559d6a	-0.2086083
251	0xbe1d2b9c	-0.15348667
252	0xbdefaa23	-0.11702373
253	0xbe22c9f4	-0.15897352
254	0xbb3a63ea	-0.00284409
255	0x3de18ab3	0.11012783

layer.2.bias f4 [64]
0	0x3e901b20	0.28145695
1	0x3e7bd237	0.2459191
2	0x3e3ae64d	0.18251915
3	0xbd4bcf6e	-0.049758367
4	0x3eda7d9b	0.42673954
5	0x3e04ae19	0.12957038
6	0xbc82243d	-0.01588642
7	0xbaffcab7	-0.001951537
8	0x3dddfdc2	0.10839416
9	0xbcaf7695	-0.021418849
10	0x3d71344b	0.05888776
11	0x3ec6d524	0.38834488
12	0x3de8f29b	0.11374398
13	0x3cfdacef	0.03096625
14	0xbc5be35d	-0.013420907
15	0x3e12cf14	0.14336807
16	0xbdd60bf4	-0.10451499
17	0x3d81ba5a	0.06334372
18	0x3cf6b837	0.030117137
19	0x3e7e8376	0.24854836
20	0xbd403f50	-0.04693538
21	0xbd870e49	-0.065945216
22	0xbbc08b6d	-0.005875996
23	0x3db27ca7	0.08715182
24	0x3dc3dabd	0.095632054
25	0xbdb17c6e	-0.08666311
26	0xbeb5ef75	-0.35534254
27	0x3da163c3	0.07880356
28	0x3e2460c8	0.16052544
29	0x3d2c913d	0.042130698
30	0xbde7fd30	-0.113275886
31	0x3e87652a	0.2644437
32	0x3b0e2f8f	0.0021695828
33	0x3dcde5bf	0.10053586
34	0x3d700283	0.058596145
35	0xbe30f777	-0.172819
36	0x3d92d06b	0.07168659
37	0x3de3826b	0.1110886
38	0x3d83e403	0.06439974
39	0xbd0d1d80	-0.03445196
40	0xbe212791	-0.1573775
41	0x3de5b006	0.112152144
42	0xbdb8e47b	-0.09027954
43	0x3e2d95b5	0.1695164
44	0x3eaa57f9	0.33270243
45	0x3d27cc0d	0.040966082
46	0xbd944d97	-0.072413616
47	0x3d1af603	0.03783227
48	0xbdf8a26c	-0.121403545
49	0xbec844d7	-0.3911502
50	0xbd2abcf4	-0.041684106
51	0xbd5dbfcc	-0.05413799
52	0x3dc6da60	0.097096205
53	0xbe87ec6a	-0.26547557
54	0x3e7976b5	0.2436169
55	0xbd0c45a5	-0.034246106
56	0x3e221b72	0.15830782
57	0x3c3b3d73	0.011428225
58	0xbc36a739	-0.011148267
59	0x3eac44b8	0.33646178
60	0x3d841993	0.064501904
61	0x3da07901	0.0783558
62	0x3d1e6446	0.038669847
63	0xbbbc191d	-0.0057402984

layer.4.weight f4 [128, 64]
0	0x3c7553a9	0.014973559
1	0xbb968645	-0.004593643
2	0x3e04592c	0.12924641
3	0x3d39369f	0.045218106
4	0xbde2ce5b	-0.110745154
5	0xbd99f15b	-0.07516738
6	0x3d2b32a5	0.041796345
7	0x3da46a75	0.080281176
8	0xbce9f191	-0.02855757
9	0x3db6dd6e	0.08928953
10	0xbcdef52b	-0.027216515
11	0x3e1be452	0.15223816
12	0xbcab4185	-0.020905266
13	0x3e3aa9d9	0.18228854
14	0x3c91b17b	0.017784825
15	0x3dc2f770	0.09519851
16	0x3d295106	0.041337036
17	0x3d658486	0.056034587
18	0x3d458e94	0.048231676
19	0x3e17210f	0.14758705
20	0xbd89b1cd	-0.06723366
21	0x3e053dcf	0.1301186
22	0xbd62c438	-0.05536291
23	0x3d03b812	0.032157965
24	0x3e085eec	0.1331746
25	0xbdb7156c	-0.08939633
26	0x3e2da79b	0.16958468
27	0x3d993886	0.07481484
28	0xbd053b92	-0.032527514
29	0x3cd8ccb6	0.026464801
30	0x3dac4268	0.084111035
31	0x3de68027	0.11254912
32	0xbd33a42f	-0.04385775
33	0x3cd4bef7	0.025969965
34	0xbcb012cd	-0.02149334
35	0x3dea7381	0.11447812
36	0x3cf5adb8	0.029990062
37	0xbe62aec7	-0.22136985
38	0xbd0891e3	-0.033342253
39	0x3d972132	0.073793784
40	0xbde81e0c	-0.11333856
41	0x3d880e76	0.06643383
42	0x3d60e20d	0.05490308
43	0x3d9bb2ff	0.076025
44	0x3cc633a1	0.02419454
45	0x3e006542	0.12538627
46	0xbea8a9fd	-0.3294219
47	0xbcd7a894	-0.026325502
48	0xbe03a183	-0.1285458
49	0xbd8379a1	-0.06419683
50	0xbb9249b4	-0.0044643525
51	0x3e6c0d9d	0.23052068
52	0x3e4cf16c	0.2001397
53	0xbd0c4683	-0.034246933
54	0x3dae67f2	0.0851592
55	0x3d10ade4	0.035322085
56	0x3cf33f17	0.02969317
57	0xbde34da5	-0.11098794
58	0x3dc45a8d	0.09587584
59	0x3cc2a144	0.023758538
60	0xbd1dfa3c	-0.03856872
61	0xbe14217a	-0.14465895
62	0xbcc6a445	-0.024248252
63	0x3c155c2b	0.009116213
64	0x3df3f168	0.11911279
65	0x3e2a9f4c	0.1666233
66	0x3d52cd98	0.0514656
67	0xbe14d085	-0.14532669
68	0x3e305ed2	0.17223671
69	0xbe2a1f43	-0.16613488
70	0x3ce61671	0.028086873
71	0xbd514f25	-0.05110087
72	0xbc04743b	-0.008084352
73	0x3e1589a2	0.14603284
74	0xbe4b8a70	-0.19877028
75	0x3dd90800	0.10597229
76	0x3d4b66fe	0.049658768
77	0xbc4c9b8e	-0.012488259
78	0x3de4b765	0.11167792
79	0xbd030151	-0.031983677
80	0xbdb7950b	-0.089639746
81	0x3de423e4	0.11139658
82	0x3c70b96f	0.014692648
83	0xbc7cda39	-0.015432888
84	0x3dcc5da7	0.099788
85	0xbded93c4	-0.1160045
86	0xbd26c8b2	-0.04071874
87	0x3b6d3f0b	0.0036200907
88	0x3dbfd649	0.093670435
89	0xbd93d2e1	-0.07217956
90	0xbd6dbd0b	-0.058041614
91	0xbd519efa	-0.051177002
92	0x3dd1cf68	0.10244638
93	0xbdde3c6d	-0.10851369
94	0xbd9a7e0e	-0.07543574
95	0x3e3247e8	0.17410243
96	0xbca8aae1	-0.020589294
97	0x3ddd2acf	0.10799181
98	0xbd9bb032	-0.07601966
99	0x3cbab19d	0.02278977
100	0x3d0ec93b	0.034859877
101	0x3c80f517	0.015741868
102	0xbd34b1ba	-0.044114806
103	0xbd906fc4	-0.070525676
104	0x3a0ce6f9	0.0005374994
105	0x3db27ad0	0.08714831
106	0xbc9603bd	-0.01831233
107	0xbc6e07dc	-0.014528241
108	0x3e1c8cdf	0.15288113
109	0xbc81ce68	-0.015845492
110	0xbdae53a2	-0.085120454
111	0xbe38a040	-0.1802988
112	0xbd898310	-0.06714451
113	0xbe246012	-0.16052273
114	0xbd91db04	-0.07121852
115	0xbd19ce7d	-0.03755044
116	0x3d285e99	0.04110584
117	0xbdb76ea1	-0.08956648
118	0x3dce4da6	0.10073404
119	0xbc861c2b	-0.016370853
120	0x3def0617	0.116710834
121	0xbe4207d1	-0.18948294
122	0xbdd7906f	-0.105255954
123	0x3dc61e3f	0.09673738
124	0xbdd242cf	-0.10266649
125	0x3d91ac03	0.07112887
126	0xbd931438	-0.07181591
127	0x3e04f9ec	0.12985963
128	0xbd154ea0	-0.036451936
129	0x3dd90e7b	0.10598465
130	0x3d83a676	0.06428234
131	0x3de94452	0.11389984
132	0xbe30b340	-0.17255878
133	0x3e12ff29	0.14355148
134	0x3e1eef5d	0.15520997
135	0x3dc9aeee	0.09847818
136	0xbd475957	-0.048669185
137	0x3e259338	0.16169441
138	0xbda1b18e	-0.07895194
139	0xbd954cac	-0.072900146
140	0xbd9f5766	-0.07780342
141	0x3dd9d722	0.106367365
142	0x3e12b1e7	0.14325677
143	0xbcae281d	-0.021259362
144	0xbde59834	-0.11210671
145	0x3e31a843	0.17349343
146	0xbd97d826	-0.07414274
147	0xbdb4aa7b	-0.08821579
148	0x3daadcd0	0.08342898
149	0xbb8a7d8c	-0.004226392
150	0x3dcbf2e6	0.099584386
151	0x3e32c528	0.17458022
152	0x3ad14fa8	0.0015969174
153	0xbe5160a4	-0.20447022
154	0x3e631664	0.2217651
155	0x3bffa9f9	0.0078022447
156	0x3db9d970	0.09074676
157	0xbd07328f	-0.0330072
158	0xbddffdd1	-0.109370835
159	0xbd634c4c	-0.055492684
160	0xbc2d3f51	-0.010574178
161	0x3d7edc7f	0.062222
162	0x3d812a7e	0.06306933
163	0xbbeaab60	-0.007161543
164	0x3e0ac320	0.13550997
165	0xbe1eb2eb	-0.1549794
166	0xbe2560aa	-0.16150156
167	0x3dc216ed	0.09477029
168	0x3d64ef1c	0.055892095
169	0xbd55eef0	-0.05222982
170	0x3dd1d0c2	0.102448955
171	0xbc551aca	-0.013006875
172	0xbadb747c	-0.0016743089
173	0x3df2f3ef	0.11862933
174	0xbec2c0e2	-0.38037783
175	0x3d999b1a	0.075002864
176	0xbd1f7401	-0.03892899
177	0x3cce39a8	0.025173977
178	0xbdb10a0a	-0.08644493
179	0x3e2d782d	0.16940375
180	0x3e4bb7e8	0.19894373
181	0x3e136f65	0.14397962
182	0x3dedca08	0.116108
183	0x3e0730b6	0.13202175
184	0x3dc86b5f	0.097861044
185	0x3e4b9143	0.19879632
186	0x3d64d6ef	0.05586904
187	0xbdf73556	-0.1207072
188	0x3dfda675	0.12385265
189	0x3ca947d8	0.02066414
190	0xbd8f95cd	-0.07010994
191	0xbd054546	-0.032536767
192	0xbdb01547	-0.08597808
193	0xbd035f5c	-0.032073364
194	0xbde5dab3	-0.11223354
195	0x3d906f0f	0.07052433
196	0xbd89a019	-0.06719989
197	0x3d845cdf	0.06463026
198	0xbd4e56ac	-0.050375625
199	0x3d3ace5d	0.04560696
200	0x3d9ca37c	0.0764837
201	0xbbafb240	-0.005361825
202	0xbd8c2bef	-0.06844317
203	0xbde3c66e	-0.11121832
204	0xbdaeb1bf	-0.08529996
205	0xbd2d6532	-0.042332835
206	0xbe048ed9	-0.12945117
207	0xbdb9013e	-0.0903344
208	0x3bc44068	0.005989123
209	0xbccb1711	-0.024791272
210	0xbd8ba207	-0.06818014
211	0x3d2b67c3	0.041847
212	0xbc92e2a6	-0.01793034
213	0x3a53fb47	0.00080864545
214	0xbd9876c7	-0.0744453
215	0xbdf53e37	-0.11974757
216	0xbd93d542	-0.0721841
217	0xbd97cd68	-0.07412225
218	0xbdb449af	-0.088031165
219	0x3d2cc9b5	0.04218455
220	0xbd9deb3b	-0.07710882
221	0x3dacb154	0.0843226
222	0xbd170bf1	-0.036876623
223	0xbdc7c7ad	-0.09754882
224	0xbd9ecae2	-0.077535406
225	0xbd312ead	-0.043257404
226	0x3d1db744	0.038504854
227	0xbdf845b3	-0.12122669
228	0xbdd455d6	-0.103679344
229	0x3dc263af	0.094916694
230	0x3db95fab	0.0905145
231	0x3d10464b	0.035223287
232	0xbddb0d39	-0.106958814
233	0x3d9fd932	0.078050986
234	0x3db4a6d7	0.08820885
235	0x3d503dda	0.050840236
236	0x3db2f8c2	0.08738853
237	0x3d582fc1	0.052779917
238	0xbd2dc21c	-0.042421445
239	0xbd0d09b0	-0.034433067
240	0x3d1f3009	0.03886417
241	0x3d201690	0.039084017
242	0xbd5f1e2d	-0.054472137
243	0xbddbb7f4	-0.10728446
244	0xbc93dbbc	-0.018049113
245	0xbc643bea	-0.0139303
246	0xbc7012a3	-0.014652881
247	0xbc9fccc0	-0.019506812
248	0x3c6c4250	0.014420107
249	0x3cbf3bec	0.023344003
250	0x3d5b40ec	0.05352871
251	0xbc9be56f	-0.0190303
252	0x3db35375	0.087561525
253	0xbda150e0	-0.07876754
254	0xbdc93513	-0.09824576
255	0xbc77eca6	-0.015132105

layer.4.bias f4 [128]
0	0xbce547eb	-0.027988395
1	0x3e8a784c	0.27044904
2	0x3e0ad163	0.13556437
3	0xbdf75742	-0.1207719
4	0x3eb1a36e	0.34695
5	0x3bbaf820	0.0057058483
6	0x3e958d73	0.2920948
7	0x3e073381	0.13203241
8	0x3e039a3c	0.12851804
9	0xbc55ec8a	-0.013056884
10	0x3dbc4074	0.09191981
11	0x3e41cc5a	0.1892561
12	0x3e35162c	0.17684239
13	0x3e3d141f	0.18464707
14	0x3e383cc9	0.17991938
15	0x3db96452	0.09052338
16	0x3e8829c9	0.2659438
17	0xbc0b7617	-0.0085120415
18	0x3dafe858	0.08589238
19	0x3df396df	0.11894011
20	0x3e7a2baa	0.24430719
21	0x3cb7cb42	0.022435788
22	0x3db4baaf	0.088246696
23	0x3d689f37	0.056792464
24	0x3df9b217	0.12192171
25	0x3e25deed	0.1619832
26	0x3e66264f	0.22475551
27	0x3e4576a6	0.19283542
28	0x3db193dc	0.0867078
29	0xbda5efcd	-0.08102379
30	0x3e27795c	0.16354889
31	0x3c9060e2	0.017624322
32	0x3e67c4a7	0.2263361
33	0x3deeecf5	0.1166629
34	0x3e271484	0.1631642
35	0x3e65fb7c	0.22459215
36	0x3e8f2680	0.2795906
37	0xbd4062c6	-0.046969198
38	0xbd2d0f8a	-0.042251147
39	0x3e783434	0.24238664
40	0x3d92883c	0.07154891
41	0x3e8b3ed6	0.27196378
42	0x3dcc4ed8	0.09975976
43	0x3d8f7df3	0.07006445
44	0xbe1021fe	-0.14075467
45	0x3e22dd51	0.15904738
46	0xbe2eb772	-0.17062166
47	0x3c3f1041	0.01166159
48	0x3dd97430	0.10617864
49	0x3e4e6903	0.20157246
50	0x3e26c617	0.16286503
51	0x3eb8e366	0.3611099
52	0x3e9bc32f	0.3042235
53	0x3d368ca2	0.04456771
54	0x3cd71d41	0.026259067
55	0x3dfa819f	0.122317545
56	0x3e2cb6f4	0.16866666
57	0x3e75fa37	0.2402123
58	0x3e648430	0.2231605
59	0x3e810572	0.25199467
60	0x3de0c8c8	0.10975796
61	0xbe3d2647	-0.18471633
62	0x3e440397	0.19141994
63	0x3dcd12cb	0.1001335
64	0xbcd2ed9b	-0.025748065
65	0x3e4f3fc5	0.2023917
66	0xbcf78ef5	-0.030219534
67	0xbd4e8a98	-0.050425142
68	0xbbb871bc	-0.0056287926
69	0x3e0583ab	0.13038509
70	0x3d6d245f	0.057896014
71	0x3cf0bc5d	0.029386694
72	0xbd40aec4	-0.04704167
73	0x3e6cc5f7	0.23122393
74	0x3dc3ecb9	0.09566636
75	0xbe1e84b0	-0.15480304
76	0x3dcd7162	0.10031392
77	0xbba668dc	-0.005078418
78	0x3e04ee23	0.12981467
79	0x3dec7fe6	0.11547832
80	0x3e1b73a7	0.15180837
81	0x3e6b0575	0.229513
82	0x3e87971c	0.26482475
83	0x3dfe6a5b	0.124226294
84	0x3dbdcab7	0.092671804
85	0x3d5fdf17	0.054656114
86	0x3ca38dfa	0.01996516
87	0x3e694910	0.22781777
88	0x3cf1b554	0.02950541
89	0x3dbe9218	0.09305209
90	0x3e56a7e9	0.2096249
91	0x3e0435b7	0.12911116
92	0x3cabe38d	0.020982528
93	0x3e024b57	0.12724052
94	0xbda89c23	-0.08232906
95	0x3e2eb299	0.17060317
96	0x3e5063ae	0.20350525
97	0x3db674fe	0.08909033
98	0x3cfa009e	0.030517872
99	0x3e314f90	0.17315507
100	0x3e20b8a0	0.15695429
101	0xbe7da340	-0.24769306
102	0x3de1de53	0.11028733
103	0x3e3bb93e	0.18332383
104	0x3df63dc3	0.12023499
105	0x3d148c0a	0.036266364
106	0x3eaf8717	0.34282753
107	0x3e71ac3e	0.23600861
108	0x3df9a904	0.1219044
109	0xbd6ec4fa	-0.05829332
110	0x3e05e736	0.13076481
111	0x3d6040e9	0.054749403
112	0xbe2660a8	-0.16247809
113	0x3e3f1bcc	0.18662947
114	0x3e7a903c	0.24469084
115	0x3da51764	0.08061102
116	0x3bc7306b	0.00607877
117	0x3d88dd7f	0.06682872
118	0x3d8b9e84	0.06817344
119	0x3dc44552	0.09583534
120	0x3eb853aa	0.3600133
121	0x3e8efa1c	0.27925193
122	0xbd3ff4ea	-0.046864428
123	0x3df4bf05	0.119504966
124	0xbdd5b241	-0.1043439
125	0x3dbdcc24	0.09267452
126	0x3e3f3fae	0.18676636
127	0x3c0a9f56	0.00846084

layer.6.weight f4 [8, 128]
0	0x3dbbd577	0.091715746
1	0x3cccf646	0.025019776
2	0x3d2bd2ee	0.041949205
3	0x3d29473b	0.041327696
4	0x3c88a82a	0.01668175
5	0xbc9985bb	-0.018740525
6	0x3d4f9443	0.050678503
7	0x3cad8de4	0.021185823
8	0x3c84da63	0.016217416
9	0xbcd81dc4	-0.02638138
10	0x3b18d594	0.0023320662
11	0xbbaa520f	-0.0051977704
12	0x3d5cdd2f	0.053921875
13	0xbb96cbc2	-0.0046019265
14	0xbc785332	-0.015156554
15	0x3d2844de	0.041081302
16	0xbd312d1a	-0.043255903
17	0xbd0cfac9	-0.034418855
18	0x3c0dd4ef	0.008656724
19	0xbb87ac3c	-0.004140405
20	0x3cec37cf	0.028835205
21	0x3d3e76ef	0.046500143
22	0xbd0ecb43	-0.034861814
23	0x3c41cb6e	0.011828287
24	0x3cfd8bc0	0.030950427
25	0xbd106c93	-0.035259794
26	0xbc18b5e8	-0.009320714
27	0xbb475b81	-0.003041953
28	0xbcaba8bc	-0.020954482
29	0xbb5fa414	-0.0034124898
30	0xbd778468	-0.060429007
31	0x3d56580b	0.052330058
32	0x3c6e48cd	0.014543724
33	0xbd11f2a6	-0.0356318
34	0x3c882619	0.016619729
35	0x3bc1d68d	0.005915469
36	0x3ce5f99e	0.028073128
37	0x3c269c85	0.010169153
38	0xbd0e6789	-0.034766708
39	0xbc43e6c0	-0.011956871
40	0xbcf9179a	-0.030406762
41	0x3cdc120d	0.026864076
42	0xbc6c0640	-0.014405787
43	0xbb248ee8	-0.0025109593
44	0x3bb71a37	0.005587842
45	0x3c138707	0.009004361
46	0x3c9525e6	0.018206548
47	0xbc5a544e	-0.013325764
48	0xba9fd9b1	-0.0012195614
49	0x3d1d28e0	0.03836906
50	0xbc276879	-0.010217779
51	0x3d067f21	0.032836083
52	0xbc65ec06	-0.014033323
53	0x3d017c9f	0.03161299
54	0x3ce978f5	0.02850006
55	0xbcf04268	-0.02932854
56	0x3cb92d5e	0.02260464
57	0xbcc9b5f7	-0.0246229
58	0x3c0ab778	0.008466594
59	0xbce456e1	-0.027873458
60	0xbcf82a90	-0.030293733
61	0x3c922466	0.017839622
62	0x3aaad544	0.0013033529
63	0xbce6b9fc	-0.028164856
64	0xbcf4a970	-0.02986595
65	0x3d1e1fa3	0.03860439
66	0x3b241fa1	0.0025043266
67	0xbd48443d	-0.048893202
68	0xbd25e359	-0.04050002
69	0x3d8359ab	0.06413587
70	0xbd0e8f2a	-0.0348045
71	0x3c791ef7	0.0152051365
72	0x3ad7e38c	0.0016471012
73	0x3ca5724c	0.020196103
74	0x3c216939	0.009851747
75	0x3c8ef9a3	0.01745302
76	0xbccf7e09	-0.025328653
77	0xbd435f05	-0.04769804
78	0x3d7e106d	0.062027384
79	0x3c9335ca	0.017969985
80	0xbc226463	-0.009911629
81	0x3ce1baf5	0.027554968
82	0xbccf79a0	-0.02532655
83	0xbc9d8377	-0.019227726
84	0xbc3ac741	-0.011400045
85	0xbcabdf29	-0.020980434
86	0xbc61193d	-0.013738927
87	0x3b9d308d	0.0047970475
88	0xbc2044b1	-0.009782002
89	0xbcfdacf7	-0.030966265
90	0x3c2321d7	0.0099567985
91	0x3b6f6fea	0.0036535212
92	0xbcc82e50	-0.024436146
93	0xbc6e4a0b	-0.01454402
94	0x3bf14489	0.0073629064
95	0xbc44b012	-0.012004869
96	0x3cff3ab4	0.031155922
97	0x3ccc96de	0.024974283
98	0xbc96c421	-0.018404068
99	0xbc09beed	-0.008407337
100	0x3c9dfd43	0.019285804
101	0xbc55428e	-0.013016356
102	0x3911bf15	0.00013899461
103	0xbdb1e8da	-0.08686991
104	0xbb849276	-0.00404578
105	0xbce34295	-0.02774171
106	0xbbb5f1da	-0.0055525126
107	0x3ca32e66	0.019919585
108	0x3d483c59	0.048885677
109	0xbd8330e1	-0.06405807
110	0xbd2bec44	-0.041973367
111	0x3aed3ca5	0.0018099739
112	0x3d4542ba	0.04815934
113	0xbd6a5be0	-0.057216525
114	0x3b827371	0.003981047
115	0x3ce12b57	0.027486486
116	0x3d16486d	0.036690164
117	0x3d922678	0.071362436
118	0xbca21cab	-0.01978906
119	0xbd4b7845	-0.049675245
120	0x3d41e249	0.047334943
121	0xbd45c83b	-0.048286658
122	0xbd4a619b	-0.04940949
123	0xbd09019a	-0.033448793
124	0x3d30926c	0.04310839
125	0xbd14a867	-0.036293413
126	0xbd27440e	-0.040836386
127	0x3ca7bb4c	0.020475052
128	0x3d556a31	0.052103225
129	0xbd1d0c47	-0.038341787
130	0xba9439a7	-0.0011308686
131	0xbda5c6d9	-0.08094568
132	0x3d09df79	0.033660386
133	0xbd3a2f80	-0.045455456
134	0xbcc648b0	-0.024204582
135	0x3d28bf0c	0.04119782
136	0xbd1de953	-0.038552593
137	0xbb633ab7	-0.0034672448
138	0xbceedb17	-0.029157205
139	0xbc84f539	-0.016230213
140	0x3b087309	0.002082052
141	0x3c90185b	0.017589739
142	0x3943f7bb	0.00018688936
143	0xbc4bf417	-0.012448332
144	0x3c873b2e	0.016507711
145	0xbcc33e44	-0.023833402
146	0xbd09f286	-0.033678554
147	0xbd50c6cf	-0.05097085
148	0xbc395ce1	-0.011313648
149	0x3ad83e9d	0.0016498152
150	0xbc50c7cc	-0.012742948
151	0x3b7bd652	0.0038427305
152	0x3d2a4331	0.041567985
153	0x3d018412	0.031620093
154	0xbc91f4e4	-0.017816968
155	0x3ca6c2e7	0.020356609
156	0x3c34af9d	0.011028198
157	0xbccb2ab9	-0.024800645
158	0xbcb6432a	-0.022248823
159	0x3d8712cf	0.06595384
160	0xbcf1f729	-0.0295368
161	0x3d13e1bb	0.036103945
162	0xbcea685f	-0.028614221
163	0xbc9277e2	-0.01787943
164	0x3d92a921	0.07161165
165	0x3d7154d0	0.058918774
166	0x3d01081f	0.031501886
167	0x3d4f15ac	0.050557777
168	0xbcf8aa4a	-0.030354638
169	0x3be3c6e2	0.006951199
170	0xbb16edb4	-0.0023029866
171	0x3d4aff67	0.049559977
172	0x3c9a3951	0.018826159
173	0xbcdc4435	-0.026887992
174	0x3c486cb1	0.012232945
175	0xbc55e8a6	-0.013055956
176	0xbb036a8e	-0.0020052525
177	0x3b3e3fd2	0.002902974
178	0xbc780951	-0.01513894
179	0x3ce4b007	0.027915968
180	0x3c61d132	0.013782786
181	0xbcf38bd5	-0.029729763
182	0xbc779044	-0.015110079
183	0xbcb2611a	-0.021774817
184	0x3c3e3709	0.011609801
185	0x3d401a32	0.04689998
186	0xbb092f4c	-0.0020932732
187	0x3b0a61a6	0.0021115332
188	0xbd2b1deb	-0.04177658
189	0x3bf69275	0.0075247833
190	0x3b4b1451	0.0030987451
191	0x3cb1f018	0.021720931
192	0x364c4e2e	3.0443875e-06
193	0x3d3a1d22	0.04543794
194	0x3ce523aa	0.027971108
195	0xbdb79777	-0.089644365
196	0x3cbc45e1	0.02298254
197	0xbc7dbc4f	-0.015486791
198	0xbcf08f3b	-0.029365173
199	0xbc55eab7	-0.013056449
200	0x3d290b73	0.041270684
201	0xbc7f8acd	-0.0155970575
202	0xbd73559f	-0.059407827
203	0x3d83b5da	0.0643117
204	0xbc87e28e	-0.016587522
205	0xbd1b50a8	-0.037918717
206	0xbceabca2	-0.0286544
207	0x3ca19198	0.019722745
208	0xbcd4402d	-0.025909508
209	0x3cabfff9	0.02099608
210	0x3bbf1cd2	0.005832293
211	0xbc3ad3e7	-0.0114030605
212	0xbb3c0053	-0.0028686717
213	0xbb584b73	-0.0033003956
214	0xba1fce6f	-0.00060961297
215	0xbaf552a4	-0.0018716645
216	0x3a1cf60b	0.0005987591
217	0x3c2918ff	0.010320901
218	0x3bcb2e78	0.006200608
219	0x3d29db07	0.041468646
220	0xbb81c365	-0.0039600604
221	0x3c9bac26	0.019002985
222	0xbd47cbac	-0.04877822
223	0xbbfd9e46	-0.007739815
224	0x3d0564a5	0.032566685
225	0xbb5738a7	-0.0032840164
226	0x3baf3b83	0.0053476705
227	0xba312a37	-0.00067583047
228	0xbcd4a032	-0.025955293
229	0x3c19fafc	0.009398218
230	0x3d319285	0.043352623
231	0xbda81400	-0.0820694
232	0xbca3e5fe	-0.02000713
233	0x3cce008f	0.02514675
234	0xbcabb7f6	-0.020961743
235	0xbca48122	-0.020081107
236	0xbc85d257	-0.01633565
237	0xbd0cd6a5	-0.03438439
238	0xbc0699a5	-0.008215343
239	0xbcedcc7b	-0.029028168
240	0xbc36e0cd	-0.011161995
241	0xbc3592c0	-0.011082351
242	0xbd3af2e3	-0.04564179
243	0x3c56c63a	0.013108784
244	0x3d834675	0.06409923
245	0x3c10170b	0.008794556
246	0xbc8f8c80	-0.01752305
247	0xb8f434fe	-0.00011644697
248	0x3b3754ea	0.0027974197
249	0xbc5bc01d	-0.013412503
250	0x3ca1e7dc	0.01976388
251	0xbd4909b4	-0.04908152
252	0xbc5eb848	-0.013593741
253	0x3c88a85f	0.016681848
254	0x3c654f25	0.01399592
255	0xba6f61d3	-0.00091317034

layer.6.bias f4 [8]
0	0x3c1f9d39	0.009742075
1	0x3d26e659	0.04074702
2	0xbc9410e0	-0.018074453
3	0x3d5d1c19	0.053981874
4	0x3db11f76	0.08648579
5	0x3e546a7e	0.20743749
6	0x3c795a78	0.015219323
7	0x3c860737	0.016360862
