final/save/1l_0.95_200_morelayer/save1_11000.pth (torch_old, 50952 bytes, 8 tensors)

layer.0.weight f4 [32, 28]
0	0x3dd9425c	0.1060836
1	0xbcc373e7	-0.023858977
2	0xbe3e3b76	-0.1857737
3	0xbdb52c85	-0.08846382
4	0x3e2aa747	0.16665374
5	0x3e6c51fc	0.2307815
6	0x3e590a48	0.21195328
7	0x3e8722bb	0.26393685
8	0xbd0b89ad	-0.034066845
9	0x3d984117	0.0743429
10	0xbd3bd62e	-0.045858555
11	0x3e3e1a6a	0.18564764
12	0x3cf627d2	0.030048285
13	0xbc3f2754	-0.011667091
14	0x3bfb95e9	0.007677783
15	0x3d1127a6	0.035438202
16	0x3d799855	0.06093629
17	0x3a390859	0.0007058434
18	0xbd94884b	-0.07252558
19	0xbe44d35f	-0.19221257
20	0x3e1f8ccd	0.15581055
21	0x3cd878e5	0.026424835
22	0x3e1fa751	0.1559117
23	0xbdcbf8fe	-0.09959601
24	0xbd84030e	-0.06445895
25	0xbde99449	-0.11405236
26	0x3dd8d9c4	0.105884105
27	0x3d0f9d51	0.035062138
28	0x3e3e87f1	0.18606545
29	0x3e4a463c	0.19753355
30	0x3d724164	0.059144393
31	0x3c1210ce	0.008915139
32	0xbda74daf	-0.08169114
33	0xbd6b5901	-0.057457928
34	0x3e643769	0.22286762
35	0x3d71b38a	0.059009112
36	0xbe0d5453	-0.13801698
37	0xbd01a1ce	-0.03164845
38	0x3d76076e	0.06006568
39	0x3e3f91bf	0.18707941
40	0xbd838c7c	-0.0642328
41	0x3dda8d7d	0.10671518
42	0xbd1172ad	-0.035509754
43	0x3d1ff4c8	0.0390518
44	0xbd922e44	-0.07137731
45	0xbd095721	-0.03353036
46	0xbde745ec	-0.112926334
47	0x3cd91608	0.026499763
48	0x3e370471	0.17872788
49	0xbd4bdf5c	-0.04977356
50	0x3db14650	0.08655989
51	0x3e22f62a	0.15914217
52	0xbd842553	-0.064524315
53	0xbe229eeb	-0.15880935
54	0x3d5a3b56	0.053279243
55	0xbc9f59ab	-0.019451937
56	0x3e0e32fd	0.13886638
57	0xbe243b0d	-0.16038151
58	0x3e33eb8f	0.17570327
59	0x3b61e849	0.0034470728
60	0x3d8358ff	0.06413459
61	0xbdc8c279	-0.09802718
62	0x3b5aaf43	0.0033368624
63	0xbd1eda3d	-0.038782347
64	0x3df06063	0.11737134
65	0x3e581ba0	0.21104288
66	0xbd20d72c	-0.039267704
67	0x3d841442	0.06449176
68	0xbd897ba0	-0.06713033
69	0x3b8ccc99	0.004296851
70	0xbe0165b6	-0.12636456
71	0xbd1b6568	-0.037938505
72	0x3debd9c7	0.11516147
73	0x3cebcb6b	0.02878352
74	0x3e24d372	0.16096285
75	0x3e024a03	0.12723546
76	0x3e1926c3	0.14956193
77	0x3de9c244	0.11414006
78	0x3ddffdde	0.10937093
79	0xbe239406	-0.15974435
80	0x3d2de1a6	0.042451523
81	0xbdb0146b	-0.085976444
82	0x3e269e20	0.16271257
83	0x3e1b63fa	0.15174857
84	0xbd97a2c2	-0.074040905
85	0x3e2c786b	0.16842811
86	0x3e1849a5	0.14871843
87	0xbded7a38	-0.11595577
88	0xbe14a0ce	-0.14514467
89	0x3df5b3f3	0.11997213
90	0xbd607eea	-0.054808535
91	0x3d0a387a	0.033745266
92	0x3e8f937c	0.2804221
93	0xbd1d0f50	-0.03834468
94	0xbca3d27b	-0.019997826
95	0xbc969743	-0.018382674
96	0x3d5b15df	0.053487655
97	0xbe4161b9	-0.18884934
98	0xbe069d7b	-0.13146012
99	0x3e7df03c	0.24798673
100	0x3d8d0a7f	0.068867676
101	0xbe13c795	-0.14431603
102	0xbd9f3332	-0.077734366
103	0xbde97bb2	-0.11400546
104	0xbbb13178	-0.0054075085
105	0x3e3c6837	0.1839913
106	0x3d29a0d8	0.04141316
107	0x3e4122df	0.18860959
108	0xbd9d3f6f	-0.076781146
109	0x3d08ffe7	0.033447172
110	0x3df1de90	0.118100286
111	0x3e18125c	0.14850754
112	0x3d7adf85	0.06124832
113	0xbe0b0696	-0.13576731
114	0x3d8df177	0.069308214
115	0x3b84bde3	0.0040509566
116	0x3e03aefe	0.12859723
117	0xbd5f9eca	-0.054594792
118	0xbd37a847	-0.044838216
119	0x3d1ae1b9	0.037812922
120	0x3e1df5f8	0.15425861
121	0xbe140ca6	-0.1445795
122	0x3d8dd1e1	0.06924797
123	0xbd9b01a7	-0.075686745
124	0xbd1cca87	-0.038279083
125	0xbe400017	-0.18750034
126	0x3d146e1c	0.03623782
127	0x3e504c15	0.20341523
128	0x3cc385af	0.023867456
129	0xbc8426c7	-0.016131772
130	0xbd8deb4a	-0.069296435
131	0xbc4d639f	-0.012535959
132	0xbd100922	-0.03516496
133	0x3e47ea81	0.1952305
134	0x3d1e790f	0.03868967
135	0x3cbe605b	0.023239305
136	0x3c4a1617	0.012334368
137	0x3dd1e97c	0.10249612
138	0xbad79fe9	-0.0016450855
139	0x3d24d2f4	0.040240243
140	0xbda0afcf	-0.07846033
141	0x3e012a2b	0.12613742
142	0x3e9b442d	0.30325451
143	0x3e25421d	0.16138501
144	0xbc991a01	-0.018689157
145	0x3d55d95a	0.052209236
146	0x3db74789	0.08949191
147	0xbe1f4aa9	-0.15555824
148	0x3d72d096	0.059280954
149	0x3daf4821	0.08558679
150	0x3e0c3342	0.13691428
151	0x3c428bca	0.011874149
152	0x3e89f66f	0.26945826
153	0x3cc50b51	0.024053248
154	0x3e25c9fd	0.16190334
155	0x3e0598c5	0.13046558
156	0x3dcd299f	0.10017704
157	0x3e94623f	0.28981206
158	0x3e5d1cd7	0.21593033
159	0x3e36981d	0.17831464
160	0x3de4d0da	0.11172648
161	0xbd8ec291	-0.06970704
162	0xbcc5f24d	-0.02416339
163	0x3c2b4fca	0.010456035
164	0x3e27da23	0.16391806
165	0x3d0f9a0f	0.03505903
166	0xbe307d6a	-0.17235342
167	0x3d78dd1c	0.06075774
168	0xbdad40a2	-0.08459593
169	0x3e145832	0.14486769
170	0xbd3fdd68	-0.04684201
171	0x3d073644	0.033010736
172	0x3d6e6f51	0.05821163
173	0x3d5bb1ef	0.053636488
174	0x3e012a62	0.12613824
175	0x3e390031	0.1806648
176	0x3dd758ca	0.10514982
177	0x3db41722	0.08793475
178	0x3c993568	0.018702224
179	0x3d69a2fc	0.0570402
180	0x3e74cbfd	0.2390594
181	0x3d86f43b	0.06589552
182	0x3d6d10a4	0.057877198
183	0xbd1eb8f4	-0.038750604
184	0xbdab5a28	-0.08366805
185	0x3e42f57c	0.19038957
186	0x3db7cbc4	0.08974412
187	0x3df130ad	0.11776862
188	0xbb20dcd3	-0.0024545684
189	0xbdfa907a	-0.12234588
190	0x3d9501e3	0.072757505
191	0x3d86b5a4	0.06577614
192	0x3d934ff5	0.07192985
193	0x3dbdd4a5	0.09269074
194	0x3d6c17c8	0.057639867
195	0x3da5ac8e	0.08089553
196	0x3d0c5c7d	0.03426789
197	0xbd28d98f	-0.041223105
198	0x3d1f03c5	0.038821954
199	0x3e429570	0.19002318
200	0xbe0927a3	-0.13394026
201	0x3e2891e0	0.16461897
202	0xbd4a7e98	-0.049437135
203	0xbc03b824	-0.008039508
204	0xbe09d792	-0.1346114
205	0xbe6cd518	-0.23128164
206	0x3d9d8c08	0.076927245
207	0xbe265beb	-0.16246001
208	0xbe4a41b7	-0.1975163
209	0xbe10926b	-0.14118354
210	0xbe49e8f2	-0.19717768
211	0x3dc689db	0.096942626
212	0xbdb4f287	-0.08835321
213	0xbe99598b	-0.29951128
214	0x3e1b178e	0.15145704
215	0x3da124a4	0.07868317
216	0x3e1631db	0.14667456
217	0x3e030766	0.12795791
218	0x3e5a3a05	0.21311195
219	0xbda9449b	-0.082650386
220	0x3e5e7bbb	0.21726887
221	0x3e282da1	0.16423656
222	0x3c958c18	0.018255278
223	0x3dbc564d	0.09196148
224	0x3e44d0bc	0.19220251
225	0x3d64e12a	0.055878796
226	0xbdd109a2	-0.102069154
227	0xbd2757e9	-0.040855322
228	0x3d445d3d	0.04794048
229	0x3c622b90	0.013804331
230	0x3e3452bb	0.17609684
231	0xbcb82313	-0.022477662
232	0xbdd3af22	-0.10336138
233	0x3d8807a9	0.06642086
234	0xbe0c02fa	-0.1367301
235	0xbb6a553e	-0.0035756375
236	0xbdbbe425	-0.091743745
237	0x3ce80ba2	0.02832586
238	0x3da8e08a	0.082459524
239	0x3e3d89e2	0.1850963
240	0x3e026bd1	0.12736441
241	0x3e30ed7a	0.1727809
242	0x3d2cae74	0.04215856
243	0xbe091e92	-0.13390568
244	0x3c561e21	0.013068707
245	0xbe8cd107	-0.27503225
246	0xbbf65c9b	-0.0075183637
247	0xbe894bd6	-0.2681567
248	0x3daedd79	0.08538336
249	0x3bd0994f	0.006365932
250	0xbd995a26	-0.074878976
251	0xbd87459d	-0.066050746
252	0x3e5db47f	0.21650885
253	0xbd8d5fa9	-0.06903011
254	0x3e144989	0.14481176
255	0x3e2d5791	0.16927935

layer.0.bias f4 [32]
0	0xbd56cab7	-0.052439418
1	0x3d94f22e	0.072727546
2	0xbe3e25e1	-0.18569137
3	0x3ccf0423	0.025270527
4	0x3d81a564	0.06330374
5	0x3e3548cb	0.1770355
6	0xbdb36256	-0.087589905
7	0x3e1afc86	0.15135393
8	0xbdf080b7	-0.117433004
9	0x3df7485a	0.12074347
10	0x3c8562eb	0.01628252
11	0x3d643551	0.05571491
12	0x3dc4c2d5	0.09607474
13	0x3dd11edd	0.10210965
14	0xbe1d1781	-0.15340997
15	0xbe48aaee	-0.19596455
16	0x3df99609	0.1218682
17	0xbc4370e8	-0.011928774
18	0x3d8ecfd9	0.069732375
19	0x3d74a972	0.05973191
20	0x3e1ccf51	0.1531346
21	0xbd3f133c	-0.046649203
22	0x3d80faab	0.06297811
23	0x3e24473e	0.16042802
24	0x3e73a34b	0.2379276
25	0x3dfb8ad2	0.12282337
26	0x3da0c814	0.07850662
27	0x3ead20d5	0.3381411
28	0x3f11df24	0.5698111
29	0x3d308e2c	0.043104336
30	0x3cc28f9e	0.023750123
31	0x3daf2f02	0.08553888

layer.2.weight f4 [64, 32]
0	0x3dd5b06a	0.10434039
1	0x3e077d13	0.13231306
2	0x3d9d3979	0.07676978
3	0xbd4050f5	-0.046952207
4	0xbd64257e	-0.055699818
5	0x3d0439a7	0.032281544
6	0x3e1eafc1	0.15496732
7	0x3e100bbe	0.1406698
8	0x3db341f3	0.08752813
9	0x3e122775	0.14272864
10	0xbc8a3920	-0.016872942
11	0x3e254ec1	0.16143323
12	0x3d735f56	0.05941709
13	0x3dabf599	0.083964534
14	0x3d60c953	0.054879498
15	0x3d898e4b	0.06716593
16	0x3dcae220	0.09906411
17	0x3e296861	0.16543724
18	0x3e2e2c67	0.17009126
19	0x3dcd3f25	0.100218095
20	0x3d5a685e	0.05332219
21	0xbd28bae0	-0.041193843
22	0xbc7d4e10	-0.015460506
23	0xbe4c9663	-0.19979243
24	0x3cb5d333	0.022195434
25	0xbb8356d2	-0.0040081525
26	0x3e252bba	0.16129962
27	0xbdd7cfac	-0.10537657
28	0x3ccb38f1	0.024807425
29	0x3d194730	0.037421405
30	0x3def1b42	0.11675121
31	0x3cf97705	0.03045226
32	0x3e504a3a	0.20340815
33	0x3e705df1	0.23473336
34	0xbdcc93ba	-0.09989114
35	0xbeb4656f	-0.35233638
36	0xbe68f0e5	-0.22748144
37	0xbd0407ea	-0.03223411
38	0x3e5026d8	0.20327318
39	0xbe637539	-0.22212686
40	0x3df4a8e3	0.11946275
41	0x3ea61f61	0.32445815
42	0xbe6efbb9	-0.23338212
43	0xbc110b40	-0.00885278
44	0xbe392596	-0.18080744
45	0xbea99f3f	-0.33129308
46	0xbe719296	-0.23591074
47	0x3ddf17a6	0.108931825
48	0x3e450f83	0.19244199
49	0x3e785917	0.24252735
50	0x3de3cb05	0.11122707
51	0xbe15b682	-0.14620402
52	0xbe57ec72	-0.2108629
53	0x3e30d20f	0.17267631
54	0xbea1733f	-0.31533238
55	0xbdc0ef7b	-0.09420677
56	0xbf0e66d1	-0.55625635
57	0x3d8ce8ac	0.06880316
58	0xbc6fa95c	-0.014627781
59	0xbe19aeb4	-0.1500805
60	0xbd632811	-0.055458132
61	0x3e34a49b	0.17640917
62	0xbeb1783b	-0.3466204
63	0x3d9ed59d	0.07755587
64	0x3e30235f	0.17200993
65	0x3e1696f8	0.14706028
66	0x3d04defe	0.032439224
67	0x3cdeccaa	0.0271972
68	0x3e0b9086	0.1362935
69	0x3c1e587d	0.009664652
70	0xbdebfd68	-0.11522943
71	0x3cc61168	0.024178222
72	0x3e27bcd9	0.16380633
73	0x3e807d87	0.2509577
74	0x3b6c714f	0.003607828
75	0xbd8cc8aa	-0.06874211
76	0x3e0001e2	0.12500718
77	0xbe4f023f	-0.202157
78	0xbe333004	-0.17498785
79	0x3e403e22	0.18773702
80	0x3ce480ec	0.027893506
81	0x3e05b2dc	0.1305651
82	0x3cfc8c0f	0.030828504
83	0xbe5fabbf	-0.2184286
84	0xbe92fcfc	-0.28708637
85	0x3d6953ec	0.0569648
86	0xbde70044	-0.112793475
87	0xbd1e7e24	-0.038694516
88	0x3e4d563c	0.20052427
89	0xbdc387bd	-0.095473744
90	0xbc83a8da	-0.016071726
91	0xbd9707fc	-0.0737457
92	0x3d0e51ce	0.034745984
93	0xbe27fa7c	-0.16404146
94	0x3da0a3c2	0.07843734
95	0x3deb7c94	0.11498371
96	0x3e346dd8	0.17620027
97	0xbe034c82	-0.12822154
98	0xb79e9bd9	-1.890764e-05
99	0x3db107bb	0.086440526
100	0xbd3434b5	-0.043995578
101	0xbe13cdf3	-0.14434032
102	0xbcfd29e0	-0.030903757
103	0xbdf0837b	-0.11743828
104	0x3db917ab	0.090377174
105	0x3e1e3da6	0.15453205
106	0x3db70dd0	0.089381814
107	0x3c783e54	0.015151579
108	0x3e41ff39	0.18945016
109	0xbe21cefa	-0.15801612
110	0xbd3e9ddf	-0.046537276
111	0xbe050467	-0.1298996
112	0xbdad05ed	-0.08448396
113	0xbdcdf738	-0.10056919
114	0x3ded29c1	0.115802296
115	0xbeb9937a	-0.36245328
116	0xbeac28f6	-0.33625
117	0x3e44ec5e	0.19230792
118	0xbdfde0d5	-0.12396399
119	0x3da99133	0.08279648
120	0x3ea7274d	0.32647172
121	0xbdeb67fb	-0.11494442
122	0xba95da20	-0.0011432804
123	0x3da50be1	0.08058906
124	0xbea49a0d	-0.3214878
125	0xbda29c45	-0.07939962
126	0x3ddc4b8e	0.107565984
127	0xbbe3de02	-0.0069539556
128	0xbdaf6bd9	-0.08565492
129	0xbd50d074	-0.050980046
130	0xbd87bcc4	-0.06627801
131	0xbe3b39a7	-0.18283711
132	0x3db98d1a	0.09060116
133	0xbdb6f4ce	-0.089334115
134	0x3dcd31f3	0.10019293
135	0xbe0480cc	-0.12939757
136	0xbdbaa921	-0.0911429
137	0x3de26e13	0.11056151
138	0xbce0de1f	-0.027449666
139	0x3d68d5b0	0.056844413
140	0x3db82830	0.0899204
141	0xbe0ef523	-0.139607
142	0xbdd180ae	-0.10229622
143	0xbe19b735	-0.15011294
144	0x3e3c0646	0.18361768
145	0x3df9f6ba	0.122052625
146	0xbcda13de	-0.026620802
147	0xbea6de2c	-0.3259138
148	0xbc8f7de4	-0.017516084
149	0xbe5a57e3	-0.21322589
150	0xbca28197	-0.019837184
151	0xbd41f38f	-0.047351416
152	0xbe59e653	-0.21279268
153	0x3dc10626	0.09425001
154	0x3e0a7fda	0.13525334
155	0x3dd37262	0.10324551
156	0x3c781fe9	0.015144327
157	0xbe1537a6	-0.1457201
158	0x3e8017c4	0.25018132
159	0x3e01b7b6	0.12667736
160	0x3c5ebff9	0.013595575
161	0xbe1d8f9d	-0.15386815
162	0xbd12a667	-0.035803225
163	0xbe9742aa	-0.29543048
164	0x3d8a2126	0.06744604
165	0x3de5ad05	0.112146415
166	0xbd9f2e8e	-0.077725515
167	0xbe15a802	-0.14614871
168	0xbd68a077	-0.056793656
169	0xbde6b079	-0.11264128
170	0xbe1648d1	-0.14676215
171	0x3db4ac67	0.08821946
172	0x3e7c48ea	0.2463719
173	0xbe14ec0e	-0.14543173
174	0x38fa300e	0.0001192988
175	0xbd9d9b38	-0.07695621
176	0x3d7a6c18	0.061138242
177	0x3e0a94ed	0.13533373
178	0xbe9587e5	-0.29205242
179	0xbe00abef	-0.12565587
180	0x3c47e4ea	0.012200573
181	0xbdc4fa98	-0.096181095
182	0xbd39820f	-0.04529005
183	0x3df596a8	0.11991626
184	0xbf004b42	-0.50114834
185	0xbe070687	-0.13186084
186	0x3e1c07ec	0.15237397
187	0xbd9de1ac	-0.07709059
188	0xbcaa2014	-0.02076725
189	0x3b4902af	0.0030671766
190	0x3e01c94a	0.12674442
191	0x3e857584	0.2606622
192	0xbe051ab0	-0.12998462
193	0x3dbd64a8	0.09247714
194	0x3c6bff0a	0.014404068
195	0xbe67cdcc	-0.22637099
196	0x3d64dc7e	0.05587434
197	0x3dd7edbf	0.10543393
198	0xbcb521dd	-0.022110874
199	0xbe73cc10	-0.23808312
200	0xbe100fac	-0.14068478
201	0x3db50a8c	0.08839902
202	0x3d8246df	0.06361174
203	0x3e40af4c	0.1881687
204	0xbcc15aff	-0.02360296
205	0xbdbad386	-0.09122376
206	0x3d8f7218	0.070041835
207	0x3db0a25b	0.08624717
208	0xbd24b691	-0.04021317
209	0x3e00c528	0.12575209
210	0x3db0fa90	0.08641541
211	0x3ea768a4	0.32697022
212	0x3eb302a8	0.34962964
213	0xbccdb131	-0.025108906
214	0x3da497fd	0.08036802
215	0x3d9c0459	0.07618017
216	0xbe1fa3ac	-0.1558978
217	0x3d8f9d46	0.070124194
218	0x3dd0a8bd	0.10188434
219	0x3e467dda	0.19383946
220	0xbe108cff	-0.14116286
221	0x3de70ab7	0.112813406
222	0x3d17c71b	0.037055116
223	0x3df53a47	0.11974006
224	0xbdd4e487	-0.10395151
225	0xbe219404	-0.1577912
226	0x3bfb9c93	0.007678577
227	0xbceb9271	-0.028756352
228	0xbdc0d2f4	-0.09415236
229	0x3d49b6e0	0.04924667
230	0x3db679e5	0.08909968
231	0xbdc260fb	-0.09491154
232	0xbe705563	-0.23470072
233	0xbdb451c7	-0.0880466
234	0x3ddb69c4	0.107135326
235	0x3d95f51f	0.07322144
236	0xbdeaeb51	-0.11470664
237	0x3df6d761	0.12052799
238	0x3e4d1054	0.2002576
239	0x3de08288	0.10962397
240	0xbec44a91	-0.3833814
241	0x3d6f0b71	0.05836052
242	0x3cc9f072	0.024650786
243	0x3e03adb2	0.12859228
244	0x3eb33a3f	0.35005376
245	0xbe66e54a	-0.22548404
246	0x3e818752	0.25298554
247	0xbd379dfa	-0.044828393
248	0x3dbfee68	0.09371644
249	0x3e1296fb	0.14315407
250	0xbd9a230a	-0.075262144
251	0x3c45822d	0.012054962
252	0xbe922318	-0.285424
253	0x3e5e900d	0.21734639
254	0xbda8bfae	-0.08239685
255	0xbeb27f51	-0.3486276

layer.2.bias f4 [64]
0	0xbe8b8948	-0.27253175
1	0x3cc0d56a	0.023539264
2	0xbdc8e5d4	-0.09809461
3	0x3d31213a	0.043244578
4	0x3cb6db3f	0.022321342
5	0x3d627434	0.0552866
6	0x3e80c63a	0.25151235
7	0xbdd58a09	-0.10426719
8	0x3e205088	0.1565572
9	0xbd645f3f	-0.055754896
10	0x3dadcf99	0.08486862
11	0xbb3553a6	-0.0027668267
12	0x3dbd7881	0.092515
13	0x3e911e43	0.283434
14	0x3edeb772	0.43499333
15	0xbdce6fcd	-0.10079918
16	0x3df19bcb	0.11797293
17	0x3da743f8	0.08167261
18	0x3d9f8735	0.077894606
19	0x3ba6a195	0.00508518
20	0x3d2db846	0.042412065
21	0x3e434dc1	0.1907263
22	0x3df99dfc	0.12188336
23	0xbd9b3807	-0.07579046
24	0x3e3f588f	0.18686126
25	0x3e32f482	0.17476085
26	0xbe2f4299	-0.17115249
27	0xbdcab578	-0.09897894
28	0xbe8c3f11	-0.27391866
29	0xbdc766a2	-0.097363725
30	0x3e4a4233	0.19751815
31	0x3e4438d4	0.19162303
32	0x3d9d9dc6	0.076961085
33	0xbde80232	-0.11328544
34	0x3d5df408	0.054187804
35	0x3e06b84e	0.13156244
36	0x3e7fe0fa	0.24988165
37	0x3ed0344f	0.40664908
38	0x3e7fe97d	0.24991412
39	0xbc5a488d	-0.0133229615
40	0xbe02acc9	-0.12761225
41	0xbe9216e0	-0.28533077
42	0xbcb192ad	-0.021676386
43	0x3e5329e1	0.20621444
44	0x3e18887e	0.14895818
45	0x3c8071b9	0.015679227
46	0x3e7dd1c8	0.24787056
47	0x3e28db8b	0.16489999
48	0xbd52f721	-0.05150521
49	0x3e3e46c2	0.1858168
50	0xbe812221	-0.2522135
51	0x3e7d7e3e	0.24755189
52	0x3dbf07ca	0.093276575
53	0xbe824b0a	-0.25447875
54	0xbd80f99d	-0.0629761
55	0xbe4402d1	-0.191417
56	0x3e15b5c6	0.14620122
57	0xbcbc1f3c	-0.022964112
58	0xbd891939	-0.06694264
59	0x3d71785d	0.058952678
60	0x3e8607c9	0.26177815
61	0x3e510f74	0.20416051
62	0xbe49c2ec	-0.19703263
63	0x3d727d7c	0.059201702

layer.4.weight f4 [128, 64]
0	0x3db9b2d1	0.0906731
1	0x3e2f982b	0.17147891
2	0xbcd55618	-0.02604203
3	0xbd1d6f8d	-0.03843646
4	0xbe5936b8	-0.2121228
5	0xbf37b5cd	-0.7176178
6	0x3c52c523	0.012864384
7	0x3e2c2c55	0.16813786
8	0xbd2b366f	-0.04179996
9	0x3d685647	0.056722905
10	0x3d554e9b	0.052076917
11	0x3d3a563a	0.04549239
12	0x3d43aebf	0.047774073
13	0x3da7f19f	0.082003824
14	0x3e0f2f59	0.13982905
15	0xbe4041a9	-0.18775047
16	0x3e408c00	0.18803406
17	0x3e3f1819	0.18661536
18	0x3d70ea26	0.05881705
19	0xbddcfe62	-0.10790707
20	0x3ccee7c1	0.025256993
21	0xbe5465e0	-0.20741987
22	0x3de3ccd5	0.11123053
23	0x3d5fb4b7	0.054615702
24	0x3e1b7212	0.15180233
25	0xbf0d4176	-0.5517801
26	0xbdb55a4a	-0.08855112
27	0xbc785367	-0.015156603
28	0xbc13a533	-0.0090115545
29	0x3d224ff8	0.039627045
30	0x3c6598e2	0.014013501
31	0xbd2cbbf8	-0.04217145
32	0xbd8c6869	-0.06855852
33	0xbd117d76	-0.03552004
34	0xbd39a016	-0.045318685
35	0xbf3a507d	-0.72779065
36	0xbd2a732d	-0.041613746
37	0x3b7b6dd8	0.0038365033
38	0x3e1dfc30	0.15428233
39	0xbe45edfe	-0.19329068
40	0xbd2bdc0c	-0.0419579
41	0xbddb050c	-0.10694322
42	0x3d30a900	0.04312992
43	0x3da3995f	0.079882376
44	0xbde3a62e	-0.11115681
45	0xbd51e7a5	-0.051246304
46	0xbd1f49fc	-0.038888916
47	0xba4e786f	-0.00078762224
48	0xbd9e1775	-0.07719318
49	0x3d7dbd44	0.061948076
50	0xbe22d72e	-0.15902397
51	0x3c1ac911	0.009447352
52	0x3d79da9d	0.0609995
53	0x3dce6571	0.10077942
54	0xbd1b0717	-0.03784856
55	0x3d03bcff	0.032162663
56	0x3d331f29	0.04373089
57	0x3afd59dc	0.0019329148
58	0x3d4d4762	0.050116904
59	0x3db214aa	0.086953476
60	0xbe7e5a97	-0.24839245
61	0xbd307117	-0.0430766
62	0x3b949bb6	0.0045351638
63	0xbdb4e9a8	-0.08833629
64	0xbd6f355f	-0.058400508
65	0xbf98fe6f	-1.1952647
66	0xbdbb0e0f	-0.09133541
67	0x3c8b6cc1	0.017019631
68	0x3d87c88c	0.06630048
69	0x3e25108e	0.16119596
70	0x3e0cc7b3	0.13748054
71	0x3ddb3c61	0.10704876
72	0xbf07a97c	-0.5299299
73	0xbd9799b0	-0.074023604
74	0x3dffc834	0.124893576
75	0xbddfbf1a	-0.109251216
76	0x3d9672b0	0.07346094
77	0x3d8a6746	0.06757979
78	0x3d9b5c19	0.075859256
79	0xbddcc663	-0.10780027
80	0xbf90d687	-1.1315469
81	0x3c41af68	0.011821605
82	0xbc4f24e5	-0.012643074
83	0x3d6b9f42	0.057524927
84	0xbd6865ec	-0.056737825
85	0x3d9055ca	0.07047613
86	0x3e38da93	0.1805213
87	0xbe55cb94	-0.2087844
88	0x3e502511	0.2032664
89	0x3d3ad4c4	0.045613065
90	0x3d40442b	0.04694001
91	0x3c5de1b5	0.013542582
92	0xbcbe5c12	-0.023237262
93	0xbda0a06d	-0.07843099
94	0xbd835f5f	-0.06414675
95	0x3de2580a	0.11051948
96	0xbd959d63	-0.0730541
97	0x3dee4471	0.11634148
98	0xbf045c86	-0.5170368
99	0x3d731b96	0.05935248
100	0xbd2fac34	-0.042888835
101	0xbcb96cc2	-0.022634868
102	0x3cba090d	0.022709394
103	0xbe30cde8	-0.17266047
104	0x3de10d65	0.10988883
105	0xbdf06699	-0.11738319
106	0x3e17caae	0.1482341
107	0x3de97649	0.11399514
108	0x3dbf51fd	0.0934181
109	0x3de34795	0.110976376
110	0xbd643864	-0.05571784
111	0xbd5c5338	-0.0537903
112	0x3d948676	0.07252209
113	0x3d385dc7	0.045011308
114	0xbcc7675c	-0.024341278
115	0xbc909024	-0.017646857
116	0xbdb46b2c	-0.08809504
117	0xbd25ab41	-0.040446524
118	0x3c19b775	0.0093821185
119	0x3dec793a	0.1154656
120	0x3de18eec	0.11013588
121	0x3d6ec4f5	0.0582933
122	0xbd38c7f5	-0.04511257
123	0x3cf39f45	0.029739032
124	0x3d810f85	0.06301788
125	0xbd986dee	-0.074428424
126	0xbe0b8f57	-0.13628899
127	0xbe3e9e78	-0.18615139
128	0xbba74608	-0.005104784
129	0x3e0fa25c	0.14026779
130	0x3d009ea3	0.031401288
131	0xbde4fb51	-0.11180747
132	0x3d465545	0.048421163
133	0x3de59911	0.11210836
134	0x3dc1941c	0.09452078
135	0xbd0aaf1d	-0.033858407
136	0xbd572593	-0.052526068
137	0xbd7cdae0	-0.061732173
138	0x3ca3cf0a	0.019996185
139	0x3d5ec340	0.054385424
140	0xbd88e41f	-0.06684136
141	0x3e727640	0.23677921
142	0x3dd9dc20	0.10637689
143	0xbdf4bdc9	-0.11950261
144	0x3d7c4432	0.061588474
145	0x3e2dacb7	0.16960417
146	0xbd157237	-0.036485877
147	0xbc67f6fc	-0.014158007
148	0xbd2b27a0	-0.041785836
149	0x3cca05fa	0.024661053
150	0x3d00fff4	0.031494096
151	0xbe70a3bb	-0.23499958
152	0x3de1e475	0.11029903
153	0x3d009b17	0.031397905
154	0xbdc8453d	-0.09778831
155	0xbda76d38	-0.08175129
156	0xbe20b68c	-0.15694636
157	0xbbcea3f8	-0.0063061677
158	0xbd61e1c2	-0.05514694
159	0x3d576cdd	0.052594054
160	0xbc6959b2	-0.014242576
161	0x3c7fd35a	0.015614355
162	0x3cfe78e3	0.031063503
163	0xbdb9e5c6	-0.09077029
164	0x3b3d5e36	0.0028895265
165	0xbd9025f9	-0.07038493
166	0x3e2f2608	0.17104352
167	0xbd78e68c	-0.06076674
168	0x3d2b76dc	0.0418614
169	0xbe45a873	-0.1930254
170	0xbbae50bd	-0.0053196833
171	0x3d697c76	0.05700346
172	0x3d6959e9	0.05697051
173	0x3e12764a	0.14302936
174	0x3df9a2f0	0.12189281
175	0xbdd62233	-0.10455742
176	0xbc1548ed	-0.009111625
177	0x3cc632d8	0.024194166
178	0xbe991ec6	-0.2990629
179	0x3d69645d	0.05698048
180	0xbd5881b3	-0.052858066
181	0xbd9eb402	-0.077491775
182	0x3d0a6ce7	0.033795264
183	0x3dc78c9e	0.097436175
184	0xbc72310b	-0.014782201
185	0x3ce8d8b0	0.028423637
186	0xbe14d217	-0.14533268
187	0x3d8d75d5	0.0690724
188	0x3e6cba88	0.23118031
189	0x3dd60e52	0.1045195
190	0x3bb78e4c	0.00560168
191	0xbd0a7cec	-0.03381054
192	0x3dd56e4f	0.1042143
193	0xbdf2f788	-0.11863619
194	0x3e231d3a	0.15929118
195	0xbd3e160c	-0.046407744
196	0x3c869a8c	0.016431116
197	0x3e704155	0.23462422
198	0xbd6c8d48	-0.057751924
199	0x3cf91f96	0.03041057
200	0x3ce604c8	0.028078452
201	0x3d2674ec	0.04063885
202	0x3b53fe44	0.00323476
203	0xbbbe7ab2	-0.0058129663
204	0x3d4718e5	0.048607726
205	0xbe0db07c	-0.13836855
206	0xbe2a17f5	-0.16610701
207	0x3e0337b3	0.12814216
208	0xbe2400ce	-0.16015932
209	0xbe5ba755	-0.21450551
210	0xbdc22ec7	-0.09481578
211	0xbc9f3ed2	-0.019439135
212	0xbd538abc	-0.05164598
213	0x3d0381b4	0.032106116
214	0x3cfc6611	0.030810388
215	0x3e1b8303	0.15186696
216	0xbcef4a7c	-0.029210322
217	0x3e093b8a	0.13401619
218	0xbb8424ac	-0.004032692
219	0x3d73d8be	0.059532873
220	0x3e244b00	0.16044235
221	0xbbc691ad	-0.0060598464
222	0x3d773e9b	0.06036244
223	0x3dbb1e8b	0.09136685
224	0x3ccf7a75	0.025326947
225	0x3d718f6e	0.058974676
226	0x3d9a58cd	0.07536469
227	0x3e336678	0.17519557
228	0xbc6d7cd3	-0.014495092
229	0xbcb687c2	-0.022281531
230	0x3dce2890	0.100663304
231	0x3e3bd621	0.18343402
232	0xbdc598d6	-0.09648292
233	0x3d94f997	0.07274168
234	0xbdd8621a	-0.105655864
235	0xbe18c195	-0.14917596
236	0xbd6fa0aa	-0.05850283
237	0x3d80b7ef	0.062850825
238	0xbe3560ec	-0.17712754
239	0x3dca338e	0.098731145
240	0xbcb68a7f	-0.022282837
241	0x3d8bbe9f	0.068234675
242	0x3dbcd36d	0.09220014
243	0x3c959c03	0.018262869
244	0x3d9d8f85	0.0769339
245	0x3d030271	0.03198475
246	0x3cd8f1b8	0.026482448
247	0x3d1b8cef	0.0379762
248	0xbdf4ab38	-0.1194672
249	0x3e2b600d	0.16735859
250	0xbdbc8466	-0.092049405
251	0x3e0551b3	0.13019447
252	0x3dbf979c	0.09355089
253	0xbd3ab722	-0.045584805
254	0x3ddfde0a	0.109310225
255	0x3d3a2712	0.045447417

layer.4.bias f4 [128]
0	0x3e55bd4f	0.20872997
1	0x3e835d94	0.25657332
2	0x3e95da71	0.2926822
3	0xbde01eca	-0.109433725
4	0xbe6fb488	-0.23408711
5	0x3ea1f6d7	0.31633636
6	0xbe069793	-0.13143758
7	0x3eb75506	0.35807055
8	0x3e76c5fd	0.24098964
9	0xbe7d033d	-0.24708267
10	0x3e3a7aef	0.18210958
11	0x3e2f7952	0.17136124
12	0x3e0a2ff2	0.13494852
13	0xbcbe27ff	-0.023212431
14	0x3db6e77d	0.08930872
15	0xbe2a74e1	-0.16646148
16	0xbe335c6d	-0.17515726
17	0xbde3e7d3	-0.11128201
18	0xbcf56fd8	-0.029960558
19	0x3d6652db	0.05623136
20	0x3e127d07	0.14305507
21	0xbdc47b6f	-0.095938556
22	0x3e250ba6	0.16117725
23	0x3d113d2b	0.035458725
24	0x3d8b1f4c	0.06793079
25	0x3e5720c8	0.21008599
26	0xbdaec254	-0.08533159
27	0x3d7d2504	0.06180288
28	0x3ce06736	0.027392965
29	0x3cbf9143	0.023384696
30	0x3e06d2de	0.13166377
31	0x3da05b83	0.078299545
32	0x3e6688a4	0.22513062
33	0xbe28e5ec	-0.16493958
34	0xbc371e8e	-0.011176718
35	0x3e7f2db2	0.24919775
36	0x3e47918a	0.19489112
37	0x3e26ab47	0.16276275
38	0x3e6f0349	0.23341097
39	0x3e182d4b	0.14861028
40	0x3cbfb884	0.023403414
41	0x3e356cf5	0.17717345
42	0x3e18393b	0.14865582
43	0xbe03ef39	-0.12884225
44	0x3ea35130	0.3189788
45	0x3ebc6324	0.36794388
46	0xbca1b5fb	-0.019740095
47	0x3e2705f3	0.16310863
48	0xbbd9b5ef	-0.0066440026
49	0x3e27b684	0.16378218
50	0xbe6441db	-0.22290747
51	0x3d1737ba	0.03691838
52	0xbe76d800	-0.24105835
53	0x3e4f8a9a	0.20267716
54	0x3e5ef84b	0.21774404
55	0x3e21a1ac	0.15784329
56	0x3e871606	0.2638399
57	0x3e10353f	0.14082812
58	0xbc20a0d1	-0.009803967
59	0x3e4df0ae	0.20111343
60	0x3d124a38	0.03571531
61	0xbe28986f	-0.16464399
62	0x3d82a346	0.06378798
63	0xbe2d5274	-0.16925985
64	0xbdb3fefe	-0.0878887
65	0x3dc7f150	0.097628236
66	0x3e84cc86	0.2593729
67	0x3e105e2a	0.1409842
68	0xbc6e302d	-0.014537853
69	0x3e78d89a	0.24301377
70	0xbe7141d4	-0.23560268
71	0xbc90aba8	-0.017659977
72	0x3e51db9f	0.20493935
73	0x3e677111	0.22601725
74	0x3e5c8f5a	0.2153906
75	0x3dee7b04	0.11644557
76	0xbec169ea	-0.3777612
77	0x3e8f8543	0.28031358
78	0x3a8318f1	0.001000194
79	0xbc6886d3	-0.014192301
80	0x3e389979	0.18027295
81	0xbdae889a	-0.085221484
82	0xbd9abe2b	-0.07555803
83	0x3c5a1e83	0.013312939
84	0x3db7348b	0.08945569
85	0x3e793cbe	0.24339578
86	0x3dc2b59c	0.095072955
87	0x3cc14b26	0.023595404
88	0x3df73ef2	0.12072553
89	0x3e2ed3a6	0.17072925
90	0x3e5093b1	0.2036884
91	0x3e816a84	0.25276577
92	0x3e002b30	0.12516475
93	0x3e466b53	0.19376878
94	0x3cea6b6c	0.028615676
95	0x3d306367	0.043063547
96	0xbce278a9	-0.027645426
97	0x3dbbe27d	0.091740586
98	0x3dc29402	0.095008865
99	0x3d4ce202	0.050020225
100	0x3e2645df	0.16237591
101	0xbe06a00b	-0.13146989
102	0xbe6fe7d6	-0.23428282
103	0x3e2fc0b7	0.17163359
104	0x3e901ec4	0.28148472
105	0x3e2cebc0	0.16886806
106	0x3cbf5da8	0.023360088
107	0x3e45fe25	0.1933523
108	0x3d6adfeb	0.05734245
109	0x3e187f40	0.14892292
110	0x3e0979eb	0.13425414
111	0x3e372a0d	0.17887135
112	0x3e657b42	0.224103
113	0xbb9d6c73	-0.004804188
114	0x3ec5fd05	0.386696
115	0xbd349dcb	-0.044095796
116	0x3e039a97	0.1285194
117	0x3e8e74c1	0.2782345
118	0x3dd17476	0.10227291
119	0x3e95072f	0.29107043
120	0xbe0b4873	-0.13601856
121	0x3d8fa8fe	0.070146546
122	0x3e89639b	0.26833805
123	0x3e637828	0.22213805
124	0xbd6f1ee2	-0.05837906
125	0x3e476b87	0.19474612
126	0x3e94d9d1	0.2907243
127	0x3d848aea	0.06471808

layer.6.weight f4 [8, 128]
0	0x3ebd0856	0.36920422
1	0xbf16ae68	-0.5885987
2	0x3e450a51	0.19242217
3	0xbbfdba92	-0.007743188
4	0xbd9d0501	-0.0766697
5	0x3e832ceb	0.25620207
6	0xbebd2fe7	-0.3695061
7	0x3e790c44	0.24321085
8	0xbe66ac49	-0.22526659
9	0xbc9cb1d2	-0.01912776
10	0x3c81752e	0.015802946
11	0x3e186a89	0.1488439
12	0xbe507812	-0.20358303
13	0xbcb839c9	-0.022488492
14	0x3e3d0528	0.18458998
15	0xbd9bf0bd	-0.076142766
16	0xbe1c12cd	-0.15241547
17	0x3d9cc7f1	0.07655323
18	0x3eebde39	0.4606798
19	0x3e8fbe14	0.28074706
20	0x3e205b30	0.15659785
21	0x3e0d14b1	0.13777424
22	0x3e9104a3	0.2832385
23	0x3e0c15fd	0.13680263
24	0xbf12f93b	-0.57411546
25	0xbefc8d03	-0.49326333
26	0xbd05d4b1	-0.03267354
27	0xbebb568d	-0.3658947
28	0xbe55d288	-0.20881093
29	0xbe3cdc84	-0.18443495
30	0xbe84bfe2	-0.25927645
31	0x3e9d7053	0.3074976
32	0xbe5dbf51	-0.21655013
33	0xbd4985ba	-0.049199797
34	0x3d80a4f5	0.06281463
35	0x3e45c4a2	0.1931329
36	0xbe894558	-0.26810718
37	0xbe8c1ae7	-0.27364275
38	0x3e92da68	0.28682256
39	0x3e5e912b	0.21735065
40	0xbef34e2d	-0.4752058
41	0x3dd3c9ef	0.1034125
42	0xbe85668f	-0.26054808
43	0x3eb16ca2	0.34653193
44	0x3ead1a86	0.33809298
45	0x3e291f34	0.1651581
46	0x3de9f966	0.11424522
47	0x3e6ec9bf	0.23319148
48	0x3e3bf09e	0.18353507
49	0x3e034313	0.12818556
50	0xbdb0acb1	-0.08626688
51	0x3dfefdd6	0.12450759
52	0xbc8ad2c3	-0.016946202
53	0x3efb5bbc	0.49093425
54	0xbeade01d	-0.33960047
55	0xbed5458c	-0.41654623
56	0xbef0938e	-0.46987575
57	0xbecb9b7c	-0.39767063
58	0xbe9e523e	-0.3092212
59	0x3db86d16	0.090051815
60	0x3d380a81	0.044931892
61	0x3faf66a3	1.3703197
62	0x3db5314c	0.08847293
63	0xbd9178a2	-0.07103087
64	0x3d5241f5	0.051332433
65	0xbe0af184	-0.13568693
66	0x3dea4773	0.11439409
67	0x3e67ed42	0.226491
68	0x3f8973ec	1.0738502
69	0xbeae934e	-0.3409676
70	0xbe83fc38	-0.25778365
71	0xbe0d5809	-0.13803114
72	0x3e1a0bb0	0.15043521
73	0x3dbed114	0.09317222
74	0xbe51bee0	-0.2048297
75	0xbf0745c2	-0.52840817
76	0xbdcbfcce	-0.09960328
77	0x3e66d290	0.2254126
78	0xbe86efb9	-0.2635477
79	0xbf1fc219	-0.62405545
80	0x3e0879b7	0.1332768
81	0xbdeaf1b0	-0.114718795
82	0x3c5f024b	0.0136113865
83	0x3e59f188	0.21283543
84	0xbed469c1	-0.41486934
85	0xbec234d0	-0.37930918
86	0xbd76cebb	-0.060255747
87	0xbf1f7f58	-0.62303686
88	0x3f0be648	0.54648256
89	0x3ea106f3	0.31450614
90	0xbf07a7ed	-0.5299061
91	0xbdbdda31	-0.09270132
92	0xbf158d08	-0.5841832
93	0x3efe3db2	0.49656445
94	0x3ee68743	0.45025072
95	0xbeafba24	-0.34321702
96	0x3c26ae68	0.010173418
97	0xbe7192d2	-0.23591164
98	0xbd2b64f4	-0.041844323
99	0xbeef82a0	-0.46779346
100	0xbec22885	-0.3792154
101	0xbe31c3a8	-0.17359793
102	0xbe3f1d86	-0.18663606
103	0xb993a9c9	-0.00028164525
104	0x3e88a80d	0.26690713
105	0x3dea84e1	0.11451126
106	0x3ef5a7fe	0.4797973
107	0x3e0875b8	0.13326156
108	0xbea14406	-0.3149721
109	0x3e6f1217	0.23346744
110	0x3e56c265	0.20972593
111	0x3e85a766	0.26104277
112	0x3de5e497	0.11225241
113	0xbe8051bd	-0.2506236
114	0x3e7d28e3	0.24722628
115	0xbde705bf	-0.11280393
116	0x3dd76075	0.105164446
117	0x3e68786b	0.22702186
118	0x3e54d7b8	0.20785415
119	0xbed85cac	-0.42258203
120	0x3d473994	0.048638895
121	0x3e195a37	0.1497582
122	0x3e848173	0.25880012
123	0x3e52cb71	0.20585419
124	0x3fabcc31	1.3421689
125	0xbf2d48d7	-0.6768927
126	0x3de82d55	0.113367714
127	0xbedb0f51	-0.42785123
128	0x3eccddc6	0.4001295
129	0x3e354b60	0.17704535
130	0x3e0fc45e	0.14039752
131	0xbe465adb	-0.19370596
132	0x3d4573c7	0.048206117
133	0x3db2da91	0.087330945
134	0x3efbe31f	0.49196717
135	0x3e191a76	0.149515
136	0x3e2034b8	0.1564511
137	0xbd061259	-0.03273234
138	0x3d72cd02	0.059277542
139	0x3dfc1ead	0.123105384
140	0xbf1d00cb	-0.61329335
141	0xbda80277	-0.08203595
142	0xbe8fa70d	-0.28057137
143	0xbe0865de	-0.13320109
144	0xbd9b5b7d	-0.075858094
145	0xbd9e8f63	-0.077421926
146	0x3d8a84c1	0.06763602
147	0xbd6606e9	-0.056158934
148	0xbe4c985e	-0.19979998
149	0xbd092c17	-0.033489313
150	0xbea9acf2	-0.3313976
151	0x3de336f1	0.110944636
152	0x3e22cbd5	0.15898068
153	0x3e0499f5	0.12949355
154	0xbdbda036	-0.092590734
155	0xbf26dae3	-0.65177745
156	0x3eea5f36	0.45775765
157	0x3e60c75a	0.21951047
158	0x3f1ab5a8	0.60433435
159	0xbe60edd8	-0.2196573
160	0xbe658fda	-0.22418156
161	0xbdb04ef8	-0.08608812
162	0x3ebdbd5a	0.37058526
163	0x3d599b57	0.05312666
164	0x3f0ca13a	0.5493351
165	0x3e439342	0.19099143
166	0x3e930798	0.2871673
167	0x3d2f9cf7	0.042874303
168	0xbed8e27c	-0.42360294
169	0x3d04d003	0.032424938
170	0x3eab7764	0.33489525
171	0x3e22832f	0.15870355
172	0x3ddd2078	0.107972085
173	0xbed31b0f	-0.41231582
174	0xbd35214d	-0.04422121
175	0x3e28fb2c	0.16502064
176	0xbdf0d206	-0.11758809
177	0xbe97f3cf	-0.296782
178	0xbe0ed483	-0.13948254
179	0x3de4c6b0	0.11170709
180	0x3fbbbcc4	1.4666982
181	0xbc836c8c	-0.01604297
182	0xbed2ae92	-0.41148812
183	0x3d98ed26	0.074671075
184	0x3dc443f1	0.09583271
185	0xbd2304bd	-0.03979944
186	0x3f262418	0.64898825
187	0xbd779759	-0.06044707
188	0xbdaa4d76	-0.08315556
189	0x3d96680c	0.07344064
190	0xbe6f1ea6	-0.23351535
191	0xbd86f8aa	-0.06590398
192	0xbdd7887d	-0.1052408
193	0x3f0fb32b	0.56132764
194	0xbf121e8f	-0.5707788
195	0x3e817e0c	0.2529148
196	0x3f81ab77	1.0130452
197	0x3ebb70f5	0.36609617
198	0xbde31dee	-0.11089693
199	0x3f12da33	0.57364196
200	0xbe7af2ca	-0.24506679
201	0xbe6fb44c	-0.23408622
202	0xbecf9d7b	-0.40549836
203	0x3e231e03	0.15929417
204	0xbdc4572a	-0.09586938
205	0x3e1414fa	0.14461127
206	0x3cce4d4e	0.025183346
207	0xbed01da7	-0.40647623
208	0xbea81110	-0.32825518
209	0xbcd622bd	-0.026139611
210	0xbd02c891	-0.031929556
211	0x3eb33626	0.3500225
212	0xbe99e656	-0.30058545
213	0x3e20e38f	0.15711807
214	0x3ecf699c	0.4051026
215	0xbe9d50af	-0.3072562
216	0xbe82efe7	-0.25573656
217	0x3de029c0	0.10945463
218	0x3e76f618	0.24117315
219	0x3e36a33d	0.17835708
220	0x3dba0f33	0.0908493
221	0xbe2b83f0	-0.16749549
222	0xbeb0cbc0	-0.3453045
223	0x3d042f04	0.0322714
224	0xbe413bf7	-0.18870531
225	0xbedec366	-0.43508452
226	0x3e8cc5c1	0.27494624
227	0xbe8575a3	-0.26066312
228	0x3e124451	0.14283873
229	0xbe10254c	-0.14076728
230	0x3d705aee	0.058680467
231	0xbd96b86e	-0.07359396
232	0x3e240134	0.16016084
233	0xbe5f6c80	-0.21818733
234	0xbe2ad40d	-0.16682453
235	0xbcc333b5	-0.023828367
236	0x3f29ccf2	0.66328347
237	0x3e170750	0.14748883
238	0x3e142b27	0.14469586
239	0x3e3c7dc8	0.18407357
240	0x3e1a7895	0.15085061
241	0x3d1262d8	0.035738796
242	0x3dd7a6ab	0.10529836
243	0xbe261bdd	-0.16221566
244	0xbe3ea059	-0.18615855
245	0x3d04c995	0.032418806
246	0xbe8467be	-0.258604
247	0x3e5d5cae	0.21617386
248	0xbe13d1cf	-0.14435504
249	0xbe726f93	-0.23675375
250	0x3d4a33c4	0.049365774
251	0x3e710f42	0.23540977
252	0xbdd9a1e0	-0.10626578
253	0x3e18bd28	0.14915907
254	0x3dc97064	0.0983589
255	0xbd0e274a	-0.034705438

layer.6.bias f4 [8]
0	0x3e380771	0.17971589
1	0x3dfef4d3	0.1244904
2	0x3dc56a4d	0.09639416
3	0x3ded74a1	0.11594511
4	0xbcfb4427	-0.030672146
5	0xbb3b9937	-0.0028625259
6	0xbc301dc5	-0.010749285
7	0xbd1b44c2	-0.03790737
