final/save/1l_0.95_200_morelayer/save2_16000.pth (torch_old, 50952 bytes, 8 tensors)

layer.0.weight f4 [32, 28]
0	0x3de84736	0.113417074
1	0xbc054906	-0.008135086
2	0x3e1b81e7	0.15186273
3	0x3dcf2926	0.1011527
4	0xbc246e64	-0.010036085
5	0x3a42afe5	0.0007426723
6	0xbe2a8677	-0.16652857
7	0x3e396ec5	0.18108661
8	0x3e133c2e	0.14378425
9	0xbcae9bfc	-0.021314614
10	0xbdbfa384	-0.0935736
11	0xbb98319a	-0.004644585
12	0x3e1aa108	0.15100491
13	0x3e3d7f63	0.18505625
14	0x3dac61ba	0.08417077
15	0x3e80d73a	0.25164205
16	0x3d007258	0.031359047
17	0x3e34bff6	0.17651352
18	0xbe7f8e52	-0.24956635
19	0xbd937965	-0.072008885
20	0x3e07554d	0.13216133
21	0xbe1a6b61	-0.15080024
22	0xbe583a81	-0.21116067
23	0x3d520f6c	0.05128424
24	0x3c90f90e	0.017696884
25	0xbd4b7986	-0.04967644
26	0xbce9ba57	-0.028531237
27	0xbd408424	-0.04700102
28	0xbdd287af	-0.10279786
29	0x3e63c198	0.22241819
30	0xbd1d5f76	-0.038421117
31	0xbd00f28c	-0.03148131
32	0x3e0fcdf5	0.1404341
33	0x3e5369c0	0.20645809
34	0x3e50b7f6	0.20382676
35	0x3e165db9	0.1468419
36	0xbdc54079	-0.09631438
37	0x3e4ff3d0	0.20307851
38	0x3cec2cca	0.02882995
39	0x3d229a60	0.039698005
40	0xbd00e8a9	-0.031471882
41	0xbd9b5ad0	-0.075856805
42	0x3e5d6964	0.21622235
43	0xb9ea51f9	-0.00044693032
44	0x3e2c6a16	0.16837344
45	0x3e042d05	0.12907799
46	0xbdbf6c58	-0.09346837
47	0xbd907037	-0.07052653
48	0x3d31e7ef	0.04343408
49	0xbe2be351	-0.16785933
50	0x3d0c813c	0.034302935
51	0xbc6d38b1	-0.014478848
52	0xbcc1fc72	-0.023679946
53	0x3d8e6469	0.069527455
54	0xbdd7e7c6	-0.10542254
55	0x3d695f65	0.05697574
56	0x3ea00bc7	0.31258985
57	0x3e2a8064	0.1665054
58	0x3d2c1e98	0.042021364
59	0x3e9356eb	0.2877725
60	0x3e89de65	0.26927486
61	0x3cb00ed7	0.021491451
62	0xbde71fa9	-0.112853356
63	0xbd5342cc	-0.051577374
64	0x3d2689f5	0.04065891
65	0xbde62ee4	-0.112394124
66	0x3cb494a6	0.022043537
67	0xbdb1651f	-0.086618654
68	0x3ce5ab94	0.028035916
69	0xbdfaad40	-0.12240076
70	0xbe2ca84f	-0.1686108
71	0x3dc23ef0	0.094846606
72	0xbe156106	-0.14587793
73	0x3d09e892	0.033669062
74	0xbd0de48b	-0.034641784
75	0xbdb62297	-0.08893316
76	0x3da0e6a1	0.07856489
77	0xbdd82eef	-0.10555827
78	0x3c9c4ddf	0.0190801
79	0x3db323b1	0.08747042
80	0xbd465220	-0.048418164
81	0xbd66e689	-0.0563722
82	0x3d2a784d	0.041618634
83	0x3d6ee408	0.058322936
84	0xbd89d2a3	-0.06729629
85	0xbc7ed0ca	-0.015552709
86	0x3e374bfc	0.1790008
87	0x3e3f5840	0.18686008
88	0x3c0beddc	0.008540597
89	0x3ca7de1d	0.020491654
90	0xbb9e6ac1	-0.0048345034
91	0xbe0fa823	-0.14028983
92	0x3e63fa37	0.22263418
93	0xbe6c116d	-0.23053522
94	0xbe3b9cc1	-0.18321516
95	0xbe885ca3	-0.26633176
96	0x3eb37f2d	0.35057965
97	0x3e2595d4	0.16170436
98	0x3d2d2ba0	0.042277932
99	0x3e7dc2c5	0.2478133
100	0x3b9ce727	0.0047882977
101	0x3e60a7b1	0.21938969
102	0xbdff3810	-0.12461865
103	0xbe056373	-0.13026218
104	0xbdcb00e0	-0.09912276
105	0xbe159784	-0.1460858
106	0xbcb15281	-0.021645786
107	0xbe0d7838	-0.13815391
108	0x3dc74272	0.0972947
109	0x3dcff722	0.10154559
110	0x3d905e76	0.07049267
111	0x3ddb5d1f	0.10711121
112	0xbdb7cdc5	-0.08974794
113	0x3e028b4d	0.12748452
114	0x3e01f80d	0.1269228
115	0x3e295165	0.16534956
116	0xbddb82cc	-0.10718307
117	0xbe07e7ba	-0.1327199
118	0xbe7d5270	-0.24738479
119	0xbe5f2905	-0.21792991
120	0xbdc860c2	-0.0978408
121	0xbd32e47a	-0.043674923
122	0xbe0c4400	-0.13697815
123	0x3e3f360d	0.18672962
124	0x3e9fe0dd	0.31226245
125	0x3e15ad82	0.14616969
126	0x3e0b0ce4	0.13579136
127	0x3c401092	0.011722701
128	0x3df1aec1	0.1180091
129	0xbe27cf16	-0.16387591
130	0x3d34c2d1	0.044131104
131	0xbe3c0052	-0.18359497
132	0xbe2d1882	-0.1690388
133	0x3e230342	0.15919212
134	0xbcc0057a	-0.023440111
135	0xbd6eb256	-0.058275543
136	0x3c8a1a5f	0.016858278
137	0xbc94750a	-0.018122215
138	0x3dc7edaa	0.09762128
139	0x3e0ad0bf	0.13556193
140	0x3dc6f15c	0.097140044
141	0xbd58e95e	-0.05295693
142	0x3e15ab80	0.14616203
143	0x3e127bd3	0.14305048
144	0x3c482f71	0.012218342
145	0x3e34fc35	0.17674334
146	0xbcf62327	-0.030046059
147	0x3dd1e964	0.10249594
148	0x3e72dcc9	0.23717035
149	0x3d767f5e	0.06018006
150	0x3e607aea	0.21921888
151	0x3d80192f	0.062548034
152	0x3c196c94	0.009364266
153	0x3d127df1	0.03576464
154	0x3ca663b2	0.02031121
155	0xbde98a32	-0.11403312
156	0x3d1cc94a	0.0382779
157	0x3eb1d2b4	0.34731066
158	0xbc0148a9	-0.007890859
159	0x3d8cae43	0.06869175
160	0x3eb6ef33	0.3572937
161	0xbc3fdc6d	-0.011710268
162	0x3e44c11e	0.19214293
163	0x3e97e09d	0.29663554
164	0xbbb0627c	-0.005382834
165	0xbcc0d108	-0.023537174
166	0xbb25e08f	-0.002531085
167	0x3d15a593	0.036534857
168	0x3dbf3070	0.093354106
169	0x3dde94c2	0.10868217
170	0x3de23e66	0.11047058
171	0xbe00cf71	-0.12579133
172	0x3d1f7c66	0.038936995
173	0x3e8f6994	0.28010237
174	0xbd213837	-0.03936025
175	0xbdabacab	-0.08382543
176	0x3e53f086	0.20697221
177	0xbe5419b7	-0.20712934
178	0xbc76e3b8	-0.015068941
179	0x3d80a1fe	0.062808976
180	0x3e60c63e	0.21950623
181	0x3d4185c3	0.047246706
182	0x3dc2246c	0.09479603
183	0xbd3ee53e	-0.04660534
184	0x3e2f6ed4	0.17132121
185	0x3e0de15d	0.138555
186	0x3e43fb74	0.1913889
187	0x3d3889f7	0.04505345
188	0xbc3b5ca6	-0.011435663
189	0x3db0d06b	0.086335026
190	0xbd2d138e	-0.042254977
191	0x3baf06a6	0.0053413687
192	0xbda53672	-0.08067025
193	0x3dda0142	0.10644771
194	0x3cb2f4e4	0.021845289
195	0x3d889f11	0.066709645
196	0xbd52abc1	-0.05143333
197	0xbddc5feb	-0.107604824
198	0xbe0eeddf	-0.13957928
199	0xbdbbe7f6	-0.091751024
200	0x3d216751	0.03940517
201	0xbd013d72	-0.03155274
202	0xbe1d8129	-0.15381302
203	0x3d13eb48	0.036113054
204	0x3e4195c2	0.18904784
205	0xbdc40b78	-0.095725
206	0x3e123ebd	0.14281745
207	0x3dc6de73	0.097103976
208	0xbda031d4	-0.07822004
209	0xbdd8b068	-0.10580522
210	0xbe21c4bc	-0.15797704
211	0x3d0cb621	0.03435338
212	0x3c2fcc35	0.010729839
213	0x3e3b1dd3	0.18273096
214	0x3e18be86	0.14916429
215	0x3e712e07	0.23552714
216	0x3e17ed64	0.14836651
217	0x3eab6bc6	0.33480662
218	0x3dc40256	0.09570758
219	0xbdd0b66c	-0.10191044
220	0x3dabac6d	0.08382497
221	0xbd9033f8	-0.07041162
222	0x3d0de250	0.034639657
223	0x3e1226f3	0.1427267
224	0xbdb7ade2	-0.089687124
225	0xbc17f870	-0.009275541
226	0x3e948c38	0.29013228
227	0x3d481226	0.048845433
228	0x3df08a92	0.1174518
229	0x3e9b6df9	0.3035734
230	0xbbc62d53	-0.0060478835
231	0x3c1d740d	0.009610188
232	0xbd16835e	-0.036746375
233	0x3dd9137c	0.105994195
234	0xbdd81326	-0.10550527
235	0x3e425e9c	0.18981403
236	0x3d6d875b	0.057990413
237	0x3deee15f	0.1166408
238	0x3d9636cc	0.073346704
239	0x3d4b082d	0.049568344
240	0x3dd1acde	0.1023805
241	0xbcb91fc9	-0.022598164
242	0x3e4eb6ec	0.20186967
243	0x3c5a4b73	0.013323653
244	0x3e3ae9a2	0.18253186
245	0x3e395828	0.18100035
246	0x3e29eef5	0.16595061
247	0x3eb41c5c	0.35177886
248	0x3d30816f	0.043092187
249	0xbceba8a4	-0.028766938
250	0xbdee38d9	-0.116319366
251	0xbc2672f8	-0.010159247
252	0x3d80711c	0.06271574
253	0x3e48e3f8	0.19618213
254	0xbcc35c0e	-0.023847606
255	0xbe3a5e09	-0.18199934

layer.0.bias f4 [32]
0	0xbd4f5354	-0.050616577
1	0x3d8d5ec6	0.06902842
2	0x3d71b4c8	0.059010297
3	0xbb019946	-0.0019775196
4	0x3dd79eb5	0.10528318
5	0x3e3c2904	0.18375021
6	0xbb436df3	-0.0029820174
7	0xbe42e4f1	-0.19032647
8	0x3e80dc70	0.2516818
9	0xbe3874ff	-0.1801338
10	0x3de54efb	0.11196705
11	0x3bdcf4f4	0.006743068
12	0x3eb4924c	0.35267866
13	0x3e2b92b3	0.1675518
14	0xbdeac140	-0.11462641
15	0xbd588ac9	-0.05286673
16	0x3ea5e73a	0.32402974
17	0xbc39f992	-0.011351006
18	0x3df7d441	0.12101031
19	0x3e3f9c67	0.18712007
20	0x3d4914ed	0.049092222
21	0xbe2a9dc2	-0.16661742
22	0xbd95293f	-0.07283258
23	0xbcd0fd0c	-0.025511287
24	0xbe5fc69c	-0.21853107
25	0x3da05be6	0.07830028
26	0xbd45b5ba	-0.04826901
27	0x3d73a402	0.059482582
28	0xbe2a0766	-0.16604385
29	0x3deb2b53	0.11482873
30	0xbd5c6843	-0.05381037
31	0x3d919fa9	0.07110531

layer.2.weight f4 [64, 32]
0	0xbe86a037	-0.2629411
1	0x3cead54d	0.028666163
2	0xbee80911	-0.45319417
3	0xbe088c16	-0.13334689
4	0xbdbacdc0	-0.09121275
5	0xbb4a8653	-0.0030902817
6	0x3e29dcf9	0.165882
7	0x3e45e7d9	0.19326724
8	0x3e103dc8	0.14086068
9	0x3d900abb	0.07033297
10	0x3d8e3670	0.06943977
11	0xbe5d1461	-0.21589805
12	0x3e173f04	0.14770132
13	0x3d40f5f5	0.047109563
14	0xbe464b1f	-0.19364594
15	0xbd91d4bd	-0.07120655
16	0xbda38472	-0.07984246
17	0xbdd93302	-0.10605432
18	0xbe27a8e4	-0.1637302
19	0x3d6f5114	0.05842693
20	0xbd74407b	-0.059631806
21	0xbe393eb9	-0.18090333
22	0xbf226dbb	-0.63448685
23	0xbe0fabd5	-0.14030392
24	0xbe404ae0	-0.18778563
25	0x3e01d468	0.12678683
26	0x3daae8fd	0.0834522
27	0x3dfc0bb2	0.12306918
28	0x3e5f5fa2	0.21813825
29	0x3be83c83	0.0070872917
30	0xbd8a292e	-0.06746136
31	0xbdcbcc54	-0.09951082
32	0x3c980fa2	0.018562142
33	0xbce0bc7a	-0.027433623
34	0x3e55a471	0.2086351
35	0x3e3e110f	0.18561195
36	0x3e0850b6	0.13312039
37	0xbd590f4d	-0.052993108
38	0xbd34364b	-0.04399709
39	0xbe7a7f8c	-0.24462718
40	0x3dc11003	0.09426882
41	0xbd8bf7af	-0.06834351
42	0xbd3b5cc7	-0.045742776
43	0x3e1b41ab	0.15161769
44	0x3e2c2397	0.16810451
45	0xbe0aa948	-0.13541138
46	0x3d6d4d44	0.057935014
47	0x3d6ee36d	0.05832236
48	0xbe0bf0cb	-0.13666074
49	0xbe0330e0	-0.12811613
50	0x3e66180d	0.22470112
51	0xbe874b1d	-0.26424494
52	0x3b2fd8fd	0.0026832216
53	0x3e19970c	0.14999026
54	0x3deb639c	0.11493608
55	0xbccf1037	-0.025276287
56	0x3e9213e5	0.28530803
57	0xbdc9f3a9	-0.098609276
58	0x3d5c4e44	0.053785577
59	0xbd9e3a30	-0.07725942
60	0xbe29bb82	-0.16575435
61	0x3da776bb	0.08176943
62	0xbe815c9a	-0.25265962
63	0x3c63a43a	0.013894135
64	0x3e02051d	0.12697263
65	0x3daa38fd	0.08311651
66	0x3e7de567	0.24794541
67	0x3e23c53c	0.15993208
68	0x3df30b21	0.11867357
69	0x3d28d5b9	0.041219447
70	0xbd6f4b70	-0.058421552
71	0x3e155729	0.1458403
72	0xbd518860	-0.051155448
73	0x3e51d94d	0.2049305
74	0xbe3b7ba2	-0.18308881
75	0x3cea82a2	0.028626744
76	0xbd3ca71d	-0.04605781
77	0x3cdc2d31	0.026877018
78	0x3e57cf20	0.21075106
79	0x3e589c0f	0.21153282
80	0x3e11326a	0.14179388
81	0xbe0e9f42	-0.1392794
82	0x3e2ff27a	0.17182341
83	0x3c6b0e4b	0.014346669
84	0xbe30f0c3	-0.17279343
85	0x3db37acf	0.08763658
86	0x3e1507ff	0.14553832
87	0x3e1976a6	0.14986667
88	0x3dd0c1b5	0.10193197
89	0xbdfd303a	-0.12362714
90	0x3ddb0222	0.10693766
91	0x3e36ef9f	0.17864846
92	0x3dce7357	0.10080593
93	0x3e3d5d88	0.1849271
94	0xbe18517d	-0.14874835
95	0x3c8915c0	0.016734004
96	0xbd5441e3	-0.051820647
97	0x3d505aa7	0.050867703
98	0xbdacf24d	-0.08444653
99	0x3e165a9d	0.14683004
100	0xbe0bd44b	-0.13655202
101	0x3e70119b	0.23444216
102	0x3d873b8e	0.06603156
103	0xbc6cfedb	-0.014465059
104	0xbdbf7766	-0.09348945
105	0xbbccf360	-0.0062545985
106	0x3e436497	0.1908134
107	0xbc9ee021	-0.019393982
108	0x3e654c4d	0.22392388
109	0xbd7871d0	-0.060655415
110	0xbdf41575	-0.11918155
111	0xbd137ca1	-0.036007527
112	0x3ce46f73	0.027885174
113	0x3df205b4	0.11817494
114	0xbd2cd9a1	-0.042199735
115	0xbe19e265	-0.15027769
116	0x3e23d6e6	0.15999946
117	0xbd346837	-0.0440447
118	0x3c81682c	0.015796743
119	0xbdb2ddca	-0.08733709
120	0xbe0c0fdf	-0.1367793
121	0x3d06b54a	0.032887734
122	0xbd140fd8	-0.036147922
123	0xbc660ac2	-0.014040651
124	0xbdb316c3	-0.08744576
125	0x3e0a544e	0.13508722
126	0xbd361826	-0.044456623
127	0x3cacd559	0.021097826
128	0xbd7167e4	-0.05893697
129	0x3cfcb082	0.030845884
130	0xbd28d9d9	-0.04122338
131	0xbe37f0bd	-0.17962928
132	0x3ce77474	0.028253771
133	0xbe71a51e	-0.23598143
134	0x3e15badc	0.14622062
135	0xbe138c0d	-0.14408894
136	0xbc08cccf	-0.008349611
137	0x3e3ae23e	0.18250367
138	0xbe2406ec	-0.16018265
139	0x3e283a3c	0.16428465
140	0xbe358aa5	-0.1772867
141	0x3e804ad7	0.25057098
142	0x3bebe706	0.007199171
143	0x3c9dc32c	0.019258104
144	0xbe366b7f	-0.17814444
145	0xbd88e228	-0.06683761
146	0x3d566a02	0.05234719
147	0xbbba4328	-0.005684275
148	0xbc706589	-0.014672645
149	0x3c003054	0.007824022
150	0xbe49ecaa	-0.19719186
151	0xbe25ff46	-0.1621066
152	0x3d5db83b	0.054130774
153	0xbdc52abb	-0.09627291
154	0x3e01b5f5	0.12667067
155	0x3d72e391	0.059299055
156	0x3cf10c0e	0.029424693
157	0x3e1a0442	0.15040687
158	0x3de2ccba	0.11074205
159	0xbd3d07f6	-0.04615017
160	0x3dfb6949	0.12275941
161	0xbcb41e68	-0.021987155
162	0x3ed47f02	0.4150315
163	0xbc1794bf	-0.009251772
164	0xbd7ef1b0	-0.06224221
165	0x3e2870e8	0.1644932
166	0xbd8c3db0	-0.068477035
167	0xbe7b6266	-0.24549255
168	0x3d15b9cc	0.036554143
169	0xbb46e246	-0.0030347272
170	0xbdc20890	-0.094742894
171	0x3e2ee6ea	0.17080274
172	0xbd948691	-0.07252229
173	0xbe73fca7	-0.23826848
174	0x3e4e6d49	0.20158876
175	0x3d0a7471	0.033802453
176	0x3d29cf6a	0.04145757
177	0x3e0d5eae	0.13805649
178	0x3cf31a2b	0.029675564
179	0x3d830154	0.06396738
180	0x3dd2a601	0.10285569
181	0x3d9b1847	0.0757299
182	0x3eda8422	0.42678934
183	0x3d208a94	0.03919466
184	0x3deec7a9	0.11659176
185	0xbe1d11c2	-0.15338805
186	0x3da0c426	0.07849912
187	0xbe96a3be	-0.294218
188	0xbe92bf8d	-0.28661767
189	0xbe035468	-0.12825167
190	0x3e80be8b	0.25145373
191	0x3e1b1315	0.15143998
192	0xbe4c2497	-0.19935833
193	0xbe1ca0e2	-0.15295747
194	0xbc868073	-0.016418671
195	0xbe699c9f	-0.22813652
196	0xbe4f1dfc	-0.20226282
197	0x3de7b0c0	0.11313009
198	0xbd9efba1	-0.07762838
199	0x3e1f07e3	0.15530352
200	0x3e1d4e4a	0.15361896
201	0x3da25967	0.079272084
202	0x3d88a782	0.066725746
203	0x3e12524d	0.14289208
204	0x3d7375ed	0.059438635
205	0xbbbe3e01	-0.0058057313
206	0xbdca606d	-0.09881673
207	0xbda9df4f	-0.08294546
208	0x3d8a75c8	0.06760746
209	0x3e6095e2	0.21932176
210	0xbdd0fe1c	-0.102047175
211	0x3e5cb97c	0.21555132
212	0x3d98becd	0.07458267
213	0xbd911943	-0.070848964
214	0xbd9cef27	-0.07662802
215	0xbcaa0151	-0.02075258
216	0xbe24c463	-0.1609054
217	0x3e3578ff	0.17721938
218	0xbcbb7482	-0.022882704
219	0xbd242fd2	-0.040084668
220	0x3d9802f9	0.07422442
221	0x3d42214c	0.047395036
222	0x3e27f3cd	0.16401596
223	0xbc9a1474	-0.018808581
224	0xbea0ef97	-0.31432793
225	0x3c598016	0.013275167
226	0x3e6dd85b	0.23227064
227	0xbe9b6a88	-0.30354714
228	0xbdf2e221	-0.11859537
229	0x3c0437a4	0.008069906
230	0xbe004058	-0.12524545
231	0xbe0abed3	-0.13549356
232	0x3b5ad23f	0.0033389477
233	0xbdaee6a0	-0.08540082
234	0x3d49f72a	0.04930798
235	0x3d5391ab	0.05165259
236	0xbd2a7d89	-0.041623626
237	0xbe020f87	-0.12701236
238	0xbe2d4fec	-0.16925019
239	0xbe8983c2	-0.26858336
240	0xbe212c2c	-0.15739506
241	0x3e05d372	0.13068941
242	0x3d951b99	0.072806545
243	0x3da6f67d	0.08152483
244	0x3dde153a	0.108438924
245	0x3cc33a5f	0.023831544
246	0x3e74545a	0.23860303
247	0x3d016611	0.03159148
248	0xbe275404	-0.16340643
249	0x3e1c9af2	0.15293482
250	0xbe0470a9	-0.12933601
251	0xbefdaa42	-0.4954396
252	0xbec43d36	-0.3832795
253	0x3e08d081	0.13360788
254	0x3e4a0180	0.19727135
255	0x3e0aaa86	0.13541612

layer.2.bias f4 [64]
0	0xbda4b467	-0.080422215
1	0x3d27844d	0.040897656
2	0xbe7df2c3	-0.24799637
3	0x3f060b55	0.5236104
4	0xbe268ce5	-0.16264684
5	0x3cf39a3d	0.029736632
6	0x3ee64442	0.44973952
7	0x3cf6eb22	0.030141417
8	0x3ee613f7	0.44937107
9	0xbd54e706	-0.051978134
10	0xbddf7f4e	-0.10912953
11	0x3edd249e	0.43192
12	0x3db84633	0.089977644
13	0x3c9e65c0	0.019335628
14	0xbd92d6f2	-0.07169904
15	0xbdb451d1	-0.08804668
16	0x3ddcd80c	0.10783395
17	0xbe43d3af	-0.1912372
18	0xbc525820	-0.012838393
19	0x3d279f32	0.040923305
20	0x3cbcfbe9	0.023069339
21	0x3e659e66	0.22423705
22	0x3d89e169	0.06732447
23	0x3de5a1c3	0.11212494
24	0x3ea7a6d6	0.32744473
25	0x3d0b59cf	0.034021195
26	0xbe8e7ff1	-0.27831987
27	0xbe1a0845	-0.15042217
28	0x3d35652f	0.04428595
29	0xbdfb59ef	-0.12273013
30	0x3d80bd87	0.062861495
31	0x3d865c95	0.06560627
32	0xbe079237	-0.1323937
33	0xbebafd12	-0.36521202
34	0xbe278ced	-0.16362353
35	0x3dd13ae1	0.102163084
36	0x3df4973a	0.11942907
37	0x3ebc6068	0.36792302
38	0xbd4fcfc7	-0.05073526
39	0xbe0b5963	-0.13608317
40	0x3e80fe8c	0.25194204
41	0x3ebdc5fc	0.37065113
42	0xbe896edc	-0.26842391
43	0x3d6b83eb	0.057498854
44	0x3eaf8b61	0.34286025
45	0xbb386c28	-0.0028140638
46	0x3e575c04	0.21031195
47	0x3c465b85	0.012106781
48	0x3e414ce4	0.18876988
49	0x3eb178d8	0.3466251
50	0x3ea5b502	0.3236466
51	0x3e224304	0.15845877
52	0xbda01665	-0.078167714
53	0x3e9fc5a0	0.31205463
54	0xbca46dd1	-0.020071896
55	0xbdb01ce7	-0.08599263
56	0x3ef00d55	0.46885172
57	0xbd3d5569	-0.04622403
58	0xbc575d96	-0.013144871
59	0x3d92bffd	0.07165525
60	0x3cd925dd	0.026507312
61	0x3d8effca	0.06982382
62	0x3e075da0	0.13219309
63	0x3c54a8f5	0.012979736

layer.4.weight f4 [128, 64]
0	0x3f2a936b	0.6663119
1	0x3e83faed	0.2577738
2	0xba4d44a8	-0.000783036
3	0x3d95f585	0.0732222
4	0xbcacbaae	-0.02108511
5	0x3e0aac3a	0.13542262
6	0xbe74c185	-0.23901947
7	0xbf101469	-0.56281143
8	0xbd96731d	-0.07346175
9	0xbe8af1cf	-0.2713761
10	0x3f01fa34	0.50772405
11	0x3dc2f9b2	0.09520282
12	0x3d312897	0.0432516
13	0x3f2ca15f	0.6743373
14	0x3ded397f	0.11583232
15	0x3ebd4db3	0.36973342
16	0x3e09b21b	0.13446848
17	0x3d2bb8c4	0.041924253
18	0x3dbecced	0.0931643
19	0x3e9a67da	0.30157357
20	0xbdee6868	-0.11641008
21	0x3d517962	0.05114115
22	0x3c626bc9	0.013819643
23	0x3d46f91b	0.04857741
24	0xbe48af1a	-0.19598046
25	0x3e540ae7	0.20707284
26	0x3cfbca81	0.03073621
27	0x3da6d43f	0.081459515
28	0xbc2dc184	-0.01060522
29	0x3eff4054	0.49853766
30	0x3ecc97d1	0.39959577
31	0x3de3f292	0.11130251
32	0x3c813b2a	0.015775282
33	0x3cee41d9	0.029084133
34	0x3d12ef43	0.03587271
35	0xbc5791b6	-0.013157299
36	0xbc7540af	-0.014969035
37	0x392b7e03	0.00016354774
38	0xbe207dcc	-0.15672988
39	0x3eb7acc6	0.35874003
40	0x3e9907b5	0.29888692
41	0x3cc4cfa6	0.024024796
42	0x3e0c2a39	0.13687982
43	0x3ee8ad56	0.45444745
44	0x3be3c96c	0.0069515016
45	0xbee515db	-0.44743237
46	0x3c2b2ec1	0.010448159
47	0xbe04c1ba	-0.12964526
48	0xbd455034	-0.04817219
49	0xbdcf8349	-0.101324625
50	0xbd8c8e8f	-0.068631284
51	0x3dc26e37	0.09493678
52	0x3e4ca174	0.19983464
53	0xbd960e3a	-0.07326932
54	0x3e135a2b	0.14389865
55	0xbb3f8c5f	-0.0029227955
56	0x3cf7e6d7	0.03026144
57	0x3ea9b258	0.33143878
58	0x3f0a0e90	0.5392847
59	0x3ee2ef8c	0.44323385
60	0x3ea65054	0.3248316
61	0x3e7ded89	0.24797644
62	0x3e6de8e4	0.23233372
63	0x3dfe89bd	0.12428615
64	0x3e89b849	0.2689841
65	0xbdd49b62	-0.103811994
66	0xbde6afb6	-0.11263983
67	0xbcdac689	-0.026705997
68	0xbe99b40d	-0.3002018
69	0x3dd5cc47	0.104393534
70	0x3d60d228	0.05488792
71	0x3e64aee7	0.22332345
72	0x3da024cc	0.078195184
73	0x3ea81818	0.32830882
74	0x3d3a8269	0.045534525
75	0xbd9d5273	-0.076817416
76	0xbdd4d95f	-0.10393023
77	0x3e591cad	0.21202345
78	0xbe76216b	-0.24036185
79	0xbdb39947	-0.0876947
80	0x3a749ee8	0.000933154
81	0x3eabaa8c	0.33528554
82	0x3c1311eb	0.00897644
83	0x3ec35b6f	0.38155696
84	0xbd955311	-0.07291234
85	0x3e086af4	0.1332205
86	0x3cdcd4da	0.026956964
87	0xbbf53c6a	-0.0074840086
88	0x3e007d40	0.12547779
89	0xbf2d4bce	-0.67693794
90	0x3db2ca3a	0.08729978
91	0x3bb4cd69	0.005517651
92	0xbd591dcb	-0.05300693
93	0x3eb41007	0.35168478
94	0xbf6c0060	-0.9218807
95	0xbeed7b2e	-0.4638304
96	0x3e4f9788	0.20272648
97	0xbccd8070	-0.025085658
98	0xbda49cb3	-0.080377005
99	0xbe037db6	-0.12840924
100	0x3e8b109e	0.27161115
101	0x3da5367f	0.08067035
102	0x3e9ab7b4	0.3021828
103	0x3e38c658	0.18044412
104	0x3dd63e3b	0.10461088
105	0x3da7d23f	0.08194398
106	0x3e4a4110	0.19751382
107	0xbf036259	-0.5132194
108	0x3deb54d8	0.11490792
109	0x3e876d60	0.26450634
110	0x3c0cefe3	0.008602115
111	0x3e4becb5	0.19914515
112	0xbd41d645	-0.047323484
113	0x3d352179	0.044221375
114	0xbc92299a	-0.017842103
115	0xbe610b81	-0.21977045
116	0x3e306f17	0.17229877
117	0x3d596e75	0.053083856
118	0xbe08d86c	-0.13363808
119	0xbda3bc7e	-0.079949364
120	0xbaa61a37	-0.0012672608
121	0xbf0d835d	-0.5527857
122	0x3e659ddc	0.224235
123	0x3e2c5f73	0.16833286
124	0xbd293b32	-0.04131622
125	0xbbd8ea00	-0.006619692
126	0xbf24b609	-0.64340264
127	0x3d00c2bd	0.031435717
128	0xbf1f2e29	-0.6217981
129	0xbd9bb9bc	-0.076037854
130	0xbdd432aa	-0.10361226
131	0xbc8eab17	-0.017415566
132	0xbc83ae89	-0.016074436
133	0x3d649f20	0.055815816
134	0x3e087ccc	0.13328856
135	0x3e2c8023	0.16845755
136	0xbc76a3f1	-0.015053735
137	0x3e86b60d	0.2631077
138	0xbddbb73f	-0.10728311
139	0x3d88241d	0.06647513
140	0xbc5a7da2	-0.013335617
141	0x3d99cdf7	0.07509988
142	0xbed1f776	-0.4100911
143	0x3de1186f	0.109909885
144	0xbbe5331f	-0.0069946195
145	0xbef72220	-0.48268223
146	0x3c83455a	0.01602428
147	0xbdf689df	-0.120380156
148	0x3e2038ef	0.15646718
149	0x3bff9562	0.0077997902
150	0xbdc4de6a	-0.096127346
151	0x3de581b6	0.11206381
152	0x3ce8fe77	0.02844165
153	0xbf1c09a4	-0.6095221
154	0x3dc6a25e	0.09698938
155	0xbcd034dc	-0.02541583
156	0x3e0f4d11	0.13994242
157	0xbf26c4a8	-0.65143824
158	0xbfa6cf95	-1.3032099
159	0xbede1b5b	-0.43380246
160	0xbdabd4a0	-0.083901644
161	0xbe2301f7	-0.15918718
162	0xbdc0be79	-0.0941133
163	0x3c84c281	0.016206028
164	0x3ca0216d	0.019547189
165	0xbbaf5d7d	-0.005351721
166	0x3d88ad21	0.06673647
167	0xbf3cdc11	-0.73773295
168	0xbd2c67ba	-0.04209111
169	0x3e2088f9	0.15677251
170	0xbcc5fabb	-0.02416741
171	0xbf2c5c3e	-0.6732825
172	0x3dda7c41	0.10668231
173	0x3ecb01b6	0.39649743
174	0xbc92bfe0	-0.017913759
175	0x3d61acd0	0.055096447
176	0xbd69f523	-0.057118546
177	0x3b785086	0.0037889793
178	0x3d5a6381	0.05331755
179	0x3e61a195	0.22034295
180	0xbf54dc75	-0.8314889
181	0x3da1a0f9	0.07892031
182	0xbc653c68	-0.013991453
183	0xbc672110	-0.014107004
184	0xbd83ebf7	-0.06441491
185	0xbf103048	-0.5632367
186	0xbd4bb807	-0.04973605
187	0xbfd5b4e5	-1.669583
188	0xbc6deb8c	-0.014521491
189	0x3de6fdef	0.11278903
190	0xbf7d9dea	-0.9906908
191	0xbd721f1e	-0.059111707
192	0xbf49f418	-0.7888808
193	0x3d037fc9	0.032104287
194	0x3c96e3da	0.018419195
195	0xbc8d777e	-0.017268892
196	0xbd580d1d	-0.05274688
197	0x3ad8b203	0.0016532544
198	0x3da33bd3	0.07970395
199	0xbd5b8c4b	-0.05360059
200	0x3c6f875c	0.0146196745
201	0xbf5f029d	-0.8711336
202	0xbfa6fcc8	-1.3045893
203	0x3e0474af	0.12935136
204	0xbe7bc2f0	-0.24586082
205	0x3e135795	0.14388879
206	0xbfa976eb	-1.3239416
207	0x3d12bc11	0.035823885
208	0xbceabb3f	-0.028653739
209	0xbe0f4461	-0.13990928
210	0xbd20e9fe	-0.039285652
211	0x3db0c2a0	0.08630872
212	0x3d35fb0f	0.04442888
213	0x3c791e9b	0.015205051
214	0xbe2f25a7	-0.17104207
215	0x3e009f68	0.12560809
216	0x3cec6895	0.028858462
217	0xbf800481	-1.0001374
218	0xbd706c84	-0.05869724
219	0xbe2c5dc7	-0.16832648
220	0x3d82d239	0.06387753
221	0xbf893e3a	-1.0722115
222	0xbfbfbe85	-1.4980017
223	0xbf3c5fc3	-0.7358362
224	0x3b263309	0.002536001
225	0xbdd656b6	-0.104657575
226	0xbd7eb3f5	-0.06218334
227	0x3d9fe336	0.07807009
228	0xbed4808e	-0.4150433
229	0x3ce54da4	0.027991123
230	0xbdda0222	-0.10644938
231	0xbeac5684	-0.33659756
232	0x3e25f31e	0.16206023
233	0x3dd3a3bc	0.10333964
234	0xbb301a04	-0.0026870975
235	0xc004db50	-2.0758858
236	0xbb95e9b6	-0.0045749797
237	0xbe8b038f	-0.27151152
238	0x3dae4cd1	0.08510745
239	0x3d8ad27e	0.067784294
240	0x3d92eac9	0.07173688
241	0xbcfd951a	-0.030954886
242	0x3d5023f1	0.050815526
243	0xbe388e11	-0.18022944
244	0xbe832a99	-0.25618437
245	0x3d836fcf	0.0641781
246	0xbdb774f0	-0.08957851
247	0xbd456ea1	-0.048201207
248	0x3cad5798	0.021159932
249	0xc006fa69	-2.1090338
250	0xbfc3f74e	-1.5309846
251	0xbf622ebb	-0.88352555
252	0x3d548961	0.051888827
253	0x3e484753	0.19558458
254	0xbf4d343c	-0.8015783
255	0xbd1f820c	-0.03894238

layer.4.bias f4 [128]
0	0xbd900ffe	-0.070343
1	0x3e3595cb	0.17732923
2	0x3e847f36	0.25878304
3	0x3e251998	0.16123044
4	0x3e59266f	0.21206068
5	0x3e3a9d78	0.18224132
6	0x3e474fd0	0.1946404
7	0xbdd2bc88	-0.10289866
8	0x3c2ed70b	0.010671387
9	0xbe507d4c	-0.20360297
10	0x3dd7422e	0.1051067
11	0x3ec91ea7	0.39281198
12	0x3cd13eb2	0.02554259
13	0x3ba79993	0.005114743
14	0x3ed126eb	0.40850005
15	0x3e2cb9cf	0.16867755
16	0x3b9171f8	0.004438635
17	0x3e20577d	0.15658374
18	0x3e7cdd69	0.24693836
19	0x3e4563f5	0.19276412
20	0x3e70623b	0.23474972
21	0x3e430eb6	0.1904858
22	0xbd286d98	-0.04112014
23	0xbe80589c	-0.25067604
24	0x3cf32c05	0.029684076
25	0x3da16129	0.0787986
26	0xbe567bf4	-0.20945722
27	0x3e5eb771	0.21749665
28	0x3d0892ac	0.033343002
29	0x3e55f1d0	0.20893025
30	0x3df129e4	0.11775568
31	0x3da08004	0.07836917
32	0xbd5fad18	-0.054608434
33	0xbed7532d	-0.42055646
34	0x3dc860ad	0.097840644
35	0x3de49ef9	0.11163134
36	0x3e4d7538	0.20064247
37	0x3e7bc957	0.24588524
38	0x3d0bc25c	0.034120902
39	0x3e52311a	0.20526543
40	0x3e29467f	0.16530798
41	0x3d699802	0.05702973
42	0x3c9df8c8	0.019283667
43	0x3ea4420e	0.32081646
44	0x3ea3975c	0.31951416
45	0xbe7b8007	-0.24560557
46	0xbc6034fe	-0.013684509
47	0x3e3161df	0.17322491
48	0x3e393c06	0.18089303
49	0x3e9b591f	0.30341431
50	0xbe2a7c14	-0.16648895
51	0x3e2c7bba	0.16844073
52	0x3e1f51ed	0.15558596
53	0x3e81f733	0.2538391
54	0x3e30af0f	0.1725428
55	0x3d7a1f98	0.061065286
56	0x3dd5b539	0.10434956
57	0x3dc7a49d	0.09748194
58	0x3eeb173e	0.4591617
59	0x3e5c2f21	0.21502353
60	0x3e0b031d	0.13575406
61	0xbcb468bd	-0.0220226
62	0x3d3ad11d	0.045609582
63	0xbde69873	-0.11259546
64	0x3d95b8a0	0.07310605
65	0xbe18286b	-0.14859168
66	0x3e3a7a37	0.18210684
67	0x3eac7b38	0.33687758
68	0x3df49b23	0.119436525
69	0xbd472ce2	-0.048626788
70	0x3e3f42ef	0.18677877
71	0xbddaf298	-0.10690802
72	0x3e624fee	0.22100803
73	0xbd8eef1b	-0.069791995
74	0x3bd20f71	0.006410532
75	0x3e12f33f	0.14350604
76	0x3e8f4586	0.2798273
77	0x3e6cf9f6	0.23142228
78	0x3d7e571c	0.062094793
79	0xbd9f529c	-0.07779428
80	0x3cc92c87	0.024557365
81	0x3dbd93ac	0.09256682
82	0x3d075220	0.033037305
83	0x3e2413ed	0.16023226
84	0x3c805c4d	0.015669012
85	0x3e877ccb	0.26462397
86	0xbec235a7	-0.37931558
87	0x3d95a042	0.073059574
88	0x3e5557d1	0.2083428
89	0x3de4902b	0.1116031
90	0xbd62bb95	-0.055354673
91	0x3e8dac3b	0.27670464
92	0x3e8d95e0	0.27653408
93	0x3e2f41db	0.17114966
94	0x3e762205	0.24036415
95	0x3e1a0946	0.150426
96	0x3e1b12af	0.15143846
97	0x3e130e34	0.14360887
98	0x3d1470d8	0.03624043
99	0xbe2cec62	-0.16887048
100	0xbbe7150a	-0.0070520686
101	0x3e61c7fa	0.22048941
102	0xbe3d9cfd	-0.18516918
103	0x3e1b5e83	0.15172772
104	0x3d63f2db	0.055651527
105	0x3bb1f2dc	0.0054305624
106	0x3e310a03	0.17288975
107	0x3e180992	0.14847401
108	0x3e502f10	0.20330453
109	0xbe85ca60	-0.26130962
110	0xbd411492	-0.047138758
111	0x3dfa0909	0.122087546
112	0x3e4a820f	0.19776176
113	0x3dccc620	0.09998727
114	0x3d052efe	0.03251552
115	0x3e20556b	0.15657584
116	0x3e66dd56	0.2254537
117	0x3e8c2ede	0.27379507
118	0x3e44dbb9	0.19224443
119	0xba30b697	-0.0006741075
120	0x3e8881da	0.2666157
121	0x3d00dac3	0.031458627
122	0xbec8a7e9	-0.39190605
123	0xbd254f7a	-0.040358998
124	0x3e7be037	0.2459725
125	0x3e93aa5f	0.2884092
126	0x3ea0dc2f	0.31417987
127	0x3e46397e	0.19357869

layer.6.weight f4 [8, 128]
0	0x3a316cc9	0.00067682244
1	0xbc193afb	-0.009352441
2	0xbcd1f125	-0.025627682
3	0x3c48c2dc	0.012253489
4	0xbd0f041b	-0.034916025
5	0xbccd5d18	-0.025068805
6	0x3d7d0a05	0.061777133
7	0xbb3e16a0	-0.0029005185
8	0x3c9885bf	0.018618463
9	0xbd201cea	-0.039090075
10	0xbca4a138	-0.020096406
11	0xbd1840fa	-0.03717134
12	0xbc154e97	-0.009112976
13	0x3c91ef00	0.01781416
14	0x3d1e1170	0.03859085
15	0xbbdd03ed	-0.0067448528
16	0x3d0d74d3	0.03453524
17	0x3d5838e8	0.052788645
18	0x3d9990c7	0.07498317
19	0x3c27e75e	0.010248033
20	0x3c979201	0.018502237
21	0x3d45bf44	0.04827811
22	0xbcff3b1e	-0.031156119
23	0xbcac653d	-0.021044368
24	0x3b1b5036	0.0023698932
25	0x3c4780eb	0.0121767325
26	0x3c8c6b4b	0.017141005
27	0xbbefc39f	-0.007317021
28	0x3c891dc8	0.016737834
29	0xbd80e9d4	-0.06294599
30	0xbd3e06a4	-0.04639305
31	0xbd24d919	-0.040246103
32	0xbda1dd62	-0.079035535
33	0x3d31be85	0.043394584
34	0xbd5e1477	-0.054218736
35	0xbbc2dc7e	-0.005946695
36	0xbcb7e9a7	-0.022450281
37	0xbc11e731	-0.008905218
38	0x3b044aca	0.002018618
39	0x3c802266	0.015641402
40	0xbb6d7289	-0.0036231598
41	0x3b1e59be	0.0024162377
42	0xbcdfa5c0	-0.027300715
43	0x3cc9d46c	0.024637423
44	0xbcc149dd	-0.023594791
45	0xbd043023	-0.03227247
46	0xbc3c2f69	-0.011485913
47	0xbce4f2b4	-0.027947761
48	0x3d42f204	0.047594085
49	0x3cf4dc43	0.029890185
50	0xbe11e536	-0.14247593
51	0xbd264156	-0.040589653
52	0x3d8f6d9d	0.07003329
53	0xbcfb5707	-0.030681146
54	0x3c1ffe60	0.009765238
55	0x3d190a94	0.037363604
56	0xbcb602c7	-0.022218121
57	0xbd392abf	-0.04520678
58	0x3c37043c	0.011170443
59	0x3c466071	0.012107954
60	0xbca2e746	-0.01988567
61	0xbb222d4f	-0.0024746244
62	0xbd20e321	-0.039279107
63	0xbc935075	-0.0179827
64	0x3cf8c189	0.030365722
65	0x3d169be2	0.036769755
66	0x3d2859e1	0.04110134
67	0x3c1320f2	0.008980023
68	0x3d0cc5d4	0.03436835
69	0xbc3e48fc	-0.0116140805
70	0x3cb8b99d	0.022549445
71	0x3d6b609a	0.057465173
72	0xbcb60330	-0.022218317
73	0x3c460d7f	0.012088179
74	0xbd9016d5	-0.07035605
75	0xbbefd2f1	-0.0073188473
76	0x3cba22d5	0.022721687
77	0xbd39199e	-0.045190446
78	0x3c4fe902	0.012689831
79	0xbc469efb	-0.012122865
80	0x3d13946f	0.03603023
81	0x3d071d05	0.03298666
82	0xbd78bc2e	-0.060726337
83	0xbd1f3eb2	-0.03887815
84	0x3bdfbaad	0.0068276734
85	0xbbc1f225	-0.0059187585
86	0xbcf7f9dc	-0.03027051
87	0x3c02a1f3	0.007973182
88	0x3ce78d35	0.028265575
89	0x3ccc5a04	0.024945267
90	0x3cb17e4e	0.021666672
91	0xbc63dec1	-0.013908089
92	0xbca17832	-0.019710634
93	0xbbd494f4	-0.006487483
94	0xbad75408	-0.0016428242
95	0x3ac2908e	0.0014844106
96	0x3c909428	0.017648771
97	0xbc0c6cf1	-0.0085708955
98	0x3cbd43c4	0.023103602
99	0xbb45aee8	-0.0030164067
100	0x3cce84bc	0.025209777
101	0xbdb8ec56	-0.090294525
102	0xbcbda6e6	-0.023150872
103	0xbcc0ca04	-0.023533829
104	0x3ca22086	0.019790899
105	0xbcf2fe5b	-0.029662302
106	0x3b9c9aec	0.0047792103
107	0x3d5f9917	0.054589357
108	0x3b7448a9	0.0037274754
109	0x37e0b383	2.6786473e-05
110	0xbce2c9c9	-0.02768411
111	0x3ca40eb0	0.020026535
112	0x3b87b6e7	0.0041416767
113	0x3ca7f4fd	0.020502562
114	0xbbdffbb4	-0.0068354253
115	0xbca249d9	-0.019810604
116	0xbcfeded1	-0.031112107
117	0x3da76b41	0.08174754
118	0x3c48f646	0.012265747
119	0xbc85935d	-0.01630562
120	0x3c0948c8	0.008379169
121	0xbca1dcaa	-0.019758541
122	0xbc4fa967	-0.012674666
123	0x3c592151	0.013252572
124	0xbc0e445c	-0.00868329
125	0x3c9c700e	0.0190964
126	0xbc93f0cc	-0.018059157
127	0x3cb54810	0.022129089
128	0xbb17c5fc	-0.002315878
129	0x3cbcf422	0.02306563
130	0xbd157356	-0.036486946
131	0xbcb6aad2	-0.02229825
132	0x3d024cec	0.03181164
133	0xbbdbf445	-0.006712469
134	0x3dba285d	0.0908973
135	0x3d3bb5d3	0.045827698
136	0x3c83128f	0.01600006
137	0x3c2bb4b2	0.010480093
138	0x3caf3b07	0.021390451
139	0xbbec7688	-0.0072162785
140	0x3c483b76	0.012221208
141	0x3c61e9ff	0.013788699
142	0x3d248b0b	0.040171664
143	0xbd28a386	-0.041171573
144	0x3d324a99	0.043528173
145	0xbc2f6b60	-0.010706753
146	0xbcb043fa	-0.021516789
147	0x3cd9cb44	0.026586182
148	0x3cb01a2d	0.021496857
149	0x3d809fca	0.06280477
150	0xbceb8356	-0.02874915
151	0xbcad8e77	-0.021186097
152	0xbd521168	-0.05128613
153	0xbaa6b2aa	-0.0012718041
154	0xbb8cf5d6	-0.004301767
155	0xbc8174bc	-0.015802734
156	0x3a5f6e6c	0.0008523229
157	0x3c658cb2	0.014010595
158	0x3cf1c62e	0.029513445
159	0xbcefb2c0	-0.02926004
160	0x3d81cee9	0.06338293
161	0x3cba9e18	0.022780463
162	0x3c3e3946	0.011610335
163	0xbd25f9c5	-0.040521402
164	0xbc8c77b2	-0.017146919
165	0x3ca2a76e	0.019855227
166	0x3c3f184f	0.01166351
167	0x3c970e29	0.01843937
168	0x3c2cad4c	0.010539364
169	0xbd0ce10c	-0.03439431
170	0xbc55be08	-0.013045795
171	0x3d246881	0.040138725
172	0x39cbfd68	0.0003890798
173	0xbc92972a	-0.017894346
174	0x3c194b29	0.0093562985
175	0xbc63f6df	-0.013913839
176	0xbbdc6d4d	-0.006726897
177	0x3b889b4c	0.0041689035
178	0xbd8d84ca	-0.06910093
179	0xbc9bd707	-0.019023431
180	0xbbe80bc2	-0.0070814798
181	0xbaccb0fe	-0.0015616713
182	0x3c5c3129	0.013439455
183	0xbaafd986	-0.0013416267
184	0xbc169e98	-0.009193085
185	0xbc238586	-0.009980565
186	0xbc951948	-0.018200532
187	0x3ca85437	0.02054797
188	0xbc1dad14	-0.009623785
189	0xbd1a207f	-0.037628647
190	0xbcb251dc	-0.02176755
191	0xbcfbc802	-0.03073502
192	0xbc21a907	-0.009866959
193	0xbca0b397	-0.019616885
194	0x3d207a18	0.039178938
195	0x3cdec6fb	0.02719449
196	0xbd112ac0	-0.03544116
197	0x3cbebf99	0.02328472
198	0xbb0419d0	-0.0020156987
199	0x3d73a146	0.059479974
200	0xbd4d0b5e	-0.05005967
201	0x3ab70253	0.0013962485
202	0xbd4d595c	-0.050134048
203	0x3bfdc104	0.0077439565
204	0xbc889956	-0.016674679
205	0x3d13941a	0.036029913
206	0xbc568bc5	-0.013094847
207	0xbc174ca5	-0.009234582
208	0xbd46bd55	-0.048520405
209	0xbc676eba	-0.01412552
210	0xbc3931d4	-0.011303384
211	0xbc60a7b0	-0.013711855
212	0x3b16e722	0.002302595
213	0xbc3a9104	-0.0113871135
214	0x3c552eac	0.013011616
215	0x3c43b6f3	0.011945474
216	0xbd057da3	-0.03259052
217	0xbb8426aa	-0.0040329294
218	0x3b2883c6	0.0025713309
219	0x3cbefc1a	0.02331357
220	0x3cbc859b	0.023012927
221	0xbd3eb82c	-0.04656236
222	0x3c9e7830	0.01934442
223	0xbc445fed	-0.011985761
224	0x3b3bd5ff	0.0028661487
225	0x3c538072	0.012909042
226	0xbc243532	-0.010022448
227	0xbbbf6d02	-0.005841852
228	0x3cdb7734	0.026790239
229	0xbcfd3f0b	-0.03091385
230	0xbd243384	-0.04008819
231	0xbd670b8e	-0.056407504
232	0xbc2067db	-0.009790386
233	0xbd70e51b	-0.058812242
234	0xbc7fa1ce	-0.015602542
235	0x3ccf7e7b	0.025328865
236	0xbc96fddf	-0.018431602
237	0xbb126d37	-0.002234293
238	0xbd0613ed	-0.032733846
239	0xbc9f5f76	-0.019454699
240	0xbc3e330d	-0.011608851
241	0xbc077f27	-0.008270062
242	0x3cb0b552	0.021570835
243	0xbcc165ca	-0.023608107
244	0x3ba33f6d	0.004981926
245	0x3d5258ce	0.051354222
246	0xbc8fe10b	-0.017563364
247	0xbbb56881	-0.0055361395
248	0xbd0f860e	-0.035039954
249	0x3cec4d8f	0.028845577
250	0xbc7c2bf4	-0.015391339
251	0x3b4ee268	0.0031568054
252	0x3c61c329	0.01377944
253	0x3c9201b3	0.017823076
254	0xbc953952	-0.018215809
255	0x3c569779	0.013097637

layer.6.bias f4 [8]
0	0xbb973dc1	-0.004615516
1	0xbbb35b0a	-0.005473499
2	0x3b2c9eed	0.0026339844
3	0xbc60ba0a	-0.01371623
4	0x3e31ab26	0.17350444
5	0x3e202112	0.15637615
6	0xbc45c635	-0.012071182
7	0x3ce73d7b	0.028227558
