final/save/1l_0.95_200_morelayer/save3_13500.pth (torch_old, 50952 bytes, 8 tensors)

layer.0.weight f4 [32, 28]
00000000: 2a3d bcbd 545d 58be c91b 473e f1af 63be
00000010: 23fe 00bd bbf8 2a3e baff 8c3d e49d c43d
00000020: e10c 783d 0374 aabd eb1b b93d a9d2 8abc
00000030: f6db 403d 360a 133e 16e1 9fbd 8c8a 5f3e
00000040: ed74 e93d 499c 393e 3f28 123e b8dd a13d
00000050: 1cf1 ec3d c822 0cbd ee1d 643c a404 823e
00000060: 89e2 263d b0ac 833c 2dca 08be 8fb2 12bd
00000070: 999c 543e 24a2 0a3e 76c2 cf3d dc42 7e3e
00000080: 1302 a93d 61fb 49bd 914f d63c 92b2 8abd
00000090: fd2a e8bd d592 adbb e080 14bd 5ba1 303d
000000a0: 8c12 d5bd f9a6 3cbc 7f91 9ebd 4d01 db3d
000000b0: 6621 3d3c a773 4b3e 03a9 b8bd 6a41 173e
000000c0: e9d5 ba3d 8d96 813d 388d eabd 2739 43be
000000d0: 509a 2ebd cbc4 093d 6c53 3b3e 7d7a d83c
000000e0: b2e1 163e ee53 9e3d 49d8 4ebd a8ee 533d
000000f0: a021 713d 6dfd 913c b8c5 483e 3f5f 61bd
00000100: 7eb5 90bd 903f 8fbb 9778 1a3e d5cf 28bc
00000110: f506 463e 0c9f 82bd 6b6c b23d 462f a8bd
00000120: 6d74 36bc 6131 ebbd d1a5 3abe 15ea 21bc
00000130: e885 2dbe b7bc 973c a394 1ebe d315 86be
00000140: 48c0 a1bc e773 f33d dae9 f73c b174 003e
00000150: 3a42 24bd c8ca f7bb 7eb3 863d 4f8b 99bd
00000160: 3a05 b93d e1aa b93d 0a3d 8e3e f27f 823e
00000170: ff39 0abe ec0e 743e 881d 693e 21a7 bc3d
00000180: 8a13 6cbd 07dc eabd d8a9 9ebd 13ac 25be
00000190: dee2 243e b076 57bc 7527 dcbd 401d 22be
000001a0: 7797 e4bd 7e1f 22be d5d0 18be 5786 07be
000001b0: 6737 b8bc cc40 fdbb 2e38 ea3d 9f3f 20bd
000001c0: cd7d 78be d2e3 4abe c240 21bd 56ba 4ebe
000001d0: 71a7 67be 6151 edbd eff8 af3b 44ce 81bc
000001e0: ac70 493d f611 cabd f4bb 413d 7742 96bc
000001f0: 382d 433e cc50 5d3d af1f 5f3e f37a 863e
00000200: aa3e 413e 51db 0d3e 6e62 cd3d f5dd c23c
00000210: 9e61 383e d25d ef3c 74d3 0c3d ee0f 0e3d
00000220: d08f 1e3c a3d0 b7bd 7c74 ccbd c9c5 06bd
00000230: b81a d13c ee1e 35bd ffb3 a43d 0fb2 c43d
00000240: 0b79 0cbe 22cf c83d ce8f 263e 903c 503e
00000250: 8361 063e a9a6 773e 66d4 703e af90 043e
00000260: 1afa 5cbd e597 9dbd 6386 efbd 9f9c 803d
00000270: a904 12be de7c aa3c bc1c 40be 7ae3 b1bd
00000280: 142f 22be c82e bbbd 55f6 1ebe 0022 cfbc
00000290: 03ff 82bd d472 0e3c 5891 d23b 48c9 dbbd
000002a0: e371 233e 9b8b c33d a9db bb3d fa38 e0bd
000002b0: 47e4 edbd 6a55 80be a2d9 e33c 1a5e c33d
000002c0: 53d8 623e a466 10be 49c5 93be c396 eb3b
000002d0: e2f8 213c e8dc 993d aa24 ed3d 785f 563e
000002e0: aa32 da3d 1c75 00be 791e 8dbb 93a8 87bc
000002f0: 697e a83d 9775 653d 0e4c 03be 45bc 9b3e
00000300: 3980 513e c835 733a 5034 8fbd 208e 003e
00000310: ace6 c53d 5cbd 6c3d 56b2 823d 9553 553e
00000320: 38b3 45bd c7d0 543b a50c 0cbe 987f 033e
00000330: bac4 5b3e 0129 abbd 4ffa 813d 2c85 303e
00000340: d6c6 723d a518 90bd 0206 db3c 96e5 933e
00000350: 4e41 3b3e ad84 9c3d 98d3 19bd 67dc 253e
00000360: 8101 dd3d 3260 e1bd ca0a 2fbc 01b1 033e
00000370: 2778 84bd e4cc f43c be2a a0bc 7b69 5739
00000380: 59b8 163e 9c2b 853d 07fb 2fbe 6859 333e
00000390: e00d e73d f951 a13d 21c1 7abe d194 b3be
000003a0: 8c78 76be 9f4c 493d 955f 133e e7ea 063e
000003b0: 962f bd3d e8de b4bc a6cf e6bd fa01 693d
000003c0: 2e1e 68bd f9fd 8bbd 604b a9bd 4408 19be
000003d0: 0392 37bd 9dda 04be 8210 6a3d 3be8 5d3e
000003e0: 6c7b a43c a5d9 243e 6e53 3ebd c1bf cabc
000003f0: ea09 e9bc c402 c3bd 7331 27be b77a 59be
-0.091913536 -0.21129352 0.19444193 -0.22235085 -0.031492364 0.16696446 0.068847135 0.09600428
0.060559157 -0.08322909 0.09038528 -0.016946154 0.04708477 0.14359364 -0.078066036 0.21830195
0.11399255 0.18126024 0.14273165 0.079036176 0.115694255 -0.034212857 0.013923151 0.25394166
0.040743385 0.016073555 -0.13358374 -0.035814818 0.20762862 0.13538414 0.10144512 0.24830192
0.08252349 -0.049312 0.026160987 -0.06772341 -0.11336324 -0.0052970448 -0.036255717 0.04312263
-0.10403928 -0.011514419 -0.07742595 0.106936075 0.011543607 0.19868337 -0.090166114 0.14771047
0.091228314 0.063275434 -0.114527166 -0.1906477 -0.042627633 0.033634942 0.18293542 0.026425594
0.14734533 0.07730852 -0.050499234 0.051741272 0.058869958 0.017821038 0.19606674 -0.055022474
-0.07065867 -0.004371591 0.15085064 -0.010303457 0.19338591 -0.06377992 0.08712085 -0.08212142
-0.0111361565 -0.11484028 -0.18227316 -0.00988247 -0.16945612 0.018522603 -0.15486388 -0.26188526
-0.019745007 0.11887341 0.030262876 0.12544514 -0.04010222 -0.007562015 0.06577204 -0.07497274
0.090342 0.09065796 0.27780944 0.2548824 -0.13498686 0.23833817 0.22765172 0.09211565
-0.05763582 -0.11467748 -0.07747239 -0.16178922 0.16102168 -0.013150856 -0.10749713 -0.1583147
-0.11161702 -0.15832326 -0.14923413 -0.1323484 -0.022487355 -0.0077286717 0.11436497 -0.039123174
-0.24266739 -0.19813469 -0.0393684 -0.20188269 -0.22622468 -0.115877874 0.0053702514 -0.015845425
0.049179718 -0.09866707 0.047298387 -0.01834224 0.19060218 0.054032132 0.2178943 0.26265678
0.1887156 0.13853194 0.100285396 0.023787478 0.18005988 0.029219542 0.034381345 0.03468316
0.009677842 -0.08975341 -0.09983155 -0.032903466 0.025525436 -0.04421895 0.08042144 0.096042745
-0.13718049 0.098051324 0.16265795 0.20335603 0.13123135 0.2418467 0.23518524 0.12945817
-0.053949453 -0.07694987 -0.11695554 0.06279873 -0.1425959 0.020811494 -0.18760961 -0.08685966
-0.15838271 -0.09139782 -0.15523656 -0.025284767 -0.06396296 0.008694369 0.0064260177 -0.10731751
0.15961413 0.09548112 0.09172756 -0.109483674 -0.11615806 -0.25065166 0.027813736 0.09539433
0.22152834 -0.14101654 -0.28861454 0.007189603 0.009885998 0.07512838 0.11579259 0.20934856
0.10654195 -0.12544674 -0.004306611 -0.016559875 0.08227236 0.056020346 -0.12821981 0.30417076
0.2045907 0.00092777284 -0.069924 0.12554216 0.09663138 0.057797775 0.06381671 0.20832665
-0.04826662 0.0032473074 -0.13676699 0.12841642 0.21461764 -0.0835743 0.06346571 0.17238301
0.059271656 -0.070359506 0.026736263 0.28886098 0.1828663 0.076424934 -0.037555307 0.16197358
0.107913025 -0.11004676 -0.010683725 0.1286049 -0.0646823 0.029882856 -0.019551631 0.00020543292
0.1471876 0.065024585 -0.17185603 0.17514575 0.11281943 0.07876963 -0.24487735 -0.35074475
-0.24069422 0.049145337 0.1439193 0.13175546 0.09237592 -0.022078946 -0.112700745 0.05688665
-0.056669407 -0.06835551 -0.0826633 -0.1494456 -0.044816982 -0.1297402 0.05714465 0.2167062
0.020078383 0.1609865 -0.046466284 -0.024749639 -0.02844711 -0.09522012 -0.16327457 -0.21238218

layer.0.bias f4 [32]
00000000: c503 35be 9fba 293e 61f1 c93d 7f59 b43c
00000010: 6f48 37be 2737 50be c9bd 3fbd 48b4 1fbd
00000020: 6e18 063e 4cdc 27be d5c1 05be ec08 863d
00000030: b89b 0f3e 70b5 8e3e f552 c13d 56f6 413f
00000040: d1f9 843e 8140 9dbc 3029 f8bd ba45 643e
00000050: a6ec ab3d 4c18 a33e ea6a fbbd 2064 e33c
00000060: 18a7 a53d f928 783d 6a9b f83d 59ce 1bbe
00000070: 891c 6c3e 76c7 2e3d 9df3 8ebd 00de 513e
-0.17677219 0.16575097 0.098604925 0.022015331 -0.17898725 -0.20333539 -0.046811853 -0.03899029
0.13095257 -0.1639263 -0.13062222 0.065446705 0.14024246 0.278728 0.09439651 0.75766504
0.25971845 -0.019195797 -0.12117231 0.22292224 0.083947465 0.31854475 -0.122762516 0.027757704
0.08088511 0.06058595 0.12139018 -0.15215434 0.2305776 0.04267069 -0.06980059 0.20494843

layer.2.weight f4 [64, 32]
00000000: 437b 67bc f2ec fa3c 03fb d5bc 73aa 6e3e
00000010: 10f8 ddbc 1782 463d a616 01be db6b da3b
00000020: 8b1c e93d 32af 8dbd d91a d3bc 475d 96bd
00000030: f66a 943e 101d 073e 048a 873e 9eb8 debe
00000040: 96b6 243e bf39 a2bc f5fe eb3d bbf0 83be
00000050: da1f b5bd b966 b6bb 8e57 f93d 38c3 bcbd
00000060: d957 ffbc c5f2 f83d 14f5 083d 6660 163e
00000070: 7101 36be b722 48be 6898 083e 936e 9ebc
00000080: d09a 6ebd 4e27 83bd dc9c cdbd 3c48 a0be
00000090: 8cd3 273c 9a13 63be 9652 13be ad6f e73d
000000a0: 3362 a6be 6aaf a53d bf83 4dbe ef47 dc3d
000000b0: 12bc 3fbe fb9a 693d d0ba ef3d 2a9c 14bf
000000c0: fa54 43bd 0a42 f3bc c058 15be b6b9 833e
000000d0: 91b2 cb3d 5934 303e 369b 563e fa90 333e
000000e0: ae85 743d e268 66be 49a5 eb3d eff3 d9bd
000000f0: 878b 333d 80ad 84bd e8a2 5ebe 6d19 d5bd
00000100: a395 17be b325 0d3d 8060 c63d 0677 bbbe
00000110: 3103 7cbe e77e 4dbe d799 e23d a303 303e
00000120: 4eef 4c3e cdc4 65be 0ed4 133d 2e2e 81bd
00000130: ac38 883e ab2d 86bd c13d 0abe 3561 d8be
00000140: 7034 0c3e 62f5 e03d b29a 39bc ffcb 6cbe
00000150: c895 913c 4c50 a43c 2490 323d 6e5f 8cbb
00000160: 7d7a d7bd 669a e5be 1435 1d3e 3998 eb3c
00000170: 2aee 54be 4843 82be 249b 733d cdaa 513d
00000180: 2f26 78be 148f 0f3e 786a 1a3e 97ec e6be
00000190: 5102 9ebe 4d9a 46be 3dcc b03d 21b5 723e
000001a0: bd6c 9b3e d6be 5cbe d3fb 2fba 373f e6bd
000001b0: 315d 3b3e 20b8 87bc 1fd5 07be fbe0 b8be
000001c0: d61b 4a3d 679f d73d 3ffa 33be 2bd2 3bbe
000001d0: 3b8b 133e 0415 97bd 6513 253d c21a 8c3c
000001e0: 00e1 20be 49ea 5abf df39 173e aa69 763c
000001f0: a557 6cbd c938 27be 194d 4fbd 1467 be3d
00000200: e74d 43bd c827 88bd 9abd 8c3d 5956 49bb
00000210: e4c7 ba3d 33c8 0cbe 4d03 a8bc 31bd 9bbc
00000220: 4b15 03bc 76de 05be c0f0 18be 1874 ef3d
00000230: 28c6 86bd 5e98 b2bd 0f98 d1bd 2eb3 fbbe
00000240: 064b 233e 93b2 d7bc 8d1f d2bb a10f 853d
00000250: c9a6 c0bd 4937 32bc 6c03 0b3d b2b2 203d
00000260: 906f 813d 555f b1bc 3a3f 45be 112a 993c
00000270: aeed cf3d aed3 1e3e 5f84 9cbd b2d1 053e
00000280: b5bf 3b3e ffb5 353e 31e2 4fbd e632 e6be
00000290: 4ad3 1f3e 250d 37be 94e9 83bc 8aaf 5e3d
000002a0: 83d9 893e 6250 133d 4777 25bd 1fa2 883c
000002b0: 0d49 b63d 31ab b0bd 728f fabc 9901 113f
000002c0: 0353 f73d 3e20 ad3d d6a6 033e 1fff 55bc
000002d0: 943a 1f3e 4785 49be 3479 4d3e 05e0 d23d
000002e0: f832 abbd 7d59 2dbf cf54 203e c8a5 003d
000002f0: f52e 7abd 80af efbd 8969 8dbe 3ac7 abbd
00000300: 0b6a d43d bf62 62bc fb41 893d ace0 1cbe
00000310: 1603 21be ef62 01be b150 04be a8df 0abd
00000320: 9461 a3bd 8b4d ab3c 056e 55be 1817 253e
00000330: 2cb8 2cbd 53bb 913e cd5a 343e 33c7 66be
00000340: 51a3 153d d2c2 39bd 191f 86be 2e5b 933e
00000350: c09f 1abb 9dd1 42bd bd22 0e3e 35d9 013e
00000360: 316c bc3d dbb1 afbe 61ad 04be d945 97ba
00000370: 83ce 923d ba49 debd 1e10 80be bdcd 35be
00000380: f0e1 893d fad2 99bc fe3b 0d3d c9e9 b9bd
00000390: d641 cf3d cf33 24bd b429 553d 1f4b 8d3d
000003a0: 9b87 833d f9b6 063e 2350 2e3e 7d04 0fbd
000003b0: f683 0b3d 8494 263e 44a0 92be 266c 233d
000003c0: 6406 d03d 68df ac3d 4ba6 97be f7e9 2fbc
000003d0: 45b9 683d 9a8e c4bd 84f2 303e f517 f1bb
000003e0: 01cf 34be a871 fdbc e866 52be 6894 03be
000003f0: d0c9 f8bd 3e58 1ebe 5f05 073d 1090 f83d
-0.014128509 0.030630562 -0.026120668 0.23307209 -0.027095824 0.048463907 -0.12606296 0.0066656894
0.11382397 -0.069181815 -0.025769638 -0.0734201 0.28987855 0.1319468 0.26472485 -0.43500227
0.16085276 -0.019802926 0.115232386 -0.257696 -0.08843966 -0.0055664447 0.12174903 -0.092169225
-0.031169819 0.121556796 0.03343685 0.1468521 -0.17773987 -0.19544493 0.13339388 -0.019339835
-0.05825311 -0.06403981 -0.10039684 -0.3130511 0.010243308 -0.22175446 -0.14386973 0.11300597
-0.32496795 0.08090098 -0.20069788 0.10755908 -0.18724087 0.057032567 0.117055535 -0.5805079
-0.04768846 -0.029694576 -0.14584637 0.25727624 0.09946168 0.17207469 0.20957646 0.17535773
0.0596978 -0.22500947 0.11506135 -0.1064223 0.043834236 -0.06478405 -0.21741831 -0.1040524
-0.14803176 0.03445978 0.09686375 -0.36614245 -0.24610592 -0.2006794 0.11064499 0.17188887
0.20013162 -0.22438355 0.036090903 -0.06307636 0.26605737 -0.06551679 -0.1350012 -0.42261663
0.13691878 0.10984303 -0.011328386 -0.23124693 0.017771617 0.02005782 0.043594494 -0.004283837
-0.1052141 -0.4484436 0.15352279 0.028759109 -0.20793977 -0.25441957 0.059474126 0.05118828
-0.24233316 0.14019424 0.15079677 -0.4510238 -0.30861142 -0.19394799 0.08632705 0.23701908
0.30356398 -0.21557173 -0.0006713245 -0.11242526 0.18297268 -0.01656729 -0.13264893 -0.36109146
0.049342953 0.105284505 -0.1757593 -0.18341891 0.14408581 -0.07377055 0.0403017 0.017102603
-0.1571083 -0.8551374 0.1476817 0.015039841 -0.05770077 -0.16330256 -0.050610635 0.09297004
-0.047681715 -0.06648213 0.06872101 -0.0030721633 0.09120157 -0.13748245 -0.020509386 -0.019011112
-0.008000682 -0.13073143 -0.14935589 0.11692065 -0.06580764 -0.08720468 -0.10234081 -0.4916014
0.15946588 -0.026330268 -0.0064124526 0.064971216 -0.09406812 -0.010877439 0.03393881 0.039232917
0.06320107 -0.021651903 -0.192624 0.018696817 0.10152756 0.15510437 -0.07642435 0.13068274
0.18334849 0.17745207 -0.050752822 -0.44960707 0.15607944 -0.17876108 -0.01610259 0.054366626
0.2692376 0.03596533 -0.040396955 0.016678868 0.08900652 -0.08626402 -0.030585978 0.5664306
0.1207638 0.08453415 0.12856612 -0.013061314 0.1554969 -0.19679748 0.20065767 0.102966346
-0.08359331 -0.67714673 0.15657352 0.0314081 -0.061079938 -0.11703396 -0.2761958 -0.08387609
0.103717886 -0.013817488 0.06702038 -0.1532008 -0.15723833 -0.12635396 -0.12921406 -0.0339047
-0.07977596 0.020910999 -0.2084275 0.16122091 -0.042167827 0.2846323 0.17612763 -0.22536926
0.036532704 -0.04535181 -0.261956 0.28780502 -0.0023593754 -0.047563184 0.13880439 0.12680514
0.092003234 -0.3431538 -0.12956764 -0.0011541202 0.07168295 -0.10853906 -0.25012296 -0.17754264
0.06732547 -0.01877736 0.03448104 -0.09077794 0.10119979 -0.04008847 0.052041724 0.06899094
0.06422349 0.13155736 0.17022757 -0.03491639 0.034061395 0.16267592 -0.28637898 0.03989806
0.10157469 0.08441049 -0.2961906 -0.010736934 0.05681731 -0.095975116 0.17280012 -0.007357592
-0.1765709 -0.030937985 -0.20547068 -0.12849581 -0.12147868 -0.15463349 0.032964107 0.12136853

layer.2.bias f4 [64]
00000000: 741d a53e 507c 923e d075 f63d 631d 0abd
00000010: 973b f83e c49a e53d cec7 003d 5378 db3c
00000020: a605 0d3e 8585 b63c b0a5 9c3d ddba e43e
00000030: 4c0b 233e e33c 9c3d 6ef5 1cbd daf0 093e
00000040: 7ed6 acbd b1fc 04bd 452c aa3d f50e 9e3e
00000050: 9706 37bd 777d 02be be28 033e cbe6 9f3c
00000060: d489 c93d bbf3 27bd ac78 c5be ebb3 6a3d
00000070: b63a 673e a91b f43d 3ef6 c3bd 4a74 a43e
00000080: 1eda 98b9 b2d5 963d 671d 853d 55d8 24bd
00000090: 2870 f43d 917f 3d3e 1c6d 823d 1cb8 0fbb
000000a0: 062d 7ebd de54 1b3e da68 8abd ae5c 553e
000000b0: 833b c63e 0229 043e 0a28 66bd 25fc 10bd
000000c0: 3753 d6bd 35d8 d8be 8a66 d6bc f2df 21bc
000000d0: 333c 1e3e ccdb b0be 58b5 8b3e e866 9dbd
000000e0: 125f 573e ed4c 693d 227a 683d 0c06 d43e
000000f0: 2b67 153e fa85 f13d 7afd 4abb 0df1 723b
0.32249033 0.28610468 0.1203419 -0.03371943 0.48482963 0.1121116 0.03144055 0.026790773
0.13771686 0.022280464 0.0764879 0.44673815 0.15922278 0.07628801 -0.038319997 0.13470784
-0.08439349 -0.032467548 0.08309225 0.30870786 -0.04468402 -0.12743174 0.1280851 0.01951923
0.09840742 -0.041003924 -0.38568628 0.05730049 0.2258099 0.11919338 -0.09568451 0.32119972
-0.0002915421 0.07364978 0.06499749 -0.040245373 0.119354546 0.18505694 0.06368467 -0.0021929806
-0.062054656 0.15169093 -0.0675828 0.20836136 0.3871728 0.12906268 -0.056190528 -0.035396714
-0.10465091 -0.42352453 -0.026171941 -0.009880053 0.15452652 -0.34542692 0.27286792 -0.076856434
0.2103236 0.056958128 0.0567571 0.41410863 0.14590137 0.11793132 -0.0030973838 0.0037069947

layer.4.weight f4 [128, 64]
00000000: f3b1 303c 78ec fb3c e29f 1c3e e9a3 823d
00000010: 964b c7bd e16e e4bd 1d42 9b3d 3e9d ac3d
00000020: 1df2 083d e9e7 df3d 2cee b5bb e5c0 333e
00000030: 7345 5bbc f724 4a3e b994 b53b 5c8e df3d
00000040: 2574 ba3c cf95 a13c d9a4 013e 3e0b 1f3e
00000050: e369 63bd 1ed0 163e add8 c4bc 1395 3f3c
00000060: 120a d13d c17a e3bd 39ae 543e 2722 a93d
00000070: 8587 10bd b746 a2bc 4bd0 eb3d 3a31 0b3e
00000080: 9582 37bd e24e 0d3d cfc1 cfbd e1a1 293e
00000090: ebe9 113d 0f66 83be e112 6fbd bc82 d33c
000000a0: e829 7bbd 7f69 b63d 747a 873d a3c2 eb3d
000000b0: a073 d73c f25d eb3d 2ea8 1fbf 519b 13bd
000000c0: f2b4 c7bd e336 dabc 27dd 7fbd 907d 633e
000000d0: d0f1 803e a525 26bd c525 043e 4892 443d
000000e0: 6778 903d 96f5 32be a174 0d3e df6c 733d
000000f0: 8587 2fbd 8dba 05be 4cdc 11bd d554 f03c
00000100: c80c 0a3e ea6d 293e 7c84 4d3d b7fa 18be
00000110: a752 493e b6a8 3bbe 3d10 423d 20fb 58bd
00000120: 2b2b 9fbc 6fc8 393e 9550 5abe ca74 2d3e
00000130: 0d36 9c3d 061a 23bc d342 b93d 0c82 0fbc
00000140: e394 cebd b025 8d3d 6783 9b3d ff43 0a3c
00000150: 64ac cc3d ca60 d8bd a855 17bd 3400 babb
00000160: 1fe0 9c3d 7bc0 a8bd 5c60 b6bd 099f 6ebd
00000170: 25fc df3d 1ffe cebd 7fe2 b7bd 3bf0 4a3e
00000180: 5e6b 9ebc 7702 ca3d b383 05be 6e3c 7e3c
00000190: 686d 1b3d 95bc b13c 8413 e4bc 35c9 c0bd
000001a0: b6f2 213b 6b56 e73d 6247 82bc 5e80 8d3c
000001b0: 25d3 2a3e 623d 06bd d0f7 91bd 4a3d 3abe
000001c0: a1e3 31bd e4a1 2dbe d370 2bbd b8eb 2fbd
000001d0: 77e7 623d 3d39 e0bd 78f7 f33d ab4d 10bd
000001e0: 50bb 193e 70e3 84be d3a6 d1bd 6915 013e
000001f0: 528b c0bd 82a3 c33d 2043 5abd 2b94 fb3d
00000200: d73f 96bd 789d e13d 4f46 ca3d 9d74 073e
00000210: 1567 28be 2937 f63d debe 183e 093b 193e
00000220: 9185 babc 47c5 3c3e d12a 0abe 593a debd
00000230: f82c e3bd 5cc1 fe3d 2bf7 253e 84b7 d7bc
00000240: 4d0a 17be 068a 433e 88be 0cbe 2619 b0bd
00000250: 9c76 e53d b366 453c f897 bb3d 9f9b 2a3e
00000260: b4d8 88bb 386c 63be 64be 863e 9668 fb3c
00000270: 24f0 c93d 8ad6 a2bd 7687 24be b7b5 3dbd
00000280: 60f4 66bc 3ea2 ec3d f34d 113d 009b c93c
00000290: cde4 fe3d 7ab0 4cbe cd36 d2bd c22a e63c
000002a0: 0f1c 953d 8667 6ebd ff32 c73d 9760 30bd
000002b0: 478e 7ebc 5656 df3d 1c0f 23bf 666e 553d
000002c0: 6ffc 1fbd 8532 673d 0274 e7bd dc36 3e3e
000002d0: 907c 533e 1499 003e 4945 ee3d 0971 0d3e
000002e0: 5f78 a73d 8029 4c3e ee22 5d3d a6b0 e6bd
000002f0: 743d f43d 27ac d9bb 4448 43bd fbaa b03a
00000300: 4715 b0bd 5c5f 03bd b3da e5bd 0f6f 903d
00000310: 19a0 89bd df5c 843d ac56 4ebd 5dce 3a3d
00000320: 7ca3 9c3d 40b2 afbb ef2b 8cbd 6ec6 e3bd
00000330: bfb1 aebd 3265 2dbd d98e 04be 3e01 b9bd
00000340: 6840 c43b 1117 cbbc 07a2 8bbd c367 2b3d
00000350: a6e2 92bc 47fb 533a c776 98bd 373e f5bd
00000360: 42d5 93bd 68cd 97bd af49 b4bd b5c9 2c3d
00000370: 3beb 9dbd 54b1 ac3d f10b 17bd adc7 c7bd
00000380: e2ca 9ebd ad2e 31bd 44b7 1d3d b345 f8bd
00000390: d655 d4bd af63 c23d ab5f b93d 4b46 103d
000003a0: 390d dbbd 32d9 9f3d d7a6 b43d da3d 503d
000003b0: c2f8 b23d c12f 583d 1cc2 2dbd b009 0dbd
000003c0: 0930 1f3d 9016 203d 2d1e 5fbd f4b7 dbbd
000003d0: bcdb 93bc ea3b 64bc a312 70bc c0cc 9fbc
000003e0: 5042 6c3c ec3b bf3c ec40 5b3d 6fe5 9bbc
000003f0: 7553 b33d e050 a1bd 1335 c9bd a6ec 77bc
0.010784614 0.030752406 0.15295365 0.0637892 -0.09731214 -0.11153961 0.075809695 0.08428429
0.033434022 0.10932905 -0.005552074 0.17554052 -0.013383257 0.19740663 0.0055414108 0.10915825
0.02276046 0.019724755 0.1266054 0.15531632 -0.055520903 0.14727828 -0.0240291 0.011693257
0.10206999 -0.11107398 0.20769586 0.08258467 -0.03528549 -0.01980911 0.11514338 0.13592997
-0.044802267 0.034499057 -0.10144388 0.16565658 0.035623472 -0.25663802 -0.058367614 0.025819175
-0.06131926 0.089068405 0.06615153 0.115117334 0.026300251 0.11492528 -0.62365997 -0.036036793
-0.097513095 -0.0266375 -0.062466767 0.22215867 0.25184488 -0.040563244 0.12905033 0.047991067
0.07054215 -0.17476496 0.13814022 0.05943 -0.04285385 -0.13059445 -0.035610482 0.029337326
0.13481438 0.16545835 0.050175175 -0.1493939 0.19660436 -0.18326077 0.047378767 -0.052973866
-0.019429764 0.18142866 -0.21319802 0.16939083 0.07627497 -0.009954935 0.09045949 -0.008759033
-0.10086992 0.06891954 0.075934224 0.008439063 0.099938184 -0.10565336 -0.036946923 -0.0056762937
0.07659935 -0.08239838 -0.08905098 -0.058257136 0.10936765 -0.101070635 -0.089787476 0.19818203
-0.019338306 0.098637514 -0.1303852 0.015517337 0.037946135 0.021696368 -0.027841337 -0.09413377
0.0024711317 0.1129578 -0.015903179 0.017273124 0.16682108 -0.032773383 -0.071273446 -0.18187442
-0.043429974 -0.16956288 -0.041855644 -0.04294941 0.055396523 -0.10948417 0.11912435 -0.03523032
0.1501286 -0.2595477 -0.10236897 0.12605824 -0.09401573 0.09552671 -0.05328667 0.1228412
-0.07336395 0.11016363 0.098766916 0.13228078 -0.16445573 0.1202224 0.1491656 0.14963926
-0.022768768 0.1843463 -0.13492896 -0.10850973 -0.110925615 0.12439224 0.16207568 -0.026332624
-0.14750023 0.1909562 -0.13744557 -0.08598547 0.112042636 0.012048411 0.09159845 0.16660927
-0.0041762237 -0.22209251 0.26317132 0.030689519 0.09860256 -0.07951076 -0.16067299 -0.046315875
-0.0140963495 0.11554383 0.03547473 0.024610043 0.12445984 -0.19989195 -0.10264359 0.02809656
0.072807424 -0.058204196 0.097265236 -0.043060865 -0.015536851 0.10905139 -0.6369493 0.052107237
-0.0390591 0.056444664 -0.113014236 0.18575615 0.20652986 0.12558395 0.11634309 0.1381265
0.08177256 0.19937706 0.05398839 -0.11264162 0.11925784 -0.0066428366 -0.04767634 0.001347869
-0.08597808 -0.032073364 -0.11223354 0.07052433 -0.06719989 0.06463026 -0.050375625 0.04560696
0.0764837 -0.005361825 -0.06844317 -0.11121832 -0.08529996 -0.042332835 -0.12945117 -0.0903344
0.005989123 -0.024791272 -0.06818014 0.041847 -0.01793034 0.00080864545 -0.0744453 -0.11974757
-0.0721841 -0.07412225 -0.088031165 0.04218455 -0.07710882 0.0843226 -0.036876623 -0.09754882
-0.077535406 -0.043257404 0.038504854 -0.12122669 -0.103679344 0.094916694 0.0905145 0.035223287
-0.106958814 0.078050986 0.08820885 0.050840236 0.08738853 0.052779917 -0.042421445 -0.034433067
0.03886417 0.039084017 -0.054472137 -0.10728446 -0.018049113 -0.0139303 -0.014652881 -0.019506812
0.014420107 0.023344003 0.05352871 -0.0190303 0.087561525 -0.07876754 -0.09824576 -0.015132105

layer.4.bias f4 [128]
00000000: 7621 1dbd 3858 a43e 6404 223e 4257 f7bd
00000010: ebad c63e 214f 92bc e565 9f3e 0058 133e
00000020: 0d59 223e 9c60 a83b f300 d93d 4002 713e
00000030: 215e 423e b99b 313e 9820 253e 3e53 8e3d
00000040: d716 913e 5d64 fa3c 6c20 7d3d 8810 363e
00000050: 2b84 9d3e 51ab 513d 9334 273e 9e9d d43d
00000060: ce9c 1f3e 7f16 5d3e 98df 883e 154a 693e
00000070: c292 d63d ac97 e5bd 619e 413e de8b 453d
00000080: 6dbe 873e b125 273e 580d 5b3e ec41 7a3e
00000090: 051b 9e3e a2cb 98bb dc27 7bbd 7852 953e
000000a0: 65ee e43d daca 253e 5988 3a3e b16b 123e
000000b0: 2bd5 17be 5603 363e 012e 4cbe e220 333c
000000c0: e1aa eb3d 12cd 743e 8d0e 4b3e 7a8b cf3e
000000d0: 9b70 b23e 4238 a53d d34a 703d 42e2 033e
000000e0: 5754 533e ed8f 7e3e 1897 813e 371d 8b3e
000000f0: 7d75 ff3d 718c 80be 5b74 503e d0e5 073e
00000100: e665 81bb ed81 893e a4d9 e3bd b693 8ebd
00000110: 492c b9bc 14d0 1c3e 9126 1a3e 0bb5 2c3d
00000120: 2ec0 79bd 2e6c 8f3e 037e 063e 1117 4abe
00000130: d61a ef3d 52f7 a43d eeac 193e e809 313e
00000140: 37b8 253e 773f 903e d166 a33e 00bd 283e
00000150: c9eb 143e 459e ad3d 1467 ba3d 3855 843e
00000160: 15bb 6e3d 5f40 e43d 4954 523e 55d1 2a3e
00000170: b929 19ba 2270 083e 6bbb debd 0795 5b3e
00000180: e3a8 823e e61d fe3d 1991 a43d 2db0 543e
00000190: f022 fa3d d000 abbe 5ece 003e 7887 673e
000001a0: 903e 203e 8e25 c3b7 39da c33e 76fb 923e
000001b0: 749f 513e c6e7 c3bd f239 103e 49ad 043e
000001c0: d1be 08be d3eb 2b3e f36e 8d3e 8534 d93d
000001d0: 7562 3d3d de71 cd3d 263d 3c3d a163 0a3e
000001e0: 7a90 d13e 0529 953e fc69 60bd f278 013e
000001f0: 939c 00be ad45 033e 2113 683e 6f90 f13c
-0.03836199 0.32098556 0.15821987 -0.1207719 0.38804564 -0.017859997 0.31132427 0.14389038
0.15854283 0.00513847 0.10595884 0.23536015 0.1898122 0.1734456 0.16125715 0.06949471
0.28337738 0.030565435 0.061798498 0.17779744 0.307649 0.05118877 0.16328649 0.103816256
0.1558716 0.21590613 0.26733088 0.22782166 0.104772106 -0.1121057 0.18908073 0.04822909
0.2651247 0.16322972 0.21391809 0.2443921 0.3087999 -0.004662947 -0.06131731 0.2916448
0.11178283 0.16190663 0.18216075 0.14298894 -0.14827411 0.1777471 -0.19939424 0.010933133
0.11507202 0.23906353 0.1982977 0.405361 0.34851536 0.08067371 0.058665108 0.1287928
0.20637642 0.24859591 0.25310588 0.27170727 0.12473581 -0.25107148 0.20356886 0.1327126
-0.003948915 0.26856938 -0.11125496 -0.069617674 -0.022604125 0.1531375 0.15053774 0.042164844
-0.060974292 0.28012222 0.13134007 -0.19735362 0.116750404 0.08054985 0.15007374 0.17288935
0.16183554 0.2817342 0.3191438 0.16478348 0.1454307 0.08477453 0.09101692 0.25846267
0.058283884 0.1114509 0.20539965 0.16681416 -0.0005842704 0.13324025 -0.10875591 0.21443568
0.25519475 0.124080464 0.08035488 0.2077033 0.12213695 -0.33399057 0.12578723 0.22610271
0.15648866 -2.32633e-05 0.38252428 0.28707474 0.20470983 -0.09565692 0.14084604 0.12956728
-0.1335404 0.16789179 0.2762371 0.106057204 0.046236474 0.10031484 0.045956753 0.13514568
0.4093054 0.29132858 -0.054788575 0.12643793 -0.12559728 0.12819548 0.22663547 0.029487817

layer.6.weight f4 [8, 128]
00000000: 239a ad3d b636 dd3c 11ca 1f3d 3b47 293d
00000010: 8ae9 bd3c 9f53 c3bc 90f8 243d 4867 a63c
00000020: a692 393c 482b bcbc bdce fc3a 9033 aebb
00000030: a5d0 4f3d 8e53 3839 03ce a5bc b3e1 fa3c
00000040: f0a3 10bd 5a40 32bd 2272 0c3c 0fb9 01bc
00000050: b2c2 ee3c 2f09 303d a04b 1ebd 5211 7b3c
00000060: 26b2 ad3c c34a aabc 74c8 133c bb3a 33bc
00000070: 53ea dabc 2f80 233b 6801 7fbd 9d98 433d
00000080: 37d5 143c 1125 ecbc eacb 703c 0f84 d03a
00000090: c0ed 003d 5755 a33c 1608 efbc 3c8a 10bc
000000a0: 7189 12bd e090 44ba a7f6 f1bb e9ea 87bb
000000b0: d8b1 003c 99e0 b83b 7779 bd3c 65b4 95bc
000000c0: f2b5 86bc 191b c03c 2152 87bc 36ae 0a3d
000000d0: 0901 6dbb 9183 b13c bf47 e63c 896a bfbc
000000e0: 9e49 013d 6e05 fdbc c16f 073c 0071 e1bc
000000f0: 8808 01bd 4379 563c 9f20 283c de17 0bbd
00000100: 7e09 5fbc 84ef 023d 3d82 2b3c 8a2c 31bd
00000110: 2c7a 3fbd 718c 653d dfcd 8fbc 47ec 3eba
00000120: 208f c8bb 11c8 a03c e914 9dbb bac7 ba3c
00000130: 6747 07bd 25c9 49bd de7a 623d 63a9 7d3c
00000140: 58fc 5abc cbcf ca3c 9ff6 9cbc d67e 9fbc
00000150: 9581 9bbc 62e4 e7bc b17a 07bc aaae 83ba
00000160: 8faa 043a 4434 10bd 54bd 5f3c e923 89bb
00000170: 498b f9bc d531 76bc e01a 173c 1ef5 0dbc
00000180: 5b6e 103d 4975 9d3c 9786 8cbc bbb7 fdbb
00000190: 1aa4 813c 29e5 cdbb f646 903a 072d 99bd
000001a0: 3420 c4bb b223 d3bc 6d6b dfb9 b67c fb3c
000001b0: b87a 473d 86b0 77bd 60fe d4bc 4688 21bc
000001c0: 1d18 333d 54ce 2fbd 7368 993a 2522 863c
000001d0: 937d 003d 7bb7 653d e212 b7bc ef26 55bd
000001e0: 57bf 103d 1e0a 3fbd 1864 56bd 893c 01bd
000001f0: 46d3 1a3d ba03 4abd 5b9d 38bd 48c3 b53c
00000200: 0de9 4b3d e1ae 1cbd 2ac5 d0bb d9c6 a5bd
00000210: 3fd5 1c3d 5eb7 63bd e704 9bbc 75f2 213d
00000220: 412a 20bd a7da 4f3b 7582 08bd 91b0 c1bc
00000230: dc2e 5b3c aa67 2b3c 7d4f 03bc b30e 9cbc
00000240: bb86 1d3c 0e28 eebc 2278 27bd f3d8 5cbd
00000250: 1e61 bebb 04e8 fbbb cb20 b2bc d93c 0d3c
00000260: 5004 f73c cfd2 f23c 4b8e 5abc dca8 a03c
00000270: 8304 c33b ed6b a3bc cb05 c6bc 1393 883d
00000280: 88cf e0bc f0f7 133d 082e d8bc f514 d9ba
00000290: 6f25 a03d bae9 593d dc63 bc3c 82c6 373d
000002a0: 106b f8bc 29ba 783b cb40 c8bb 0a1f 2e3d
000002b0: bbb6 f839 efd4 b7bc e532 5d3c 2850 a0bc
000002c0: 91e0 ecb9 f97a c0bb 1b7c 21bc e67e d83c
000002d0: 654f 863c 83b5 bebc 46bd 39bc 32ae a7bc
000002e0: 2c61 4b3c abaf 2a3d fe92 b7ba 9036 cc3a
000002f0: 60bc e9bc 99ad 5b3c e914 2f3b 04e5 8b3c
00000300: 50c9 3bbc 5000 1b3d d2f1 bb3c 02ff a3bd
00000310: e79b 6f3c ff90 7bbc 946a f9bc 57d5 2abc
00000320: 0563 043d 5b4b 52bc 8099 84bd 6170 7e3d
00000330: 6b36 74bc fbdf 1fbd 073e 08bd 739b 8a3c
00000340: 041f dabc 1daa 9d3c a7ba fb3a 0940 3abc
00000350: 5773 bbbb 9351 7b3a 95ba 34b9 8402 f439
00000360: 65f1 1dbb c560 273c 678e 573c 924a be3c
00000370: d87f 2abc f555 983c b455 42bd ba33 c7bb
00000380: a6af f23c ee3e e0bb b71f 9e3b 391e 6a3b
00000390: 2fba 1cbd ccfe 723c b448 473d 265b aabd
000003a0: dce7 b1bc 7895 d03c 3826 aabc a7c7 38bc
000003b0: 44f0 a7bc a396 02bd e279 0f3b 4407 03bd
000003c0: 22fb 41bc 3d83 b8bc a457 0cbd 3b08 223c
000003d0: db42 6b3d d2de a83c fe6d 0bbc 5557 c53a
000003e0: 4d36 a4bb 6e0f 4bbc c44e fd3b cd73 2abd
000003f0: 8363 fbba bb46 533c 4525 2c3c ec05 13bc
0.08476665 0.027003627 0.039011065 0.041327696 0.02318265 -0.023843585 0.04027611 0.02031292
0.011326468 -0.022969857 0.0019287687 -0.0053162053 0.05073609 0.00017578734 -0.020239836 0.0306252
-0.035312593 -0.0435184 0.008572133 -0.007917657 0.029145572 0.04297751 -0.03864634 0.015323954
0.021203112 -0.020787602 0.00901996 -0.010939295 -0.026723063 0.002494823 -0.0622572 0.047752965
0.0090840375 -0.028826268 0.014697054 0.0015908497 0.031476736 0.019938154 -0.02917866 -0.00882202
-0.035775606 -0.00074983947 -0.0073841396 -0.0041478765 0.007854901 0.0056420085 0.023129208 -0.018274495
-0.01644418 0.023450421 -0.016518654 0.033857547 -0.0036163947 0.021669181 0.028110383 -0.02336623
0.031564347 -0.030886378 0.00826639 -0.027519703 -0.031502277 0.0130904345 0.010261684 -0.03395831
-0.013613103 0.0319667 0.010468063 -0.043255366 -0.04674737 0.05604214 -0.017554222 -0.0007283133
-0.0061205775 0.01962665 -0.0047937525 0.022800315 -0.03302708 -0.049264092 0.055292957 0.0154822795
-0.0133658275 0.024757287 -0.019160567 -0.01946966 -0.018982688 -0.028307144 -0.008268998 -0.0010046561
0.00050608156 -0.035206094 0.013655979 -0.004185189 -0.030461924 -0.015026529 0.009222716 -0.0086643975
0.035261493 0.019220965 -0.017154021 -0.0077428496 0.01582532 -0.0062834215 0.0011007476 -0.074792914
-0.005985284 -0.025773857 -0.00042613913 0.030699115 0.048701018 -0.06047108 -0.026000202 -0.00985915
0.043724168 -0.04292138 0.0011704102 0.016373703 0.031369757 0.056083184 -0.022347871 -0.052039083
0.035338726 -0.046640508 -0.05234155 -0.03155187 0.037799142 -0.04931996 -0.04507194 0.022187844
0.0497828 -0.038252715 -0.00637116 -0.08094568 0.038289305 -0.055594794 -0.018923236 0.039537866
-0.039102796 0.003171602 -0.03332754 -0.023643764 0.013377871 0.010461727 -0.008014557 -0.019049978
0.009614642 -0.029071834 -0.040886052 -0.053917836 -0.005809917 -0.0076875705 -0.021744153 0.008620464
0.030153424 0.029641537 -0.013339589 0.019611768 0.0059514656 -0.019948924 -0.024172684 0.06668677
-0.027442709 0.036125124 -0.026389137 -0.0016562032 0.0781964 0.053201415 0.022996835 0.044867046
-0.030324489 0.0037952757 -0.0061112395 0.04251007 0.0004743839 -0.022440402 0.013500904 -0.019569471
-0.00045180743 -0.0058740345 -0.009856249 0.026427697 0.01639528 -0.02327991 -0.01133663 -0.020468805
0.012413304 0.041671436 -0.0014005599 0.0015580226 -0.028532207 0.013408088 0.0026715344 0.017076977
-0.011461571 0.037842095 0.022942457 -0.08007623 0.014624572 -0.015354394 -0.030446328 -0.010426841
0.032320995 -0.012835349 -0.0647459 0.06211889 -0.014905552 -0.039031964 -0.03326228 0.016919827
-0.026626118 0.019246155 0.0019205407 -0.011367806 -0.0057205367 0.00095870456 -0.00017235645 0.0004654118
-0.0024100181 0.010215943 0.01315651 0.023228917 -0.010406457 0.018595675 -0.047445014 -0.0060791643
0.029624771 -0.0068434393 0.004825558 0.003572358 -0.038263496 0.014831256 0.04865332 -0.083181664
-0.021717004 0.025461897 -0.020770177 -0.01127807 -0.02050031 -0.03188194 0.0021892716 -0.03198935
-0.01183966 -0.022523517 -0.034263268 0.009889658 0.057436805 0.020614062 -0.008510111 0.0015055934
-0.005011356 -0.012393815 0.007730337 -0.041614342 -0.0019179437 0.012895281 0.010506933 -0.00897358

layer.6.bias f4 [8]
00000000: eab3 eb3c f01a 663d 948e 7c3b 86c7 4c3d
00000010: 2bea c33d 3358 4c3e 33a8 e73c fb95 e63c
0.028772313 0.056178033 0.0038537132 0.049994968 0.09566148 0.1995552 0.028278446 0.028147688
