final/save/1l_0.95_200_morelayer/save3_9500.pth (torch_old, 50952 bytes, 8 tensors)

layer.0.weight f4 [32, 28]
-0.07444603 -0.21475722 0.18917942 -0.19990677 -0.026222283 0.14774388 0.06625794 0.100148484
0.03818284 -0.0838049 0.09749013 -0.05594672 0.05032198 0.16512255 -0.07071424 0.18747137
0.10651446 0.16805713 0.14324476 0.073005326 0.099289425 -0.03679137 0.024207138 0.23353839
0.061670944 0.04027504 -0.10435385 -0.074721925 0.18206991 0.1322125 0.11329605 0.22837034
0.08258819 -0.02787016 0.033164084 -0.062300373 -0.116180874 0.001453854 -0.04918505 0.07793609
-0.123938024 -0.040546365 -0.08666702 0.11576564 0.009194059 0.21256082 -0.08914374 0.15788464
0.0732813 0.076409675 -0.12350565 -0.20572904 -0.060263745 0.027769117 0.1501274 0.033324786
0.1571678 0.09474992 -0.04810404 0.042211678 0.04082006 0.04312371 0.20448463 -0.07672393
-0.040008828 -0.0108942045 0.1645157 0.016511176 0.20274474 -0.08107337 0.08965626 -0.05150744
-0.007098531 -0.116738886 -0.1852002 0.005095973 -0.16560869 0.027866013 -0.1550077 -0.2431123
-0.0149930045 0.08567219 0.033016197 0.12686844 -0.03808837 -0.011613878 0.082559064 -0.07908854
0.08943756 0.0863724 0.26710087 0.24976455 -0.12092131 0.19433098 0.21106488 0.10249152
-0.043923907 -0.124045625 -0.06420929 -0.1586837 0.15932098 -0.020857768 -0.090702936 -0.14028674
-0.09646702 -0.14950038 -0.14249675 -0.10789818 -0.009098865 -0.02397012 0.14879864 -0.030324953
-0.20525204 -0.16849042 -0.044647988 -0.17154694 -0.21484248 -0.12081146 0.0015450306 -0.0116876075
0.040163014 -0.09637446 0.07457623 -0.04356025 0.17154278 0.04971089 0.22644939 0.24437816
0.19064309 0.13433546 0.08822653 0.005516722 0.18890548 0.0262295 0.045315266 -0.0041931802
0.037727866 -0.09346634 -0.07725179 -0.037673663 0.029377054 -0.046081893 0.08284366 0.09940868
-0.14269732 0.09566812 0.13904227 0.17016031 0.15154518 0.20870472 0.22721712 0.1370453
-0.05104993 -0.089482956 -0.12057026 0.082796305 -0.13389906 0.02943289 -0.16566998 -0.060960267
-0.14990103 -0.082562916 -0.15070888 -0.0049466626 -0.044619765 -0.0016560948 0.037620276 -0.11958536
0.14166501 0.100118615 0.04251184 -0.1236712 -0.112087384 -0.2569271 0.020867057 0.10011212
0.20074385 -0.12513265 -0.28601313 -0.017939009 0.007460326 0.098464236 0.12317206 0.18407719
0.10331554 -0.1359359 -0.022369077 -0.023343505 0.038073123 0.04266633 -0.13572584 0.2614653
0.23099151 0.031302378 -0.036179557 0.14571427 0.077863604 0.05905063 0.025109852 0.18731196
-0.059044525 -0.010919658 -0.13384609 0.13828194 0.18334234 -0.06749599 0.051072888 0.12296157
0.049751956 -0.067535035 0.010491243 0.27016392 0.18775043 0.03831078 -0.043530356 0.15128215
0.054329775 -0.10685848 -0.011522138 0.068177655 -0.07696504 0.063073054 -0.020063993 0.017800981
0.14967202 0.086152114 -0.17890988 0.14955613 0.108382635 0.05949285 -0.22507519 -0.3194801
-0.23420772 0.04698752 0.1368718 0.090939805 0.097466186 -0.011302941 -0.10587828 0.0651881
-0.063077465 -0.030435253 -0.075980976 -0.1465244 -0.09114501 -0.1395475 0.033262413 0.16632786
-0.015222224 0.15287685 -0.09420671 -0.018210758 0.0051930705 -0.074006066 -0.16244201 -0.2170038
00000000: 2977 98bd 51e9 5bbe 40b8 413e 5cb4 4cbe
00000010: 1dd0 d6bc 2c4a 173e 3eb2 873d a61a cd3d
00000020: 9c65 1c3d e7a1 abbd e8a8 c73d 6328 65bd
00000030: 6c1e 4e3d e315 293e a1d2 90bd 7ff8 3f3e
00000040: 4124 da3d 2b17 2c3e c1ae 123e d183 953d
00000050: 4158 cb3d 8cb2 16bd 0c4e c63c b024 6f3e
00000060: ac9a 7c3d 71f7 243d 79b7 d5bd cf07 99bd
00000070: 8970 3a3e b762 073e c207 e83d ead9 693e
00000080: ff23 a93d f64f e4bc 10d7 073d ad2e 7fbd
00000090: 3df0 edbd 3f8f be3a 4376 49bd f59c 9f3d
000000a0: 38d3 fdbd f213 26bd 7b7e b1bd 8916 ed3d
000000b0: aea2 163c 8ba9 593e fe90 b6bd 83ac 213e
000000c0: 8214 963d ad7c 9c3d 88f0 fcbd a2aa 52be
000000d0: 1ed7 76bd 0f7c e33c ffba 193e 927f 083d
000000e0: 99f0 203e 3f0c c23d be08 45bd 27e6 2c3d
000000f0: ef32 273d 7da2 303d 6b64 513e 7021 9dbd
00000100: 4ce0 23bd 9b7d 32bc ce76 283e 7242 873c
00000110: 519c 4f3e cc09 a6bd b49d b73d 77f9 52bd
00000120: cb9a e8bb cc14 efbd 1fa5 3dbe 1ffc a63b
00000130: 5395 29be 4447 e43c 57ba 1ebe 6ef2 78be
00000140: 38a5 75bc e774 af3d fe3b 073d cde9 013e
00000150: 8d02 1cbd 2348 3ebc ba14 a93d 2cf9 a1bd
00000160: 0a2b b73d 03e4 b03d 72c1 883e 47c2 7f3e
00000170: 97a5 f7bd b3fe 463e 6421 583e 13e7 d13d
00000180: 8ee9 33bd a20b febd 2980 83bd fb7d 22be
00000190: 0a25 233e e9dd aabc 76c2 b9bd 54a7 0fbe
000001a0: 8090 c5bd a116 19be abea 11be b9f9 dcbd
000001b0: 6813 15bc fc5c c4bc ac5e 183e 096c f8bc
000001c0: 972d 52be c188 2cbe cfe0 36bd 00aa 2fbe
000001d0: abff 5bbe 006c f7bd a082 ca3a 617d 3fbc
000001e0: f981 243d f95f c5bd 6cbb 983d 3c6c 32bd
000001f0: e9a8 2f3e a59d 4b3d 59e2 673e 453e 7a3e
00000200: f137 433e 3c8f 093e 1cb0 b43d 9ec5 b43b
00000210: 7070 413e 40df d63c 809c 393d f266 89bb
00000220: 8988 1a3d 486b bfbd 3036 9ebd b34f 1abd
00000230: 26a8 f03c 5ec0 3cbd f0a9 a93d c796 cb3d
00000240: 3f1f 12be a6ed c33d 1961 0e3e 813e 2e3e
00000250: a92e 1b3e b1b6 553e 9bab 683e 9a55 0c3e
00000260: bb19 51bd d742 b7bd 8aed f6bd 1c91 a93d
00000270: d61c 09be 3e1d f13c 64a5 29be 79b1 79bd
00000280: a87f 19be bf16 a9bd 6e53 1abe 9d17 a2bb
00000290: 37c3 36bd 5211 d9ba b817 1a3d 2be9 f4bd
000002a0: a210 113e fd0a cd3d e520 2e3d 5347 fdbd
000002b0: 128e e5bd f38b 83be 64f1 aa3c 9507 cd3d
000002c0: cc8f 4d3e c622 00be 5070 92be d4f4 92bc
000002d0: c075 f43b 9ea7 c93d a241 fc3d bb7e 3c3e
000002e0: 1997 d33d c832 0bbe 5b3f b7bc e13a bfbc
000002f0: 90f2 1b3d e4c2 2e3d b7fb 0abe c8de 853e
00000300: 0a89 6c3e ec36 003d 0431 14bd 1f36 153e
00000310: f476 9f3d 13df 713d 2db3 cd3c b5ce 3f3e
00000320: acd8 71bd 5de8 32bc f30e 09be c899 0d3e
00000330: 18be 3b3e 563b 8abd ce31 513d 47d3 fb3d
00000340: b5c8 4b3d cf4f 8abd 76e3 2b3c ed52 8a3e
00000350: a641 403e c4eb 1c3d e34c 32bd b5e9 1a3e
00000360: e688 5e3d 9ed8 dabd 59c7 3cbc baa0 8b3d
00000370: d99f 9dbd 722c 813d 3e5d a4bc 5dd3 913c
00000380: 9f43 193e 8570 b03d 2734 37be 3e25 193e
00000390: b7f7 dd3d c6ae 733d 1c7a 66be e592 a3be
000003a0: 26d4 6fbe fc75 403d 1f28 0c3e a63e ba3d
000003b0: 5a9c c73d f82f 39bc b6d6 d8bd 5781 853d
000003c0: c22e 81bd 5a53 f9bc ea9b 9bbd 7e0a 16be
000003d0: 3caa babd 8ae5 0ebe 2b3e 083d da51 2a3e
000003e0: a366 79bc c08b 1c3e 73ef c0bd ba2e 95bc
000003f0: a22a aa3b 7e90 97bd 3357 26be 3f36 5ebe

layer.0.bias f4 [32]
-0.17693354 0.17731535 0.09501466 0.03785794 -0.15582691 -0.1893088 -0.00047687578 -0.034737363
0.15919334 -0.14620537 -0.12513615 0.021912726 0.1607286 0.22465253 0.06480391 0.67249465
0.25838172 0.018654441 -0.12397416 0.19328041 0.1418219 0.2432042 -0.14542192 0.033751614
0.052191895 0.093033 0.12604932 -0.13790116 0.19735181 0.012425235 -0.047785204 0.17128098
00000000: 112e 35be 2892 353e 0c97 c23d ed10 1b3d
00000010: 1791 1fbe 2bda 41be 2f05 fab9 c448 0ebd
00000020: 9403 233e dcb6 15be b123 00be 5182 b33c
00000030: 0a96 243e 500b 663e eab7 843d 9c28 2c3f
00000040: 9c4a 843e 33d1 983c 2ae6 fdbd 4deb 453e
00000050: c339 113e 860a 793e 7ce9 14be 223f 0a3d
00000060: 2bc7 553d 1688 be3d 1313 013e f635 0dbe
00000070: 9816 4a3e 3693 4b3c 6bba 43bd 4864 2f3e

layer.2.weight f4 [64, 32]
-0.026469212 0.032703824 -0.023341617 0.23686217 -0.028553138 0.06756008 -0.1479512 -0.006694987
0.09291093 -0.06648704 -0.054568697 -0.07452504 0.2605459 0.13220325 0.22479735 -0.41035712
0.16410704 -0.08623838 0.057712313 -0.23370351 -0.12805107 0.0005073486 0.14922568 -0.10248
-0.007651968 0.13870496 0.0037953055 0.11736056 -0.1828473 -0.19514866 0.14584315 -0.018749254
-0.045617577 -0.07924419 -0.10764739 -0.31039917 -0.01795398 -0.1899152 -0.15416977 0.1075376
-0.363851 0.042105205 -0.23414601 0.1099338 -0.1976466 0.03942672 0.08058282 -0.58300024
-0.05074544 -0.01935637 -0.17035237 0.25477105 0.08820229 0.18556397 0.1980983 0.1694365
0.052524593 -0.16090195 0.14790559 -0.09346226 0.03177841 -0.079669274 -0.18450037 -0.08969918
-0.12436719 0.027250018 0.11722642 -0.27966142 -0.16416289 -0.1355956 0.09878781 0.16896777
0.13339998 -0.18453544 -0.00068662985 -0.07268002 0.27211925 -0.08044857 -0.055708755 -0.3140905
0.1380934 0.028457604 0.035537753 -0.19929282 0.04291344 0.015698018 0.025273899 0.012489723
-0.09707363 -0.31547946 0.15082647 -0.028610816 -0.20096952 -0.24707022 0.104944736 0.057380505
-0.22377007 0.12644707 0.15949981 -0.40496472 -0.27404764 -0.08767327 0.07414093 0.2237418
0.25821343 -0.19427148 -0.0047614905 -0.11705615 0.11420812 0.0059795007 0.006999407 -0.17094973
0.033323847 0.050724287 -0.1937225 -0.09601536 0.1728661 -0.08077975 0.034854554 0.023219412
-0.13158117 -0.6354421 0.16564104 -0.04279555 -0.018078621 -0.14550638 -0.08734064 0.09407334
-0.043168794 -0.05850344 0.07798535 -0.003218883 0.08001045 -0.118644394 -0.015133694 -0.021705462
0.00046325012 -0.13277161 -0.14597216 0.13284674 -0.06989166 -0.09253968 -0.10745327 -0.4468662
0.16748792 -0.033191107 -0.006240862 0.07454206 -0.09883027 -0.0021587496 0.044930916 0.053981017
0.072353125 -0.008481887 -0.20017812 0.011811293 0.102456614 0.14991036 -0.06576904 0.14138146
0.17086834 0.17495349 -0.024713818 -0.391489 0.12730844 -0.1110531 -0.049061634 0.041159835
0.28069073 0.010468578 -0.058658578 0.015886394 0.1028928 -0.08788545 0.013939615 0.42024836
0.11598421 0.093368456 0.113763176 0.0035203223 0.1595011 -0.18820186 0.18713585 0.10970055
-0.09885785 -0.46865964 0.1371135 0.012898954 -0.04277179 -0.06322642 -0.20616408 -0.099823594
0.10197583 -0.035362683 0.084730044 -0.11708247 -0.1630073 -0.098693214 -0.14002867 -0.06378631
-0.10801335 0.021683635 -0.24977413 0.143017 -0.054536246 0.26238263 0.1908761 -0.027584631
0.028386418 -0.05637311 -0.21420416 0.26864985 0.06092501 -0.057026044 0.11770309 0.1278133
0.06738019 -0.26750597 -0.14937846 0.03459736 0.047375612 -0.09589811 -0.16360027 -0.18374656
0.08109287 -0.018141685 0.033698063 -0.07446733 0.1204186 -0.03535981 0.03893821 0.06331567
0.065301 0.13671249 0.18801904 -0.00990406 0.066472985 0.16338049 -0.27703708 0.07392573
0.10755602 0.07113575 -0.18161952 0.0014929394 0.05642102 -0.10101488 0.16884954 0.0015947592
-0.15039194 -0.0490934 -0.20287274 -0.15678582 -0.11958416 -0.15448084 0.030334963 0.117392145
00000000: f6d5 d8bc 72f4 053d eb36 bfbc ff8b 723e
00000010: 45e8 e9bc f05c 8a3d 8580 17be 9f61 dbbb
00000020: 1648 be3d 5b2a 88bd 6d83 5fbd 96a0 98bd
00000030: 4666 853e 4a60 073e 4731 663e 541a d2be
00000040: ad0b 283e bf9d b0bd bf63 6c3d f94f 6fbe
00000050: d21f 03be 97ff 043a 9ece 183e 09e1 d1bd
00000060: 5cbd fabb ac08 0e3e a9ba 783b bc5a f03d
00000070: 533c 3bbe 0dd5 47be e857 153e 0998 99bc
00000080: 7fd9 3abd c74a a2bd 3c76 dcbd a4ec 9ebe
00000090: 3a14 93bc 2179 42be aede 1dbe ac3c dc3d
000000a0: ae4a babe 8276 2c3d f9c3 6fbe f924 e13d
000000b0: df63 4abe ea7d 213d 9b08 a53d 813f 15bf
000000c0: 73da 4fbd 4091 9ebc da70 2ebe 5a71 823e
000000d0: 67a3 b43d 7b04 3e3e 48da 4a3e c380 2d3e
000000e0: 0724 573d 7bc3 24be 9074 173e 2469 bfbd
000000f0: 142a 023d a529 a3bd aaed 3cbe 34b4 b7bd
00000100: 3ab4 febd 6e3b df3c 6814 f03d c82f 8fbe
00000110: 511a 28be 93d9 0abe 4351 ca3d e305 2d3e
00000120: 019a 083e dcf6 3cbe f3fe 33ba 43d9 94bd
00000130: 3753 8b3e 38c2 a4bd dd2e 64bd 78d0 a0be
00000140: 5b68 0d3e ec1f e93c 0990 113d 6b13 4cbe
00000150: 01c6 2f3d 2199 803c 350b cf3c b2a1 4c3c
00000160: 8ace c6bd 8686 a1be 4172 1a3e 3b61 eabc
00000170: f4ca 4dbe faff 7cbe 44ed d63d d207 6b3d
00000180: fb23 65be 577b 013e eb53 233e 8957 cfbe
00000190: f94f 8cbe 0b8e b3bd 33d7 973d 921c 653e
000001a0: 8d34 843e 1aef 46be 4706 9cbb 23bb efbd
000001b0: f2e5 e93d b0ef c33b 485b e53b 720d 2fbe
000001c0: 967e 083d 45c4 4f3d 315f 46be b3a3 c4bd
000001d0: d003 313e db6f a5bd a6c3 0e3d a336 be3c
000001e0: 37bd 06be 55ac 22bf ce9d 293e 634a 2fbd
000001f0: 9e19 94bc a0ff 14be a6df b2bd 86a9 c03d
00000200: c3d1 30bd 4ea1 6fbd c8b6 9f3d e5f3 52bb
00000210: 85dc a33d d5fb f2bd 50f3 77bc a7cf b1bc
00000220: 61e0 f239 48f5 07be ba79 15be fa08 083e
00000230: 5c23 8fbd 7285 bdbd 7610 dcbd a6cb e4be
00000240: f481 2b3e 66f3 07bd 2580 ccbb 82a9 983d
00000250: 8667 cabd cf79 0dbb 7b09 383d 331b 5d3d
00000260: e02d 943d 9df7 0abc 7efb 4cbe 2784 413c
00000270: c6d4 d13d 1a82 193e ebb1 86bd 4dc6 103e
00000280: 1cf8 2e3e 0227 333e a274 cabc 3f71 c8be
00000290: 255d 023e cf6f e3bd daf4 48bd 3797 283d
000002a0: b2b6 8f3e 6684 2b3c fa43 70bd 2f24 823c
000002b0: 76b9 d23d 49fd b3bd fc62 643c cb2a d73e
000002c0: 2189 ed3d f637 bf3d abfc e83d 35b5 663b
000002d0: 4254 233e fdb7 40be 8aa0 3f3e afaa e03d
000002e0: fc75 cabd 28f4 efbe 7b67 0c3e 2256 533c
000002f0: 7931 2fbd da7c 81bd ad1c 53be 5070 ccbd
00000300: b4d8 d03d 76d8 10bd f286 ad3d efc8 efbd
00000310: 63eb 26be ab1f cabd ad63 0fbe 66a2 82bd
00000320: 1a36 ddbd e1a1 b13c cac4 7fbe 0c73 123e
00000330: 6661 5fbd 0457 863e 0675 433e 2af9 e1bc
00000340: a28a e83c 7de7 66bd 5658 5bbe 798c 893e
00000350: 818c 793d 2494 69bd 510e f13d 7de1 023e
00000360: a0fe 893d 8bf6 88be abf6 18be f6b5 0d3d
00000370: ee0c 423d 3a66 c4bd d486 27be 0f28 3cbe
00000380: 0514 a63d df9d 94bc fb06 0a3d 5482 98bd
00000390: 079e f63d 73d5 10bd ac7d 1f3d a5ab 813d
000003a0: 88bc 853d 5cfe 0b3e 1088 403e a344 22bc
000003b0: fd22 883d 374d 273e ced7 8dbe 6066 973d
000003c0: 5546 dc3d 9faf 913d 78fa 39be bcae c33a
000003d0: ba19 673d e4e0 cebd e5e6 2c3e 3d07 d13a
000003e0: 5800 1abe 2916 49bd dfbd 4fbe 768c 20be
000003f0: 8ae8 f4bd 3a30 1ebe 0781 f83c 4b6b f03d

layer.2.bias f4 [64]
0.29451448 0.24863234 0.1787901 -0.033389978 0.44097942 0.13500427 0.00040322283 -0.0004501481
0.11377169 -0.019400407 0.060415182 0.40033525 0.12788348 0.049206346 -0.0042987373 0.13515453
-0.09466177 0.046105992 0.03224556 0.2615761 -0.044398434 -0.09091135 0.018709842 0.08112477
0.08478838 -0.07494094 -0.3662719 0.084609956 0.17148192 0.0467718 -0.11185175 0.27730188
0.010078089 0.1006581 0.055745095 -0.13972417 0.08330383 0.13093404 0.06262888 -0.025868246
-0.13946232 0.113043115 -0.093945704 0.17440581 0.35091412 0.060816426 -0.075255655 0.016076736
-0.109007046 -0.39795184 -0.033125542 -0.045193903 0.11138752 -0.2850499 0.24218279 -0.03880945
0.16532373 0.019424777 0.005467879 0.3545861 0.083957 0.0895718 0.024072804 0.005634625
00000000: 9aca 963e 7a99 7e3e c114 373e eec3 08bd
00000010: 0ec8 e13e 8f3e 0a3e a767 d339 db01 ecb9
00000020: 2201 e93d 9aed 9ebc e975 773d bef8 cc3e
00000030: e3f3 023e 988c 493d 6cdc 8cbb f365 0a3e
00000040: 08de c1bd a3d9 3c3d ec13 043d 4ded 853e
00000050: 22db 35bd bb2f babd 6245 993c be24 a63d
00000060: 88a5 ad3d a37a 99bd fe87 bbbe fc47 ad3d
00000070: f598 2f3e c993 3f3d 8812 e5bd 83fa 8d3e
00000080: 921e 253c d525 ce3d f854 643d da13 0fbe
00000090: 339b aa3d 9313 063e 9243 803d a5e9 d3bc
000000a0: 36cf 0ebe 2683 e73d 9b66 c0bd 7097 323e
000000b0: 04ab b33e a51a 793d a31f 9abd 5cb3 833c
000000c0: 163f dfbd 58c0 cbbe a6ae 07bd 3e1d 39bd
000000d0: 241f e43d 0ff2 91be c4fe 773e a8f6 1ebd
000000e0: a04a 293e b620 9f3c e52b b33b 4f8c b53e
000000f0: a6f1 ab3d 6b71 b73d 5434 c53c a9a2 b83b

layer.4.weight f4 [128, 64]
0.013037752 0.0077017206 0.13858244 0.05516832 -0.108884946 -0.077313595 0.0507723 0.08226362
-0.01066008 0.09009429 -0.025110459 0.1556385 -0.03396659 0.19243857 0.02044474 0.09763185
0.042688902 0.053186856 0.072231196 0.15167429 -0.060616523 0.13805653 -0.046926267 0.032741748
0.13733095 -0.104770064 0.18170555 0.08902088 -0.032405756 0.009424629 0.08869441 0.1180179
-0.043103065 0.033142164 -0.035140023 0.12690532 0.031992793 -0.24081069 -0.04497905 0.06942455
-0.09963118 0.068388104 0.061014354 0.08494125 0.025058396 0.13274357 -0.44498104 -0.024977164
-0.11515283 -0.05167542 -0.027317824 0.23030052 0.21672818 -0.033222232 0.09477332 0.04114014
0.031817097 -0.12386049 0.10212355 0.031284988 -0.036756035 -0.14591849 -0.03494105 0.020351818
0.12438565 0.16845626 0.04884193 -0.14866398 0.1798999 -0.16920926 0.033783857 -0.047914986
-0.01202689 0.15274535 -0.21160585 0.12926991 0.05610128 -0.009080813 0.10804219 -0.023397489
-0.09018742 0.103981495 0.031697594 -0.0064923526 0.10251023 -0.113178015 -0.037832968 0.0035799798
0.08822732 -0.07157785 -0.07679266 -0.048818033 0.108695135 -0.11062836 -0.081473134 0.18358473
-0.018878618 0.10887505 -0.085892774 0.017394139 0.037834093 0.022573052 -0.030597603 -0.07605656
0.003525706 0.09716388 -0.009051462 -0.006125797 0.15815331 -0.01594963 -0.07621814 -0.18263887
-0.05364992 -0.17052658 -0.057539504 -0.041438047 0.051275708 -0.09394682 0.10909875 -0.022961352
0.12434733 -0.20902109 -0.11025401 0.10883233 -0.0990815 0.080121 -0.07484175 0.13114884
-0.036777176 0.11204472 0.0848172 0.12684025 -0.16796234 0.13960244 0.15801261 0.11146338
-0.0343887 0.16261503 -0.088670924 -0.0688356 -0.07949623 0.113463715 0.15061787 -0.021599885
-0.11146984 0.18137972 -0.09089093 -0.08002972 0.09811916 0.004165241 0.11074516 0.1779054
0.012582806 -0.20447642 0.2413574 0.02158453 0.09892567 -0.045893796 -0.13036539 -0.04854797
-0.006755941 0.08312667 0.05681518 0.012351026 0.13574836 -0.15869546 -0.15040836 0.08585205
0.06489565 -0.05177328 0.10449935 -0.014291097 -0.00026137722 0.11962652 -0.45028397 0.07237239
-0.033096 0.03626411 -0.07358017 0.18155931 0.20366757 0.14426191 0.11639448 0.13414958
0.096135214 0.20780568 0.06514977 -0.11502202 0.12638105 0.024444032 -0.0626298 -0.012932024
-0.08597808 -0.032073364 -0.11223354 0.07052433 -0.06719989 0.06463026 -0.050375625 0.04560696
0.0764837 -0.005361825 -0.06844317 -0.11121832 -0.08529996 -0.042332835 -0.12945117 -0.0903344
0.005989123 -0.024791272 -0.06818014 0.041847 -0.01793034 0.00080864545 -0.0744453 -0.11974757
-0.0721841 -0.07412225 -0.088031165 0.04218455 -0.07710882 0.0843226 -0.036876623 -0.09754882
-0.077535406 -0.043257404 0.038504854 -0.12122669 -0.103679344 0.094916694 0.0905145 0.035223287
-0.106958814 0.078050986 0.08820885 0.050840236 0.08738853 0.052779917 -0.042421445 -0.034433067
0.03886417 0.039084017 -0.054472137 -0.10728446 -0.018049113 -0.0139303 -0.014652881 -0.019506812
0.014420107 0.023344003 0.05352871 -0.0190303 0.087561525 -0.07876754 -0.09824576 -0.015132105
00000000: 4c9c 553c b75e fc3b 8ee8 0d3e 2df8 613d
00000010: 12ff debd 9756 9ebd 9ef6 4f3d d479 a83d
00000020: 9ea7 2ebc 5b83 b83d 73b4 cdbc b35f 1f3e
00000030: 8d20 0bbd 9e0e 453e ba7b a73c 35f3 c73d
00000040: 8fda 2e3d 76da 593d f3ed 933d 8150 1b3e
00000050: 0849 78bd b15e 0d3e c235 40bd 361c 063d
00000060: 7ca0 0c3e b091 d6bd 0511 3a3e 9450 b63d
00000070: e6bb 04bd c269 1a3c 6aa5 b53d 5eb3 f13d
00000080: d78c 30bd 14c0 073d fcee 0fbd 78f3 013e
00000090: e00a 033d 1497 76be f43b 38bd 752e 8e3d
000000a0: 6f0b ccbd 100f 8c3d 30ea 793d aef5 ad3d
000000b0: 4447 cd3c eeed 073e 8ed4 e3be e99c ccbc
000000c0: 3fd5 ebbd 9ba9 53bd a1c9 dfbc e6d3 6b3e
000000d0: feed 5d3e 0914 08bd 8418 c23d 9082 283d
000000e0: a552 023d 92aa fdbd 2726 d13d b024 003d
000000f0: 7f8d 16bd a86b 15be 591e 0fbd dbb8 a63c
00000100: e7bd fe3d cc7f 2c3e 7a0e 483d 5f3b 18be
00000110: ae37 383e 3145 2dbe f160 0a3d 8142 44bd
00000120: 6f0c 45bc 4769 1c3e 34af 58be 555f 043e
00000130: 75ca 653d b1c7 14bc 3945 dd3d 17ac bfbc
00000140: 2fb4 b8bd 40f4 d43d 56d5 013d cdbd d4bb
00000150: e2f0 d13d e0c9 e7bd bef6 1abd 189e 6a3b
00000160: 86b0 b43d 6897 92bd 7845 9dbd 6bf5 47bd
00000170: 8e9b de3d 1f91 e2bd 63db a6bd a3fd 3b3e
00000180: 55a7 9abc e2f9 de3d 8de8 afbd 277e 8e3c
00000190: ecf7 1a3d 1feb b83c d3a7 fabc 8bc3 9bbd
000001a0: 880f 673b dbfd c63d 954c 14bc e9ba c8bb
000001b0: f1f2 213e cca8 82bc 4218 9cbd af05 3bbe
000001c0: 05c0 5bbd 859e 2ebe 8bae 6bbd f1ba 29bd
000001d0: 7a06 523d 3167 c0bd 2a6f df3d 7219 bcbc
000001e0: d0a9 fe3d a009 56be dbcc e1bd 7ce3 de3d
000001f0: 3eeb cabd 7b16 a43d a246 99bd e24b 063e
00000200: aaa3 16bd b477 e53d a4b4 ad3d 69e2 013e
00000210: 52fe 2bbe f1f3 0e3e 0fce 213e ea46 e43d
00000220: 2adb 0cbd 8e84 263e 1a99 b5bd aef9 8cbd
00000230: ebce a2bd aa5f e83d 923b 1a3e 3ef2 b0bc
00000240: 4d4a e4bd 9bbb 393e 0625 babd 9fe6 a3bd
00000250: b3f2 c83d 937c 883b 5cce e23d d52c 363e
00000260: 1d28 4e3c 4462 51be 6526 773e 0ad2 b03c
00000270: 8b99 ca3d 22fb 3bbd 817e 05be 3cda 46bd
00000280: f160 ddbb 513e aa3d 09b7 683d f55b 4a3c
00000290: 9e01 0b3e 1081 22be a604 1abe 33d3 af3d
000002a0: 03e8 843d 3810 54bd c103 d63d 3525 6abc
000002b0: 7509 89b9 c0fe f43d 9f8b e6be fa37 943d
000002c0: ac8f 07bd ad89 143d 33b1 96bd afea 393e
000002d0: 3b8e 503e 65b9 133e 3b60 ee3d 825e 093e
000002e0: 8ae2 c43d 03cb 543e 3e6d 853d aa90 ebbd
000002f0: 096a 013e da3e c83c 0d44 80bd d7e0 53bc
00000300: 4715 b0bd 5c5f 03bd b3da e5bd 0f6f 903d
00000310: 19a0 89bd df5c 843d ac56 4ebd 5dce 3a3d
00000320: 7ca3 9c3d 40b2 afbb ef2b 8cbd 6ec6 e3bd
00000330: bfb1 aebd 3265 2dbd d98e 04be 3e01 b9bd
00000340: 6840 c43b 1117 cbbc 07a2 8bbd c367 2b3d
00000350: a6e2 92bc 47fb 533a c776 98bd 373e f5bd
00000360: 42d5 93bd 68cd 97bd af49 b4bd b5c9 2c3d
00000370: 3beb 9dbd 54b1 ac3d f10b 17bd adc7 c7bd
00000380: e2ca 9ebd ad2e 31bd 44b7 1d3d b345 f8bd
00000390: d655 d4bd af63 c23d ab5f b93d 4b46 103d
000003a0: 390d dbbd 32d9 9f3d d7a6 b43d da3d 503d
000003b0: c2f8 b23d c12f 583d 1cc2 2dbd b009 0dbd
000003c0: 0930 1f3d 9016 203d 2d1e 5fbd f4b7 dbbd
000003d0: bcdb 93bc ea3b 64bc a312 70bc c0cc 9fbc
000003e0: 5042 6c3c ec3b bf3c ec40 5b3d 6fe5 9bbc
000003f0: 7553 b33d e050 a1bd 1335 c9bd a6ec 77bc

layer.4.bias f4 [128]
-0.036140483 0.28127754 0.1458988 -0.1207719 0.3611932 -0.0027313137 0.29596722 0.1421965
0.13700074 -0.0044441926 0.103599764 0.20962419 0.18317486 0.18402472 0.17578116 0.087320924
0.27679977 -0.0044102278 0.07949888 0.13305077 0.25863937 0.026149856 0.116969675 0.069347166
0.13742526 0.17922296 0.23463857 0.201703 0.08879484 -0.087567456 0.16336364 0.021233661
0.2316366 0.12927608 0.17428389 0.22966403 0.29057756 -0.041056495 -0.052569948 0.2521524
0.080898024 0.25497308 0.11413517 0.08707347 -0.14007455 0.16075717 -0.1767814 0.009124683
0.11751344 0.2189593 0.17025085 0.3702478 0.31969053 0.055228632 0.025653806 0.12091334
0.17991635 0.2492758 0.22812617 0.2647675 0.12260925 -0.2066832 0.19548152 0.102021866
-0.009480171 0.22090097 -0.048256006 -0.057037916 -0.010553226 0.13104089 0.07858672 0.02717087
-0.04786967 0.24265102 0.1143438 -0.16423652 0.10165074 0.019189894 0.12957895 0.13838238
0.14985694 0.2423209 0.2729824 0.14254706 0.10065142 0.057580158 0.03486202 0.23308936
0.038238794 0.092179894 0.20959134 0.13722041 0.012182395 0.12789868 -0.08805124 0.17769672
0.21450315 0.08916271 0.04072159 0.18906331 0.15006946 -0.26627213 0.12103339 0.19387667
0.12709779 0.030479582 0.35483402 0.24862695 0.15327542 -0.06485942 0.13507332 0.08276518
-0.16351329 0.18791264 0.25825027 0.08344086 0.013080338 0.073544994 0.067565076 0.09875053
0.3736535 0.29016176 -0.048304006 0.12381861 -0.09239223 0.110810444 0.19075087 0.017861055
00000000: 0b08 14bd 9c03 903e 7f66 153e 4257 f7bd
00000010: 51ee b83e d7ff 32bb 0489 973e f69b 113e
00000020: ec49 0c3e 97a0 91bb 1d2c d43d b9a7 563e
00000030: 3192 3b3e fa70 3c3e faff 333e 50d5 b23d
00000040: b3b8 8d3e ac83 90bb 4fd0 a23d 763e 083e
00000050: 616c 843e 3938 d63c cc8d ef3d e305 8e3d
00000060: 35b9 0c3e 3986 373e 1845 703e 3b8b 4e3e
00000070: 12da b53d 9156 b3bd cc48 273e 37f2 ad3c
00000080: 2532 6d3e f360 043e 7a77 323e 0c2d 6b3e
00000090: 95c6 943e db2a 28bd 9653 57bd 1f1a 813e
000000a0: ddad a53d d58b 823e b3bf e93d 9353 b23d
000000b0: b46f 0fbe 879d 243e 2f06 35be b27f 153c
000000c0: e3aa f03d de36 603e 3d56 2e3e 1f91 bd3e
000000d0: 7aae a33e 6b37 623d ee27 d23c 6aa1 f73d
000000e0: fe3b 383e 2842 7f3e e899 693e 9b8f 873e
000000f0: 8f1a fb3d c3a4 53be 4f2c 483e d7f0 d03d
00000100: b852 1bbc dd33 623e 17a8 45bd 97a0 69bd
00000110: 70e7 2cbc 952f 063e 13f2 a03d 7295 de3c
00000120: fd12 44bd 8279 783e 152d ea3d 9e2d 28be
00000130: 432e d03d 2034 9d3c 58b0 043e 1cb4 0d3e
00000140: 1974 193e f822 783e 59c4 8b3e dbf7 113e
00000150: 5522 ce3d 2cd9 6b3d 7acb 0e3d faae 6e3e
00000160: 48a0 1c3d d0c8 bc3d 1d9f 563e 8283 0c3e
00000170: ab98 473c dff7 023e 3554 b4bd 21f6 353e
00000180: b7a6 5b3e f09a b63d afcb 263d d099 413e
00000190: cfab 193e d254 88be 5be0 f73d 9b87 463e
000001a0: ec25 023e 51b0 f93c ceac b53e 1098 7e3e
000001b0: 3bf4 1c3e 04d5 84bd a950 0a3e ca80 a93d
000001c0: 0770 27be 2c6c 403e 6139 843e 0be3 aa3d
000001d0: ea4e 563c c29e 963d 8f5f 8a3d b83d ca3d
000001e0: 834f bf3e 1590 943e 6cda 45bd 9d94 fd3d
000001f0: 2338 bdbd 96f0 e23d 3254 433e 5951 923c

layer.6.weight f4 [8, 128]
0.08897959 0.031529617 0.041402716 0.041327696 0.016617283 -0.020503212 0.047695804 0.02162089
0.014365872 -0.023538606 0.0037409533 -0.0021335967 0.056476753 -0.00580709 -0.020867283 0.036389057
-0.040102918 -0.03495795 0.0051296703 -0.006818064 0.024386175 0.04044809 -0.03273853 0.0081454655
0.02379359 -0.031824224 -0.011687095 -0.0052288543 -0.026152778 -0.001166796 -0.06285424 0.049509507
0.010657936 -0.035392664 0.016252538 0.0057719992 0.02947754 0.010987403 -0.034303483 -0.013521247
-0.03213945 0.023029134 -0.012266753 -0.0033326293 0.009117448 0.005039295 0.021417305 -0.017170982
-0.003017455 0.03671837 -0.010519722 0.039465107 -0.010504748 0.032343853 0.034266695 -0.028331568
0.024374422 -0.026883142 0.007426419 -0.027760511 -0.032587964 0.016014984 0.00218461 -0.030963693
-0.027091347 0.03508967 0.0054455074 -0.04538845 -0.04436584 0.06175066 -0.033394042 0.013015639
-0.0041136793 0.021805122 0.005328255 0.021267558 -0.02722077 -0.049849674 0.058635376 0.020512687
-0.012304783 0.026675513 -0.019694736 -0.025974467 -0.013140871 -0.023017019 -0.014759447 0.002840327
-0.0063165533 -0.034179408 0.014867307 0.00048321357 -0.028904041 -0.014527301 0.01111667 -0.005417107
0.034872938 0.02149404 -0.019692283 -0.009611446 0.016190099 -0.0102740005 6.6452417e-06 -0.07839251
-0.0064841714 -0.025407633 -0.0035944113 0.020698449 0.04691514 -0.06183054 -0.04508592 -0.0028656272
0.046484306 -0.05534803 -0.00096129294 0.024781354 0.034408495 0.06524447 -0.02150573 -0.051475756
0.04576566 -0.04848647 -0.05433791 -0.03227614 0.041737195 -0.039629545 -0.042455204 0.018310392
0.054051902 -0.04262258 -0.0008979444 -0.08094568 0.031562123 -0.047228344 -0.025029518 0.039444014
-0.03819905 -0.00090108725 -0.032625303 -0.016843047 0.0051349215 0.020232102 -0.0005040031 -0.012964237
0.014048137 -0.024976224 -0.03413016 -0.050222464 -0.013279718 -0.0015735702 -0.013012184 0.005513922
0.038190518 0.030092124 -0.017849842 0.01938781 0.00958049 -0.02428108 -0.021947939 0.065891944
-0.028042067 0.03780387 -0.02530342 -0.014762876 0.071167655 0.05724513 0.029716391 0.050066218
-0.02801623 0.0075345812 -0.003944915 0.049938723 0.012690613 -0.024717813 0.012295959 -0.014640494
0.0009455985 0.003532738 -0.014009237 0.023716116 0.011165096 -0.023256518 -0.014331017 -0.019145913
0.013188303 0.041929837 0.0020516005 -0.00028275602 -0.0400885 0.007689748 0.0037567422 0.020775896
-0.0030378937 0.041435424 0.030077225 -0.088083446 0.020523746 -0.016805464 -0.029623363 -0.012723587
0.038754895 -0.015718492 -0.058015972 0.063681476 -0.017934116 -0.03428168 -0.029583683 0.019634118
-0.026869642 0.020524863 0.0039878925 -0.0148717575 -0.003249499 0.0020334423 -0.0019703428 0.00088262977
-0.0012789051 0.009708139 0.008865658 0.03596451 -0.0051130718 0.019700697 -0.048851922 -0.009243383
0.028928919 -0.002854738 0.007735152 0.0017897895 -0.02878971 0.014621038 0.042124044 -0.084111035
-0.019314187 0.024069507 -0.022361647 -0.012672015 -0.016996473 -0.03595637 -0.008291359 -0.027251579
-0.011922451 -0.010251836 -0.044514634 0.013292474 0.06244388 0.016916037 -0.013555238 0.0011720624
-0.0034234338 -0.014842584 0.01695624 -0.046230894 -0.012986743 0.018575912 0.011610677 -0.0024669722
00000000: ee3a b63d 3325 013d e595 293d 3b47 293d
00000010: f820 883c 5af6 a7bc ad5c 433d 4b1e b13c
00000020: d65e 6b3c 09d4 c0bc c82a 753b d0d3 0bbb
00000030: 2b54 673d 6749 bebb ddf1 aabc b10c 153d
00000040: f542 24bd 1130 0fbd cb16 a83b 116a dfbb
00000050: 84c5 c73c e5ac 253d d618 06bd 8f74 053c
00000060: c6ea c23c 1e5a 02bd 3b7b 3fbc cf56 abbb
00000070: 5a3e d6bc 2def 98ba b9b9 80bd 7bca 4a3d
00000080: a09e 2e3c e6f7 10bd 0b24 853c 0a23 bd3b
00000090: e27a f13c 8204 343c cf81 0cbd 3888 5dbc
000000a0: a8a4 03bd 98a7 bc3c 7efa 48bc 3e68 5abb
000000b0: 5961 153c ac20 a53b 5873 af3c 29aa 8cbc
000000c0: 7fc0 45bb 0066 163d e95a 2cbc 2aa6 213d
000000d0: 1b1c 2cbc fd7a 043d 3c5b 0c3d 9b17 e8bc
000000e0: deac c73c 093a dcbc 5159 f33b 036a e3bc
000000f0: f57a 05bd db31 833c ad2b 0f3b 92a7 fdbc
00000100: acee ddbc 30ba 0f3d 3a70 b23b 3de9 39bd
00000110: f4b8 35bd 43ee 7c3d 31c8 08bd 8c3f 553c
00000120: 0bcc 86bb a8a0 b23c a498 ae3b 4d39 ae3c
00000130: 18fe debc 2c2f 4cbd a62b 703d 390a a83c
00000140: 009a 49bc 9b86 da3c db56 a1bc 68c8 d4bc
00000150: cf4c 57bc 308e bcbc 9cd1 71bc c824 3a3b
00000160: 17fb cebb b5ff 0bbd 0196 733c d457 fd39
00000170: 2bc8 ecbc eb03 6ebc b222 363c fd81 b1bb
00000180: edd6 0e3d 4514 b03c b651 a1bc 5479 1dbc
00000190: 19a1 843c 4854 28bc 31fa de36 418c a0bd
000001a0: 2c79 d4bb ab23 d0bc 3790 6bbb cb8f a93c
000001b0: 172a 403d 0542 7dbd 03ac 38bd 3fcd 3bbb
000001c0: 5466 3e3d 9eb4 62bd 47ff 7bba 4402 cb3c
000001d0: ecef 0c3d e59e 853d c92c b0bc 3ed8 52bd
000001e0: c674 3b3d c099 46bd 6e91 5ebd fc33 04bd
000001f0: 9ff4 2a3d 9752 22bd 82e5 2dbd adff 953c
00000200: 8765 5d3d 0495 2ebd 0764 6bba d9c6 a5bd
00000210: 4947 013d 8272 41bd b40a cdbc 0c90 213d
00000220: 9b76 1cbd f136 6cba 1ca2 05bd 6efa 89bc
00000230: d842 a83b cbbd a53c 131f 04ba f367 54bc
00000240: 282a 663c f09a ccbc 11cc 0bbd 12b6 4dbd
00000250: 2d93 59bc 4140 ceba 0e31 55bc 21ae b43b
00000260: a96d 1c3d c283 f63c d539 92bc 2fd3 9e3c
00000270: 7df7 1c3c 1ee9 c6bc 2acc b3bc 5bf2 863d
00000280: 7ab8 e5bc 3bd8 1a3d 1e49 cfbc fddf 71bc
00000290: 59c0 913d df79 6a3d ca6f f33c 3c12 4d3d
000002a0: 4b82 e5bc a6e4 f63b 5844 81bb 8c8c 4c3d
000002b0: 4aec 4f3c 037d cabc fd74 493c afde 6fbc
000002c0: 0be2 773a 8285 673b 0087 65bc 4d48 c23c
000002d0: cfed 363c 7484 bebc a4cc 6abc e4d7 9cbc
000002e0: c113 583c 9fbe 2b3d 2574 063b df3e 94b9
000002f0: d733 24bd 48fa fb3b ad33 763b 3632 aa3c
00000300: 6617 47bb 31b8 293d 8364 f63c 1865 b4bd
00000310: 6a21 a83c 9dab 89bc b2ac f2bc 9876 50bc
00000320: 74bd 1e3d 11c4 80bc 28a2 6dbd 6f6b 823d
00000330: 91ea 92bc f26a 0cbd 7b59 f2bc bbd7 a03c
00000340: b91d dcbc c223 a83c deac 823b aca8 73bc
00000350: 8cf5 54bb 8043 053b de20 01bb 4860 673a
00000360: efa0 a7ba e30e 1f3c 4441 113c 864f 133d
00000370: 8e8b a7bb 5b63 a13c f418 48bd 8f71 17bc
00000380: 57fc ec3c 8e16 3bbb 2877 fd3b 5f97 ea3a
00000390: 66d8 ebbc 148d 6f3c 438a 2c3d 6842 acbd
000003a0: c938 9ebc 6a2d c53c c62f b7bc 489e 4fbc
000003b0: 303c 8bbc fd46 13bd 7bd8 07bc b43e dfbc
000003c0: 6256 43bc 51f7 27bc fa54 36bd adc8 593c
000003d0: 27c5 7f3d 8093 8a3c ca16 5ebc e39f 993a
000003e0: b05b 60bb 4f2e 73bc d0e7 8a3c 9b5c 3dbd
000003f0: 59c6 54bc 832c 983c b53a 3e3c edac 21bb

layer.6.bias f4 [8]
0.016156295 0.042279862 -0.009636034 0.055267464 0.08767463 0.20767032 0.01363574 0.027025752
00000000: 355a 843c a62d 2d3d 75e0 1dbc 2360 623d
00000010: c28e b33d 87a7 543e 7068 5f3c 1c65 dd3c
