final/save/1l_0.95_200_morelayer/save3_7500.pth (torch_old, 50952 bytes, 8 tensors)

layer.0.weight f4 [32, 28]
000000 9b d8 7e bd 4a d5 55 be 9d 13 36 3e 30 b3 3a be
       -0.06221829 -0.20882145 0.1778092 -0.18232417
000010 f3 1f c0 bc fc 46 14 3e fe 68 90 3d 60 95 e3 3d
       -0.023452735 0.14480203 0.07051276 0.111124754
000020 52 76 42 3c d5 36 9b bd 7f 0b dc 3d 6a 81 5b bd
       0.01186903 -0.07578818 0.1074438 -0.053590216
000030 4d 8e d8 3c 2a e2 2a 3e 89 f4 bd bd ef c0 28 3e
       0.026435042 0.16687837 -0.09275157 0.16479848
000040 07 7c d9 3d b8 75 1b 3e de 60 1a 3e 47 95 a4 3d
       0.106193595 0.15181625 0.15076014 0.08036285
000050 71 36 c0 3d 2b e2 2e bd b8 ac a8 3c 54 65 57 3e
       0.09385384 -0.04269616 0.020590171 0.21034747
000060 08 dc 9d 3d f2 d9 62 3d 94 f0 c8 bd 21 cd 87 bd
       0.07707983 0.05538363 -0.09811512 -0.06630922
000070 0d 30 2d 3e 1d 87 01 3e 16 6f 06 3e d4 d1 57 3e
       0.16912861 0.12649198 0.13128313 0.21076137
000080 df 9b b2 3d b9 2f a5 bc 21 71 27 3d 74 df 75 bd
       0.08721136 -0.020164357 0.040879373 -0.060027555
000090 61 4e d1 bd 62 f0 63 3b 1f 97 5a bd e1 a8 ae 3d
       -0.10220028 0.003478073 -0.053366777 0.08528305
0000a0 bb 37 f0 bd 63 66 56 bd 55 94 aa bd 2e 7f 02 3e
       -0.1172938 -0.052343737 -0.08329073 0.12743828
0000b0 11 8c c3 3b 04 1b 6b 3e 6b fa ac bd 72 ed 1b 3e
       0.005967625 0.22959524 -0.08446201 0.15227297
0000c0 be 2e 94 3d de 22 c0 3d c6 b2 ea bd bf 59 49 be
       0.07235478 0.093816504 -0.114598796 -0.19663142
0000d0 e6 38 7c bd e0 9f dd 3b 74 22 0f 3e 6e 06 a2 3c
       -0.0615777 0.0067634434 0.13977987 0.019778457
0000e0 fc 53 1a 3e 39 49 b1 3d 16 c2 73 bd 50 ea 3e 3d
       0.150711 0.08656544 -0.059511267 0.046610177
0000f0 d7 4a 24 3d a3 f9 56 3d 25 cb 4f 3e 61 47 b7 bd
       0.040110435 0.052484166 0.20292337 -0.08949161
000100 3c e7 e8 bc f1 1e 95 bc 04 c0 27 3e 62 83 73 3c
       -0.028430574 -0.01820323 0.16381842 0.014862867
000110 a5 30 4b 3e 63 6a e5 bd 9a e0 d4 3d 32 d9 f7 bc
       0.19842775 -0.11201932 0.10394402 -0.030254934
000120 30 c7 6a bc 17 08 b7 bd c8 61 32 be f3 fd 88 3c
       -0.014329717 -0.0893709 -0.17420113 0.016722655
000130 d6 8a 27 be aa 22 37 3d ac a3 0d be 25 f2 58 be
       -0.16361555 0.044710793 -0.13831967 -0.21186121
000140 17 ce 1e bd eb d8 9d 3d a2 6b 27 3d fb 60 08 3e
       -0.03877076 0.077073894 0.04087413 0.13318245
000150 d3 6d 30 bd ea 7b c6 bc 36 a4 b8 3d 78 74 88 bd
       -0.043073487 -0.024229009 0.09015696 -0.0666284
000160 c6 f0 d2 3d 34 66 9d 3d f5 aa 82 3e 26 b6 7b 3e
       0.1029983 0.07685509 0.25521055 0.24581203
000170 10 e7 eb bd 1d 71 2d 3e df 44 4b 3e 58 90 e8 3d
       -0.11518681 0.1693768 0.19850491 0.113556564
000180 e1 43 21 bd 90 c1 0e be 7d 7b 4d bd 6f 1d 0f be
       -0.039371375 -0.13941026 -0.050166596 -0.13976072
000190 c7 30 31 3e ff 9c ae 3b c2 d5 98 bd 1f bd 02 be
       0.17303763 0.005328774 -0.07462646 -0.12767456
0001a0 8d 12 8f bd d8 80 11 be c3 9e 08 be 3d bd e2 bd
       -0.0698596 -0.14209306 -0.13341813 -0.110712506
0001b0 3d 7d 8b bb 59 eb aa bc ab d8 3c 3e de 96 cb bc
       -0.004256873 -0.020864176 0.18442027 -0.024852213
0001c0 07 6b 38 be af a7 16 be 9c 1f 1f bd ed 60 21 be
       -0.18009578 -0.14712404 -0.038848504 -0.1575963
0001d0 36 80 60 be b5 df ed bd 3a b9 95 3b 69 64 04 bb
       -0.21923909 -0.11614934 0.0045692 -0.002020145
0001e0 2a b1 dc 3c b8 52 e0 bd 29 d4 8f 3d f4 7a 40 bd
       0.026939947 -0.10953277 0.07022888 -0.046992257
0001f0 55 a7 00 3e 41 f8 c2 3c cb 1a 4a 3e a4 1a 64 3e
       0.12563832 0.023800017 0.19736783 0.22275788
000200 3a 77 41 3e 01 c6 ef 3d 70 80 b4 3d a1 7a 90 bb
       0.18893138 0.11707688 0.0881356 -0.0044091498
000210 24 5f 4e 3e 7e 2b 92 3c 2c 97 20 3d 98 9d d9 bc
       0.20153481 0.017843004 0.03920667 -0.026564404
000220 af 4e 35 3d c8 a4 c5 bd 86 68 84 bd fe bf ab bc
       0.04426449 -0.0965057 -0.06465249 -0.020965572
000230 42 ca 1b 3d 87 75 38 bd 6e a3 bf 3d 06 24 de 3d
       0.038034685 -0.045033958 0.093573436 0.10846715
000240 94 7f 0c be 7c 85 9d 3d ea 53 d7 3d 15 d6 08 3e
       -0.13720542 0.07691476 0.10514052 0.13362916
000250 f6 6c 1f 3e 15 ec 4a 3e e0 b5 6e 3e 1d 1f 19 3e
       0.15568909 0.1981662 0.23311567 0.14953275
000260 6d 19 28 bd 0b 30 bc bd 79 2a e6 bd 68 83 d6 3d
       -0.041039873 -0.09188851 -0.1123857 0.104742825
000270 42 3c fd bd b0 26 67 3d 24 ba 1f be b2 b0 62 bd
       -0.12365009 0.05643338 -0.15598351 -0.05534429
000280 0a 42 01 be 1f 3a 85 bd d0 93 0b be b6 5b 1c 3c
       -0.12622848 -0.06505226 -0.13630605 0.00954335
000290 47 6a 2c bd 82 ff 95 3c d3 27 89 3d 2a 67 f8 bd
       -0.04209354 0.018310312 0.06697049 -0.12129052
0002a0 f7 23 18 3e db 1f ec 3d 84 8c 3e 3d 14 08 e4 bd
       0.1485747 0.115295134 0.046520725 -0.11134353
0002b0 66 47 c5 bd 0a 45 75 be 1c 57 9f 3c ec 37 be 3d
       -0.09632759 -0.23952118 0.019450717 0.0928801
0002c0 9a fa 1f 3e 5f 11 fb bd 02 b8 90 be 18 07 2c bd
       0.1562294 -0.12259173 -0.28265387 -0.041998953
0002d0 7b 30 fa bb ae a4 c9 3d 1c 36 c9 3d e6 56 3d 3e
       -0.007635174 0.09845863 0.09824774 0.1849018
0002e0 0f 19 ed 3d 01 94 1d be fb 29 1d bd da c5 3f bd
       0.11577045 -0.1538849 -0.038370114 -0.046819545
0002f0 de b9 64 bc 09 24 6d 3d ab 18 0b be 12 90 74 3e
       -0.01396033 0.057895694 -0.13583629 0.23883083
000300 4d df 78 3e d3 a6 e9 3b be d7 16 bd bb 18 10 3e
       0.24303932 0.0071304827 -0.03682684 0.14071934
000310 00 1b 90 3d 74 6a 71 3d 7c 4d 8b 3c 1b e4 30 3e
       0.070364 0.058939412 0.01700472 0.17274515
000320 7b fb 89 bd 7b 92 3d bc 26 a0 0a be 98 c1 0c 3e
       -0.06737419 -0.011570568 -0.13537654 0.13745725
000330 3e 20 1f 3e e5 f5 77 bd d7 1d 48 3d f6 89 da 3d
       0.15539643 -0.060537238 0.048856582 0.10670845
000340 1c 08 37 3d b8 89 87 bd 36 e1 4f ba 70 5a 86 3e
       0.044685468 -0.06618065 -0.00079299824 0.26240873
000350 1d 21 40 3e 2d 4f 34 3b 8c 17 25 bd ec cc 10 3e
       0.18762632 0.0027513013 -0.04030566 0.14140671
000360 4f 83 00 3d 36 43 be bd 8c 1a 19 bc c0 cf 4d 3d
       0.031375226 -0.09290163 -0.009344708 0.050246954
000370 ef b3 71 bd cb c1 53 3d 00 1f 3a bd c7 54 91 3b
       -0.05900949 0.051698487 -0.04543972 0.004435155
000380 0e 35 11 3e 4e bf b9 3d 26 2d 3b be b1 ef 0e 3e
       0.14180395 0.090696916 -0.18278942 0.13958623
000390 7b f0 d6 3d bf 81 bf 3d 82 b0 47 be 88 9b 91 be
       0.10495087 0.09350919 -0.19500926 -0.28438973
0003a0 20 d6 5d be 48 62 1f 3d 6e c1 02 3e 26 b4 90 3d
       -0.21663713 0.038912088 0.127691 0.070656106
0003b0 0f ad d7 3d 3d 28 75 bb 92 47 cb bd a0 d5 4a 3d
       0.10531055 -0.0037408017 -0.0992576 0.049520135
0003c0 71 3e be bd 6b 5f 16 bd 5e 1c 5e bd 4e ac 0d be
       -0.092892535 -0.03671209 -0.05422627 -0.1383526
0003d0 51 9f be bd 7d 2a 1e be 78 f3 a3 3b 99 14 17 3e
       -0.09307731 -0.15445895 0.005003389 0.14753951
0003e0 64 8d dc bc 45 b1 15 3e 3a 9f bc bd da 9c fb bc
       -0.026922889 0.14618404 -0.092100576 -0.030714441
0003f0 8d a1 ff 3c 01 c7 4f bd 85 1a 1f be 10 5f 5a be
       0.031204963 -0.050726894 -0.1553746 -0.21325326

layer.0.bias f4 [32]
000000 1f ec 25 be 19 73 2d 3e 03 61 b8 3d 03 59 49 3d
       -0.16203354 0.16938438 0.090028785 0.049157154
000010 13 59 0e be 1f 59 31 be 54 6f 0a bc 55 ee 31 bd
       -0.13901167 -0.17319153 -0.008449394 -0.04344018
000020 9a 57 2b 3e 72 8e 12 be 9f bc c7 bd 7d 04 9d 3b
       0.16732636 -0.14312151 -0.097527735 0.004791795
000030 e8 5e 1c 3e f8 be 5c 3e d5 97 60 3d ac 72 1b 3f
       0.15270579 0.21557224 0.0548323 0.6072185
000040 48 5a 75 3e 51 4f 50 3d a1 fe f8 bd d2 db 49 3e
       0.23960221 0.050856892 -0.121579416 0.19712761
000050 cc a8 11 3e 09 4a 4f 3e 4e 5e 13 be 3a 77 ee 3c
       0.14224547 0.20243086 -0.14391443 0.029109586
000060 6b ac 4e 3d ce 1b e1 3d 5f 59 f6 3d 28 f2 0d be
       0.0504574 0.109916314 0.12028765 -0.13861907
000070 4c 74 49 3e e1 91 8b 3c 59 13 2e bd 20 84 09 3e
       0.1967327 0.017037334 -0.04249892 0.13429308

layer.2.weight f4 [64, 32]
000000 c0 8d b2 bc 53 8c 28 3d 7d da 92 bc 58 6a 79 3e
       -0.021796107 0.04114945 -0.017926449 0.24356973
000010 95 cb c0 bc f2 ea c7 3d 8c 27 2a be f0 1e 70 bb
       -0.023534575 0.09761609 -0.16616648 -0.0036639534
000020 a1 15 b3 3d aa 24 87 bd a8 5c 7c bd 1c 4b 84 bd
       0.0874436 -0.0659879 -0.0616118 -0.064596385
000030 aa f0 7a 3e 59 c8 02 3e 53 fe 6e 3e 1a 68 ad be
       0.24505869 0.12771739 0.23339204 -0.33868486
000040 26 f1 23 3e 0a 66 eb bd 95 82 dd 3c 74 c1 4e be
       0.1600996 -0.11494072 0.027039805 -0.20190984
000050 60 e5 32 be 0c f6 9d 3c f4 77 2a 3e e2 7b 00 be
       -0.17470312 0.019282363 0.16647321 -0.12547258
000060 6d 2d c6 3c 2d aa 14 3e 0d 63 51 bc 06 16 f7 3d
       0.024191583 0.14518042 -0.012779963 0.120647475
000070 0b 8e 33 be 06 b5 3b be 85 ac 14 3e 3b 14 9a bc
       -0.17534654 -0.18330774 0.14518936 -0.018808475
000080 29 d0 0a bd ca 31 b0 bd 99 4c eb bd 0e eb 91 be
       -0.033889923 -0.086032465 -0.11489219 -0.28499645
000090 56 3e 7c bc 68 00 27 be f2 c0 27 be 2e e7 ee 3d
       -0.015395721 -0.16308749 -0.16382197 0.11665188
0000a0 87 1c b8 be 76 e6 05 3d 74 2e 84 be f4 73 d3 3d
       -0.35959265 0.032690488 -0.2581669 0.10324851
0000b0 e0 e8 2c be f7 6c 22 3c 58 25 42 3d 47 1a 0e bf
       -0.1688571 0.009913675 0.047398895 -0.55508846
0000c0 ad 82 71 bd 1e 7e 02 bd 92 2c 1f be b2 62 83 3e
       -0.058962513 -0.031858556 -0.15544346 0.25661236
0000d0 b7 3a 2a 3d 08 40 48 3e 8c 14 47 3e 06 18 26 3e
       0.0415599 0.19555676 0.19441432 0.16220102
0000e0 d1 3f 6a 3d 16 06 e9 bd 3c 04 18 3e a2 46 c1 bd
       0.057189766 -0.11378114 0.14845365 -0.094373
0000f0 28 9f 02 3d 6a 93 a2 bd 21 b9 2d be 30 cd b0 bd
       0.031890064 -0.07938273 -0.16965152 -0.086328864
000100 ec f0 d7 bd 94 89 45 3c 76 9f e9 3d 74 f6 8d be
       -0.10543999 0.012056727 0.11407368 -0.2772709
000110 c4 39 f0 bd 09 22 14 be ba 7c c7 3d c2 5f 25 3e
       -0.11729768 -0.14466108 0.097405866 0.1614981
000120 b2 a3 ac 3d a8 02 22 be c0 db 13 bd 02 c6 a4 bd
       0.0842966 -0.15821326 -0.03609824 -0.080455795
000130 73 d8 84 3e 08 c5 99 bd 7b 4b 15 bd e9 a1 72 be
       0.25946388 -0.07508284 -0.036448937 -0.23694576
000140 4c 48 11 3e 58 98 22 bc 34 87 d7 3c 92 5e 2d be
       0.14187735 -0.009924017 0.026309587 -0.16930607
000150 8a 98 67 3d 8d cd 34 3c e6 01 aa 3c cb ff ba 3c
       0.056541957 0.011035335 0.020752858 0.02282705
000160 ce 99 bf bd 29 c3 9d be 1d ac 07 3e d9 aa 13 bd
       -0.09355508 -0.30812958 0.1324925 -0.036051605
000170 b9 38 3b be 8c 62 75 be 42 a3 a9 3d 24 a3 7c 3d
       -0.18283357 -0.23963374 0.08283092 0.06167902
000180 39 d8 4f be 02 46 e3 3d 1c cb 22 3e 6a e4 b6 be
       -0.20297326 0.11097337 0.15897793 -0.3572114
000190 00 55 6d be f1 89 46 bd 9f 4e 8f 3d 66 21 5f 3e
       -0.23176956 -0.048471395 0.06997418 0.21790084
0001a0 fd 26 6a 3e 56 e5 2c be 2f cb 97 3c 9f 17 fa bd
       0.22866435 -0.1688436 0.018529503 -0.122115366
0001b0 0e 9c 62 3d 40 cf ac 3c 96 dd 55 3d df 4e e7 bd
       0.055324607 0.021094918 0.052213274 -0.1129434
0001c0 5f db d8 3c 37 44 c1 3c 22 9d 2e be 97 6d 62 bd
       0.026471792 0.023592098 -0.17052129 -0.055280294
0001d0 d3 87 49 3e d1 25 b5 bd fb 02 a3 3c b8 e7 29 3d
       0.19680719 -0.088451035 0.019898882 0.04148075
0001e0 48 f2 fa bd b6 b2 fc be 20 c5 22 3e 22 e1 4c bd
       -0.12253243 -0.49355096 0.1589551 -0.05001939
0001f0 11 18 65 3b 26 42 02 be 8c 2f c6 bd df b7 db 3d
       0.0034956972 -0.12720546 -0.096770376 0.1072843
000200 33 cf 53 bd 1f 8a 61 bd e3 2b a4 3d d5 1e ac bb
       -0.051711272 -0.055063363 0.08016183 -0.005252699
000210 a0 0f a5 3d fa f0 d1 bd 1c 8e 19 bc ec b4 c6 bc
       0.08059621 -0.10251041 -0.00937226 -0.024256192
000220 c4 f2 17 3c 34 e8 0c be b2 2c 1b be 08 7f 0c 3e
       0.009274188 -0.13760453 -0.15153769 0.13720334
000230 ff 2a 7d bd f4 85 e3 bd 3a 07 bf bd 29 18 c7 be
       -0.061808582 -0.11109534 -0.0932755 -0.3888562
000240 21 5c 29 3e f5 2f 12 bd 15 c5 ca bc 40 b4 a6 3d
       0.1653905 -0.035690267 -0.02475218 0.08139849
000250 84 89 d8 bd 01 29 25 3b e1 36 46 3d 4e 9f 6c 3d
       -0.10573104 0.0025201442 0.04839218 0.057769112
000260 70 85 ae 3d d1 bf d9 bb 8d d1 50 be f4 bc c0 3c
       0.08521545 -0.0066451808 -0.20392437 0.0235276
000270 6c 00 ca 3d 53 7d 18 3e f1 25 8b bd 4f 95 0c 3e
       0.09863362 0.14891557 -0.06794346 0.13728832
000280 af 97 27 3e 8f 42 31 3e ef 37 bd bc 5a 34 b0 be
       0.16366456 0.17310546 -0.02309796 -0.3441494
000290 ac 29 cf 3d a9 54 9e bd 51 5d 92 bd 80 fa bf 3c
       0.1011537 -0.077309914 -0.07146705 0.023434877
0002a0 b5 b7 68 3e b0 ee 65 bc 35 00 14 bd b6 33 83 3c
       0.22726329 -0.014033958 -0.03613301 0.016015869
0002b0 7b c9 a1 3d ab 48 9d bd c6 b8 46 3d b4 1d 8b 3e
       0.078997575 -0.07679876 0.048516057 0.271711
0002c0 75 12 e0 3d ff ab aa 3d 49 f0 f0 3d 0d aa a1 3c
       0.109410204 0.08333587 0.11764581 0.019734407
0002d0 d1 52 1f 3e 06 bd 3a be d9 c7 43 3e 16 01 a0 3d
       0.15558936 -0.18236169 0.19119205 0.07812707
0002e0 18 68 c9 bd 65 f3 af be a8 9f 0e 3e 61 6b 15 3c
       -0.098343074 -0.34365383 0.13928092 0.009119839
0002f0 49 7c 0a bd 35 db 00 bd 09 d1 58 be 93 52 db bd
       -0.033809934 -0.031459052 -0.2117349 -0.10709109
000300 c7 99 d7 3d 73 90 3b bd 4d 16 ba 3d 35 8b b7 bd
       0.105273776 -0.045792054 0.09086285 -0.089620985
000310 dc 52 0e be 56 d3 98 bd 5e ec 15 be 25 0e 8b bd
       -0.13898796 -0.07462184 -0.14640948 -0.06789807
000320 f1 5d 04 be 83 84 6a 3d 07 7b 83 be 1a 82 03 3e
       -0.12926461 0.05725528 -0.256798 0.12842599
000330 38 00 5a bd f0 a0 7a 3e 36 8c 34 3e 84 31 c3 bb
       -0.053222865 0.24475455 0.17631611 -0.0059568305
000340 d0 8f c0 3c 1d bc a0 bd 9a 14 52 be 8d f3 85 3e
       0.023506075 -0.0784838 -0.20515671 0.26162377
000350 ac 63 81 3d 78 64 69 bd 88 8a e0 3d 78 29 0f 3e
       0.06317839 -0.05698058 0.10963923 0.13980663
000360 fa 87 6b 3d 77 12 5c be 2c bb 30 be 9c ef 26 3d
       0.057502724 -0.21491419 -0.172589 0.040755853
000370 52 26 12 3d 25 9d aa bd 62 10 0b be 5f ad 36 be
       0.035681076 -0.08330754 -0.13580468 -0.17839573
000380 48 30 ae 3d c1 e3 c4 bc ae 09 9d 3c 93 a1 87 bd
       0.08505303 -0.024034383 0.019169655 -0.06622615
000390 1c 13 09 3e 2e 54 57 bd 5d 49 00 3d 27 5e 5b 3d
       0.13386196 -0.052570514 0.031319965 0.053556588
0003a0 fa dd 91 3d e7 a2 08 3e 48 ac 44 3e 6c 71 93 bb
       0.07122417 0.13343392 0.19206345 -0.004499605
0003b0 4e 03 b0 3d ba f0 22 3e 6b a5 6a be 2d fd a5 3d
       0.0859438 0.15912142 -0.22914664 0.0810493
0003c0 42 cd cc 3d 9b 32 62 3d 0e 4d cd bd f9 7f cc 3c
       0.10000087 0.055224042 -0.10024463 0.024963366
0003d0 f0 cc 2e 3d 33 1f e8 bd 07 b3 2d 3e b8 01 31 3c
       0.042675912 -0.11334076 0.16962825 0.010803632
0003e0 ea 4d 08 be f4 d5 93 bd 18 4a 5b be 30 d0 22 be
       -0.13310972 -0.07218543 -0.21414983 -0.1589973
0003f0 5b ff dd bd 0f b5 23 be 5a 77 b9 bc 69 21 c5 3d
       -0.10839721 -0.15987037 -0.02263992 0.09625513

layer.2.bias f4 [64]
000000 fe e6 82 3e 32 59 7d 3e 96 ab 33 3e a4 a3 63 bd
       0.25566858 0.24741057 0.17545924 -0.05557598
000010 eb e2 cf 3e 65 f4 06 3e b2 83 b1 bc a7 16 cd bb
       0.40602812 0.13179167 -0.021669243 -0.006258804
000020 7b 76 cd 3d cb 29 12 bd e0 cf 56 3d 1a 8b be 3e
       0.10032364 -0.035684388 0.05244434 0.372155
000030 6d 61 cc 3d c8 4d f8 3b b3 7c 6c bc 52 90 20 3e
       0.0997952 0.0075776316 -0.0144340275 0.15680054
000040 4c 55 cc bd 62 fa ab 3d b9 9f a3 3c f5 e3 6b 3e
       -0.099772066 0.08397366 0.019973623 0.23036177
000050 57 88 69 bd 15 af 14 bd 8f c3 84 bc e5 96 c2 3d
       -0.05701479 -0.036299784 -0.01620653 0.09501437
000060 45 ff e3 3d 86 80 b4 bd a3 6d a9 be 1e 57 86 3d
       0.11132673 -0.088135764 -0.3309146 0.06559585
000070 96 47 19 3e b3 47 46 3d d6 1a 02 be 30 87 7c 3e
       0.14968714 0.04840822 -0.1270555 0.24660945
000080 da 40 40 3b 09 75 cf 3d e9 f1 8b 3d 16 e5 3a be
       0.002933553 0.101297446 0.0683325 -0.18251452
000090 b2 76 41 3d 47 b7 a0 3d 6d ad 8d 3d 8d 8b 58 bd
       0.047232337 0.078474574 0.06917844 -0.05286746
0000a0 bf 38 2e be 33 f1 d5 3d 09 ba 9a bd 11 54 30 3e
       -0.17013834 0.10446396 -0.07555015 0.17219569
0000b0 d6 ba 9b 3e e1 0f c0 3c 26 3a 9c bd 39 c5 6c 3d
       0.30415982 0.023445072 -0.076282784 0.057805274
0000c0 30 70 ff bd e2 aa c4 be 7e dd 50 bd 58 89 59 bd
       -0.1247257 -0.38411623 -0.05099248 -0.053109497
0000d0 63 5a a7 3d 31 d3 72 be 63 d6 83 3e ad a2 ae bc
       0.08171537 -0.23713376 0.25749502 -0.021317804
0000e0 44 25 0d 3e 25 90 21 bb 7f ca 4f bc 66 e1 9f 3e
       0.13783747 -0.0024652567 -0.012682556 0.31226653
0000f0 37 b2 16 3d 07 fa 6a 3d 1b a5 4d 3d 5a ff 86 bc
       0.036791053 0.05736735 0.050206285 -0.016479183

layer.4.weight f4 [128, 64]
000000 c0 ce 70 3c b1 c4 d9 bc 29 27 ef 3d ef 9f 29 3d
       0.014697731 -0.026583048 0.11677391 0.04141229
000010 0e 88 ea bd 93 eb 86 bd e2 47 c4 3c 5e 17 98 3d
       -0.114517316 -0.06587901 0.023960058 0.07426332
000020 b5 77 41 bd 20 1e 8c 3d bf 79 c6 bb 5d 5c 13 3e
       -0.047233302 0.068416834 -0.0060569937 0.14390703
000030 11 3d f2 bb d0 39 2a 3e b8 9c 81 3c 94 f8 b7 3d
       -0.0073925336 0.16623616 0.0158218 0.089829594
000040 3f db 59 3d 6f 7b 6f 3d 42 1d ad 3c 9e 2d 11 3e
       0.053187605 0.058467325 0.021132115 0.14177558
000050 8a ed 8e bd 96 6b 02 3e 2f 9e 83 bd e7 06 06 3d
       -0.06978901 0.12736353 -0.064266555 0.032721426
000060 6a c1 0e 3e 07 04 a8 bd 39 1f 2e 3e 5d 0b 74 3d
       0.13940969 -0.08203893 0.17004098 0.05958115
000070 3f f1 17 bd 34 a1 96 3c 90 b4 97 3d ba 07 d9 3d
       -0.037095305 0.018387415 0.074074864 0.10597177
000080 41 eb 3c bd 79 ce 60 3c ca 42 08 bb 61 87 e2 3d
       -0.046122793 0.013721102 -0.0020791763 0.11060978
000090 a2 64 ca 3c 29 84 41 be b3 0b 0b bd 71 a6 bf 3d
       0.024706189 -0.18898071 -0.033946704 0.09357918
0000a0 4a 4c 0d be 71 d5 52 3d 69 3a 3b 3d e0 6a 72 3d
       -0.13798633 0.051473085 0.04571 0.059183955
0000b0 3f 32 a8 3c ae 1a f7 3d 82 8d 73 be a4 a4 96 bc
       0.020531772 0.120656356 -0.2378445 -0.018389054
0000c0 69 77 f3 bd 67 97 8d bd 03 49 57 3c 24 2e 63 3e
       -0.1188801 -0.06913643 0.013139966 0.2218557
0000d0 ef dd 34 3e 73 e2 10 bd b8 0f 87 3d 7c c2 03 3d
       0.17662786 -0.03537221 0.06594795 0.032167897
0000e0 04 92 95 3c 08 e8 de bd 0a c1 cf 3d cb 69 82 3c
       0.018258102 -0.108841 0.10144241 0.015919587
0000f0 73 05 2e bd 03 86 1c be 02 02 42 bb 2b 33 9c ba
       -0.042485666 -0.15285496 -0.0029603248 -0.0011917105
000100 be 77 f8 3d 71 4a 29 3e 3a ff 5d 3d 3e e0 07 be
       0.12132214 0.16532303 0.05419848 -0.13269135
000110 5b 91 27 3e 5a 80 1a be 1c 88 aa 3c 27 4c 4d bd
       0.16364042 -0.15088025 0.020816855 -0.050121453
000120 68 15 98 bb 29 e1 04 3e 6d 5f 40 be b0 33 c0 3d
       -0.0046412237 0.12976517 -0.18786402 0.093848586
000130 70 59 3c 3d d3 69 58 bc b9 0f f4 3d 80 a9 2b bd
       0.04598373 -0.013208824 0.11917061 -0.041909695
000140 1a fe a4 bd d9 73 ec 3d 0e 07 c4 bb bc a3 ca bc
       -0.080562785 0.11545534 -0.0059822863 -0.024736278
000150 e2 83 cf 3d 07 74 de bd 81 0c 0c bd 38 e4 2c 3c
       0.101325765 -0.10861974 -0.034191612 0.010552458
000160 b5 95 c7 3d dd f0 89 bd fd d0 88 bd 1f 2c 64 bd
       0.09745351 -0.06735394 -0.06680486 -0.05570614
000170 f5 1d cd 3d d8 10 d2 bd af 36 9f bd fb 68 2a 3e
       0.100154795 -0.10257119 -0.07774102 0.1664161
000180 4b 27 9d bc f7 c3 d8 3d c8 9d 78 bd b0 5a 5a 3c
       -0.019183775 0.10584252 -0.060697347 0.013327286
000190 db a6 10 3d 7d e9 02 3c 37 7e 1b bd b0 09 4d bd
       0.035315376 0.007990238 -0.037962165 -0.050058067
0001a0 68 eb 94 3b 4b 1d aa 3d 87 19 bc bc b2 ef e9 bc
       0.004544664 0.083063684 -0.022961391 -0.028556678
0001b0 fa ef 18 3e 0f d3 c5 bb 5a b7 b9 bd 23 11 2f be
       0.14935294 -0.006037123 -0.09068175 -0.17096381
0001c0 c7 b0 89 bd 67 fe 17 be 07 bb 9c bd ce f3 25 bd
       -0.06723171 -0.1484314 -0.0765286 -0.040515713
0001d0 46 f0 f7 3c 9e 50 a6 bd 4d c8 b8 3d 4f 47 40 bc
       0.030265938 -0.08120845 0.09022579 -0.011735751
0001e0 bb eb de 3d fd 09 28 be 75 60 eb bd c4 4e b1 3d
       0.10884806 -0.1641006 -0.11493007 0.086576015
0001f0 5b 20 d4 bd 91 b2 93 3d 94 cf 82 bd a0 19 06 3e
       -0.10357734 0.07211793 -0.06387249 0.13095713
000200 30 8c 0a bd 97 98 b9 3d 51 d4 1a 3d 66 00 c7 3d
       -0.0338251 0.09062307 0.037800137 0.09716873
000210 78 f8 30 be 20 c0 0e 3e 71 45 18 3e 2b 79 af 3d
       -0.17282283 0.13940477 0.1487024 0.08568033
000220 ae b7 84 bd 2f 3d 24 3e 5e 86 43 bd ab a1 86 bd
       -0.064803466 0.16038965 -0.047735564 -0.065738045
000230 52 93 81 bd b5 c5 c7 3d ac f6 07 3e 6a 4a e5 bb
       -0.06326927 0.097545065 0.13277692 -0.0069973962
000240 23 03 e6 bd f4 61 2d 3e a8 49 68 bd a5 0d ad bd
       -0.11231067 0.16931897 -0.05671087 -0.08449868
000250 04 fa a7 3d 51 96 67 bc 28 32 bf 3d 6d 1f 34 3e
       0.082019836 -0.014134959 0.093357384 0.17590113
000260 7e 2c ea bb 70 90 42 be b1 84 5c 3e ab 09 cf ba
       -0.007146417 -0.19000411 0.21534993 -0.0015795728
000270 83 42 bd 3d ff 13 1d bc ff 56 99 bd d8 d7 59 bd
       0.09241202 -0.009587287 -0.07487296 -0.05318436
000280 1c 26 69 bb 6b 1d 3c 3d e1 43 9e 3d 6b e8 fa bc
       -0.0035575693 0.045926493 0.077277906 -0.030628404
000290 74 1d 0c 3e 0e 5c 14 be dc f6 12 be a0 2a d4 3d
       0.1368311 -0.14488241 -0.14351982 0.103596926
0002a0 3b 93 05 3d 7e 71 54 bd 96 68 de 3d f3 ba 61 bc
       0.032611113 -0.051866047 0.10859792 -0.013777482
0002b0 3f bc 44 ba 06 22 f1 3d b9 b3 9d be c3 cd a3 3d
       -0.00075048575 0.117740676 -0.3080118 0.0799823
0002c0 48 b3 52 bc 9a d5 0e 3c 19 59 80 bd 5c 9b 20 3e
       -0.012860127 0.008717919 -0.06266994 0.15684265
0002d0 d0 6e 41 3e bd a9 1d 3e a8 8d e2 3d 40 dc 06 3e
       0.18889928 0.15396781 0.11062175 0.13169956
0002e0 a7 35 c5 3d 53 6a 37 3e 6f bb 48 3d 55 20 ec bd
       0.09629374 0.17911653 0.049006876 -0.11529604
0002f0 d9 5a 01 3e 4d 12 ec 3c a0 5a 8e bd 6b 1d 31 bd
       0.12632312 0.02881732 -0.06950879 -0.043240946
000300 47 15 b0 bd 5c 5f 03 bd b3 da e5 bd 0f 6f 90 3d
       -0.08597808 -0.032073364 -0.11223354 0.07052433
000310 19 a0 89 bd df 5c 84 3d ac 56 4e bd 5d ce 3a 3d
       -0.06719989 0.06463026 -0.050375625 0.04560696
000320 7c a3 9c 3d 40 b2 af bb ef 2b 8c bd 6e c6 e3 bd
       0.0764837 -0.005361825 -0.06844317 -0.11121832
000330 bf b1 ae bd 32 65 2d bd d9 8e 04 be 3e 01 b9 bd
       -0.08529996 -0.042332835 -0.12945117 -0.0903344
000340 68 40 c4 3b 11 17 cb bc 07 a2 8b bd c3 67 2b 3d
       0.005989123 -0.024791272 -0.06818014 0.041847
000350 a6 e2 92 bc 47 fb 53 3a c7 76 98 bd 37 3e f5 bd
       -0.01793034 0.00080864545 -0.0744453 -0.11974757
000360 42 d5 93 bd 68 cd 97 bd af 49 b4 bd b5 c9 2c 3d
       -0.0721841 -0.07412225 -0.088031165 0.04218455
000370 3b eb 9d bd 54 b1 ac 3d f1 0b 17 bd ad c7 c7 bd
       -0.07710882 0.0843226 -0.036876623 -0.09754882
000380 e2 ca 9e bd ad 2e 31 bd 44 b7 1d 3d b3 45 f8 bd
       -0.077535406 -0.043257404 0.038504854 -0.12122669
000390 d6 55 d4 bd af 63 c2 3d ab 5f b9 3d 4b 46 10 3d
       -0.103679344 0.094916694 0.0905145 0.035223287
0003a0 39 0d db bd 32 d9 9f 3d d7 a6 b4 3d da 3d 50 3d
       -0.106958814 0.078050986 0.08820885 0.050840236
0003b0 c2 f8 b2 3d c1 2f 58 3d 1c c2 2d bd b0 09 0d bd
       0.08738853 0.052779917 -0.042421445 -0.034433067
0003c0 09 30 1f 3d 90 16 20 3d 2d 1e 5f bd f4 b7 db bd
       0.03886417 0.039084017 -0.054472137 -0.10728446
0003d0 bc db 93 bc ea 3b 64 bc a3 12 70 bc c0 cc 9f bc
       -0.018049113 -0.0139303 -0.014652881 -0.019506812
0003e0 50 42 6c 3c ec 3b bf 3c ec 40 5b 3d 6f e5 9b bc
       0.014420107 0.023344003 0.05352871 -0.0190303
0003f0 75 53 b3 3d e0 50 a1 bd 13 35 c9 bd a6 ec 77 bc
       0.087561525 -0.07876754 -0.09824576 -0.015132105

layer.4.bias f4 [128]
000000 0e ff b7 bc 51 5f 84 3e c8 d6 f5 3d 42 57 f7 bd
       -0.022460487 0.2585397 0.12003857 -0.1207719
000010 89 98 ab 3e 71 86 de bb 4a b8 8b 3e 6e 3a ee 3d
       0.33514813 -0.006790929 0.2728904 0.11632238
000020 7c f9 fc 3d ab a9 0b bd 4a c2 a4 3d ef 57 26 3e
       0.12352273 -0.034097355 0.0804487 0.16244482
000030 d6 fb 23 3e 42 be 36 3e c0 06 32 3e 21 44 bd 3d
       0.16014037 0.17846015 0.17385387 0.0924151
000040 8b 3c 82 3e 1a a0 54 bc a8 fc af 3d 43 4f ca 3d
       0.25436816 -0.012977624 0.08593112 0.09878399
000050 2b 73 51 3e f8 82 a6 3c ae 81 51 3d 40 41 5a 3d
       0.2045409 0.020326123 0.051149063 0.053284883
000060 ec 68 c9 3d cb 9e 12 3e 3b 2f 61 3e 70 ad 42 3e
       0.098344654 0.14318387 0.21990673 0.19011474
000070 3c 39 b0 3d 50 af a2 bd 6a ad 25 3e b2 96 8a 3c
       0.086046666 -0.079435945 0.16179433 0.01691756
000080 a3 c3 58 3e c3 e2 d1 3d 38 46 16 3e 40 cf 58 3e
       0.2116838 0.102483295 0.14675224 0.2117281
000090 41 64 8a 3e cd c8 31 bd f7 90 c7 bc e8 07 6a 3e
       0.27029613 -0.04340439 -0.024361117 0.22854578
0000a0 2e 33 5d 3d 45 86 91 3e e3 29 a5 3d 1d 24 3d 3d
       0.054003887 0.28422752 0.0806463 0.04617702
0000b0 69 b2 09 be b1 1b 22 3e ef 9a 2f be 33 90 fe 3b
       -0.13446964 0.15830876 -0.17148946 0.0077686547
0000c0 78 ea bc 3d bc a3 35 3e dc 75 1b 3e 3d 70 b1 3e
       0.09224409 0.17738241 0.15181679 0.34655944
0000d0 7c bd 95 3e 58 8b 81 3c 23 3d b4 3c 25 34 ec 3d
       0.29246128 0.015813515 0.022001809 0.11533383
0000e0 f6 ad 1e 3e fc aa 73 3e 91 66 5b 3e a3 2d 69 3e
       0.15496048 0.23795694 0.21425845 0.22771315
0000f0 6d 06 c3 3d b2 c1 1b be eb 21 3d 3e 76 3b c7 3d
       0.0952271 -0.15210608 0.1846997 0.09728138
000100 26 25 2e bd c0 d1 2d 3e fd ed 9c 3a b4 ce 32 bd
       -0.042515896 0.16974545 0.0011972782 -0.04365416
000110 cb e9 47 bc e2 38 07 3e f8 1f f6 3c 7e 0a 28 3d
       -0.012201737 0.13205293 0.03004454 0.04102563
000120 56 95 39 bd 56 a8 66 3e 3c 9b a5 3d ec 89 13 be
       -0.045308433 0.22525153 0.08086249 -0.14408082
000130 c6 91 c9 3d ff 89 fd bc 0a b2 02 3e de 70 ab 3d
       0.09842257 -0.03094959 0.12763229 0.08371137
000140 2d 1f 1c 3e 0a a6 65 3e ca 67 84 3e cb c9 02 3e
       0.15246268 0.2242662 0.25860435 0.1277229
000150 0e af a1 3d af 79 0f 3d cd a5 1f 3c d9 c3 5a 3e
       0.07894717 0.035028156 0.00974412 0.21363772
000160 04 af 00 3d 8a c8 c4 3d b8 98 4e 3e da 3e e3 3d
       0.031416908 0.09608562 0.20175445 0.11095972
000170 53 81 d4 3c 9d 92 04 3e 95 70 99 bd 54 b5 1f 3e
       0.025940573 0.12946554 -0.074921764 0.15596515
000180 6d 72 3f 3e 2d 7a b1 3d 77 b7 43 3c 98 e7 1d 3e
       0.18695994 0.08665881 0.011945597 0.15420377
000190 e0 23 24 3e 6e 1d 60 be 20 a8 aa 3d 5d ed 2d 3e
       0.1602931 -0.21886227 0.083328485 0.16985078
0001a0 c0 67 e0 3d ee 41 08 3d 39 3c a9 3e 96 f5 63 3e
       0.10957289 0.033266 0.3305376 0.22261652
0001b0 12 dd a4 3d f3 3e 65 bd cd 7e ed 3d 1d 68 9a 3c
       0.08049978 -0.055968236 0.11596451 0.018848473
0001c0 0d 11 17 be 82 4c 3f 3e 27 08 6a 3e b4 80 a1 3d
       -0.14752598 0.18681529 0.22854672 0.07885876
0001d0 1e 5c 81 3b 1a ea 4f 3d 7d ea 6d 3d 7a c7 ad 3d
       0.003947749 0.050760366 0.058084954 0.08485313
0001e0 0a 40 b1 3e 3f 9a 81 3e 6b f3 4d bd 04 45 f8 3d
       0.3461917 0.25312993 -0.05028097 0.12122539
0001f0 87 9c d0 bd b1 08 8b 3d b2 eb 40 3e fc 29 a9 3c
       -0.10186105 0.06788767 0.1883991 0.020649903

layer.6.weight f4 [8, 128]
000000 0e 8b c3 3d 1a fb c6 3c 97 ee 2c 3d 3b 47 29 3d
       0.09548007 0.024289656 0.042219725 0.041327696
000010 37 5a 8b 3c 10 8c 6c bc e5 55 5a 3d 75 67 b2 3c
       0.017010791 -0.01443769 0.05330457 0.021777848
000020 48 a9 97 3c 53 82 bf bc 76 55 a4 3b dc 22 33 bb
       0.018513337 -0.023377573 0.0050150706 -0.002733401
000030 8c 64 65 3d 32 7e a7 bb e0 2d 57 bc 52 9a 32 3d
       0.056004092 -0.005111479 -0.013133496 0.043604203
000040 c9 16 30 bd 9e 1c 15 bd ef 57 09 3c f3 9d b8 ba
       -0.04299048 -0.036404245 0.008382781 -0.0014085158
000050 c9 95 de 3c 69 dc 48 3d e3 f3 e9 bc ce 50 35 3c
       0.027171033 0.049038325 -0.028558677 0.011066629
000060 d9 6e 19 3d 01 0e 22 bd 9b 4c 3b bc f9 aa cb ba
       0.03745923 -0.039564136 -0.011431838 -0.0015538625
000070 6f 7a 8b bc 1f a3 70 bb b1 6e 7c bd bc b1 4f 3d
       -0.017026154 -0.0036718321 -0.061629 0.05070661
000080 d8 a6 73 3c b4 c0 1b bd 21 1e 8e 3c 75 30 92 3b
       0.014871322 -0.038025573 0.017348351 0.004461343
000090 4a c3 ea 3c e0 d1 0b 3c 9e f3 14 bd e3 62 42 bc
       0.028657574 0.008533925 -0.036365144 -0.011864397
0000a0 9d 45 e1 bc b2 5e 05 3d a8 e2 a8 bc e2 6b 82 ba
       -0.027499015 0.03256101 -0.02061589 -0.0009950364
0000b0 fe 5f d7 3b 4e 16 02 3c e1 e2 98 3c cf 04 27 bc
       0.0065727225 0.007939888 0.018662872 -0.010194018
0000c0 9d 39 60 3b 58 c4 31 3d 4d c2 d8 bb 06 61 0f 3d
       0.0034214028 0.04340014 -0.0066149593 0.035004638
0000d0 44 68 80 bc c5 14 df 3c 54 72 ef 3c 62 eb 0e bd
       -0.015674718 0.027231583 0.02922932 -0.034892447
0000e0 d9 ef a6 3c c2 71 b1 bc 5a 7e 05 3c 73 49 e2 bc
       0.02037804 -0.02166069 0.0081478 -0.027622914
0000f0 2c cd ed bc eb a6 b1 3c 0b c8 8a bb be 5c ed bc
       -0.029028498 0.021686038 -0.0042352728 -0.028974887
000100 ba 61 19 bd 33 b4 18 3d 25 96 2c 3a 5c 2c 50 bd
       -0.037446715 0.037281226 0.00065836526 -0.050823554
000110 05 3f 1b bd 94 b0 83 3d 90 4a 25 bd b6 62 88 3c
       -0.037901897 0.06430164 -0.04035431 0.016648632
000120 91 fc 44 3b d7 4b a6 3c d8 0c 8f 3c fc d0 78 3c
       0.0030057768 0.020299835 0.017462179 0.0151865445
000130 e7 e1 cf bc 60 00 3d bd 16 a6 77 3d 7c 79 a9 3c
       -0.025376273 -0.046142936 0.060461126 0.020687811
000140 d2 d0 13 bc 7e 7c d5 3c 2a 08 d3 bc 68 6b 6a bc
       -0.009021955 0.026060339 -0.025760729 -0.014307834
000150 8a 8b 12 bc 22 79 ad bc 74 cf 6c bc a4 a4 ed 3b
       -0.0089444015 -0.021175925 -0.014453758 0.0072522927
000160 28 4c 25 bc c2 3c fe bc 6a b5 f3 3b 53 2c 97 3b
       -0.010088958 -0.031034831 0.0074373977 0.004613438
000170 ed 60 b4 bc 39 c0 78 bc 1a a5 ff 3b 6f a5 72 bc
       -0.022018874 -0.015182548 0.007801664 -0.01480995
000180 5b d5 ff 3c b9 22 d5 3c 7b ff 90 bc 33 4e 07 bc
       0.031229666 0.026017534 -0.017699948 -0.00825839
000190 05 fd ad 3c e3 8f 72 bc 6a 4d 8f ba bb 85 b4 bd
       0.021238813 -0.014804813 -0.0010933105 -0.088145696
0001a0 d7 b2 a6 bb 66 93 01 bd af b4 95 bb 86 e3 9f 3c
       -0.0050872373 -0.03163471 -0.0045686583 0.019517671
0001b0 94 7e 42 3d 72 a0 85 bd f3 b8 23 bd c8 26 f6 3b
       0.047483996 -0.06524743 -0.039971303 0.0075119473
0001c0 6f a3 38 3d 2c 80 6b bd 8a 11 7e 3b 76 8e d3 3c
       0.045077737 -0.05749528 0.0038767778 0.025824767
0001d0 bc 78 19 3d 6d f3 89 3d 83 f7 90 bc d5 45 4d bd
       0.037468657 0.06735883 -0.017696148 -0.050115425
0001e0 fe 68 60 3d 89 19 43 bd 88 d2 3f bd 58 3e 0f bd
       0.05478763 -0.047631774 -0.046831638 -0.034971565
0001f0 4f 9f 34 3d 37 81 fe bc 1a d7 2a bd 57 46 c8 3c
       0.04409724 -0.031067474 -0.041709043 0.024447603
000200 1c 1a 68 3d 48 84 21 bd 96 49 3d 3a d9 c6 a5 bd
       0.056665525 -0.039432794 0.0007220743 -0.08094568
000210 df fd 07 3d 36 ea 3a bd c9 1c d5 bc ca 49 2b 3d
       0.033201095 -0.045633517 -0.026014702 0.041818418
000220 03 9c 21 bd a5 fc 6e bb ea 59 ee bc a1 1d 7d bc
       -0.039455425 -0.0036466506 -0.029095609 -0.015448959
000230 4b 37 b0 ba 1b 6c 9e 3c 2b b1 ac b7 b8 27 3f bc
       -0.0013444213 0.019338658 -2.0586498e-05 -0.0116671845
000240 e0 9d 9f 3c a2 0e dd bc 31 31 0a bd 47 d2 4d bd
       0.01948446 -0.026984517 -0.03373832 -0.050249364
000250 3f a2 4c bc 4d 48 f7 3a 37 e0 3f bc 4c d9 f3 3a
       -0.012489854 0.0018866152 -0.011711172 0.0018604188
000260 e5 86 52 3d f5 4f 02 3d 80 9d a3 bc 3f 99 b3 3c
       0.051398177 0.031814534 -0.019972563 0.02192366
000270 41 b1 34 3c 74 b9 d9 bc c0 d0 c3 bc 1f 28 82 3d
       0.011028589 -0.026577689 -0.02390325 0.06355309
000280 34 c6 ca bc 81 01 05 3d f2 20 cf bc 9f ca b0 bc
       -0.024752714 0.032472137 -0.025284264 -0.021580992
000290 94 51 90 3d 08 0a 7d 3d a0 e6 0e 3d e2 87 57 3d
       0.0704681 0.061777145 0.03488791 0.052619822
0002a0 d5 26 d5 bc b8 c7 9b ba 5a d5 2f 3b 78 0a 49 3d
       -0.026019493 -0.0011885082 0.0026830048 0.04908225
0002b0 25 da b3 3c 64 7d e0 bc df d3 41 3c 0d f8 65 bc
       0.021954605 -0.02740354 0.011830299 -0.014036191
0002c0 93 fb 28 bb 07 c7 bd 3a a6 12 89 bc 1c 4f e7 3c
       -0.0025784716 0.001447887 -0.016732525 0.028235964
0002d0 a6 53 58 3c 6b f5 02 bd 9f 49 11 bc 76 15 b2 bc
       0.013203537 -0.03197233 -0.00886765 -0.021738749
0002e0 4d 69 24 3c 9f 03 45 3d c7 a9 4d 3b 66 b9 27 3b
       0.010034871 0.048099156 0.0031381713 0.0025592684
0002f0 c1 a8 3c bd d4 71 10 3c 35 82 d0 3b 08 04 b6 3c
       -0.046059374 0.008816201 0.006363178 0.02221872
000300 e7 36 a0 3b 0f 1d 45 3d 1f 8a d8 3c 45 a5 b7 bd
       0.0048893574 0.048123416 0.026433049 -0.089670695
000310 66 9a c6 3c 90 4f 8e bc 3d f9 d6 bc c8 5c 7e bb
       0.024243545 -0.017371923 -0.026241893 -0.0038812626
000320 ec 35 2c 3d 85 37 73 bc 15 19 70 bd 93 5f 84 3d
       0.04204361 -0.01484478 -0.05861767 0.06463542
000330 c6 6b 9c bc 6b b1 02 bd a5 27 f7 bc ae 96 a2 3c
       -0.01909436 -0.03190748 -0.030170271 0.01984724
000340 76 e3 ee bc 4e 55 b3 3c 39 41 3c 3c 71 e1 f9 bb
       -0.029161196 0.021891262 0.01149016 -0.0076257517
000350 d5 96 1e 3a bd e8 04 3b e7 73 f4 b9 86 41 90 3b
       0.00060496974 0.0020280324 -0.0004662566 0.0044023423
000360 c3 cf 32 3b 5e cb 05 3c 9c 3d c4 3b 87 7b 44 3d
       0.002728448 0.008166162 0.0059887897 0.047969367
000370 5a 98 df bb e3 43 93 3c 25 cc 4c bd 73 d2 2f bc
       -0.0068235816 0.017976707 -0.049999375 -0.010731327
000380 10 89 06 3d 3b 40 fa 3a 24 45 32 3c a5 84 1b bb
       0.032845557 0.0019092628 0.010880742 -0.0023730185
000390 c1 b5 cf bc 1c a4 c8 3b 3c 2b 29 3d ee b3 ad bd
       -0.025355222 0.006123079 0.041300997 -0.084815845
0003a0 ed 8d 91 bc 0f 33 cb 3c a3 39 ae bc c9 f6 8d bc
       -0.01776787 0.02480462 -0.021267718 -0.01732959
0003b0 3c df 71 bc b3 80 07 bd 12 ff 49 39 a8 e6 dc bc
       -0.014762696 -0.03308172 0.00019263875 -0.026965454
0003c0 31 9d 1c bc 53 c1 06 bc 09 58 46 bd dd 70 45 3c
       -0.009558962 -0.008224803 -0.0484238 0.0120508345
0003d0 29 ed 86 3d e1 43 6b 3c ae 1b b6 bc f6 78 43 3b
       0.065882035 0.014359445 -0.022229996 0.0029826737
0003e0 66 8f 0e 3b 79 33 5f bc 1a 65 c1 3c 31 d0 4a bd
       0.0021752953 -0.013623112 0.02360778 -0.049514953
0003f0 0e 6f 7f bc 91 ac 83 3c c4 2c 8f 3c ac c5 50 3b
       -0.015590442 0.016073497 0.0174774 0.0031856103

layer.6.bias f4 [8]
000000 9e 63 1d 3a 65 30 30 3d 7f 3d 90 bc 5b 98 54 3d
       0.0006003919 0.043014903 -0.017607449 0.05190311
000010 de 9e b5 3d 21 dc 4c 3e 69 64 b3 3c c4 9b 29 3c
       0.08868192 0.20005848 0.021898465 0.010352079
