final/save/1l_0.95_200_morelayer/save1_19000.pth (torch_old, 50952 bytes, 8 tensors)

layer.0.weight f4 [32, 28]
000000 dc 7d 05 3e 56 b5 9d bc f0 2f 6f be 7f 8c cc bd
       0.13036293 -0.019251507 -0.2335813 -0.09987735
000010 ed d2 35 3e f2 d3 64 3e ff 86 6b 3e 64 e8 82 3e
       0.17756243 0.22346476 0.23000716 0.25567925
000020 cc d6 9a bc 0a ef 8f 3d 65 08 e6 bc ba 94 6d 3e
       -0.018901251 0.07028015 -0.028080175 0.23201266
000030 8f 56 9d 3c 3b b4 dd ba 9b cc b2 3d 71 e5 60 3d
       0.019206313 -0.0016914675 0.08730432 0.054906312
000040 47 a8 17 3d 76 71 25 bc 35 b0 c8 bd 81 4f 2d be
       0.037025716 -0.010097852 -0.09799234 -0.1692486
000050 89 20 2c 3e b0 98 99 3d 73 cf 15 3e 48 13 25 bd
       0.16809286 0.07499826 0.14629917 -0.04030159
000060 2b da c1 bd dd 10 f8 bd 08 d8 09 3e d0 73 05 3d
       -0.0946544 -0.121125914 0.13461316 0.03258115
000070 cc cb 69 3e a7 2b 43 3e 90 c7 36 3d 94 63 41 bc
       0.22831649 0.19059621 0.04462391 -0.011803526
000080 dc 07 9c bd 0c b2 4e bd 68 93 6f 3e ab 17 32 3d
       -0.076186866 -0.050462767 0.23396075 0.043479603
000090 4f 8d 22 be fc 9d 23 bd d2 37 5e 3d e7 ec 65 3e
       -0.15874217 -0.039945588 0.054252453 0.22453652
0000a0 46 ba a4 bd 16 d7 b8 3d 14 a5 a6 3c 74 cc c3 3c
       -0.08043341 0.090253994 0.020342387 0.023901202
0000b0 1e 03 b1 bd b5 4b 1f bd 2a 2c 1d be 1d 5d 28 3c
       -0.08643173 -0.03889056 -0.15348879 0.010276106
0000c0 a9 28 37 3e b1 cf 13 bd 66 95 af 3d ea c6 39 3e
       0.17886604 -0.03608674 0.08573417 0.18142286
0000d0 d4 80 59 bd e5 86 18 be 61 12 2d 3d cc dc 3a bd
       -0.053101376 -0.14895208 0.042253856 -0.045620725
0000e0 db 91 0e 3e ed a3 fa bd 6f 7a 33 3e e4 d5 e9 3b
       0.13922827 -0.122382976 0.17527173 0.0071360935
0000f0 73 1f 15 3d a4 06 12 be 0f 12 f6 bc 9e 43 63 bd
       0.036406945 -0.14260346 -0.030037908 -0.055484407
000100 56 a5 db 3d 41 57 70 3e c1 9c 44 bc 32 1b a8 3a
       0.10724895 0.23470785 -0.012000264 0.0012825488
000110 b6 40 9c bd ae 79 1c bc 2b 84 5d be 6d 98 50 bd
       -0.0762953 -0.009550495 -0.2163245 -0.050926615
000120 f2 e7 16 3e cc a3 15 bd 70 0e 11 3e b7 c9 c8 3d
       0.14736918 -0.036533162 0.14165664 0.09804099
000130 b1 ec bc 3d 15 79 c4 3d 8d 0d b6 3d 8e 99 17 be
       0.09224833 0.09593407 0.08889303 -0.1480467
000140 4a 28 16 bd bc f6 0c be de c6 28 3e 90 5e 10 3e
       -0.036659516 -0.13765997 0.16482112 0.14098573
000150 5e 57 8b bd c8 93 24 3e a9 cb 08 3e 7a 2b 17 be
       -0.06803773 0.16071999 0.1335894 -0.14762679
000160 81 ed 05 be 73 8f 26 3d a6 bd 04 bd 7d 82 74 3d
       -0.13078882 0.040664148 -0.032407425 0.059694756
000170 f8 7b ae 3e 0b e7 aa bd d4 44 10 bd 85 9f 32 bd
       0.34078956 -0.08344849 -0.03522189 -0.04360916
000180 a1 ec 6c 3b f5 54 5d be 97 24 51 be 18 5a 91 3e
       0.0036151784 -0.2161444 -0.20424114 0.2838905
000190 3b fb 44 3d d9 63 21 be fd 73 e2 bd 34 02 06 be
       0.048091155 -0.15760745 -0.11057279 -0.13086778
0001a0 f5 0d 9f bd c6 31 89 3e dc bc 96 3d 37 93 3f 3e
       -0.07766334 0.26795787 0.07360241 0.18708502
0001b0 35 89 67 bd 46 ff 65 3d 18 c3 bf 3d af c5 e1 3d
       -0.056527335 0.05615165 0.09363383 0.11024033
0001c0 60 0b 26 3d 19 fa db bd 51 a9 25 3d 6d 05 57 bb
       0.04053819 -0.10741062 0.040444676 -0.003280963
0001d0 54 43 07 3e 8b 3c b5 bd 95 ae 4f bd dc dc 5c 3d
       0.13209277 -0.08849438 -0.050703604 0.053921565
0001e0 53 1c 7d 3e 95 e9 1a be 25 2e 60 3d 2a d3 db bc
       0.24717836 -0.15128167 0.054731507 -0.02683409
0001f0 42 00 68 bd dc c1 3c be 05 08 1e 3d 3b ab 84 3e
       -0.05664087 -0.18433326 0.038581867 0.25911888
000200 8d f4 a1 3c 56 2e 07 bb 91 09 cd bd 5b cc a9 bc
       0.019769931 -0.0020626984 -0.1001159 -0.020727327
000210 48 d3 81 bd c7 9c 79 3e c6 51 08 3d b8 4a 94 3d
       -0.06339127 0.24376212 0.03328111 0.07240814
000220 93 f5 33 bd bd 9a a6 3d 83 a7 de 3c fc 9d 74 3d
       -0.04393537 0.08134983 0.027179485 0.05972098
000230 92 ce 9d bd cb 4b 0e 3e f1 16 be 3e b4 64 58 3e
       -0.07705416 0.138961 0.37126878 0.21132165
000240 fe 83 aa 3c 3f 71 18 3e 3d 69 c2 3d 2e 1e 0e be
       0.020814892 0.1488695 0.09492729 -0.138787
000250 93 c7 1f 3e 26 e2 b9 3d 1d 23 d6 3d a9 ce 51 3d
       0.15603475 0.090763375 0.10455916 0.051222477
000260 d6 f1 98 3e cc 8e 11 3d 1e 9f 84 3e b4 1f 13 3e
       0.29872006 0.035536572 0.25902647 0.14367563
000270 70 dd cc 3d 6b 5d c2 3e 39 15 83 3e b6 24 2f 3e
       0.10003173 0.37961897 0.2560213 0.17103848
000280 fd 83 27 3e 60 fd 71 bd df 4d dc 3b 70 e5 81 3d
       0.16358943 -0.059079528 0.00672315 0.0634259
000290 df 39 15 3e 1c aa 55 3d 3f dc 2a be 6c e6 4e 3d
       0.14572857 0.052164182 -0.1668558 0.050512716
0002a0 65 24 8b bd 49 21 f3 3d 89 9f 44 bd 8c 95 50 3d
       -0.06794051 0.11871583 -0.048003707 0.05092387
0002b0 6e 3e 8e 3d 6d 78 fc 3d 9a dc 2a 3e c1 78 52 3e
       0.06945501 0.12327657 0.16685715 0.20553876
0002c0 5b 1f be 3d 7d 02 a6 3d 2f 3b 38 3c 75 8d 9f 3d
       0.09283324 0.08105943 0.011244579 0.07790653
0002d0 75 f3 86 3e d9 41 75 3d 33 cd 01 3e c7 99 57 bd
       0.26357618 0.05987725 0.12675934 -0.052636888
0002e0 9d eb 87 bd b0 66 7d 3e 40 cd e4 3d b8 32 e4 3d
       -0.066367365 0.24746203 0.11171961 0.11142486
0002f0 fe 4d e9 3c fe 19 1c be 31 c3 a5 3d d8 0b 65 3d
       0.028479572 -0.1524429 0.080938704 0.0559195
000300 0d b6 13 3e bf db 19 3e ac 42 2f 3d a5 6b b2 3d
       0.14424916 0.15025233 0.042788193 0.08711938
000310 0c 09 f6 3c 3a 87 81 bc fb 07 5b 3d 06 65 4e 3e
       0.03003361 -0.015811551 0.053474408 0.20155725
000320 10 46 cd bd 86 a5 f9 3d 6e 8d 28 bd c3 98 06 3d
       -0.10023129 0.12189774 -0.041150503 0.03286053
000330 ca 1f cc bd 12 0b 89 be 8c 48 82 3d f7 bb 87 be
       -0.09967001 -0.26766258 0.063614935 -0.26510593
000340 40 49 35 be 07 b7 06 be 75 80 aa be 47 ea e3 3d
       -0.17703724 -0.13155757 -0.3330113 0.11128669
000350 77 09 8d bd ad b3 c8 be ec aa 13 3e 09 ca 96 3d
       -0.06886571 -0.39199582 0.1442067 0.07362754
000360 99 71 ff 3d f4 c0 f1 3d af 5e 31 3e e7 f5 c3 bd
       0.12472839 0.11804381 0.17321275 -0.095683865
000370 7d e5 dc 3d 0e 3c db 3d bb f3 81 3b ab 77 a5 3d
       0.10785959 0.10704814 0.0039658225 0.080794655
000380 bf 79 6e 3e 17 7a 9e 3d 16 9c e5 bd 4c df 24 bd
       0.2328863 0.077381305 -0.11211412 -0.040252015
000390 9b dd 5b 3d bf 26 45 ba 0c 39 40 3e ab de e4 bc
       0.053678136 -0.0007520727 0.18771762 -0.027938208
0003a0 5d c8 d4 bd b4 5c a4 3d b2 94 db bd 90 06 52 3d
       -0.10389779 0.08025494 -0.10721721 0.05127579
0003b0 1d 33 db bd 39 f9 c2 3c aa ee 9a 3d 7e 6c 3c 3e
       -0.107031085 0.02380048 0.07565053 0.18400761
0003c0 2a 03 11 3e 5a e8 2a 3e 8b 02 ef 3c c6 61 cc bd
       0.14161363 0.16690198 0.029176017 -0.09979586
0003d0 54 1e 9a 3c 09 95 a1 be 66 5d 65 bd 8b c1 ab be
       0.01881329 -0.31559017 -0.055997275 -0.335461
0003e0 a5 d6 b9 3d 45 04 94 3c 57 e0 72 bd 61 9e de bc
       0.09074143 0.018068442 -0.05929598 -0.02717513
0003f0 82 5d 84 3e 4d 42 98 bd c7 59 0c 3e 80 1a 29 3e
       0.2585259 -0.07434521 0.13706122 0.16514015

layer.0.bias f4 [32]
000000 a8 64 51 bd d0 55 88 3d 60 9b 56 be 81 31 d1 bb
       -0.051121384 0.066569924 -0.20957708 -0.006384075
000010 d8 2c a0 3d 96 9d 71 3e ed 3d a9 bd 2a 40 3a 3e
       0.07821053 0.2359527 -0.082637645 0.18188539
000020 ec bf c3 bd 94 24 de 3d 31 75 05 3d 51 c5 6e 3d
       -0.095580906 0.108468205 0.032582466 0.058293644
000030 75 02 02 3e 0f 7a ce 3d ff c5 3b be d1 47 49 be
       0.1269625 0.100818746 -0.18337248 -0.19656302
000040 0b 56 b0 3d 42 42 63 3c d8 5f a3 3d 8b 1d 42 3d
       0.086101614 0.013870778 0.07977265 0.047391456
000050 e4 2a 17 3e 0e b7 5a bd c8 95 6a 3d f2 f2 5a 3e
       0.14762455 -0.05339723 0.05727175 0.21381739
000060 a1 64 69 3e de ed 05 3e bf 36 c5 3d 86 71 d0 3e
       0.22792293 0.1307902 0.096295826 0.40711612
000070 8e e1 32 3f 25 96 3b 3d 3f 0a 6a 3c 7a 7c 01 3d
       0.6987542 0.045797486 0.014284669 0.03161285

layer.2.weight f4 [64, 32]
000000 07 25 e7 3d 51 9b 0c 3e d2 b0 b8 3d 6d 3c 95 bd
       0.11286359 0.13731124 0.09018101 -0.07286916
000010 fe 01 c4 bd 9b 8c 31 3d 64 71 36 3e f2 bc ba 3d
       -0.095706925 0.043346982 0.17816693 0.0911807
000020 b6 c9 67 3d f7 e2 0b 3e 5c 98 e8 bc 63 f4 19 3e
       0.05658885 0.13660799 -0.028392963 0.15034632
000030 3f 8d 60 3d 97 df 09 3d a2 c4 3b 3d 04 f3 c7 3d
       0.054822203 0.033660498 0.04584182 0.097631484
000040 48 c1 db 3d 45 99 2b 3e 22 3b 24 3e da f4 f0 3d
       0.10730225 0.16757686 0.16038182 0.11765452
000050 68 7a 46 3d c2 d6 8d bc b0 90 8d bc ca b5 46 be
       0.04845658 -0.017314319 -0.017280906 -0.19405285
000060 58 a4 a0 bc 16 a2 4c bd 3e 9d 32 3e 29 5b d2 bd
       -0.019609615 -0.049959265 0.17442796 -0.10271294
000070 21 42 e0 bc b2 9e 8e 3d 2b a7 81 3d d5 78 37 3d
       -0.027375283 0.069638625 0.06330713 0.04479297
000080 6c 8a 58 3e a2 4f 7c 3e 9e f9 d9 bd dd 3a 1d bf
       0.21146554 0.24639753 -0.10643314 -0.61417943
000090 51 7a ad be 35 34 22 bd a2 94 4a 3e cd 22 80 be
       -0.33882383 -0.03960057 0.19783261 -0.2502655
0000a0 30 53 58 3e 39 4d b5 3e 5e b1 99 be 51 e0 60 bd
       0.21125484 0.3541048 -0.30018133 -0.054901425
0000b0 ed 50 42 be 0c 00 b4 be 8c 72 64 be a2 4b 17 3e
       -0.18976183 -0.35156286 -0.22309321 0.14774945
0000c0 19 65 4d 3e b4 e3 6e 3e b2 6a 17 3e d8 3f 33 be
       0.20058097 0.2332905 0.14786795 -0.17504823
0000d0 33 65 6d be c2 70 17 3e 09 b0 ce be 8e 2c d9 bd
       -0.23183136 0.14789107 -0.4036868 -0.10604201
0000e0 35 d6 79 bf b3 f2 97 3d f4 91 be bc 7e d6 23 be
       -0.9759248 0.07419338 -0.023262955 -0.15999791
0000f0 c4 0e e1 bd 0e 79 3a 3e 21 24 f1 be 85 35 ab 3d
       -0.109891444 0.18210241 -0.47097877 0.083598174
000100 6d 59 51 3e 14 67 4f 3e f9 3c a6 3c bb 1a db 3d
       0.2044427 0.20254165 0.020292746 0.10698458
000110 35 ca 3a 3e ad 62 93 bc 52 92 1d be 33 77 93 3c
       0.18241198 -0.017991388 -0.15387848 0.018001175
000120 3e d0 6a 3e b1 ef 8e 3e 27 05 13 3d f0 39 1d be
       0.22931 0.27917245 0.035893586 -0.15354133
000130 99 d0 24 3e b1 2c 42 be d1 22 9a be 90 84 31 3e
       0.16095199 -0.18962361 -0.30104688 0.17335725
000140 89 2a ae 3d 38 05 05 3e dd 1a be 3d 88 61 ac be
       0.08504207 0.12990272 0.092824675 -0.3366816
000150 40 67 e8 be 49 51 05 3e 0a a9 65 be 8a c3 71 bd
       -0.45391273 0.13019289 -0.22427765 -0.05902437
000160 e9 f8 67 3e 3b 76 38 be 0b c0 d8 bc d7 4d a3 bd
       0.22653545 -0.18013851 -0.02645876 -0.07973831
000170 52 d2 3c 3e e1 c7 3f be 38 32 1a 3e 39 50 fa 3d
       0.18439606 -0.18728592 0.1505822 0.122223325
000180 02 97 2c 3e ff be 7d bd 3d 4b 23 bd fc 30 ca 3d
       0.1685448 -0.061949726 -0.039866675 0.09872624
000190 7e 77 a7 bc 19 ce 22 be a7 ef 35 bd e9 9f e4 bd
       -0.02044272 -0.15898933 -0.044418003 -0.11163313
0001a0 b2 eb 16 3e eb 8a 22 3e da f6 a2 3d 0a b1 e4 bd
       0.14738348 0.15873305 0.079572394 -0.1116658
0001b0 33 e8 0d 3e 1d bf 36 be 1d 03 21 be 11 5a d1 bd
       0.13858108 -0.17846341 -0.15723844 -0.10222257
0001c0 ca 3a d2 bd ae aa 93 bd e9 c5 3d 3e c6 bb be be
       -0.102651194 -0.07210289 0.18532528 -0.37252635
0001d0 b9 07 db be ed 65 62 3e 9c 3f 2d be 2c d0 7f 3d
       -0.4277933 0.22109194 -0.16918796 0.062454388
0001e0 39 67 ac 3e 95 ec d2 bd 4f 64 24 bc 56 0d 8d 3d
       0.33672503 -0.10299031 -0.010033681 0.06887309
0001f0 32 3c 3f be 90 ea b6 bd 47 06 a4 3d c5 8f 15 be
       -0.18675306 -0.08931458 0.0800901 -0.14605625
000200 02 51 bc bd a8 9f fe bc 3e a8 6d bd 98 cf ad bd
       -0.091951385 -0.03108199 -0.058021776 -0.08486861
000210 13 b6 86 3d 32 2d c7 bd 7c b6 b8 3d ae f8 a0 bd
       0.06577697 -0.09725417 0.09019181 -0.07859932
000220 8c 89 68 bd 71 07 0c 3e 01 e5 80 bc 9c 19 61 3d
       -0.0567718 0.13674714 -0.015734198 0.054956064
000230 7a f3 c3 3d f9 18 04 be e9 4d 8d bd 17 f9 fa bd
       0.09567924 -0.12900151 -0.06899626 -0.12254541
000240 88 46 29 3e 94 de fa 3d b5 71 2b bd 90 cc 72 be
       0.16530812 0.12249485 -0.041856486 -0.23710847
000250 df 12 09 b8 18 54 60 be e3 4c 0b bd c1 1a 7d bd
       -3.268092e-05 -0.21907079 -0.03400887 -0.061793093
000260 46 30 64 be c0 83 e3 3d 66 df 09 3e b5 3b b6 3d
       -0.2228404 0.11109114 0.13464126 0.08898107
000270 99 c1 19 bd f4 8f 1c be f5 f8 8e 3e 1e 5e 0f 3e
       -0.037538145 -0.15289289 0.27924314 0.14000747
000280 79 cb 01 bc 7b d1 16 be 1b ad 25 bd 0c bc d8 be
       -0.007922047 -0.14728348 -0.04044829 -0.42330968
000290 53 12 39 bc 62 21 e0 3d 8a de 99 bd e1 23 fb bd
       -0.011295873 0.10943867 -0.07513149 -0.12262703
0002a0 03 61 a2 bd 57 f6 c2 bd 41 a9 23 be 46 9b c6 3d
       -0.0792866 -0.09519642 -0.15982534 0.09697585
0002b0 e6 19 79 3e 99 c2 13 be 3f e4 77 bc 26 22 4a bd
       0.24326286 -0.14429702 -0.015130102 -0.049348973
0002c0 5b 4b 55 3d b1 d8 11 3e b1 db 93 be 5d 17 5e be
       0.052073818 0.14242817 -0.2887855 -0.216886
0002d0 3f 83 9b bc 6d 6b 22 be 89 51 9d bd 08 a1 c3 3d
       -0.018983481 -0.15861292 -0.07681567 0.09552199
0002e0 5e 25 25 bf 58 f7 03 be 5f 48 27 3e a5 d3 b2 bd
       -0.6451014 -0.12887323 0.16336201 -0.08731774
0002f0 20 86 ca ba 71 cf 25 3a 41 b5 32 3e 03 97 a7 3e
       -0.0015451349 0.00063251617 0.17451955 0.327324
000300 fd 27 d8 bd 0e 3c e8 3d b3 00 d7 3b 02 75 52 be
       -0.10554502 0.113395795 0.0065613627 -0.20552447
000310 17 5c b6 3d b4 8c e1 3d 5f 67 d7 bc 70 00 41 be
       0.089042835 0.11013165 -0.026294408 -0.18847823
000320 d2 85 f8 bd 6a 6b 0a 3e b7 b8 8f 3d 33 b7 3f 3e
       -0.12134899 0.13517538 0.070176534 0.18722229
000330 cf ab 4d bc 88 93 83 bc 70 37 3a 3e d6 0f 9a 3d
       -0.012553169 -0.01606156 0.1818521 0.07522552
000340 25 7b 5c bd a6 d4 1a 3e 0c d4 d0 3d 0b 06 c5 3e
       -0.053828377 0.15120181 0.10196695 0.38481173
000350 7d f8 b8 3e 53 b9 8c bc 3b 13 bf 3d fb 17 a8 3d
       0.36127082 -0.017178213 0.0932984 0.08207699
000360 d4 d4 fe bd ee 47 8c 3d 07 e9 d3 3d 1f 45 55 3e
       -0.124429375 0.06849657 0.10347181 0.20827149
000370 b5 07 3d be 7b 17 c2 3d 1a 8c a6 3d 69 da 23 3e
       -0.18459971 0.09477135 0.08132191 0.16001286
000380 7d 21 03 be 50 bf 4d be 50 80 16 ba 80 ff f4 bd
       -0.12805744 -0.20092511 -0.0005741166 -0.11962795
000390 eb 67 1e be ec 04 aa 3d 8f 8e df 3d 93 bf f2 bd
       -0.15469329 0.0830172 0.10915863 -0.11852946
0003a0 90 04 6c be fd 11 ea bd 90 d7 8f 3d 6a fd 28 3e
       -0.23048615 -0.11429212 0.07023537 0.1650292
0003b0 7c 94 cd bd 0f 1f f2 3d 9f de 57 3e da 17 c8 bc
       -0.10038087 0.1182233 0.21081017 -0.024425436
0003c0 f6 b5 9b be 3e 55 80 3d 28 ae 8e bc 2e 92 f0 3d
       -0.30412263 0.06266259 -0.017417029 0.117466316
0003d0 67 ed d3 3e bb 8b 84 be ef 52 9c 3e 99 43 f9 bc
       0.4139206 -0.25887856 0.30532023 -0.03042774
0003e0 93 2d b8 ba 4f 5a 3c 3e 0f bf 10 bd aa 9b 9e 3c
       -0.0014051668 0.18393825 -0.035338458 0.019361336
0003f0 ec b6 a8 be fd a0 43 3e cc 39 8e bd f3 01 c4 be
       -0.32952058 0.19104381 -0.06944618 -0.38282737

layer.2.bias f4 [64]
000000 a1 8c 9b be ee ee 9e 3c 92 4b cd bd 89 37 63 3d
       -0.3038073 0.01940104 -0.100241795 0.055472884
000010 24 7a 32 3d e3 a5 d0 3d 91 37 9a 3e 25 48 a3 bd
       0.043573514 0.101878904 0.3012052 -0.07972745
000020 24 12 c0 3d d4 fa dd bd a8 4e 12 3e 7d e2 8b bd
       0.0937846 -0.10838857 0.14287817 -0.068303086
000030 3f 2d 3d 3d 2e db b1 3e b5 96 f7 3e d0 27 ee bd
       0.04618573 0.34737533 0.48357168 -0.116286874
000040 98 e2 e0 3d 9d 06 96 3d 69 4c 5d 3d 0a 2b 32 3d
       0.10980719 0.0732548 0.05402795 0.043498076
000050 c4 f7 e7 3d 98 d6 09 3e 22 cc 2c 3e d3 5a d8 bd
       0.113265544 0.13460767 0.16874745 -0.10564198
000060 b1 9b 1a 3e ca c7 3f 3e 04 39 11 be cb 9a 2a bd
       0.15098454 0.18728557 -0.14181906 -0.04165153
000070 0a 90 2d be 6a 6b ee bd 5a 13 6f 3e ac 37 4c 3e
       -0.16949478 -0.11641581 0.23347226 0.19943112
000080 69 af a7 3d 8a aa a6 39 5a 43 58 3d 9d 3c 35 3e
       0.08187754 0.0003178905 0.052798606 0.17698903
000090 e5 b0 84 3e 0b 4d dc 3e 08 11 82 3e 29 a1 3e bd
       0.2591621 0.4302753 0.2540362 -0.046540413
0000a0 13 c4 ac bd 7f 90 98 be 78 85 ed 3c bc 2b 8e 3e
       -0.08435836 -0.29797742 0.028994307 0.27767742
0000b0 6f 45 35 3e 4c 21 84 3d e7 0d 77 3e 29 53 f4 3d
       0.17702268 0.064516634 0.24126397 0.11929924
0000c0 80 01 8d bd 83 61 8e 3d 4e fa 70 be 49 4a a3 3e
       -0.06885052 0.06952193 -0.23532984 0.31892613
0000d0 95 00 c8 3d 8a 10 5a be 77 4d 5a b8 d2 e7 3c be
       0.09765736 -0.21295372 -5.2047395e-05 -0.18447807
0000e0 2d 5d 67 3e 72 d9 06 bd a7 60 36 bd 60 ff 06 3d
       0.22594137 -0.032922216 -0.04452577 0.03295839
0000f0 bf bd 38 3e 66 c1 83 3e f3 16 2c be 7d 8f fe bb
       0.18041132 0.2573349 -0.1680563 -0.00776857

layer.4.weight f4 [128, 64]
000000 86 48 96 3d d6 dd 17 3e e9 13 2e bd 01 fc 82 bc
       0.073380515 0.14830717 -0.042499457 -0.015989305
000010 1b 1f e0 bd f6 e5 c3 bf ce 31 9c bb 19 c9 27 3e
       -0.10943433 -1.5304554 -0.0047666794 0.16385306
000020 51 e7 6c bd 05 3e 27 3d 80 3c 5d 3d 03 f1 54 3d
       -0.057837788 0.04083063 0.054012775 0.05198766
000030 98 fa a6 3b 97 54 93 3d 7c bb 08 3e 55 f3 bd be
       0.005095791 0.071938686 0.1335277 -0.3709971
000040 17 32 13 3e a1 de 36 3e e5 a0 1b 3e 8b ce ed bd
       0.14374577 0.17858364 0.15198095 -0.116116606
000050 51 58 3e 3c 7d 35 44 be ed 97 bb 3d 5b 96 d3 3d
       0.011617736 -0.19161029 0.09159837 0.103314124
000060 d6 92 1c 3e a1 84 bd bf 76 55 5f be d2 ef b7 bc
       0.15290388 -1.48061 -0.21809945 -0.022453222
000070 06 64 97 bd d7 9f ce 3c 72 dc e1 bb e8 5c 40 bd
       -0.07392125 0.025222702 -0.006892734 -0.046963602
000080 66 f3 9b bd c0 27 07 bc 31 ae b3 bd 12 c6 cc bf
       -0.07614784 -0.008249223 -0.08773459 -1.5997946
000090 5a 55 20 bd 33 6a 60 bd 82 f7 29 3e 30 32 4f be
       -0.039143898 -0.05478878 0.16598323 -0.20233989
0000a0 0f de be bc 6e 59 1c be 81 b6 19 3d 20 d6 ad 3d
       -0.023299245 -0.1526849 0.037527565 0.08488107
0000b0 13 61 f7 bd f1 97 3c bd 88 98 28 bd 1a b2 69 bc
       -0.12079062 -0.04604334 -0.04116109 -0.014263654
0000c0 5c 17 b9 3d e4 1d 8c 3d 2b dd 1f be 55 d5 54 3d
       0.090376586 0.06841639 -0.15611713 0.05196126
0000d0 d0 56 6f 3d 65 a2 c5 3d 71 36 1e bc b6 eb 10 3d
       0.0584324 0.09650115 -0.0096565345 0.03538104
0000e0 4d b7 4d 3d 33 27 a1 bb 0b 84 6e 3d 60 2d ac 3d
       0.050223637 -0.004918003 0.058231395 0.08407092
0000f0 73 6d 02 bf 35 cb 69 bd b3 ae 25 3c 76 ed 03 be
       -0.50948256 -0.05707856 0.010112452 -0.12883553
000100 f5 eb 6c bd 1a d4 22 c0 f0 59 4e bd b8 bb 90 bb
       -0.057842214 -2.5441957 -0.05037874 -0.004416909
000110 67 a8 88 3d 0e fb 24 3e ed fa fc 3d c8 53 bf 3d
       0.06672745 0.16111395 0.12352548 0.09342152
000120 f2 9f 1e bf 46 e5 b8 bd c8 b3 02 3e b3 d3 d9 bd
       -0.6196281 -0.090281054 0.12763894 -0.106360815
000130 28 78 93 3d e9 4e c6 3d 81 62 ba 3d 95 fc 0b be
       0.07200652 0.0968302 0.091008194 -0.13670571
000140 89 aa f3 bf 80 dd a0 bd 9b e5 40 3b d6 fa f9 3c
       -1.9036418 -0.07854748 0.002943373 0.030515116
000150 3c 53 3b bd cb 26 3f 3d a2 cb 32 3e 4c b1 1f be
       -0.045733675 0.046667855 0.17460492 -0.15594977
000160 d2 73 50 3e af 28 33 3d b9 f7 4f bc 4b c6 80 3d
       0.20356682 0.04373997 -0.012693339 0.062878214
000170 ee 1b bf bd 41 d3 9d bd f0 4f 75 bd 67 4a dc 3d
       -0.09331499 -0.07706309 -0.059890687 0.107563786
000180 02 df 6d bd 8f f6 a7 3d ad a1 c6 bf 55 33 63 3d
       -0.058074005 0.08201324 -1.551809 0.055468876
000190 0a b5 18 bd 55 47 f0 bc 46 f5 0d 3d 4c 2b 45 be
       -0.037282027 -0.029330889 0.03465774 -0.19254798
0001a0 60 71 1b 3e e6 d2 e1 bc 92 a3 1d 3e dd 14 27 3e
       0.15179968 -0.027566385 0.15394428 0.16316552
0001b0 bb f3 a3 3d 38 f9 e1 3d ed 71 74 bd d8 b8 bc bd
       0.08005472 0.11033863 -0.05967896 -0.09214944
0001c0 f8 ae bb 3d f9 dd 48 3c 7d cd ac bd 94 cc 53 3d
       0.09164232 0.012259954 -0.08437631 0.051708773
0001d0 b1 ec b3 bd 58 49 64 bc 1e 78 19 bd 1c 41 fb 3d
       -0.0878538 -0.013933502 -0.03746807 0.12268278
0001e0 eb fe 9c 3d c7 2b 0c 3d 2a 8b 46 bd 39 53 a3 3c
       0.07665809 0.034221437 -0.04847256 0.019937145
0001f0 0f 57 7c 3d 57 6f 7a bd 8b eb 4e be 3d c1 02 be
       0.061606463 -0.06114134 -0.2020704 -0.12769027
000200 cf 93 da bc cd 93 0c 3e 38 ab 24 3c 63 d0 7f bd
       -0.026681809 0.13728257 0.010050587 -0.062454592
000210 1f 9f 87 3d 72 f2 ea 3d f0 f4 cc 3d 6f f7 d6 bc
       0.06622147 0.11472024 0.100076556 -0.026241032
000220 43 32 97 bd c4 8c af bd 06 a2 5f 3d b3 b7 34 3d
       -0.073826335 -0.08571771 0.054597877 0.0441205
000230 6d 0d 83 bd f0 20 84 3e bc 5b 10 3e d8 dc 20 be
       -0.06399045 0.2580638 0.14097494 -0.15709245
000240 36 5b 9b 3a 22 2b 4d 3e c3 0d 43 3d 07 ea 9b bc
       0.0011852745 0.20035985 0.047620546 -0.019032491
000250 bb eb 1f bd 8a 7a 0b 3d 98 6a 40 3d 5e a5 61 be
       -0.03904317 0.03405241 0.046976656 -0.22035739
000260 a7 34 0d 3e b7 c7 08 3d cd 92 1f be d0 e4 91 bd
       0.13789617 0.033393588 -0.15583344 -0.07123721
000270 66 c2 48 be 47 8e 99 ba d5 95 1e bd 41 79 07 3d
       -0.19605407 -0.0011715376 -0.03871711 0.03307462
000280 23 b7 a3 bc cc 5c 3e ba cf 63 7a 3b d0 b0 e7 bd
       -0.019984787 -0.00072617526 0.0038206463 -0.11313021
000290 fd ab 01 3b bb bb 04 be a0 b0 4c 3e b5 d4 d6 bd
       0.001978635 -0.12962238 0.19989252 -0.104897894
0002a0 7d 5c d1 3c 63 ff 71 bd f2 46 83 3c 5f 30 99 3d
       0.025556797 -0.059081446 0.01602504 0.07479929
0002b0 00 53 94 3d 34 f8 21 3e 75 f9 10 3e 38 dc 00 be
       0.072423935 0.15817338 0.1415766 -0.12584007
0002c0 ce e3 0f bd 63 a1 8b 3c 51 14 b7 be d6 b6 d9 3d
       -0.03512936 0.017044729 -0.35757688 0.10630576
0002d0 8b c8 7b bd a8 eb 3f bd af 0f ef 3b 79 fa c2 3d
       -0.06147055 -0.0468556 0.007295571 0.0952043
0002e0 5b 5a 10 3d e1 96 ae bb 19 24 07 be 67 6a 94 3d
       0.03524242 -0.0053280448 -0.13197364 0.07246857
0002f0 8f f6 72 3e 4b a6 eb 3d cd 58 88 bc d3 be bc bd
       0.23726867 0.11506327 -0.016643906 -0.09216084
000300 b7 7a e7 3d 7f 59 b5 be 7b e4 92 3e a5 73 ff bb
       0.11302703 -0.35419843 0.28689942 -0.0077957683
000310 36 80 0a 3d c5 bc 98 3e 65 1e 85 bd bb 0c 07 3d
       0.033813678 0.2983152 -0.06499938 0.032971125
000320 1e 6f 2a bd 79 34 14 3d 40 df 8c 3a 10 7b 2a 3c
       -0.041609876 0.036182854 0.0010747686 0.010405317
000330 ef fe ab 3d 05 cd 1a be 6e 53 20 be 54 e9 66 3e
       0.08398234 -0.15117271 -0.15656826 0.22549945
000340 2f 9c 40 be b2 60 4c be 48 6c 1e be df 17 37 bc
       -0.1880958 -0.19958761 -0.15470994 -0.011175125
000350 db 46 65 bd 5a 0b ca 3c b9 32 37 3d d7 5a 24 3e
       -0.055975776 0.024663616 0.044726107 0.16050278
000360 87 ad f4 bc d7 11 45 3e 06 51 b1 3c a6 6f 95 3d
       -0.0298679 0.19245087 0.02164508 0.07296686
000370 e7 15 72 3e a6 ef bd bb 13 22 8d 3d 40 6e ec 3d
       0.23641168 -0.0057963906 0.06891265 0.11544466
000380 d9 b4 63 3d 7c 24 bf 3d ea 00 0c be 19 cf 87 3e
       0.05559239 0.09333131 -0.13672224 0.2652519
000390 a4 6e e5 3b 5c fe 6a 3d 39 c1 e7 3d 05 df 3c 3e
       0.007001715 0.057371482 0.11316151 0.1844445
0003a0 b2 26 61 be 72 4b 73 3d 8c 41 18 be 26 04 f7 bd
       -0.21987417 0.059398122 -0.14868754 -0.12061338
0003b0 93 7f 42 bd d5 08 99 3d 44 f8 68 be 2a 82 01 3e
       -0.047484946 0.07472388 -0.22750956 0.1264731
0003c0 fe 19 c4 ba ce 0e 8e 3d 39 e1 81 3d 9f 86 c3 bc
       -0.001496136 0.069364175 0.06341786 -0.023867903
0003d0 36 4b b6 3d 8d e3 21 be 6a 76 37 3d 4b c0 36 3d
       0.08901064 -0.1580946 0.044790663 0.04461698
0003e0 49 b0 02 be e2 6b 44 3e 4c ba e1 bd 88 a4 08 3e
       -0.1276256 0.19181779 -0.110218614 0.13344014
0003f0 a7 b8 19 3e 9a 79 20 bd bf 9f 0c 3e 99 da 34 3e
       0.15011846 -0.03917847 0.13732813 0.17661513

layer.4.bias f4 [128]
000000 ab 3a 43 3e 40 bd 65 3e 8b 4c bd 3e bb e8 b4 bd
       0.19065349 0.22435474 0.3697246 -0.08833452
000010 d6 d8 79 be e1 e0 b5 3e 05 76 ca bd 1f a4 dd 3e
       -0.24399123 0.3552313 -0.09885792 0.43289277
000020 26 ae 70 3e e9 48 53 be 27 b2 25 3e 57 01 43 3e
       0.23503932 -0.20633282 0.16181241 0.1904348
000030 c8 75 0f 3e 5f 67 13 bd 46 cc d3 3d 1a 85 78 be
       0.14009774 -0.035987254 0.103416964 -0.24269524
000040 f0 be 72 be 73 83 70 bd ea 49 86 bd fc b5 57 3d
       -0.2370565 -0.05871911 -0.06557067 0.05266379
000050 55 fc 17 3e 4e 99 8d bd 48 0e 0b 3e 20 6d e4 3d
       0.14842351 -0.06914006 0.13579667 0.111536264
000060 86 4e 3a 3d 0f 2f 39 3e 2b a9 48 be 37 3a c2 3d
       0.045485042 0.18084358 -0.19595782 0.0948376
000070 a7 82 5e 3d 1a 1b 67 bd c5 7a 1d 3e b4 e1 51 3d
       0.05432382 -0.05642233 0.15378864 0.051240638
000080 32 a5 7e 3e 4a cd 40 be c6 fb 88 bc a1 bb 8c 3e
       0.24867705 -0.18828312 -0.016721617 0.274869
000090 61 9a 69 3e 0f 46 41 3e 21 d3 5a 3e e9 99 44 3e
       0.22812797 0.18874381 0.21369602 0.19199337
0000a0 7a 36 6c 3d ae b6 48 3e bb 59 fa 3d ec bf 6c bd
       0.05766914 0.19600937 0.12224146 -0.05780022
0000b0 ce 0c bf 3e f6 42 bf 3e 0c 63 ce 3c 6a cc 83 3e
       0.37314457 0.37355775 0.025193714 0.25741893
0000c0 e0 14 51 3d 73 2f 59 3e b9 e1 9f be bc e9 4b 3d
       0.0510453 0.21209507 -0.312269 0.049783453
0000d0 10 f2 45 be b9 83 35 3e 1a d6 80 3e 85 bb 19 3e
       -0.19330621 0.1772603 0.25163347 0.1501294
0000e0 51 06 85 3e 67 96 36 3e 51 85 a1 3c f2 b5 5e 3e
       0.25981382 0.17830811 0.01971689 0.21749094
0000f0 e2 1c 4c 3d d0 b8 57 be 43 38 7e 3d 51 ee 73 be
       0.049832232 -0.21066594 0.062065374 -0.23821379
000100 40 31 8e bd dd 72 ce 3d c8 b5 82 3e 36 77 36 3e
       -0.069429874 0.10080502 0.25529313 0.17818913
000110 b6 94 37 3c 23 7e 59 3e 42 4a 8c be a6 8e 41 3c
       0.011204889 0.21239524 -0.27400404 0.011813795
000120 d4 02 63 3e 56 47 75 3e 60 5c 7b 3e b9 9e c3 3d
       0.22169048 0.23952994 0.24546957 0.09551758
000130 f9 d1 f3 be 0a f9 b9 3e ab 53 92 3d 00 13 03 bd
       -0.47621134 0.36322814 0.07144865 -0.03200054
000140 05 c6 6c 3e df 70 39 be 26 5c 8d bd 4d 03 41 3d
       0.23122413 -0.18109463 -0.069023415 0.04712229
000150 2f 5d 94 3d b0 9f 5e 3e d3 97 dc 3d ed 7b 35 3c
       0.07244336 0.21740603 0.10771146 0.0110769095
000160 f8 c4 b3 3d 90 52 51 3e d1 8b 3c 3e bf 10 68 3e
       0.08777803 0.20441651 0.1841271 0.22662638
000170 3b 4b f5 3d 06 55 33 3e ad 07 0f 3d 74 d8 aa 3d
       0.1197724 0.17512903 0.03491943 0.083420664
000180 e6 4b 47 be 39 bc ea 3d 5a 0c 00 3e 40 27 0c 3d
       -0.19462547 0.11461682 0.12504712 0.03421712
000190 0e d4 04 3e 63 56 e1 bd 7d 2f 2d be 20 ab 54 3e
       0.12971517 -0.11002805 -0.16912647 0.20768404
0001a0 23 25 b7 3e 03 53 71 3e 21 b7 54 3b 1d 31 83 3e
       0.3577052 0.23566823 0.0032457786 0.25623408
0001b0 fd 10 8c 3d 3e 1d 5d 3e e5 42 15 3e e8 9a 44 3e
       0.06839178 0.21593186 0.145763 0.19199717
0001c0 74 43 7a 3e 3d 1c e1 3d 91 74 f4 3e 52 61 93 bd
       0.24439794 0.10991714 0.47745183 -0.07196297
0001d0 07 b3 57 3e 92 1a b9 3e 6e d6 16 3e 0b ff 91 3e
       0.21064387 0.36153084 0.14730236 0.28514895
0001e0 ad 49 3e be 3d dd 7b 3d 8b b4 9f 3e 33 c4 5a 3e
       -0.18582793 0.061490286 0.3119243 0.21363907
0001f0 e7 a5 fd bd 4e 5d 2d 3e d2 69 a0 3e 36 58 05 3e
       -0.12385159 0.16930124 0.31330734 0.13021931

layer.6.weight f4 [8, 128]
000000 bc 5f d4 3e b9 37 4a bf 2c 6a 8e 3e 34 ac 43 bd
       0.4147929 -0.78991276 0.27815378 -0.047771648
000010 7b fd 94 bd 2f f4 92 3e 40 9c df be e6 9d ac 3e
       -0.0727491 0.28701922 -0.43673897 0.33714217
000020 9e 7a ae be 31 83 20 bd 7f bc 13 bd d3 d5 30 3e
       -0.34077924 -0.039187614 -0.036068436 0.17269067
000030 60 37 8e be 7f 9f 93 bd d4 bc 81 3e 09 3a ee bd
       -0.27776623 -0.07208156 0.25339377 -0.11632163
000040 14 23 72 be 1c 7e b7 3d 7c e8 0b 3f d0 79 a2 3e
       -0.23646194 0.089596 0.5465162 0.3173356
000050 53 81 32 3e 84 10 15 3e 78 25 c1 3e f3 bd 54 3e
       0.17432146 0.14557081 0.377239 0.20775585
000060 0c b3 80 bf 8c 4c 3f bf b0 4c a2 bd 59 49 ea be
       -1.0054641 -0.74726176 -0.07924783 -0.45759085
000070 11 a6 93 be 58 43 93 be ca 73 b4 be d4 31 bf 3e
       -0.28837636 -0.28762317 -0.3524459 0.37342703
000080 12 cd 9f be a4 25 7e bd 96 0c 29 3e 7a 69 6e 3e
       -0.31211144 -0.062047616 0.16508707 0.23282424
000090 c4 90 d1 be 49 08 cd be db 0e 84 3e d0 8a 8f 3e
       -0.4093076 -0.40045384 0.25792584 0.28035593
0000a0 d7 81 13 bf ed 78 f3 3d 5f d9 cd be cd 76 d3 3e
       -0.57619995 0.11888299 -0.40204903 0.41301575
0000b0 52 f8 e5 3e f0 1e 22 3e df f4 31 3e 22 bd b2 3e
       0.44916016 0.15832114 0.17378567 0.34909922
0000c0 a4 09 4a 3e 52 f3 29 3e 58 f1 28 be 8e b2 81 3e
       0.1973024 0.16596726 -0.16498315 0.2533154
0000d0 1d 9c 96 bd a4 42 16 3f 46 98 01 bf e8 1c 25 bf
       -0.07353995 0.58695436 -0.50622976 -0.6449723
0000e0 d8 f1 39 bf f2 73 0c bf 50 64 bc be 58 ef 8b 3d
       -0.7263465 -0.5486442 -0.36795282 0.068327606
0000f0 5d 08 b9 3c ad e9 cb 3f fc 05 70 3e 17 67 01 be
       0.022586996 1.5930687 0.23439783 -0.12636982
000100 bc c2 17 3d 23 2f 66 be 2d 8b 85 3e e9 84 83 3e
       0.037050948 -0.22478919 0.26082745 0.2568734
000110 3e 2b a0 3f 51 65 e2 be bc 0a ad be 87 d5 5f be
       1.2513196 -0.44217923 -0.33797252 -0.21858798
000120 31 38 28 3e c0 2a df 3d ea 51 91 be 11 15 35 bf
       0.16427685 0.10896826 -0.28382808 -0.7073527
000130 3f 02 12 be d6 12 a7 3e 2d 26 b7 be 5f 97 50 bf
       -0.1425867 0.32631558 -0.35771313 -0.81480974
000140 7e d0 06 3e 2e ab 36 be 67 0e 42 3a 88 55 a6 3e
       0.13165471 -0.17838737 0.0007402659 0.3248713
000150 ba d3 28 bf 92 ef 1e bf 40 a4 fe bd 53 e3 5c bf
       -0.6594807 -0.62084305 -0.12433672 -0.8628437
000160 c1 f8 1f 3f 46 2e f5 3e 89 41 44 bf 78 f6 8e be
       0.62488943 0.47886866 -0.766625 -0.27922416
000170 89 61 47 bf c1 6a 0c 3f 10 ba 04 3f 0d fb e8 be
       -0.778832 0.54850394 0.5184641 -0.45504037
000180 ef d4 9c 3d eb 1b a9 be 43 d2 9a bd 3f 6a 26 bf
       0.07657801 -0.33029112 -0.075596355 -0.6500587
000190 eb f3 0c bf 5e 07 74 be e7 eb 66 be 8c 20 20 bd
       -0.5505969 -0.23830935 -0.22550927 -0.03909354
0001a0 27 aa b9 3e 4e 1b c8 3d a2 0f 09 3f 00 f6 3b 3e
       0.36262628 0.09770833 0.5353948 0.1835556
0001b0 b0 b3 df be 33 14 8f 3e 01 c6 92 3e cb fe 8a 3e
       -0.43691778 0.27945098 0.2866669 0.27147517
0001c0 91 9e 88 3e 17 08 b7 be 90 5f b8 3e 3f 66 2e be
       0.26683477 -0.3574836 0.36010408 -0.17031191
0001d0 43 3f e6 3d 0d 59 a4 3e 42 d1 77 3e 2e c8 14 bf
       0.11242535 0.3209919 0.2420092 -0.5811795
0001e0 b4 69 57 bc 6c de 36 3e 7f d9 9c 3e 2c 7e 7e 3e
       -0.01314776 0.17858285 0.30634686 0.24852818
0001f0 b6 5e c0 3f af 48 6f bf d4 8e 35 3e c0 a1 11 bf
       1.5028903 -0.9347028 0.17730266 -0.56887436
000200 31 41 f8 3e 15 00 55 3e 44 93 0b 3e f8 49 82 be
       0.48487237 0.20800813 0.13630396 -0.2544706
000210 9c b9 83 3d 40 21 cd 3d 04 56 03 3f 08 72 30 3e
       0.064318866 0.100161076 0.51303124 0.17231
000220 69 9e 7c 3e b0 67 d5 bc d8 10 2d 3d 5a aa 03 3e
       0.24669804 -0.026050419 0.04225239 0.12857953
000230 8b 30 45 bf 47 d2 a0 bd de 91 88 be 0e b2 19 be
       -0.77027196 -0.07852607 -0.26673788 -0.15009329
000240 f4 be 63 be 86 87 bb bd fc d8 3f 3d 64 19 e4 bd
       -0.22240812 -0.091567084 0.04683779 -0.111376554
000250 2a 9c 7b be d4 75 8d bd 03 d4 d4 be fb 01 ff 3d
       -0.2457129 -0.069072396 -0.41568002 0.124515496
000260 87 72 b4 3e 97 73 2f 3e 9f 8b d3 bd e6 1d 5b bf
       0.35243627 0.17133938 -0.10329365 -0.85592496
000270 53 ef 23 3f 43 74 cb 3e 79 59 5e 3f 4f 79 90 be
       0.64037055 0.39737138 0.86855274 -0.2821755
000280 d2 3c 9c be b6 26 ce bd 28 51 fc 3e 9b e8 db 3d
       -0.30515152 -0.10065977 0.49280667 0.10737725
000290 36 8a 4e 3f cc 56 c7 3e d3 30 f0 3e 19 12 0e 3d
       0.80679643 0.38933408 0.4691225 0.034685228
0002a0 82 fe 16 bf 1e 32 01 3d fa 73 01 3f 3d 14 47 3e
       -0.589821 0.031541936 0.5056759 0.19441314
0002b0 9c c2 c6 3d f7 87 db be e9 f9 6f bd 29 86 2a 3e
       0.097050875 -0.4287717 -0.058587942 0.1665274
0002c0 8d 47 20 be 25 34 84 be 09 6c 1a be 22 57 3e 3e
       -0.15652294 -0.25821033 -0.15080275 0.18587926
0002d0 e3 85 c5 3f 8a 7b 0b bc bc ee 09 bf 9a 63 c3 3d
       1.5431484 -0.008513341 -0.53879905 0.09540482
0002e0 7d ae ff 3d ea 50 6f bd 41 15 6b 3f a2 b4 0f bd
       0.12484453 -0.058426775 0.91829306 -0.035084374
0002f0 60 1f d8 bd 0a ce 59 3d 06 f9 a6 be 17 b6 62 bd
       -0.10552859 0.05317501 -0.32611865 -0.055349436
000300 36 5f f3 bd d1 a0 53 3f 19 40 2c bf 9c 69 88 3e
       -0.118833944 0.8266726 -0.67285305 0.26643074
000310 35 a4 9a 3f 5c 3f f3 3e ec 9a 34 be 01 a9 4c 3f
       1.2081362 0.47509277 -0.17637223 0.7994538
000320 06 21 82 be 1a 52 9a be 7a 02 0d bf 95 a1 40 3e
       -0.2541582 -0.30140764 -0.55081904 0.18811639
000330 ec ab d3 bd 1d f9 1e 3e a8 71 0b 3d 26 8b e2 be
       -0.10335526 0.15524717 0.034043938 -0.44246787
000340 4a e9 d8 be 0b a6 ab bc 9b 8d 39 bd f9 9c c0 3e
       -0.42365485 -0.020953199 -0.04530106 0.3761976
000350 a4 79 d4 be 87 f7 26 3e 9d 78 1d 3f cc 3f ca be
       -0.41499054 0.16305362 0.61512166 -0.39501798
000360 a8 b8 8f be 10 9c e6 3d 5f 1a 88 3e 8e b1 65 3e
       -0.2807057 0.11260235 0.2658262 0.22431013
000370 8e 85 bc 3d 62 3d 43 be cb ae d9 be 16 c5 f8 3a
       0.09205161 -0.19066384 -0.4251617 0.0018979635
000380 0d c1 77 be 32 fb 1b bf 64 e3 03 3f fc a0 9f be
       -0.24194737 -0.6093017 0.51518846 -0.3117751
000390 28 c4 22 3e 78 79 46 be 85 8b 04 3c 05 eb ac bd
       0.1589514 -0.19382274 0.008089905 -0.08443264
0003a0 e0 76 1d 3e 3e 06 8f be 0f 0e 56 be 97 3e 02 bd
       0.15377378 -0.2793445 -0.209038 -0.03179797
0003b0 d5 71 6d 3f bd c6 27 3e 2d ec 3f 3e 4f 30 a2 3e
       0.9275182 0.16384406 0.18742438 0.31677482
0003c0 86 51 23 3e c8 19 41 3d 34 c9 e4 3d b2 58 35 be
       0.15949067 0.047143728 0.11171189 -0.17709616
0003d0 24 ae 56 be db 53 d0 3c e3 ba 88 be 10 ce 5b 3e
       -0.20964867 0.02543061 -0.26705083 0.21465325
0003e0 8f 65 17 be 64 75 86 be 6b fd ae 3d 14 b4 a7 3e
       -0.14784835 -0.26261437 0.085444294 0.32754576
0003f0 0b 3a 0e be 28 23 30 3e 2f 46 d1 3d 41 2a 43 bd
       -0.13889329 0.17200911 0.102184646 -0.04764772

layer.6.bias f4 [8]
000000 98 be 81 3e 0e fe c4 3d c5 52 96 3d c7 b4 ab 3d
       0.25340724 0.096187696 0.07340006 0.0838409
000010 42 ad a6 bc 36 56 05 3d 9f c8 fd 3c 9c 70 ac bc
       -0.020346288 0.03255292 0.030979453 -0.02104979
