final/save/1l_0.95_200_morelayer/save1_3000.pth (torch_old, 50952 bytes, 8 tensors)

layer.0.weight f4 [32, 28]
0.055900276 -0.099557884 -0.17018753 -0.12185233 0.116105065 0.15997654 0.13684699 0.19884539
-0.09369292 0.07610945 -0.0881321 0.095498085 0.09520744 -0.009659854 -0.13676016 0.030092167
0.13651998 0.057506546 -0.05664872 -0.19910136 0.14168799 -0.019887298 0.14547072 -0.13349605
-0.04961648 -0.00915037 0.06217952 0.079048805 0.15016244 0.20030367 0.059519224 -0.012089222
-0.13789552 -0.14077084 0.16659851 0.011333313 -0.1171258 -0.016557412 0.04015421 0.036919665
-0.03192285 0.116246685 -0.14145921 0.043076016 -0.03432911 -0.07126498 -0.1158783 0.020681128
0.13418604 -0.07091519 0.07962181 0.11699705 0.00055397744 -0.061402265 0.03833576 -0.022128128
0.17356355 -0.14631914 0.19204177 0.015474367 0.1115077 -0.009118109 0.040004224 0.0027011568
0.11059537 0.19213346 -0.04453211 0.17212693 -0.09057632 0.0066269 0.006404337 -0.032157976
0.040664047 0.034638137 0.17277373 0.16559985 0.16608307 0.1717187 0.16816464 -0.109417215
0.004049947 -0.087586775 0.19025223 0.11000101 -0.057626016 0.16674432 0.16542023 -0.09044869
-0.12733285 0.1565199 -0.12657572 -0.04567229 0.22656955 -0.02521805 -0.026613794 -0.07945863
0.12414495 -0.13419311 -0.06355843 0.18020347 0.06578898 -0.07092808 -0.040402666 -0.06896242
0.05943586 0.06848633 -0.058109608 0.20256406 -0.10592747 0.01406055 0.121660076 0.19573894
0.11051323 -0.13876495 0.08231508 0.036772776 0.16498272 -0.010611361 -0.081254 -0.03753936
0.009851967 -0.090481035 0.11788911 -0.0167326 0.0239515 -0.17528059 0.01803399 0.12668203
-0.022019433 0.008978972 -0.021156732 0.03761906 -0.02651262 0.15619436 0.018548792 0.051094998
-0.0071773813 0.08352199 -0.018357176 0.10679189 -0.10916892 0.089251146 0.15980089 0.12359829
-0.060098946 0.004538645 0.115784094 -0.16701214 -0.023326984 0.060769286 0.1550231 0.021288168
0.19820037 -0.008222806 0.1508485 0.094650276 0.027022451 0.15634248 0.16516915 0.13425758
0.07728245 -0.10799449 -0.0704907 -0.07416885 0.13957612 -0.086732246 -0.1443524 0.05517083
-0.12160832 0.16573855 -0.061764218 -0.012578874 0.00013123272 -0.038935434 0.114107914 0.20274821
0.14974298 0.067669 -0.01845468 -0.049108315 0.20078991 0.053656805 0.020964498 -0.04130537
-0.11650625 0.08486948 0.06870493 0.09120289 -0.0053100944 -0.112655096 0.07408804 -0.0076233796
0.097921014 0.100084424 0.052579403 0.030767033 0.014809378 -0.111272186 0.008747012 0.22105251
-0.11711577 0.22370529 -0.09649854 -0.08911977 -0.15972622 -0.18104859 0.10510837 -0.08778541
-0.14780918 -0.10862941 -0.032335438 0.05974259 -0.13983794 -0.18175411 0.08099294 0.01816862
0.046365112 0.101005904 0.20574458 -0.045028742 0.23089784 0.14067654 0.014743564 0.12525073
0.15506713 0.041146077 -0.07836496 -0.093536906 -0.010504592 -0.015143354 0.11700648 -0.063963346
-0.096465304 0.07498586 -0.1690682 -0.03741946 -0.052966736 0.05513407 0.013322438 0.13717405
0.08766478 0.147837 0.023903782 -0.1814717 -0.020041866 -0.16190381 0.09336442 -0.121368594
0.11415686 0.028449759 -0.16522186 -0.082300976 0.18515031 -0.081990905 0.18689615 0.16738395
00000000: b0f7 643d 01e5 cbbd a445 2ebe b78d f9bd
00000010: 7ec8 ed3d e4d0 233e 9e21 0c3e 209e 4b3e
00000020: 13e2 bfbd 45df 9b3d 9a7e b4bd 8094 c33d
00000030: 1efc c23d 5d44 1ebc db0a 0cbe d983 f63c
00000040: e5cb 0b3e fc8b 6b3d 7d08 68bd 3ae1 4bbe
00000050: a816 113e b0ea a2bc 47f6 143e 30b3 08be
00000060: a63a 4bbd 6feb 15bc f4af 7e3d 57e4 a13d
00000070: 2fc4 193e 681c 4d3e 6eca 733d df11 46bc
00000080: 7c34 0dbe 3b26 10be cd98 2a3e 5caf 393c
00000090: a7df efbd 69a3 87bc be78 243d 1339 173d
000000a0: 89c1 02bd be12 ee3d afda 10be 7a70 303d
000000b0: ae9c 0cbd 60f3 91bd 9a51 edbd 786b a93c
000000c0: 1168 093e fc3b 91bd c210 a33d 269c ef3d
000000d0: cc38 113a f180 7bbd f505 1d3d 0c46 b5bc
000000e0: a5ba 313e afd4 15be 99a6 443e 3388 7d3c
000000f0: 265e e43d 1f64 15bc 78db 233d e405 313b
00000100: d37f e23d a2be 443e 4d67 36bd 0b42 303e
00000110: 1480 b9bd 7726 d93b 79db d13b 15b8 03bd
00000120: 588f 263d b8e0 0d3d 99eb 303e 0293 293e
00000130: ae11 2a3e 07d7 2f3e 5a33 2c3e 2216 e0bd
00000140: 6bb5 843b b260 b3bd 7bd1 423e 3648 e13d
00000150: 4209 6cbd 06bf 2a3e ec63 293e 2a3d b9bd
00000160: 8b63 02be c146 203e 119d 01be de12 3bbd
00000170: d901 683e 1696 cebc 2c05 dabc 35bb a2bd
00000180: b53f fe3d eb69 09be ec2a 82bd 4287 383e
00000190: 5fbc 863d be42 91bd 447d 25bd 2b3c 8dbd
000001a0: 0473 733d 9042 8c3d 5704 6ebd f46c 4f3e
000001b0: 80f0 d8bd 395e 663c eb28 f93d ca6f 483e
000001c0: c354 e23d 6618 0ebe cf94 a83d 0d9f 163d
000001d0: 3bf1 283e 46db 2dbc 7f68 a6bd dfc2 19bd
000001e0: 256a 213c 1f4e b9bd d96f f13d ce12 89bc
000001f0: f035 c43c c17c 33be 05bc 933c efb8 013e
00000200: 1962 b4bc 8a1c 133c e250 adbc 7216 1a3d
00000210: fe30 d9bc 6af1 1f3e a3f3 973c fd48 513d
00000220: 3d30 ebbb 940d ab3d ca61 96bc b5b5 da3d
00000230: f493 dfbd 4ec9 b63d d8a2 233e 1a21 fd3d
00000240: 502a 76bd eab8 943b 3620 ed3d 3b05 2bbe
00000250: 3b18 bfbc 37e9 783d 60be 1e3e 8664 ae3c
00000260: 0af5 4a3e f3b8 06bc 0778 1a3e 01d8 c13d
00000270: 305e dd3c 3e18 203e 1a22 293e d27a 093e
00000280: 4346 9e3d 372c ddbd 6e5d 90bd d7e5 97bd
00000290: 0bed 0e3e ada0 b1bd 1ed1 13be cffa 613d
000002a0: c80d f9bd 5eb7 293e 7afc 7cbd 9f17 4ebc
000002b0: 849b 0939 c37a 1fbd 69b1 e93d 3a9d 4f3e
000002c0: 3956 193e 0b96 8a3d 452e 97bc cd25 49bd
000002d0: df9b 4d3e 3dc7 5b3d bdbd ab3c d22f 29bd
000002e0: d49a eebd 0dd0 ad3d 2cb5 8c3d 95c8 ba3d
000002f0: 4d00 aebb b7b7 e6bd 78bb 973d 8bcd f9bb
00000300: d08a c83d 10f9 cc3d 805d 573d 250b fc3c
00000310: 09a3 723c ace2 e3bd a14f 0f3c 975b 623e
00000320: 65da efbd 0013 653e 07a1 c5bd 6d84 b6bd
00000330: 458f 23be cd64 39be 0f43 d73d d6c8 b3bd
00000340: 4a5b 17be 1979 debd 2a72 04bd a5b4 743d
00000350: ad31 0fbe c01d 3abe a0df a53d 5cd6 943c
00000360: 58e9 3d3d 2fdc ce3d b5ae 523e 0f70 38bd
00000370: 7c70 6c3e 830d 103e fd8e 713c ba41 003e
00000380: ebc9 1e3e ca88 283d cf7d a0bd 4790 bfbd
00000390: 741b 2cbc d51b 78bc 18a1 ef3d 37ff 82bd
000003a0: 9a8f c5bd 3092 993d 3720 2dbe 2645 19bd
000003b0: a6f3 58bd 43d4 613d 5b46 5a3c 5b77 0c3e
000003c0: 9889 b33d 9562 173e ddd1 c33c b8d3 39be
000003d0: d72e a4bc 1dca 25be d835 bf3d 1990 f8bd
000003e0: 12cb e93d 780f e93c eb2f 29be 6a8d a8bd
000003f0: 0b98 3d3e d9ea a7bd b461 3f3e b366 2b3e

layer.0.bias f4 [32]
-0.089647025 0.028051112 -0.09467885 0.0614671 0.051145487 0.11124055 -0.101551086 0.09392914
-0.14010815 0.11047695 0.10785424 0.0929829 0.076227464 0.15392251 -0.15059465 -0.125433
0.092753224 -0.09239665 0.08537342 0.037456315 0.18067107 -0.03591989 0.07633848 0.050568637
0.26822188 0.12769067 0.06580485 0.22293632 0.22793065 0.06919288 0.047030862 0.15333273
00000000: dc98 b7bd 72cb e53c fce6 c1bd edc4 7b3d
00000010: ee7d 513d 16d2 e33d 04fa cfbd ec5d c03d
00000020: 8378 0fbe bd41 e23d afe2 dc3d d26d be3d
00000030: 251d 9c3d dd9d 1d3e 7c35 1abe 8271 00be
00000040: 67f5 bd3d 743a bdbd 42d8 ae3d cb6b 193d
00000050: d601 393e bc20 13bd 5957 9c3d 0f21 4f3d
00000060: 6154 893e 58c1 023e b1c4 863d 6b49 643e
00000070: a766 693e ffb4 8d3d 6fa3 403d 4103 1d3e

layer.2.weight f4 [64, 32]
0.12463763 0.1470616 0.060414515 -0.047804974 -0.043206833 0.021685738 0.16219944 0.120132476
0.06160503 0.17112806 -0.023102045 0.09514231 0.048187498 0.13473879 0.04397818 0.032080594
0.031799793 0.20296209 0.21008861 0.07803483 -0.0010817325 -0.006679753 -0.022680007 -0.19049454
0.025100855 -0.022752766 0.15027781 -0.10914032 0.02046141 0.008045412 0.09915468 -0.078307234
0.16667399 0.2200046 -0.09903924 -0.0459793 -0.120915204 -0.02261772 0.20387198 -0.09490776
0.015397799 0.24767016 -0.090359196 0.08134599 -0.18181308 -0.24124667 -0.13269408 0.06758367
0.106519885 0.25262108 0.054256298 -0.058195535 -0.11918393 0.19237621 -0.20963573 -0.1017833
0.007333136 0.079318315 -0.025765244 -0.16037357 0.1081634 0.16792193 -0.22209476 0.018128404
0.16046664 0.110761456 0.06490967 0.02223491 0.06542358 0.09805934 -0.06545673 -0.038912777
0.1691574 0.21215436 0.11321245 0.08575737 0.1461271 -0.1813372 -0.012332708 0.16279234
-0.07481112 0.14082786 -0.03108818 -0.063237004 -0.14391896 0.021387508 0.04023337 0.062359907
0.13749455 0.04985272 0.00033967305 -0.040550347 0.05134968 -0.11636884 0.08836703 0.03268196
0.1462858 -0.1803156 0.043904778 0.05549811 -0.07935703 -0.11989455 -0.018512212 -0.1387169
0.02040858 0.116261914 0.13510613 0.15656964 0.21968587 -0.15982267 0.13031547 -0.12861027
-0.023323959 -0.15464792 0.09004294 -0.20097198 -0.12037532 0.07991486 -0.04909521 0.12853764
0.2766655 -0.07706119 0.0010704953 0.08788466 -0.20384257 -0.020630367 0.15623496 0.058866184
-0.07963693 -0.021677796 -0.06828592 -0.18953304 0.09535928 -0.09628861 0.094138876 -0.07113261
-0.14381965 0.12475305 -0.064925075 0.01088508 0.06317773 -0.08300493 -0.05981109 -0.12462554
0.18844198 0.14759196 0.06219378 -0.23057419 -0.043246794 -0.17124182 -0.008511833 -0.06792485
0.010447231 0.06731958 0.13279589 0.10884567 0.027430246 -0.13095109 0.14717965 0.10270855
0.036598533 -0.12500468 -0.031538792 -0.22245838 0.07097677 0.11520642 -0.084007256 -0.12852965
0.0071562314 -0.104286894 -0.1654865 0.047021165 0.23228262 -0.08507218 0.033452664 -0.025522871
0.05483423 0.14386545 -0.20839371 0.037519325 0.01955105 0.011173845 -0.048878502 0.13226749
-0.23488735 -0.12672968 0.1437775 -0.07183875 0.0506023 0.014623041 0.009831689 0.2251582
-0.17135064 0.07650623 -0.009407917 -0.20913148 0.052716676 0.07750366 -0.05881047 -0.17013921
-0.12207587 0.05636787 0.05584913 0.17919856 -0.030636033 -0.13588159 -0.036676854 0.0777971
-0.012967843 0.094399504 0.091465764 0.21268025 0.28835616 -0.005395383 0.028638959 0.046812385
-0.11288316 0.038192604 0.086463735 0.1732412 -0.029792162 0.09329512 0.061559483 0.14121902
-0.12512141 -0.1311514 0.0049037416 -0.015967935 -0.03682025 -0.005706419 0.053000376 0.0010671718
-0.122123264 -0.0581595 0.0733045 0.054999195 -0.15721405 0.061912287 0.1306359 0.15833363
-0.23133835 0.061006706 0.07261522 0.063109614 0.31612444 -0.16954705 0.17352289 -0.0959019
0.14316225 0.08651718 -0.11885709 -0.014497385 -0.17277329 0.21598206 0.09793501 -0.14841369
00000000: 0442 ff3d 5197 163e 3675 773d 26cf 43bd
00000010: a6f9 30bd 4aa6 b13c 9c17 263e 0408 f63d
00000020: 8e55 7c3d 323c 2f3e 8040 bdbc f9d9 c23d
00000030: 4160 453d f7f8 093e 7722 343d f166 033d
00000040: 8040 023d 4bd5 4f3e 7821 573e bad0 9f3d
00000050: ebc8 8dba d4e1 dabb 6ccb b9bc 0011 43be
00000060: 4fa0 cd3c 0264 babc 6de2 193e f684 dfbd
00000070: b09e a73c e7d0 033c 9c11 cb3d 8b5f a0bd
00000080: 96ac 2a3e e348 613e 16d5 cabd ca54 3cbd
00000090: 64a2 f7bd cc48 b9bc d1c3 503e 005f c2bd
000000a0: 0d47 7c3c 3f9d 7d3e 3e0e b9bd ba98 a63d
000000b0: 352d 3abe 5e09 77be f5e0 07be 4f69 8a3d
000000c0: 1927 da3d 8d57 813e da3b 5e3d 715e 6ebd
000000d0: b416 f4bd 45fe 443e c0aa 56be c373 d0bd
000000e0: ce4a f03b a471 a23d a211 d3bc f838 24be
000000f0: c684 dd3d baf3 2b3e cf6c 63be 0582 943c
00000100: 5e51 243e e7d6 e23d 5cef 843d fc25 b63c
00000110: ccfc 853d 56d3 c83d 2e0e 86bd 0163 1fbd
00000120: 9937 2d3e fe3e 593e eedb e73d 8fa1 af3d
00000130: 58a2 153e 75b0 39be 200f 4abc 09b3 263e
00000140: 9336 99bd 2e35 103e a4ac febc 6782 81bd
00000150: 7e5f 13be db34 af3c bfcb 243d 1a6d 7f3d
00000160: 5fcb 0c3e 5e32 4c3d 2516 b239 1f18 26bd
00000170: 0b54 523d c952 eebd c6f9 b43d 85dd 053d
00000180: f2cb 153e a7a4 38be 7fd5 333d fc51 633d
00000190: f085 a2bd 468b f5bd eca6 97bc ce0b 0ebe
000001a0: e52f a73c ba1a ee3d 4359 0a3e cb53 203e
000001b0: 55f5 603e 8ea8 23be 6b71 053e 69b2 03be
000001c0: e311 bfbc 065c 1ebe 6f68 b83d 99cb 4dbe
000001d0: 5687 f6bd 67aa a33d 0f18 49bd 5f9f 033e
000001e0: 1aa7 8d3e 42d2 9dbd dd4f 8c3a dffc b33d
000001f0: 1bbc 50be 0401 a9bc 0ffc 1f3e ab1d 713d
00000200: b018 a3bd a295 b1bc 7dd9 8bbd f314 42be
00000210: ba4b c33d f632 c5bd e2cb c03d f9ad 91bd
00000220: 7545 13be 877e ff3d 70f7 84bd 5657 323c
00000230: 5363 813d 7dfe a9bd 79fc 74bd ad3b ffbd
00000240: eff6 403e 5922 173e e8be 7e3d a41b 6cbe
00000250: 8d23 31bd 045a 2fbe 3775 0bbc 2f1c 8bbd
00000260: dd2a 2b3c d9de 893d a5fb 073e 7bea de3d
00000270: 65b5 e03c 0b18 06be 43b6 163e dc58 d23d
00000280: 58e8 153d 3a01 00be d22e 01bd 21cc 63be
00000290: 455c 913d 58f1 eb3d ff0b acbd 479d 03be
000002a0: d27e ea3b 5e94 d5bd 4b75 29be 4499 403d
000002b0: 7fdb 6d3e 533a aebd a905 093d 5715 d1bc
000002c0: dc99 603d 7751 133e 2965 55be ddad 193d
000002d0: 8629 a03c 8112 373c d334 48bd 2171 073e
000002e0: 4f86 70be 6dc5 01be 693a 133e 3220 93bd
000002f0: 5b44 4f3d 7b95 6f3c 1815 213c df8f 663e
00000300: 8b76 2fbe 4caf 9c3d aa23 1abc 9026 56be
00000310: 71ed 573d 3dba 9e3d 3fe3 70bd f938 2ebe
00000320: ea02 fabd ffe1 663d 0fc2 643d d47f 373e
00000330: 6bf8 fabc 8b24 0bbe 783a 16bd 1654 9f3d
00000340: 1377 54bc 8754 c13d 6752 bb3d dac8 593e
00000350: 6ba3 933e c1cb b0bb 409c ea3c 58be 3f3d
00000360: 492f e7bd d96f 1c3d e613 b13d 2466 313e
00000370: b10e f4bc 8311 bf3d cc25 7c3d b89b 103e
00000380: d41f 00be 8d4c 06be 91af a03b 30cf 82bc
00000390: d5d0 16bd e9fc babb ec16 593d 58e0 8b3a
000003a0: c31b fabd a838 6ebd ab20 963d d646 613d
000003b0: b8fc 20be bd97 7d3d 6bc5 053e 3622 223e
000003c0: f6e3 6cbe 2be2 793d 4ab7 943d 9d3f 813d
000003d0: 10db a13e be9d 2dbe fcaf 313e 3768 c4bd
000003e0: 2099 123e eb2f b13d 596b f3bd 7186 6dbc
000003f0: 7beb 30be 672a 5d3e 2792 c83d c2f9 17be

layer.2.bias f4 [64]
-0.1335045 0.003149854 0.0099975215 0.034250267 -0.035154242 0.009249202 0.15020372 -0.09256421
0.25976413 0.12723278 -0.097408555 0.070160665 0.12002686 0.109572485 0.2498086 0.03169123
0.11201262 0.055061985 0.07152758 -0.08269972 0.034512155 0.20126891 0.0018145763 0.008854458
0.14182082 0.13493885 -0.11065883 -0.08723651 -0.18468678 -0.095892414 0.09609296 0.19728144
0.013402483 -0.12979911 0.07283221 0.1504932 0.21920866 0.4110636 0.1981283 0.10134066
-0.06686985 -0.18321127 -0.0462289 0.13367996 0.15382901 -0.10086408 0.2131934 0.23299913
0.10993249 0.215272 -0.101269186 0.2227586 0.1289944 -0.17849681 -0.01804423 -0.15002812
0.14616963 -0.008243657 -0.055385053 0.03848932 0.23634149 0.13479008 -0.17593196 0.13870029
00000000: 67b5 08be c86d 4e3b a5cc 233c 024a 0c3d
00000010: e5fd 0fbd f789 173c 01cf 193e 4e92 bdbd
00000020: ceff 843e 4f49 023e 237e c7bd 65b0 8f3d
00000030: a4d0 f53d 8a67 e03d d3cd 7f3e aace 013d
00000040: df66 e53d ad88 613d 0d7d 923d 795e a9bd
00000050: 9e5c 0d3d 7019 4e3e 14d7 ed3a 4a12 113c
00000060: 7a39 113e 692d 0a3e 19a1 e2bd 0ea9 b2bd
00000070: 881e 3dbe 3e63 c4bd 63cc c43d 2504 4a3e
00000080: 1796 5b3c 0fea 04be 0e29 953d e41a 1a3e
00000090: 3c78 603e ee76 d23e 25e2 4a3e b18b cf3d
000000a0: 0ff3 88bd bc9b 3bbe 845a 3dbd 66e3 083e
000000b0: 5a85 1d3e d491 cebd 5f4f 5a3e 5397 6e3e
000000c0: 4924 e13d 4370 5c3e 3866 cfbd d51a 643e
000000d0: 1c17 043e dec7 36be 7ed1 93bc f9a0 19be
000000e0: 7ead 153e 6710 07bc 70db 62bd faa6 1d3d
000000f0: 8103 723e 6906 0a3e 8227 34be 7307 0e3e

layer.4.weight f4 [128, 64]
0.1255577 0.12386904 -0.04487083 -0.09174902 -0.029595992 -0.16214669 0.04627905 0.1661499
-0.07643162 0.11331585 0.03856738 0.014138259 0.07015738 0.06272676 0.09978383 -0.089018345
0.11740964 0.10439731 0.0026016077 -0.06952623 0.034222964 -0.16125639 0.10825972 0.0036013965
0.12596437 -0.10282643 -0.06582975 -0.021678267 -0.03049367 0.061474174 0.018697452 -0.021698395
-0.073980145 -0.032427356 -0.051186826 -0.080859624 -0.025063757 -0.10037069 0.1304226 -0.14661925
-0.11385021 -0.078066334 0.07541419 0.027081652 -0.07793532 -0.04724014 -0.04464377 -0.08041323
-0.12472332 0.103099264 -0.04896495 -0.06694685 0.075302966 0.04520717 -0.0201073 0.040928926
-0.1139774 0.04183007 0.06902583 0.108544774 0.030589653 -0.0349511 -0.05070947 -0.04030622
-0.05178641 -0.07616899 -0.021739613 0.07384827 0.020796377 0.09130557 0.12754942 0.038970023
-0.25149918 -0.065665886 0.09970589 -0.1546476 0.08950081 0.0040976363 -0.03269527 -0.079848364
-0.16937663 0.088961884 -0.1015685 0.039459202 -0.084247164 0.07579571 0.109747335 -0.15482405
0.05196191 0.032325152 0.10882159 -0.06882733 -0.13737665 -0.07527541 -0.116741 0.063394666
-0.06840801 0.0746471 -0.054434255 0.0682355 -0.05380137 -0.011637572 -0.07348943 -0.15514168
0.12727779 -0.16919662 0.12816608 0.04384516 0.108968586 0.13402851 -0.08769925 0.07298282
0.101497814 0.051765483 0.044989534 -0.13257143 -0.09739218 0.0140767135 -0.020170717 0.115958795
0.07570194 0.05711016 -0.09226935 -0.0076675536 0.014287747 -0.1058893 -0.11227965 -0.021763243
0.022886481 0.20232706 0.0634274 -0.09798557 -0.055814713 0.0569626 0.067131296 -0.0070696096
0.040291008 -0.052688356 -0.053604107 0.024114408 -0.047916412 0.15882242 -0.005589157 -0.105853856
0.14286898 0.17855904 -0.08764689 -0.035277512 -0.065503456 0.058088228 -0.036436304 -0.15462492
0.0728996 0.0010690341 -0.058612287 -0.04098212 -0.12603916 -0.028575996 -0.105250254 0.08838299
-0.038811084 0.014729604 0.1202638 -0.0467962 -0.018403154 -0.12982257 0.1214032 -0.0023325663
0.027827121 -0.12285434 -0.028379602 0.0031133757 0.044419363 0.10457773 0.11616929 -0.072014265
0.052159104 0.029082144 -0.18558995 0.010099042 -0.06617905 -0.050792214 0.049267594 0.083241925
-0.06526367 0.050085284 -0.12339868 0.032792933 0.16018341 0.059824903 0.02234286 0.066171534
0.09588174 -0.041007943 0.08467236 -0.07172141 0.06362909 0.15736866 -0.046913154 -0.037740186
0.114069104 0.023384543 0.045271248 -0.03681467 0.07485577 -0.04641574 -0.10715531 0.13412562
-0.19526385 -0.13727136 -0.043876417 -0.034444507 -0.02750843 0.0061323075 0.05506128 0.10827089
-0.11027043 0.14807378 -0.0068103285 -0.033033736 0.12675045 0.025558367 0.0812038 0.06119903
0.019132707 0.04834409 0.11062851 0.13006873 -0.035740644 0.0001914431 0.08371678 0.16705263
-0.04513298 0.052332193 -0.07337295 -0.10871964 -0.0510518 0.07604811 -0.11382515 0.072961666
-0.02693977 0.043331128 0.027724704 0.063946046 0.071418285 0.094365776 -0.028063968 0.039499484
-0.07011641 0.105656855 -0.1524501 0.113831304 0.12088792 -0.019781942 0.10486407 -0.06437257
00000000: 3392 003e 0daf fd3d 7aca 37bd e9e6 bbbd
00000010: 4b73 f2bc c809 26be 1a8f 3d3d 3323 2a3e
00000020: 2e88 9cbd 2412 e83d d4f8 1d3d 28a4 673c
00000030: acae 8f3d e376 803d 775b cc3d 404f b6bd
00000040: 7774 f03d 42ce d53d bc7f 2a3b c563 8ebd
00000050: 612d 0c3d 6520 25be 46b7 dd3d 6805 6c3b
00000060: cefc 003e aa96 d2bd bfd1 86bd 9f96 b1bc
00000070: dccd f9bc 58cc 7b3d 662b 993c d5c0 b1bc
00000080: e782 97bd 8cd2 04bd 47a9 51bd bb99 a5bd
00000090: 8252 cdbc 268f cdbd 818d 053e 5b23 16be
000000a0: 4d2a e9bd 3ee1 9fbd c172 9a3d 57da dd3c
000000b0: 8e9c 9fbd e17e 41bd 63dc 36bd b1af a4bd
000000c0: f16e ffbd b525 d33d 798f 48bd 6e1b 89bd
000000d0: 7138 9a3d 272b 393d 10b8 a4bc 17a5 273d
000000e0: fc6c e9bd 0256 2b3d 6a5d 8d3d b94c de3d
000000f0: 2797 fa3c e228 0fbd bcb4 4fbd 2318 25bd
00000100: fd1d 54bd 7dfe 9bbd 4617 b2bc c33d 973d
00000110: 2a5d aa3c 6afe ba3d 519c 023e 089f 1f3d
00000120: 80c4 80be d67b 86bd 9a32 cc3d f15b 1ebe
00000130: 334c b73d 7745 863b 7aeb 05bd 8a87 a3bd
00000140: 1171 2dbe a631 b63d 2503 d0bd f99f 213d
00000150: c789 acbd c83a 9b3d 36c3 e03d 328a 1ebe
00000160: 03d6 543d 6167 043d dbdd de3d 58f5 8cbd
00000170: 77ac 0cbe ff29 9abd e815 efbd 10d5 813d
00000180: 8019 8cbd 94e0 983d 74f6 5ebd 0ebf 8b3d
00000190: d35e 5cbd 84ab 3ebc a081 96bd 76dd 1ebe
000001a0: 1c55 023e e141 2dbe f83d 033e fc96 333d
000001b0: ec2a df3d c53e 093e aa9b b3bd 0478 953d
000001c0: 16de cf3d 0b08 543d f246 383d cec0 07be
000001d0: 8d75 c7bd 04a2 663c 0f3d a5bc ce7b ed3d
000001e0: 9e09 9b3d 58ec 693d b7f7 bcbd 1a40 fbbb
000001f0: 2817 6a3c 7ddc d8bd e0f2 e5bd d448 b2bc
00000200: 6e7c bb3c d32e 4f3e 3ae6 813d a9ac c8bd
00000210: f89d 64bd 9e51 693d 227c 893d 2fa8 e7bb
00000220: 2f08 253d bfcf 57bd fb8f 5bbd 948b c53c
00000230: 0044 44bd 58a2 223e 3f25 b7bb e8c9 d8bd
00000240: 3f4c 123e 2ed8 363e 3680 b3bd 277f 10bd
00000250: ad26 86bd eced 6d3d 3c3e 15bd ff55 1ebe
00000260: 634c 953d d51e 8c3a 7013 70bd dedc 27bd
00000270: 6910 01be 3518 eabc 728d d7bd 2402 b53d
00000280: 5ff8 1ebd 7054 713c de4c f63d 5fad 3fbd
00000290: 36c2 96bc 35f0 04be 3ea2 f83d f8dd 18bb
000002a0: b4f5 e33c 0e9b fbbd 577c e8bc c709 4c3b
000002b0: 14f1 353d d92c d63d 2aea ed3d 377c 93bd
000002c0: c9a4 553d ad3d ee3c 4b0b 3ebe 7476 253c
000002d0: e288 87bd 7f0b 50bd d1cc 493d be7a aa3d
000002e0: f6a8 85bd 3a26 4d3d 72b8 fcbd e251 063d
000002f0: 1f07 243e f50a 753d 6008 b73c f184 873d
00000300: a55d c43d f2f7 27bd b468 ad3d ade2 92bd
00000310: f84f 823d 4025 213e 0228 40bd 7495 1abd
00000320: 109d e93d f190 bf3c 586e 393d fbca 16bd
00000330: fb4d 993d 6e1e 3ebd 3e74 dbbd 3a58 093e
00000340: 3ff3 47be dd90 0cbe c2b7 33bd af15 0dbd
00000350: 5c59 e1bc 86f1 c83b f087 613d 21bd dd3d
00000360: 77d5 e1bd a7a0 173e 2d29 dfbb 624e 07bd
00000370: dfca 013e c85f d13c 2e4e a63d d6ab 7a3d
00000380: 32bc 9c3c 7404 463d 3391 e23d bd30 053e
00000390: c864 12bd 1ebe 4839 b473 ab3d d80f 2b3e
000003a0: 5cdd 38bd 485a 563d 8f44 96bd 67a8 debd
000003b0: b11b 51bd 1dbf 9b3d 291d e9bd ed6c 953d
000003c0: cbb0 dcbc fb7b 313d eb1e e33c 25f6 823d
000003d0: c043 923d d842 c13d 68e6 e5bc 36ca 213d
000003e0: 3199 8fbd 9f62 d83d e11b 1cbe 6320 e93d
000003f0: 1694 f73d bd0d a2bc f9c2 d63d c4d5 83bd

layer.4.bias f4 [128]
0.14720307 0.15014605 0.18340957 -0.087306105 -0.10409628 0.15698943 -0.10023736 0.24470472
0.1652402 -0.13770081 0.069117256 0.11572294 0.06322429 0.06338739 -0.051945727 -0.095787056
-0.04745154 -0.15567495 -0.05082408 -0.042962354 0.04895406 -0.14708546 0.10625465 -0.107514806
-0.037286192 0.10897648 -0.02499249 -0.031090777 -0.0061737527 0.11994857 0.070055544 0.016822804
0.19311656 -0.089467645 -0.049387123 0.11698004 0.13035661 0.102126434 0.17847084 0.017480792
-0.050826684 0.10816325 0.10704892 -0.07771964 0.19450344 0.24390718 -0.09564788 0.067890994
-0.09215513 0.074815035 -0.14737737 -0.050055012 -0.063657075 0.16845581 0.14931346 0.04527866
0.13492963 0.0833545 -0.053557817 0.114204355 0.050095133 -0.09783725 -0.021383924 -0.037479054
-0.08921781 0.07545741 0.11186378 0.067619234 -0.052648094 0.18803379 -0.14525592 -0.022177074
0.047402054 0.10766719 0.18805858 0.027090874 -0.19150582 0.16210505 -0.081165574 -0.07804961
0.1234622 -0.08240841 -0.04790825 -0.055596005 0.030164585 0.13488744 0.055390272 -0.048965584
0.047588564 0.09592956 0.1118801 0.15988153 0.020223951 0.10933958 -0.055848468 -0.036097966
-0.09782597 0.03227532 -0.011940063 -0.009006449 0.069748804 0.1051733 -0.07750292 0.16537495
0.15478685 0.06012371 -0.037479654 0.08650117 0.03390363 0.041292932 0.026576368 0.08081154
0.13488212 -0.08353248 0.25714475 -0.007039313 0.026941128 0.14886947 -0.047451034 0.20922498
-0.023693822 -0.009547426 0.1522497 0.13829128 0.028214928 0.08078986 0.13687745 -0.0034063912
00000000: 67bc 163e e3bf 193e b8cf 3b3e 8bcd b2bd
00000010: 6e30 d5bd d6c1 203e 3f49 cdbd e093 7a3e
00000020: ba34 293e 7101 0dbe 598d 8d3d 2600 ed3d
00000030: bd7b 813d 3fd1 813d 0bc5 54bd 012c c4bd
00000040: 8c5c 42bd 4169 1fbe e92c 50bd 4bf9 2fbd
00000050: 0d84 483d 929d 16be 0a9c d93d b930 dcbd
00000060: 68b9 18bd 102f df3d 0dbd ccbc 16b2 febc
00000070: 314d cabb 99a7 f53d 4879 8f3d facf 893c
00000080: 59c0 453e d03a b7bd 274a 4abd 3b93 ef3d
00000090: 347c 053e aa27 d13d 0fc1 363e e133 8f3c
000000a0: a42f 50bd b284 dd3d 773c db3d 7a2b 9fbd
000000b0: e92b 473e cec2 793e 09e3 c3bd 6f0a 8b3d
000000c0: d4bb bcbd a038 993d 18ea 16be 7c06 4dbd
000000d0: a45e 82bd ae7f 2c3e a1e5 183e 1e76 393d
000000e0: fe2a 0a3e c4b5 aa3d 715f 5bbd f9e3 e93d
000000f0: 8e30 4d3d e55e c8bd 572d afbc a383 19bd
00000100: d4b7 b6bd 6a89 9a3d d618 e53d f47b 8a3d
00000110: 87a5 57bd ee8b 403e f8bd 14be b2ac b5bc
00000120: a828 423d 9e80 dc3d 6e92 403e aeed dd3c
00000130: 1a1a 44be defe 253e 233a a6bd 79d8 9fbd
00000140: c0d9 fc3d bec5 a8bd 713b 44bd a3b8 63bd
00000150: b81b f73c ef1f 0a3e e9e0 623d 2390 48bd
00000160: 3aec 423d b876 c43d 6521 e53d fcb7 233e
00000170: b3ac a53c 6eed df3d 5dc1 64bd 76db 13bd
00000180: fb58 c8bd 2033 043d 41a0 43bc c98f 13bc
00000190: 76d8 8e3d 1965 d73d dab9 9ebd 0d58 293e
000001a0: 7280 1e3e 4844 763d 4484 19bd 8727 b13d
000001b0: 88de 0a3d c722 293d afb6 d93c 8580 a53d
000001c0: 8a1e 0a3e 1413 abbd 7aa8 833e 0aaa e6bb
000001d0: a4b3 dc3c 3d71 183e 045c 42bd 133f 563e
000001e0: 8c19 c2bc cf6c 1cbc 58e7 1b3e 3b9c 0d3e
000001f0: fe22 e73c 2775 a53d 9a29 0c3e c33d 5fbb

layer.6.weight f4 [8, 128]
0.15596585 -0.025400901 0.08290271 -0.047272313 -0.05552573 0.13327052 -0.056840535 0.10991486
-0.109236695 -0.09522488 0.054733224 0.056123897 -0.048821438 0.020758316 -0.022555618 -0.11176156
-0.09281414 -0.03635339 0.27430865 0.16367045 0.0972071 0.13748275 0.014110258 -0.04012028
-0.08244176 -0.037695196 -0.027158387 -0.16530842 -0.062047686 -0.10223826 -0.054494493 0.16940616
-0.00043546854 -0.086051635 0.032097407 0.100907505 -0.016487706 -0.18146212 0.06620856 0.10157781
-0.19868958 0.05401502 -0.031113593 0.027366234 0.10832343 0.08886933 8.1803744e-05 0.052737862
0.122660235 -0.062469576 -0.009730103 -0.015838316 0.019467881 0.25221446 -0.052691262 -0.06848144
-0.068036795 -0.15588912 -0.12979296 0.109624356 0.07110749 0.33039415 0.08400268 -0.07072587
0.05893288 0.035830196 0.0077609415 0.13736255 0.00628967 -0.06717533 -0.08136877 -0.017645983
0.07617993 0.05829863 -0.012488368 -0.108262986 -0.10084181 0.076362155 -0.09354868 -0.05877137
0.09565457 -0.08360813 0.0039567547 0.050341487 0.016966274 -0.020055357 -0.02127085 -0.13211994
0.2865287 0.16504538 -0.042607035 -0.00024299574 -0.06868948 0.25344566 0.29293892 -0.12156421
0.039736602 -0.11966163 -0.04613241 -0.076014414 -0.0028862532 0.020522222 -0.032093685 0.042059
0.112615764 0.16830021 0.35255647 0.049036626 -0.042238045 0.11659364 0.02724394 0.017581396
-0.017897753 -0.055821072 0.10642134 -0.12754942 0.067960806 0.082915366 0.15439461 0.018783867
0.07663835 0.15183192 0.15411769 0.14269651 0.6839624 -0.08244257 0.045187805 -0.13171858
0.2314077 0.0825965 0.037305817 -0.08885467 0.01475888 0.033692494 0.018588405 0.06119283
0.0630715 0.02003778 0.035919044 0.116462395 -0.15368047 -0.06367319 -0.0922664 -0.061365496
-0.06258101 -0.043460563 0.005001858 -0.09655419 -0.022358747 -0.055449348 -0.16293949 -0.017974827
-0.038972504 0.04377081 -0.05265533 -0.15504809 0.23596635 -0.049842067 0.29542884 -0.11274862
0.036696423 -0.06440808 0.16846982 0.019656317 0.25887766 -0.09061772 0.15379493 0.07052909
-0.0001390261 0.060791474 0.041981462 0.13653626 0.104566045 0.00083338196 0.0012346008 0.14197394
-0.0866066 -0.0923032 -0.05928492 0.077700906 0.8498542 0.024147065 -0.06865934 0.058801048
0.031146837 -0.02050585 0.36125225 -0.092948206 -0.04385714 0.09834999 -0.111613594 -0.056041516
-0.07858286 0.21390073 -0.11722052 0.106338896 0.042317662 0.11646104 -0.016122889 0.32055742
-0.08080376 -0.09810918 -0.028826276 0.12935375 -0.06677525 0.09371318 0.043736864 -0.124636054
-0.0357785 0.007879376 0.006963437 -0.0049602366 -0.07763082 0.10133737 0.22422788 -0.14679801
-0.12993881 0.094009966 0.15939283 0.0916339 0.084940195 -0.054931097 -0.14660965 0.034035742
0.018292038 -0.053375714 0.11183848 -0.058794204 0.109695315 -0.032800958 0.04063966 -0.0906948
0.11561261 -0.21360134 -0.021796245 -0.019102274 0.31739092 0.038171533 0.09842169 0.103558145
0.0732678 0.04485465 0.03266762 -0.0884206 -0.056720883 -0.009614993 -0.10773927 0.12069355
-0.001425128 -0.022918575 0.04844211 0.118594415 -0.065178074 0.098848194 0.03997742 -0.02304632
00000000: 83b5 1f3e 8d15 d0bc e5c8 a93d 9da0 41bd
00000010: f36e 63bd 1178 083e 9fd1 68bd 0b1b e13d
00000020: 7db7 dfbd 4305 c3bd f22f 603d 2ce2 653d
00000030: fdf8 47bd 580d aa3c 8fc6 b8bc 3fe3 e4bd
00000040: 5715 bebd 4be7 14bd 2f72 8c3e 3a99 273e
00000050: 8414 c73d 47c8 0c3e b62e 673c 2a55 24bd
00000060: 3ad7 a8bd 4766 1abd 447b debc 9c46 29be
00000070: b725 7ebd 4b62 d1bd 9e35 5fbd cf78 2d3e
00000080: 994f e4b9 d73b b0bd 9278 033d 98a8 ce3d
00000090: 3a11 87bc 35d1 39be 5a98 873d 0708 d03d
000000a0: 4875 4bbe db3e 5d3d efe1 febc 272f e03c
000000b0: add8 dd3d 2001 b63d 0d8e ab38 a803 583d
000000c0: 4a35 fb3d 19e0 7fbd 036b 1fbc 5bbf 81bc
000000d0: 1b7b 9f3c 4122 813e cbd2 57bd ff3f 8cbd
000000e0: e056 8bbd 66a1 1fbe 72e8 04be bc82 e03d
000000f0: cea0 913d 6c29 a93e 9909 ac3d bad8 90bd
00000100: 9b63 713d afc2 123d 7f4f fe3b c5a8 0c3e
00000110: 9319 ce3b 3893 89bd aba4 a6bd 4f8e 90bc
00000120: 3904 9c3d 8bca 6e3d 039c 4cbc fcb8 ddbd
00000130: 2786 cebd c363 9c3d 7396 bfbd 40ba 70bd
00000140: 8be6 c33d bd3a abbd aaa7 813b e032 4e3d
00000150: dbfc 8a3c 224b a4bc 3540 aebc 734a 07be
00000160: e4b3 923e a801 293e b784 2ebd accc 7eb9
00000170: 12ad 8cbd a1c3 813e 17fc 953e a8f6 f8bd
00000180: d9c2 223d 2811 f5bd 57f5 3cbd 72ad 9bbd
00000190: 4b27 3dbb 381e a83c ab74 03bd 0f46 2c3d
000001a0: 18a3 e63d e456 2c3e 4882 b43e a1da 483d
000001b0: cd01 2dbd a5c8 ee3d af2e df3c dc06 903c
000001c0: 4f9e 92bc a3a4 64bd 6ef3 d93d 519c 02be
000001d0: 092f 8b3d 88cf a93d 9f19 1e3e a0e0 993c
000001e0: 91f4 9c3d d479 1b3e 07d1 1d3e 091f 123e
000001f0: 2918 2f3f a6d7 a8bd d916 393d 3ce1 06be
00000200: 24f6 6c3e 5b28 a93d fccd 183d 70f9 b5bd
00000210: 3bcf 713c 2401 0a3d b646 983c 55a5 7a3d
00000220: a12b 813d 4526 a43c d91f 133d d683 ee3d
00000230: 6a5e 1dbe 1767 82bd 2bf6 bcbd 635a 7bbd
00000240: 792a 80bd b403 32bd a0e6 a33b 34be c5bd
00000250: b129 b7bc db1e 63bd 9cd9 26be f23f 93bc
00000260: a2a1 1fbd 0549 333d 1ead 57bd edc4 1ebe
00000270: 2aa1 713e 3227 4cbd 7342 973e c0e8 e6bd
00000280: fd4e 163d 62e8 83bd 5a83 2c3e 4906 a13c
00000290: 9d8b 843e c895 b9bd 6b7c 1d3e 8e71 903d
000002a0: 89c7 11b9 7b00 793d c1f4 2b3d 29d0 0b3e
000002b0: b926 d63d 5177 5a3a 54d2 a13a 9e61 113e
000002c0: cd5e b1bd 7609 bdbd bfd4 72bd a721 9f3d
000002d0: 0b90 593f 11d0 c53c 459d 8cbd 5ed9 703d
000002e0: a727 ff3c e2fb a7bc 0ef6 b83e a15b bebd
000002f0: 8ba3 33bd b86b c93d ab95 e4bd ca8b 65bd
00000300: 0df0 a0bd cb08 5b3e 5011 f0bd 35c8 d93d
00000310: 4955 2d3d 2083 ee3d 2614 84bc 1a20 a43e
00000320: 717c a5bd 77ed c8bd 1525 ecbc 4f75 043e
00000330: 76c1 88bd b2ec bf3d 6d25 333d 3041 ffbd
00000340: 7a8c 12bd 8018 013c 8b2d e43b 7b89 a2bb
00000350: e8fc 9ebd f889 cf3d fe9b 653e 3852 16be
00000360: ae0e 05be 4c88 c03d e037 233e 8eaa bb3d
00000370: 20f5 ad3d 6eff 60bd d720 16be 1069 0b3d
00000380: 2fd9 953c 7ea0 5abd 930b e53d 31d2 70bd
00000390: f0a7 e03d 4c5a 06bd c675 263d 32be b9bd
000003a0: 4ec6 ec3d 4fba 5abe 0a8e b2bc 5f7c 9cbc
000003b0: 1081 a23e c159 1c3d 5091 c93d 4b16 d43d
000003c0: 6e0d 963d 82b9 373d 7bce 053d dc15 b5bd
000003d0: 2854 68bd 3488 1dbc 68a6 dcbd 2e2e f73d
000003e0: 5ccb baba bcbf bbbc 3c6b 463d a1e1 f23d
000003f0: 157c 85bd ec70 ca3d 5dbf 233d a3cb bcbc

layer.6.bias f4 [8]
0.074968055 0.15073267 0.065700844 0.13128726 -0.042375993 -0.03672729 -0.04881688 -0.07712134
00000000: da88 993d aa59 1a3e 2a8e 863d 2b70 063e
00000010: 7392 2dbd 5b6f 16bd 35f4 47bd cbf1 9dbd
