final/save/1l_0.95_200_morelayer/save2_5500.pth (torch_old, 50952 bytes, 8 tensors)

layer.0.weight f4 [32, 28]
0.10708497 -0.054883506 0.111029744 0.07437142 -0.051216707 -0.09384618 -0.11700558 0.23999444
0.20767699 0.019846385 -0.06910346 0.10128175 0.01673152 0.10834966 0.027737487 0.1995643
0.004581742 0.16859452 -0.16303447 -0.08539244 0.12851445 -0.028258935 -0.20369852 0.045582127
0.10343837 0.0571532 0.10926097 -0.08850913 -0.14215277 0.2312464 -0.10712473 -0.0071679484
0.16608462 0.15875982 0.14064094 0.12327486 -0.084274106 0.1307281 -0.0138882585 0.050489012
-0.027063584 -0.09126642 0.20164576 -0.0029194092 0.13091698 0.123213604 -0.050747465 -0.032745067
-0.024871638 -0.14708915 0.05458298 -0.08727834 -0.041142516 0.1335073 -0.027529132 0.076962076
0.25006747 0.12384469 0.13211673 0.22135729 0.22028792 0.14692505 -0.09643454 -0.09713465
0.08579084 -0.1083473 0.0024134682 -0.11127104 0.025134612 -0.124221586 -0.16569948 0.14212008
-0.10247503 0.1301382 -0.02500514 -0.08811439 -0.013058019 -0.084821925 0.040250834 0.024466122
0.05892248 -0.091523096 0.042551823 0.120804824 -0.09802551 -0.07650749 0.1587953 0.2239568
0.038281932 0.06616805 0.056224637 -0.09853546 0.2416537 -0.17762166 -0.18799226 -0.18039057
0.26522237 0.13357347 0.023403944 0.14287342 -0.050562393 0.2083379 -0.045788094 -0.11374947
-0.029992914 -0.10795352 -0.015763886 -0.11932452 0.07234288 0.16211765 0.1626306 0.15250093
-0.13506313 0.075468116 0.0605863 0.17784484 -0.09809124 -0.1174303 -0.22494026 -0.23488267
-0.099775225 0.021177078 -0.09912669 0.19200145 0.20740695 0.08142891 0.07599296 -0.051624656
0.07956458 -0.19616178 0.055554464 -0.20052259 -0.101005085 0.18388495 -0.027602082 -0.054828092
0.044655766 0.02541307 0.14690956 0.16662118 0.05481307 -0.0016061687 0.09503617 0.15495962
0.047144316 0.10361032 -0.086625904 0.043850455 0.15753104 -0.0150961615 0.19481342 -0.13158672
0.007486685 0.03802274 -0.13730055 -0.121232845 -0.009220697 0.31502768 -0.052774668 0.049271237
0.20484975 -0.02196469 0.1735806 0.15955135 0.03590692 -0.070126496 0.025012426 0.13075821
0.12899402 0.10381218 0.059434377 -0.1673045 -0.0035374798 0.23908967 -0.005813448 -0.08701378
0.18257198 -0.18496054 -0.031188533 0.02217242 0.18449 0.050520994 0.11320648 -0.061882738
0.20473638 0.1373293 0.17338577 0.030054126 0.007281454 0.094766706 -0.04381063 0.022340536
-0.06417688 0.13324352 0.0011637504 0.045223612 -0.010035606 -0.1324422 -0.08393695 -0.0806241
0.054525886 0.034310143 -0.16996087 0.03209889 0.14615926 -0.108088546 0.12467672 0.04180386
-0.063507065 -0.13702743 -0.090787865 0.069974616 0.06032651 0.20772672 0.06509671 0.16456765
0.14170799 0.26111114 0.056645658 -0.12134729 0.16995259 -0.03162555 -0.034159407 0.15599652
-0.099173106 0.003767662 0.065084316 0.07139264 0.14080942 0.035637893 -0.033967253 -0.048008483
-0.13387276 0.08859025 -0.1479237 0.117685094 0.056997065 0.17517991 0.0011892497 0.053982552
0.16057643 -0.12002555 0.1942784 0.034320086 0.09539804 0.16562591 0.19018969 0.24729985
0.110551775 0.122209944 -0.15777686 0.003677803 0.09229091 0.14000987 -0.026867362 -0.19023253
00000000: 5d4f db3d 87cd 60bd 9063 e33d 0b50 983d
00000010: 9cc8 51bd 6d32 c0bd 9fa0 efbd 1ac1 753e
00000020: 47a9 543e e394 a23c 1d86 8dbd ce6c cf3d
00000030: 8a10 893c 6de6 dd3d ba39 e33c 955a 4c3e
00000040: 7022 963b 0ba4 2c3e 82f2 26be 3be2 aebd
00000050: 4b99 033e 487f e7bc 5896 50be 53b4 3a3d
00000060: 7fd7 d33d 7919 6a3d 37c4 df3d 4644 b5bd
00000070: 7f90 11be dbcb 6c3e 3664 dbbd 1ce1 eabb
00000080: 1612 2a3e ef91 223e 2e04 103e 8877 fc3d
00000090: e797 acbd 96dd 053e 948b 63bc 91cd 4e3d
000000a0: 73b4 ddbc e4e9 babd 3a7c 4e3e 8f53 3fbb
000000b0: 1a0f 063e 6a57 fc3d 93dc 4fbd b11f 06bd
000000c0: 9bbf cbbc 8a9e 16be 6792 5f3d fcbe b2bd
000000d0: 0e85 28bd 23b6 083e c684 e1bc 4b9e 9d3d
000000e0: d808 803e 49a2 fd3d 9c49 073e 7cab 623e
000000f0: 2893 613e 8573 163e 797f c5bd 88ee c6bd
00000100: 1cb3 af3d 30e5 ddbd 472b 1e3b 12e2 e3bd
00000110: 1ae7 cd3c e367 febd 20ad 29be ed87 113e
00000120: 6ede d1bd f342 053e 94d7 ccbc 5175 b4bd
00000130: 4df1 55bc 1eb7 adbd 0fde 243d 2d6d c83c
00000140: b358 713d 7670 bbbd d24a 2e3d 8568 f73d
00000150: 99c1 c8bd f5af 9cbd 3c9b 223e ee54 653e
00000160: 84cd 1c3d 1d83 873d ce4b 663d f6cc c9bd
00000170: 1174 773e 74e2 35be 0b81 40be 4eb8 38be
00000180: 3acb 873e 7cc7 083e a1b9 bf3c 694d 123e
00000190: 831a 4fbd 8856 553e 4c8c 3bbd 7bf5 e8bd
000001a0: b3b3 f5bc bc16 ddbd 4423 81bc 6a60 f4bd
000001b0: 8128 943d 2b02 263e a388 263e 3429 1c3e
000001c0: fd4d 0abe 078f 9a3d 5729 783d f51c 363e
000001d0: 0fe4 c8bd 4c7f f0bd bd56 66be 1585 70be
000001e0: f456 ccbd 8d7b ad3c ef02 cbbd 079c 443e
000001f0: 7d62 543e 33c4 a63d 32a2 9b3d 6074 53bd
00000200: c1f2 a23d a2de 48be 148d 633d cb55 4dbe
00000210: c1db cebd 564c 3c3e c31d e2bc 6c93 60bd
00000220: f7e8 363d 122f d03c 766f 163e be9e 2a3e
00000230: ab83 603d 1486 d2ba 53a2 c23d bcad 1e3e
00000240: 661a 413d a631 d43d ec68 b1bd 899c 333d
00000250: d14f 213e e455 77bc 2b7d 473e abbe 06be
00000260: de52 f53b bcbd 1b3d 8498 0cbe ed48 f8bd
00000270: 6812 17bc 4f4b a13e 402a 58bd a3d0 493d
00000280: 22c4 513e 4bef b3bc 1dbf 313e 6e61 233e
00000290: 2213 133d 7b9e 8fbd dce6 cc3c 7be5 053e
000002a0: 0217 043e 7b9b d43d 7671 733d df51 2bbe
000002b0: 10d5 67bb ecd3 743e bd7e bebb 4834 b2bd
000002c0: 26f4 3a3e 4c66 3dbe 187f ffbc efa2 b53c
000002d0: f2ea 3c3e 1aef 4e3d cdd8 e73d c178 7dbd
000002e0: 6aa6 513e 0da0 0c3e 0a8c 313e 1234 f63c
000002f0: 4399 ee3b 0c15 c23d c672 33bd 8003 b73c
00000300: 2b6f 83bd fd70 083e fc88 983a 653c 393d
00000310: 626c 24bc ee9e 07be 23e7 abbd 401e a5bd
00000320: 8956 5f3d cb88 0c3d 390a 2ebe 207a 033d
00000330: c6aa 153e 875d ddbd 8256 ff3d 863a 2b3d
00000340: fe0f 82bd eb50 0cbe fdee b9bd da4e 8f3d
00000350: ee18 773d 50b6 543e 6d51 853d 6c84 283e
00000360: e61b 113e 5cb0 853e 4705 683d ee84 f8bd
00000370: 0d08 2e3e cb89 01bd bcea 0bbd 8dbd 1f3e
00000380: 451b cbbd e1ea 763b ed4a 853d 4e36 923d
00000390: 5830 103e 0af9 113d 3f21 0bbd 8ba4 44bd
000003a0: f115 09be ce6e b53d 4f79 17be e204 f13d
000003b0: c175 693d 5d62 333e 99e0 9b3a cf1c 5d3d
000003c0: 266e 243e f5cf f5bd ebf0 463e 3893 0c3d
000003d0: 0c60 c33d d799 293e 16c1 423e 2c3c 7d3e
000003e0: f868 e23d 3549 fa3d 4290 21be 4c07 713b
000003f0: 0403 bd3d bf5e 0f3e f118 dcbc 51cc 42be

layer.0.bias f4 [32]
-0.058147486 0.040385023 0.111456424 0.095452644 0.091962025 0.009578268 -0.0151154585 -0.102077335
0.1552123 -0.10058992 0.0029432096 -0.06653503 0.2288171 0.13556188 -0.02282205 -0.12022463
0.23353463 0.04056688 0.08428137 0.19551261 -0.057942383 -0.12701677 -0.11039675 0.048532374
-0.11025088 -0.039091285 0.00021648494 0.058353268 -0.07378745 0.03195271 -0.030969594 0.16252127
00000000: 0f2c 6ebd c46a 253d 4443 e43d ad7c c33d
00000010: 9656 bc3d 2bee 1c3c d4a6 77bc ec0d d1bd
00000020: f9ef 1e3e 1702 cebd dde2 403b 8543 88bd
00000030: 084f 6a3e bcd0 0a3e 4ff5 babc 5538 f6bd
00000040: b423 6f3e 7529 263d b69b ac3d 7534 483e
00000050: fe54 6dbd af10 02be b117 e2bd e2c9 463d
00000060: 37cb e1bd 2f1e 20bd 3c00 6339 d603 6f3d
00000070: e01d 97bd d8e0 023d f2b3 fdbc fa6b 263e

layer.2.weight f4 [64, 32]
0.012973818 0.07533204 -0.2441807 -0.036810238 -0.13944227 0.0004083823 0.16925992 0.1630514
0.14810336 0.020119151 0.067662194 -0.1771789 0.13357763 -0.013125692 -0.12284459 -0.107426256
-0.09153046 0.060851004 -0.14337188 0.047306173 -0.061850816 -0.1966178 -0.2804615 -0.10557294
-0.1314185 0.09682054 0.10816622 -0.011589043 0.01930246 0.025366256 -0.00535313 0.05555504
-0.031207005 -0.02726692 0.12087225 0.04466917 0.040955693 -0.07383866 -0.050073314 -0.25551224
0.088026404 0.0104428455 -0.07267156 0.15903783 0.13780746 -0.09041481 -0.073495306 -0.10450094
-0.16288291 -0.14929254 0.21158984 -0.1734308 -0.04378206 0.11081072 0.07687825 -0.0682677
0.22516592 -0.05020397 0.02724594 -0.066244036 -0.052752 0.13439734 -0.17228475 0.008738165
0.07901711 0.05110872 0.2271622 0.114207245 0.07195106 0.048080817 -0.07814846 0.080913015
-0.08044514 0.17524317 -0.21035525 0.008537536 -0.06595221 -0.0018497268 0.20644458 0.18712808
0.09602588 -0.09504825 0.14214942 -0.038368657 -0.19235872 0.06825063 0.1222647 0.15346453
0.039945923 -0.1311403 0.10002924 0.19675122 0.09768507 0.14372757 -0.14967275 0.036540046
-0.06536851 0.064665474 -0.082142524 0.14150289 -0.100547016 0.21543199 0.07303437 0.021846995
-0.087777644 0.02041133 0.20578991 -0.013166799 0.21673617 -0.044041913 -0.039575163 -0.016424201
0.037699584 0.09755028 -0.03492553 -0.1381313 0.1509019 -0.05379707 0.033645913 -0.10499448
-0.07812016 0.0374357 -0.04643483 -0.056116585 -0.07059826 0.16584142 -0.061175037 0.06117435
-0.033890687 0.049491104 0.042701542 -0.119774446 0.13450842 -0.18097927 0.09627866 -0.13437732
0.028440088 0.13885139 -0.1301798 0.17391837 -0.13813807 0.17433889 0.043717016 0.07568194
-0.1496802 -0.011648806 0.075354606 -0.013613178 0.018023103 0.08603023 -0.13999623 -0.08055893
-0.021082085 -0.12680738 0.13856673 -0.093007475 0.06700509 0.15378359 0.117530525 -0.029088391
0.03256878 -0.067524925 0.27076972 -0.03608612 -0.049688537 0.12551308 -0.053255893 -0.18114987
0.057995368 0.053079426 -0.0873389 0.076621674 -0.07181612 -0.21708408 0.086349934 0.103359744
0.07052608 -0.03882531 0.017640019 0.13104646 0.091563 0.076925725 0.20699126 0.06674174
0.13743664 -0.15546922 0.066992246 -0.22213337 -0.13668488 -0.15225187 0.14849247 0.14159521
-0.1796675 -0.11404919 -0.08583528 -0.1425922 -0.18747668 0.13254946 -0.11152229 0.14771414
0.16936895 0.047470614 0.016484296 0.13388652 0.0739429 -0.08514849 0.054451223 -0.006585388
0.08954109 0.17282107 -0.061504472 0.23061907 0.09231576 -0.16818555 -0.118469775 0.038864896
-0.12586491 0.16627684 0.0046815583 -0.19935937 0.08417048 0.056287866 0.100019395 -0.026906025
-0.06334366 0.0010860695 0.21842492 -0.2735093 -0.08037727 -0.0053662313 -0.16894606 -0.042616494
-0.005642318 -0.068631284 0.029713558 -0.01605212 -0.035181705 -0.13505141 -0.1009528 -0.036055885
-0.16016941 0.13607243 0.011502086 0.15490316 0.11413594 -0.019322006 0.17400648 0.076979324
-0.06814596 0.1531413 -0.1496224 -0.20929196 -0.20884053 0.12090304 0.22536413 0.1696905
00000000: 2390 543c af47 9a3d 810a 7abe 55c6 16bd
00000010: f4c9 0ebe 251c d639 7952 2d3e f2f6 263e
00000020: 68a8 173e ebd0 a43c 7a92 8a3d 636e 35be
00000030: 93c8 083e 240d 57bc f295 fbbd 4c02 dcbd
00000040: 5274 bbbd e73e 793d 14d0 12be 1ec4 413d
00000050: 4857 7dbd 2d56 49be a698 8fbe a036 d8bd
00000060: 9292 06be d949 c63d 4086 dd3d f8df 3dbc
00000070: 3120 9e3c e5cc cf3c 4f69 afbb ae8d 633d
00000080: d5a5 ffbc e05e dfbc df8b f73d 05f7 363d
00000090: 28c1 273d b938 97bd ad19 4dbd 80d2 82be
000000a0: 3047 b43d 7818 2b3c d4d4 94bd d0da 223e
000000b0: 661d 0d3e 662b b9bd b584 96bd 9704 d6bd
000000c0: c7ca 26be 25e0 18be 02ab 583e d897 31be
000000d0: d154 33bd bbf0 e23d 5872 9d3d f0cf 8bbd
000000e0: e591 663e aea2 4dbd e132 df3c f4aa 87bd
000000f0: 7b12 58bd 759f 093e 6a6b 30be 852a 0f3c
00000100: b9d3 a13d 6157 513d 359d 683e 7de5 e93d
00000110: 145b 933d 64f0 443d 4d0c a0bd b9b5 a53d
00000120: 6cc0 a4bd f272 333e 5e67 57be 05e1 0b3c
00000130: f411 87bd 8872 f2ba 3566 533e 819e 3f3e
00000140: 37a9 c43d a8a8 c2bd 9e8f 113e 7428 1dbd
00000150: aff9 44be fcc6 8b3d ea65 fa3d ce25 1d3e
00000160: 569e 233d a549 06be 21dc cc3d 2779 493e
00000170: 1c0f c83d 522d 133e d043 19be 04ab 153d
00000180: eddf 85bd 556f 843d 573a a8bd 22e6 103e
00000190: 98eb cdbd 349a 5c3e 0b93 953d 78f8 b23c
000001a0: c4c4 b3bd a935 a73c 97ba 523e 8fb9 57bc
000001b0: 16f0 5d3e 4b65 34bd 9119 22bd 0c8c 86bc
000001c0: e16a 1a3d 71c8 c73d 130e 0fbd 4b72 0dbe
000001d0: 0786 1a3e 515a 5cbd 4cd0 093d 5907 d7bd
000001e0: 76fd 9fbd 2d56 193d 7332 3ebd 81da 65bd
000001f0: d295 90bd 55d2 293e ad92 7abd f591 7a3d
00000200: f6d0 0abd 2fb7 4a3d d0e7 2e3d 4e4c f5bd
00000210: 93bc 093e a152 39be bf2d c53d 359a 09be
00000220: 30fb e83c 0f2f 0e3e da4d 05be a817 323e
00000230: 1174 0dbe e585 323e 9d10 333d 22ff 9a3d
00000240: c445 19be a2da 3ebc 8453 9a3d cf09 5fbc
00000250: 30a5 933c 9e30 b03d 2c5b 0fbe 15fc a4bd
00000260: 56b4 acbc cbd9 01be 70e4 0d3e b47a bebd
00000270: f739 893d 7279 1d3e d8b3 f03d c74a eebc
00000280: d766 053d 824a 8abd 54a2 8a3e 0acf 13bd
00000290: 3586 4bbd 8086 003e da22 5abd 5a7f 39be
000002a0: 8d8c 6d3d d069 593d bdde b2bd d3eb 9c3d
000002b0: 5414 93bd 4a4b 5ebe 3cd8 b03d 46ae d33d
000002c0: fa6f 903d 4a07 1fbd cd81 903c 0b31 063e
000002d0: 6285 bb3d 3c8b 9d3d 84f5 533e e5af 883d
000002e0: 31bc 0c3e 5333 1fbe 3b33 893d ee76 63be
000002f0: 1ff7 0bbe eae7 1bbe 690e 183e 56fe 103e
00000300: c2fa 37be 9f92 e9bd 68ca afbd b103 12be
00000310: e3f9 3fbe 0cbb 073e cc65 e4bd 6042 173e
00000320: 0e6f 2d3e 8c70 423d 130a 873c 8c19 093e
00000330: 606f 973d 5562 aebd 3f08 5f3d 3dca d7bb
00000340: 5261 b73d 02f8 303e 1dec 7bbd 6827 6c3e
00000350: 0c10 bd3d d538 2cbe 48a0 f2bd cc30 1f3d
00000360: bbe2 00be 7a44 2a3e c267 993b dd24 4cbe
00000370: 9361 ac3d 1b8e 663d f8d6 cc3d 066a dcbc
00000380: 52ba 81bd 725a 8e3a c8aa 5f3e 6909 8cbe
00000390: d79c a4bd 36d7 afbb 3200 2dbe a28e 2ebd
000003a0: 32e3 b8bb 8f8e 8cbd d969 f33c bc7f 83bc
000003b0: b11a 10bd eb4a 0abe 57c0 cebd 56af 13bd
000003c0: 7303 24be 9256 0b3e 3f73 3c3c ef9e 1e3e
000003d0: 1bc0 e93d 2f49 9ebc c12e 323e 56a7 9d3d
000003e0: 1c90 8bbd 13d1 1c3e 9d36 19be a250 56be
000003f0: 4bda 55be 039c f73d dbc5 663e 59c3 2d3e

layer.2.bias f4 [64]
-0.093795285 0.024333779 -0.083281055 0.31494373 -0.19136415 0.0029370603 0.18323031 -0.014666545
0.2492687 -0.14323065 -0.05177684 0.25372082 0.028238488 0.056373447 -0.0018119748 -0.08528266
0.11613267 -0.2024017 -0.046988394 0.020544874 -0.041712664 0.18496835 0.09655098 0.11218327
0.110694915 -0.03794777 -0.16034214 -0.008553074 -0.037532285 -0.1327271 0.009950621 0.038297534
0.023195462 -0.14961146 -0.1651808 -0.011207506 0.00865035 0.19677828 -0.10872626 -0.16089843
0.1490075 0.16513868 -0.11499825 0.086440034 0.15957156 -0.047343522 0.16007188 -0.052060235
0.023028221 0.16369607 0.1717301 0.12976016 -0.06772479 0.10187438 -0.03458357 -0.08560855
0.24823275 -0.021382969 0.008566275 0.05413255 -0.025020676 -0.06801269 0.17131601 0.07267312
00000000: be17 c0bd a257 c73c 428f aabd 4e40 a13e
00000010: f7f4 43be b27b 403b baa0 3b3e f34b 70bc
00000020: 4b40 7f3e 0eab 12be f413 54bd b2e7 813e
00000030: 6754 e73c d8e7 663d c97f edba ada8 aebd
00000040: f7d6 ed3d 6442 4fbe e776 40bd b94d a83c
00000050: e6da 2abd 5868 3d3e 85bc c53d 58c0 e53d
00000060: 04b4 e23d 1f6f 1bbd bb30 24be 3122 0cbc
00000070: 74bb 19bd 9de9 07be ee07 233c e0dd 1c3d
00000080: 6904 be3c bf33 19be 2825 29be b09f 37bc
00000090: 33ba 0d3c 3f80 493e e0ab debd 8fc2 24be
000000a0: 6c95 183e 1d1a 293e 3484 ebbd 7907 b13d
000000b0: ba66 233e 48eb 41bd e2e9 233e 1d3d 55bd
000000c0: aea5 bc3c f19f 273e 04da 2f3e d9df 043e
000000d0: 4bb3 8abd 84a3 d03d 80a7 0dbd 8953 afbd
000000e0: ba30 7e3e 562b afbc 9059 0c3c 18ba 5d3d
000000f0: 29f8 ccbc 3d4a 8bbd 776d 2f3e a5d5 943d

layer.4.weight f4 [128, 64]
0.22406574 0.14355569 -0.023310218 0.04580522 0.034324918 0.08523121 -0.19626357 -0.4058674
-0.074452214 -0.51664287 0.3467544 0.07988794 0.085604675 0.4552574 0.029091256 0.19354515
0.09340129 0.01107728 0.02009155 0.017896002 -0.03365445 0.037321117 0.092806295 0.023190022
-0.19184515 0.04631148 0.015734807 0.07353475 0.022364883 0.16636035 0.24176621 0.00478664
-0.0068360646 -0.020805636 -0.0067198165 0.041979168 0.07128249 -0.06933057 -0.22987778 0.23516487
0.23584378 0.078916535 -0.06456828 0.32951263 -0.030796384 -0.46661875 -0.037436064 -0.14316136
-0.08712191 0.013277901 -0.075668305 0.08955936 0.05691835 -0.07523576 0.082811736 -0.018451685
0.014950633 0.2004675 0.124158375 0.19445369 0.1336298 0.16302666 0.103128746 0.007335442
0.12035124 -0.053304907 -0.06919685 -0.09443913 -0.10660646 0.07792111 -0.043559074 0.01165755
0.074293435 0.11662452 0.022606082 -0.047462538 0.010443179 0.24252254 0.040890668 -0.063784696
0.057339527 0.10363837 0.09183408 0.11541744 -0.09884494 0.08545585 0.102648236 -0.022466306
0.07665416 -0.20416063 0.11438441 -0.01734228 -0.046091996 0.23730595 -0.37523046 -0.15873063
0.14349066 0.033905227 -0.025852356 -0.14176503 0.0737197 0.010583206 0.12428883 0.08501564
0.10412403 0.05762635 0.03546148 -0.18827564 0.12916747 0.026559193 -0.019892976 0.15242253
-0.109938 -0.023015276 -0.025571115 -0.21513256 0.08753892 0.013440975 -0.080498956 -0.11933206
-0.004798407 -0.15409416 -0.0005197369 -0.0037761875 0.010673096 0.04406235 -0.15566231 0.028212136
-0.28910372 -0.034626365 -0.08203244 -0.04001761 -0.0067776847 0.07550084 0.117032334 0.12762554
-0.032010518 0.16401987 -0.037253186 0.06273556 -0.021576561 0.07552421 -0.076191455 0.12402915
0.030062037 0.06727664 0.045794934 -0.031689145 0.13194942 -0.011339775 -0.079764366 0.119208395
-0.013662195 -0.060420558 0.11488426 -0.02500898 0.1262466 -0.07034038 -0.3799799 -0.12734711
-0.0743099 -0.09462687 -0.16390689 -0.05850073 -0.020960806 0.014046482 0.009652117 0.030474156
-0.04685185 0.13319144 0.0053447685 -0.3569084 0.11274213 0.2710671 -0.06087533 0.045523234
0.05346875 -0.0654091 0.06694006 0.015544178 -0.14802566 0.07673463 -0.013747181 -0.02084404
-0.05100987 -0.1143968 -0.08166962 -0.4944743 0.021542316 0.12908415 -0.184482 -0.024030339
-0.12708512 0.058867108 0.086254075 -0.058241498 0.006386919 -0.015060314 0.019833522 -0.037462525
-0.020539112 -0.21238194 -0.55096626 0.12705724 -0.21879606 0.17978412 -0.22239342 0.09760525
-0.027152171 0.13211562 0.014839532 -0.018342448 0.019991757 -0.039761744 -0.08245454 0.14442383
-0.05833733 -0.16027515 -0.03461017 -0.12974344 0.039258085 -0.21315463 -0.3846753 -0.16898587
0.041298166 0.0041379547 0.047777545 -0.04023174 -0.20490043 0.009808113 -0.16923594 0.05744402
0.18907121 0.064792536 -0.12042529 -0.4527267 -0.013077898 -0.23315571 0.047027532 0.049037505
0.122762024 -0.08746226 0.04847731 -0.23121443 -0.06253042 0.052052233 -0.091497354 -0.06716106
0.03515995 -0.39798018 -0.084347084 -0.29700956 0.103417434 0.19456609 -0.12944189 -0.0021684503
00000000: 7d71 653e 4300 133e 12f5 bebc 419e 3b3d
00000010: 4998 0c3d b38d ae3d 51f9 48be dacd cfbe
00000020: 677a 98bd b542 04bf cb89 b13e 4a9c a33d
00000030: 8151 af3d 7f17 e93e c950 ee3c b330 463e
00000040: 2d49 bf3d 7b7d 353c 0997 a43c a39a 923c
00000050: 40d9 09bd 07de 183d 3a11 be3d 00f9 bd3c
00000060: 0e73 44be 1bb1 3d3d 48e6 803c 6399 963d
00000070: 8f36 b73c 5e5a 2a3e 9091 773e 3fd9 9c3b
00000080: 1101 e0bb 9570 aabc e831 dcbb 59f2 2b3d
00000090: 8efc 913d 30fd 8dbd 1565 6bbe 0fcf 703e
000000a0: 0881 713e fe9e a13d 603c 84bd e1b5 a83e
000000b0: b348 fcbc a7e8 eebe 8f56 19bd e498 12be
000000c0: f96c b2bd 8e8b 593c fcf7 9abd e66a b73d
000000d0: 3723 693d 3515 9abd 3399 a93d fd27 97bc
000000e0: 80f3 743c 5a47 4d3e bf46 fe3d de1e 473e
000000f0: 40d6 083e 76f0 263e 2a35 d33d 265e f03b
00000100: b67a f63d 3f56 5abd 14b7 8dbd 4d69 c1bd
00000110: 7d54 dabd 1a95 9f3d 006b 32bd 4fff 3e3c
00000120: 2827 983d d6d8 ee3d 6430 b93c 1468 42bd
00000130: de19 2b3c d457 783e f97c 273d 8da1 82bd
00000140: dadc 6a3d 5b40 d43d 8213 bc3d fb5f ec3d
00000150: 376f cabd 7a03 af3d 3d39 d23d 420b b8bc
00000160: dbfc 9c3d 7c0f 51be 6042 ea3d 6611 8ebc
00000170: f6ca 3cbd 5500 733e 351e c0be 488a 22be
00000180: 37ef 123e 35e0 0a3d 52c8 d3bc da2a 11be
00000190: 5bfa 963d 2f65 2d3c 248b fe3d ae1c ae3d
000001a0: fb3e d53d 9c09 6c3d 0f40 113d 54cb 40be
000001b0: 7a44 043e aa92 d93c 98f6 a2bc a714 1c3e
000001c0: 2d27 e1bd 888a bcbc 847a d1bc b64b 5cbe
000001d0: 9b47 b33d 8937 5c3c a3dc a4bd 5e64 f4bd
000001e0: f53b 9dbb dcca 1dbe f43e 08ba ea79 77bb
000001f0: 36de 2e3c b97a 343d f165 1fbe 231d e73c
00000200: 6705 94be 60d4 0dbd a000 a8bd 81e9 23bd
00000210: 5717 debb 2fa0 9a3d a6ae ef3d 45b0 023e
00000220: 761d 03bd d3f4 273e cc96 18bd 807b 803d
00000230: 54c1 b0bc 70ac 9a3d 440a 9cbd ff02 fe3d
00000240: a944 f63c 56c8 893d 7893 3b3d 7acc 01bd
00000250: c01d 073e 77ca 39bc 805b a3bd 8823 f43d
00000260: 66d7 5fbc 8c7b 77bd 7048 eb3d a2df ccbc
00000270: ca46 013e 9e0e 90bd ba8c c2be 4867 02be
00000280: ca2f 98bd bbcb c1bd 35d7 27be 769e 6fbd
00000290: ffb5 abbc 3723 663c ea23 1e3c f0a4 f93c
000002a0: bae7 3fbd 5663 083e 2b23 af3b b3bc b6be
000002b0: 59e5 e63d 4fc9 8a3e 6958 79bd 9276 3a3d
000002c0: 0c02 5b3d 35f5 85bd df17 893d 02ad 7e3c
000002d0: 0a94 17be 0c27 9d3d db3b 61bc 1fc1 aabc
000002e0: baef 50bd df48 eabd 6742 a7bd bc2b fdbe
000002f0: 8379 b03c a32e 043e d9e8 3cbe 46db c4bc
00000300: 9a22 02be a31e 713d faa5 b03d a38e 6ebd
00000310: 5c49 d13b 89bf 76bc e979 a23c 4e72 19bd
00000320: a441 a8bc a77a 59be 200c 0dbf 4b1b 023e
00000330: 130c 60be 5419 383e 1abb 63be 43e5 c73d
00000340: 3b6e debc 5149 073e 8221 733c e742 96bc
00000350: c1c5 a33c 36dd 22bd eddd a8bd d7e3 133e
00000360: 20f3 6ebd 2b1f 24be 65c3 0dbd 77db 04be
00000370: 16cd 203d 3545 5abe 29f4 c4be a20a 2dbe
00000380: 4428 293d ae97 873b 63b2 433d 09ca 24bd
00000390: 6bd1 51be 35b2 203c 304c 2dbe 6c4a 6b3d
000003a0: e29b 413e f3b1 843d 89a1 f6bd cbcb e7be
000003b0: ae44 56bc 5fc0 6ebe f19f 403d 8ddb 483d
000003c0: a86a fb3d 6a1f b3bd 2590 463d 7ac3 6cbe
000003d0: f30f 80bd b934 553d f762 bbbd bd8b 89bd
000003e0: e103 103d 0fc4 cbbe 2abe acbd a311 98be
000003f0: 85cc d33d 553c 473e 6a8c 04be 8f1c 0ebb

layer.4.bias f4 [128]
-0.059281904 -0.008606941 0.11979723 0.080633864 0.18980794 0.15186417 0.19156304 -0.09228558
-0.06388439 0.011341818 0.04691295 0.19448435 -0.047447458 0.06162503 0.22955415 0.08401034
0.016138053 0.08169096 0.14645219 0.020467851 0.19156623 0.1739597 -0.03472717 -0.13383211
0.0809053 0.038974695 0.094115235 0.09689219 -0.075781964 0.0583603 0.09077872 -0.0609098
-0.054608434 -0.110557914 -0.0061726454 0.097792365 0.13091183 0.09765885 -0.038043823 0.06789636
0.106337786 0.01391381 0.019283667 0.2210497 0.17164585 -0.085573 0.057221368 0.055168588
-0.006437981 0.2343455 -0.08905779 0.02613771 0.09288771 0.07733061 0.04853861 -0.009860441
-0.017274622 0.07829373 0.2802857 0.07243169 0.08446744 0.006752398 0.006122832 -0.05419107
0.06483495 0.019256685 0.11646869 0.12851815 0.05427313 -0.044811063 0.16936429 -0.10690802
0.16431801 0.07058387 -0.057059627 0.0050638337 0.13142045 0.18457682 0.019396983 7.880181e-05
-0.018530661 0.021144487 -0.032518845 0.064961754 -0.021409854 0.12559609 -0.16212212 0.0757624
0.031509396 -0.030340716 -0.03682108 0.18769252 0.17494826 0.13279466 0.13435808 0.04185756
0.0045269015 -0.0038749834 -0.11007304 -0.07899755 -0.08085559 0.11756864 -0.10851676 0.003699571
0.15717036 -0.061658077 0.12760048 0.06281324 0.12713015 -0.16153133 -0.113662116 0.07303287
0.07570443 0.112112686 -0.05042943 0.12928177 0.12522307 0.119253986 0.09935049 0.079289034
0.120648675 0.050303753 -0.25271982 -0.025653435 0.15633124 0.23063448 0.11530246 -0.0033538924
00000000: 95d1 72bd 2104 0dbc 4058 f53d 5e23 a53d
00000010: 035d 423e 4882 1b3e 1a29 443e 3900 bdbd
00000020: d2d5 82bd 08d3 393c cb27 403d e826 473e
00000030: 4458 42bd 876a 7c3d 3e10 6b3e 9d0d ac3d
00000040: f333 843c 974d a73d 90f7 153e 32ac a73c
00000050: f029 443e 7e22 323e 143e 0ebd 490b 09be
00000060: aeb1 a53d eea3 1f3d 7dbf c03d 6a6f c63d
00000070: 9333 9bbd 360b 6f3d 32ea b93d 8e7c 79bd
00000080: 18ad 5fbd 306c e2bd e743 cabb 5d47 c83d
00000090: c00d 063e 5d01 c83d d7d3 1bbd 3f0d 8b3d
000000a0: a0c7 d93d c0f6 633c c8f8 9d3c da5a 623e
000000b0: eec3 2f3e e640 afbd f460 6a3d 75f8 613d
000000c0: b3f5 d2bb 44f8 6f3e ee63 b6bd c01e d63c
000000d0: e93b be3d 835f 9e3d 6cd0 463d b08d 21bc
000000e0: 8283 8dbc 7758 a03d 9b81 8f3e 1157 943d
000000f0: 44fd ac3d 3843 dd3b 0aa2 c83b 75f7 5dbd
00000100: 30c8 843d 32c0 9d3c 2387 ee3d 439a 033e
00000110: 804d 5e3d ce8b 37bd d56d 2d3e 98f2 dabd
00000120: fb42 283e 478e 903d 5bb7 69bd 84ee a53b
00000130: 1593 063e b501 3d3e 6ce6 9e3c 6642 a538
00000140: 9dcd 97bc 3437 ad3c 7b32 05bd ab0a 853d
00000150: b863 afbc 439c 003e 5703 26be 5129 9b3d
00000160: ff0f 013d 188d f8bc b3d1 16bd 7832 403e
00000170: a325 333e 53fb 073e 2a95 093e d572 2b3d
00000180: 6756 943b 6ff3 7dbb f96d e1bd 78c9 a1bd
00000190: 9e97 a5bd d4c7 f03d 093e debd 8074 723b
000001a0: 44f1 203e 2e8d 7cbd b3a9 023e 3aa4 803d
000001b0: 682e 023e 7868 25be afc7 e8bd 4292 953d
000001c0: ed0a 9b3d 569b e53d 178f 4ebd 7162 043e
000001d0: 7a3a 003e 6f3b f43d 4578 cb3d 4a62 a23d
000001e0: a716 f73d 4f0b 4e3d 7e64 81be 2727 d2bc
000001f0: 4c15 203e 722b 6c3e b223 ec3d facc 5bbb

layer.6.weight f4 [8, 128]
-0.014320339 -0.019037746 -0.04567792 0.017486725 -0.036296442 -0.021035764 0.06814522 -0.0074362685
0.01424729 -0.049956635 -0.0143128885 -0.052519735 -0.008695851 0.022948649 0.040770575 0.008288287
0.03686622 0.04291776 0.07912672 0.03066227 0.023250144 0.06465768 -0.013082048 -0.014035428
0.0010336585 0.027286628 0.038534038 -0.0016889748 0.046795383 -0.08562327 -0.056578696 -0.039387763
-0.079035535 0.036020994 -0.04776946 0.0034427198 -0.034103375 -0.01861088 0.011531872 0.0102986535
-0.0019710055 -0.009535515 -0.027300715 0.023604624 -0.027221743 -0.028018922 0.017475097 -0.038641967
0.051265493 0.06888855 -0.07058282 -0.057335008 0.07505787 -0.040327173 0.0043477584 0.05825534
-0.025656959 -0.038654186 0.011068307 0.021958148 -0.034153216 -0.00760807 -0.036814194 0.029429361
0.037833408 0.055094276 0.04589965 0.033777427 0.035330508 -0.032848768 0.018936628 0.057465173
-0.016625423 0.015270558 -0.076954596 -0.013530812 0.022220304 -0.052831687 -0.0011554693 0.008862586
0.0423351 0.039250087 -0.052963518 -0.047058184 0.012759643 -0.024295496 -0.035520513 0.007855654
0.020322058 0.0124100875 0.013103944 -0.0318326 -0.012847409 -0.008817483 -0.0033595276 -0.011330635
0.019330878 -0.02896312 0.03309419 0.0051644086 0.018664954 -0.094489 0.0043263817 -0.015525285
0.010669295 -0.07014441 0.0062777675 0.05313391 -0.005881318 -0.015895246 -0.03148265 0.020925822
0.024210459 0.027826931 -0.012819573 -0.015464178 -0.019456511 0.09059812 0.037309203 -0.026262283
0.023261294 -0.034986008 0.010147954 0.0075570266 0.0076129576 0.035542596 0.011406923 0.03084238
-0.0060671894 0.0034720574 -0.04634293 -0.013354395 0.039885696 -0.0069410293 0.077264465 0.061219398
0.010046054 0.012797222 0.040090505 -0.022081306 0.027615124 0.024452763 0.046295345 -0.033570245
0.044085942 -0.016324708 -0.013552087 0.0477574 0.0042782123 0.07309758 -0.052215394 -0.026644325
-0.046635915 0.012135756 -0.0019562196 -0.012070748 0.019876879 -0.019588556 0.028244987 -0.024209116
0.06338293 0.016523283 0.03315782 -0.036386687 -0.018087879 0.028131908 0.020689117 0.021051722
0.01658399 -0.037788138 -0.013045795 0.03343205 -0.0051349513 0.018802976 0.0119242 -0.034142356
-0.004628539 0.021899635 0.08686722 -0.02826009 -0.013841109 -0.022997834 0.026437623 0.0124430675
-0.008191992 0.0023297383 -0.01603969 0.02681838 -0.0063719735 -0.056770314 -0.007398106 -0.033870976
-0.0005088852 -0.024424318 0.040201902 0.032842997 -0.03460576 0.019457443 0.0012231913 0.059479974
-0.041992985 -0.010696574 -0.047845412 0.014420854 -0.03321401 0.034427013 -0.01184578 0.022927923
-0.06889039 -0.0062918896 -0.0014447785 -0.023252707 0.011724342 -0.03761471 0.011868437 0.017488262
-0.028983759 -0.027332075 -0.0064785336 0.022390485 0.03591675 -0.048358466 0.023517212 -0.008796153
0.0118852705 0.027685316 -0.0312943 -0.0046266206 0.026527502 -0.020390248 -0.035833143 -0.041006487
-0.009183471 -0.06540694 -0.01383627 0.017092397 -0.013191188 -0.007711635 -0.028446063 -0.008060729
0.008723376 -0.0036770913 0.04284648 -0.015313089 0.015105163 0.06278854 -0.011692422 -0.002966546
-0.031551473 0.021134196 -0.007464646 0.0045004673 0.027359458 0.020513488 0.0062527317 0.0056925267
00000000: db9f 6abc 0cf5 9bbc c518 3bbd 5240 8f3c
00000010: 94ab 14bd 3253 acbc b98f 8b3d f1ab f3bb
00000020: 776d 693c 549f 4cbd 9b80 6abc ef1e 57bd
00000030: 0b79 0ebc cefe bb3c 0cff 263d 98cb 073c
00000040: 0901 173d 88ca 2f3d 310d a23d 712f fb3c
00000050: 1677 be3c 3f6b 843d 1656 56bc daf4 65bc
00000060: d37b 873a 3588 df3c ded5 1d3d 9760 ddba
00000070: 84ac 3f3d 415b afbd 10bf 67bd 1055 21bd
00000080: 62dd a1bd c08a 133d e9a9 43bd 419f 613b
00000090: fbaf 0bbd d875 98bc 2df0 3c3c afbb 283c
000000a0: fc2b 01bb d93a 1cbc c0a5 dfbc 7c5e c13c
000000b0: 2200 dfbc f087 e5bc ef27 8f3c 0a47 1ebd
000000c0: c4fb 513d 7115 8d3d ba8d 90bd 1dd8 6abd
000000d0: f1b7 993d 1b2e 25bd a477 8e3b 279d 6e3d
000000e0: 8b2e d2bc da53 1ebd d857 353c 93e1 b33c
000000f0: 3ee4 0bbd 1e4d f9bb 7bca 16bd d815 f13c
00000100: 34f7 1a3d 89aa 613d 4501 3c3d 335a 0a3d
00000110: b9b6 103d 6e8c 06bd fd20 9b3c 9a60 6b3d
00000120: 0a32 88bc 5d31 7a3c 5f9a 9dbd 57b0 5dbc
00000130: 5b07 b63c 0a66 58bd 1e73 97ba 6134 113c
00000140: 9267 2d3d b3c4 203d 46f0 58bd 15c0 40bd
00000150: d20d 513c 5907 c7bc f57d 11bd 00b5 003c
00000160: 727a a63c ae53 4b3c edb1 563c e662 02bd
00000170: f07d 52bc 3477 10bc 852b 5cbb 21a4 39bc
00000180: ca5b 9e3c 1144 edbc c68d 073d 333a a93b
00000190: 3fe7 983c 7383 c1bd 52c4 8d3b c45d 7ebc
000001a0: 44ce 2e3c dfa7 8fbd bbb5 cd3b f1a2 593d
000001b0: 12b8 c0bb bf36 82bc f4f3 00bd a16c ab3c
000001c0: 0355 c63c 4ef5 e33c 3009 52bc 775d 7dbc
000001d0: 4363 9fbc 828b b93d 89d1 183d 0024 d7bc
000001e0: 788e be3c 7d4d 0fbd 9b43 263c efa0 f73b
000001f0: 1e76 f93b 1d95 113d 1ae4 3a3c 29a9 fc3c
00000200: 46cf c6bb 758b 633b 16d2 3dbd 64cc 5abc
00000210: 2f5f 233d 9371 e3bb d53c 9e3d 31c1 7a3d
00000220: 3498 243c 70ab 513c f135 243d dbe3 b4bc
00000230: 1d39 e23c 2951 c83c 30a0 3d3d f480 09bd
00000240: 7693 343d 65bb 85bc 9309 5ebc 439d 433d
00000250: 3f30 8c3b 2fb4 953d cfdf 55bd 3345 dabc
00000260: 4d05 3fbd 0dd5 463c eb33 00bb 63c4 45bc
00000270: d6d4 a23c 2e78 a0bc 0862 e73c 3252 c6bc
00000280: e9ce 813d d65b 873c 7fd0 073d 350a 15bd
00000290: 082d 94bc e374 e63c 397c a93c a974 ac3c
000002a0: 26db 873c bcc7 1abd 08be 55bc 0cf0 083d
000002b0: 1843 a8bb b308 9a3c b85d 433c dbd8 0bbd
000002c0: 00ab 97bb dd66 b33c 71e7 b13d b481 e7bc
000002d0: d2c5 62bc f465 bcbc b793 d83c 02de 4b3c
000002e0: b437 06bc 86ae 183b ab65 83bc 38b2 db3c
000002f0: fdcb d0bb fd87 68bd d06b f2bb 4bbc 0abd
00000300: b566 05ba 8215 c8bc c0aa 243d 6186 063d
00000310: c5be 0dbd 3765 9f3c 7d53 a03a 46a1 733d
00000320: d600 2cbd af40 2fbc 8df9 43bd 7245 6c3c
00000330: 6a0b 08bd 5703 0d3d cd14 42bc 57d3 bb3c
00000340: 6816 8dbd 322c cebb b95e bdba 767c bebc
00000350: 7417 403c e211 1abd d573 423c 8b43 8f3c
00000360: 596f edbc 84e7 dfbc e149 d4bb 406c b73c
00000370: 711d 133d 8713 46bd 2ba7 c03c bd1d 10bc
00000380: 70ba 423c 51cc e23c 742e 00bd e89a 97bb
00000390: 3450 d93c 7309 a7bc c6c5 12bd 6bf6 27bd
000003a0: 4576 16bc 13f4 85bd 86b1 62bc 5b05 8c3c
000003b0: da1f 58bc e2b1 fcbb b807 e9bc 2611 04bc
000003c0: 7eec 0e3c 5bfb 70bb ca7f 2f3d c0e3 7abc
000003d0: a57b 773c 4797 803d 9391 3fbc 626a 42bb
000003e0: 1e3c 01bd 9f21 ad3c fd99 f4bb a878 933b
000003f0: f120 e03c e70b a83c b7e3 cc3b 6088 ba3b

layer.6.bias f4 [8]
-0.033632167 -0.04463598 -0.053233765 -0.03445789 0.11814362 0.11371793 -0.028644493 -0.026256206
00000000: e2c1 09bd 38d4 36bd a60b 5abd b723 0dbd
00000010: 48f5 f13d f2e4 e83d dba7 eabc 4117 d7bc
