final/save/1l_0.95_200_morelayer/save1_17500.pth (torch_old, 50952 bytes, 8 tensors)

layer.0.weight f4 [32, 28]
000000 2a aa 00 3e 27 04 b5 bc 93 81 67 be d7 fc cd bd
       0.12564912 -0.022096707 -0.22608022 -0.10057991
000010 01 95 33 3e 03 33 6a 3e fa 03 6d 3e 74 f8 85 3e
       0.17537309 0.22871022 0.23146048 0.26166117
000020 2e 61 d0 bc 2b 02 96 3d 09 07 ea bc 26 90 59 3e
       -0.025436964 0.07324632 -0.028567808 0.21246395
000030 b9 74 a1 3c 3b 82 b4 bb a4 f9 9c 3d fd 68 5d 3d
       0.019708978 -0.0055086887 0.07664803 0.054055203
000040 de 54 2c 3d 4e 62 92 bb c7 0d cb bd 03 2a 35 be
       0.042073123 -0.0044672852 -0.09914737 -0.17691807
000050 e5 5f 28 3e ac fa 76 3d c5 4a 12 3e 29 85 88 bd
       0.16442831 0.060297653 0.14286335 -0.06666023
000060 f5 fb ce bd a1 85 08 be 2e 20 f0 3d 88 2c 32 3d
       -0.10106651 -0.13332225 0.11724888 0.0434995
000070 17 0d 61 3e f8 d4 42 3e 3d 3d 2b 3d 5d 5e 2e bc
       0.2197765 0.19026554 0.04180645 -0.010642615
000080 3e 3d 97 bd 98 f2 30 bd 04 55 75 3e fe 65 5d 3d
       -0.07384728 -0.043200105 0.23958212 0.054052345
000090 6f b0 24 be c3 3b 08 bd 29 0a 75 3d 99 23 5b 3e
       -0.16082929 -0.03326012 0.059824143 0.21400298
0000a0 11 50 9b bd ba 54 be 3d f3 55 87 3c a9 84 08 3d
       -0.07583631 0.09293504 0.016520476 0.03332964
0000b0 36 94 a4 bd 82 02 d7 bc a8 b0 1a be 55 91 04 3c
       -0.080360815 -0.026246313 -0.15106452 0.0080912905
0000c0 ca 83 34 3e b5 8f 2b bd eb 1e af 3d a5 93 2a 3e
       0.17628399 -0.041885097 0.08550819 0.16657884
0000d0 c4 94 42 bd da 5a 22 be c4 14 17 3d 79 7a 09 bd
       -0.047505155 -0.1585497 0.036885038 -0.033564065
0000e0 2e 6c 0b 3e 7e d1 06 be 2d e2 3a 3e e4 9f 86 3c
       0.13615486 -0.13165852 0.18250342 0.016433664
0000f0 0e 0b 3b 3d 1f 01 03 be ec f9 90 bc cf 0b 3d bd
       0.04566484 -0.12793396 -0.017697297 -0.04615384
000100 c7 ed 04 3e d3 29 6d 3e fb 87 9c bc 81 d5 78 3b
       0.1298133 0.23160486 -0.01910781 0.0037969055
000110 85 c1 aa bd 89 c1 74 bc d3 49 57 be 8e 03 57 bd
       -0.08337692 -0.0149387205 -0.21024255 -0.052493624
000120 e2 ce 13 3e 53 30 1d bd 60 b1 13 3e 90 bc d1 3d
       0.14434388 -0.038376164 0.14423132 0.102410436
000130 7c 15 d1 3d d1 4f dd 3d 4a 40 bd 3d 9f 05 0e be
       0.10209176 0.108062394 0.09240778 -0.13869332
000140 61 fe 91 bc c2 5e 13 be 36 8d 22 3e 96 d1 0e 3e
       -0.017821493 -0.14391616 0.1587418 0.13947138
000150 8f ab 96 bd 87 1d 1f 3e 24 dd 0c 3e 93 74 11 be
       -0.07356941 0.15538608 0.13756233 -0.14204626
000160 3f 54 0a be 19 c9 55 3d 5a 79 0b bd a2 4c 67 3d
       -0.135087 0.052193735 -0.034051277 0.056469567
000170 54 5c a8 3e b9 f0 ab bd 05 c7 17 bd e6 f8 65 bd
       0.3288294 -0.083955236 -0.037055034 -0.05614557
000180 b9 23 0d 3c df 86 5a be eb 85 53 be af 6e 8d 3e
       0.008614474 -0.21340512 -0.20656554 0.27623507
000190 c5 d9 51 3d 3d 4b 2c be 60 a6 d1 bd c9 ef f2 bd
       0.05123307 -0.16825576 -0.10236812 -0.11862142
0001a0 f1 32 87 bd 30 29 85 3e f0 0e 98 3d ce af 37 3e
       -0.06601513 0.26007986 0.07424724 0.17938158
0001b0 42 2b 80 bd ee b7 91 3d ca 27 b7 3d f3 da d9 3d
       -0.06258251 0.0711516 0.08943136 0.106374644
0001c0 ab a6 3a 3d fb b7 e7 bd 4f ea 60 3d 80 44 93 b9
       0.045569103 -0.11314388 0.054910954 -0.0002808906
0001d0 c5 5b 04 3e 3d 89 ad bd f4 dd 3b bd 86 3b 65 3d
       0.12925632 -0.08473442 -0.045865968 0.05596497
0001e0 b8 ec 76 3e 8c bc 1b be e3 d4 74 3d 99 ac 33 bd
       0.24113739 -0.15208644 0.059773337 -0.043865774
0001f0 33 5c 60 bd e6 51 3c be 8f ba 24 3d 01 4f 82 3e
       -0.054775428 -0.18390617 0.04021698 0.254509
000200 17 30 b5 3c b6 42 49 ba 24 48 c1 bd e8 d9 13 bc
       0.022117658 -0.0007677482 -0.09437588 -0.009024121
000210 37 8b 61 bd fa 02 7a 3e 20 4b 26 3d 95 6f 7a 3d
       -0.055064406 0.24415198 0.04059899 0.06114157
000220 49 9d 18 bd c2 55 e7 3d fa d5 df 3c a0 d4 72 3d
       -0.037259374 0.11295654 0.027323712 0.059284806
000230 56 37 a3 bd 3b 6f 11 3e 0f 44 b3 3e 71 e1 51 3e
       -0.07969539 0.14202587 0.35012862 0.20496155
000240 94 3d 9b 3c ab c3 05 3e 97 ba ad 3d ce cb 15 be
       0.018950261 0.13062923 0.08482855 -0.14628527
000250 b7 f7 08 3e 8e a4 af 3d e6 c8 e8 3d ee 71 80 3d
       0.13375746 0.08576308 0.11366443 0.0627173
000260 bf 67 95 3e b1 b4 1e 3d 3a 39 7a 3e 39 f1 11 3e
       0.29180714 0.03874654 0.24435893 0.14252175
000270 df df d0 3d 2c 47 bf 3e 26 7e 7f 3e ab f3 35 3e
       0.1019895 0.37358987 0.24950466 0.17768733
000280 60 24 14 3e 04 3a 87 bd 10 2d a7 ba 36 29 7f 3d
       0.14467001 -0.066028625 -0.0012754519 0.06229516
000290 53 e3 1b 3e c9 bc 4b 3d 6a 7c 28 be 24 5a 3d 3d
       0.15223436 0.049740586 -0.1645371 0.046228543
0002a0 3d 7f 8a bd c9 03 04 3e 7f 44 62 bd 1e 29 3f 3d
       -0.0676255 0.12892069 -0.055241104 0.04667007
0002b0 bb ad 8e 3d 61 75 ea 3d 4e 29 1f 3e b0 8b 46 3e
       0.0696673 0.114481695 0.155431 0.19389224
0002c0 9d 31 b3 3d 56 b2 a7 3d 87 d2 eb 3b 55 92 99 3d
       0.08749697 0.08188312 0.0071967277 0.07498614
0002d0 6b 49 84 3e 9c 74 79 3d 44 ea e8 3d bd 84 68 bd
       0.25837263 0.060902223 0.113728076 -0.056767214
0002e0 7f b2 93 bd 4a cd 6d 3e e1 ea da 3d 3d a5 cd 3d
       -0.0721178 0.23222843 0.10689331 0.10041282
0002f0 a7 26 9f 3c 9a f5 1f be c3 ff 93 3d 91 a1 7f 3d
       0.01942761 -0.15621033 0.07226517 0.06240994
000300 9f 60 09 3e 1a f2 e9 3d 2f 0f 1e 3d 2e 12 a6 3d
       0.13415764 0.1142313 0.0385887 0.08108936
000310 c7 5c dd 3c d3 55 c9 bc f4 a9 63 3d 3e 28 4a 3e
       0.027021779 -0.024577057 0.055582 0.19741914
000320 2c 82 e8 bd a7 45 00 3e 1a bf 2e bd 38 76 b2 3c
       -0.11352953 0.1252657 -0.042662717 0.021784887
000330 8c 0c df bd fd 10 84 be c8 e3 95 3d cf 6e 7d be
       -0.10891065 -0.2579421 0.073188365 -0.24749301
000340 51 60 3c be 55 4e 0f be 3d 8e 9f be 34 a8 e7 3d
       -0.18396117 -0.13994725 -0.31163207 0.11311379
000350 61 d0 8f bd ab 9f c6 be 3c d1 14 3e 17 34 a5 3d
       -0.07022167 -0.38793692 0.14532942 0.08066576
000360 b0 23 01 3e e7 cf fc 3d 67 01 38 3e 69 75 bc bd
       0.1261127 0.12344342 0.17969285 -0.09202082
000370 37 87 04 3e 82 b4 0d 3e 29 47 c3 3c af 70 94 3d
       0.12942205 0.1383839 0.023837643 0.07248055
000380 f1 6d 71 3e 60 20 9d 3d 71 fb cb bd 42 48 38 bd
       0.23577096 0.07672191 -0.09960068 -0.044990785
000390 6f bf 4c 3d 3f 9c 40 3b 8b c5 43 3e a8 db d7 bc
       0.049987253 0.0029390005 0.19118325 -0.026349857
0003a0 6b 1d d6 bd 68 49 b6 3d 4c e3 d7 bd f8 7c 1b 3d
       -0.1045483 0.0890072 -0.105414 0.037960976
0003b0 bf 63 ca bd ed cb a7 3c 4c 00 9d 3d 7b 5d 36 3e
       -0.09882306 0.020482982 0.07666072 0.17809097
0003c0 6f 79 07 3e 85 2d 24 3e 67 78 1a 3d cf de d5 bd
       0.13229917 0.1603299 0.03771248 -0.10442888
0003d0 96 0e dc 3c 14 8f 9f be 4c aa 54 bd 22 43 b1 be
       0.026862424 -0.31163847 -0.05192022 -0.3462153
0003e0 88 68 a0 3d 55 66 b4 bb 9e 96 a3 bd b5 7a 12 bd
       0.07832438 -0.005505363 -0.07987712 -0.035761554
0003f0 27 98 7d 3e 94 94 9a bd 06 c7 0b 3e 12 7c 28 3e
       0.24765073 -0.0754787 0.1365014 0.16453579

layer.0.bias f4 [32]
000000 9e 12 68 bd 89 18 8c 3d 1a ea 56 be 6d fc d2 ba
       -0.05665838 0.06840617 -0.2098774 -0.0016096957
000010 8d d6 9e 3d bf fb 6f 3e f7 9b ba bd 20 3d 31 3e
       0.07755766 0.23435877 -0.09111779 0.17308474
000020 23 78 e8 bd be 2f de 3d 7a cc f7 3c 73 89 6c 3d
       -0.11351039 0.1084895 0.03024887 0.05774827
000030 58 69 05 3e 6c 0f d0 3d e8 f0 2e be 04 3d 50 be
       0.13028467 0.101591915 -0.17084086 -0.20335776
000040 d6 34 a3 3d 3e 48 18 3c d3 d8 95 3d 39 21 4a 3d
       0.07969062 0.009294568 0.073167466 0.04934809
000050 d8 28 16 3e 88 f6 5b bd f8 10 7b 3d 2a 30 5c 3e
       0.14664018 -0.053701907 0.06129548 0.21502748
000060 6a a7 6d 3e 12 84 f4 3d f7 da bf 3d 7f b0 cf 3e
       0.23208395 0.11939253 0.09367936 0.40564343
000070 a7 b8 2e 3f b7 88 0f 3d 16 01 9c 3c 6f 7d 18 3d
       0.6825051 0.03504249 0.019043487 0.037228998

layer.2.weight f4 [64, 32]
000000 db 09 e7 3d 61 03 0c 3e 4d 01 c1 3d 1c f5 72 bd
       0.11281177 0.13673164 0.09424076 -0.059315786
000010 a1 9f af bd 62 8e 31 3d a3 b0 31 3e 0f 78 d3 3d
       -0.08575369 0.043348677 0.17352538 0.10325634
000020 4e d5 94 3d b6 4f 0d 3e 9b 81 7f bc 19 9a 22 3e
       0.07267247 0.13799939 -0.015594865 0.15879096
000030 84 fb 69 3d cc 79 49 3d c5 e7 4d 3d ca 85 cf 3d
       0.05712463 0.04918842 0.05026986 0.1013294
000040 a0 32 d0 3d 1d af 2d 3e 96 6c 2a 3e 46 ce ef 3d
       0.10165906 0.16961332 0.16642985 0.117092654
000050 42 93 5a 3d a7 1a 6a bc 1b df 43 bc cb 45 47 be
       0.053363092 -0.014288581 -0.011955048 -0.19460218
000060 2b 4d a4 bb d2 c9 11 bd 4e 2c 31 3e 41 c4 cf bd
       -0.005014082 -0.03559286 0.17302057 -0.10144854
000070 be 01 7d bc c8 14 86 3d 8a a4 a5 3d f8 8c 3e 3d
       -0.01544231 0.065469325 0.08088024 0.046521157
000080 13 3e 58 3e 34 3e 77 3e e9 1d d7 bd 7e ad 10 bf
       0.2111743 0.24144822 -0.10503752 -0.5651473
000090 5e 68 ae be 90 d4 1d bd b5 94 4c 3e 16 68 80 be
       -0.34064 -0.038532794 0.19978602 -0.2507941
0000a0 3d e5 49 3e 95 12 b0 3e b1 9e 98 be 1b 10 34 bd
       0.19716354 0.34389177 -0.29808572 -0.043960672
0000b0 7c 39 41 be 97 c9 b8 be 05 23 69 be 53 e5 17 3e
       -0.18869585 -0.360913 -0.22767265 0.14833574
0000c0 eb e1 4e 3e af 4a 71 3e 99 7f 11 3e e7 e8 38 be
       0.20203368 0.23563646 0.14208831 -0.18057595
0000d0 01 56 67 be e4 b5 19 3e 39 48 ce be 74 41 dc bd
       -0.22591402 0.15010792 -0.40289477 -0.10754672
0000e0 c3 a3 69 bf 4f 09 9f 3d 6b e9 a5 bc b6 9f 23 be
       -0.91265506 0.07765447 -0.020252904 -0.15978894
0000f0 62 43 c0 bd 55 2d 38 3e 0f 7e e5 be 77 e1 b7 3d
       -0.09387852 0.17986043 -0.44822738 0.08978551
000100 b5 2f 51 3e 9e 19 47 3e 0c cb dc 3c 9d fa cc 3d
       0.20428355 0.19443366 0.026952289 0.10008738
000110 ba 6b 37 3e cc 71 73 bc de cc 18 be 88 ab b8 3c
       0.17912188 -0.014858674 -0.149219 0.02254273
000120 d5 43 58 3e c1 3f 91 3e ea 32 cc 3c 00 49 16 be
       0.21119626 0.28368953 0.024926621 -0.14676285
000130 cc 82 22 3e db b5 46 be fc 93 93 be ce 4a 36 3e
       0.15870208 -0.1940531 -0.2882384 0.17801973
000140 9c 55 a6 3d 5e 31 06 3e 1d 6c a8 3d b5 81 a4 be
       0.081217974 0.1310477 0.08223746 -0.3213021
000150 6b d7 e0 be 6c c6 fb 3d ea 72 5d be f0 b9 64 bd
       -0.4391435 0.12293705 -0.21625867 -0.055841386
000160 ae 05 68 3e 22 68 2c be 18 4a ca bc 1f c9 9e bd
       0.22658417 -0.16836599 -0.024693534 -0.077532046
000170 cc 66 2d 3e 5f 23 3a be c9 3a fb 3d a1 18 0a 3e
       0.16933745 -0.18177556 0.12267072 0.13485958
000180 6f fd 33 3e bd 27 8f bd db 54 f7 bc b3 d7 c8 3d
       0.17577146 -0.06990001 -0.03019183 0.09806766
000190 68 c9 86 bc 84 99 19 be c4 28 00 bd 53 e4 ee bd
       -0.01645346 -0.14999968 -0.031288877 -0.11664643
0001a0 d8 99 13 3e 62 d2 26 3e 05 6a ad 3d f8 1a b4 bd
       0.14414155 0.16291192 0.08467487 -0.087942064
0001b0 ac 1c 19 3e f7 16 33 be ba 1c 18 be 99 58 e2 bd
       0.14952344 -0.17489229 -0.14854708 -0.11052055
0001c0 fd c8 c7 bd f4 6b 91 bd 3d 88 31 3e ea 42 ba be
       -0.09755132 -0.071006685 0.17337127 -0.36379176
0001d0 62 27 d8 be b4 90 63 3e 58 e2 21 be 30 b9 8f 3d
       -0.42217547 0.22223169 -0.15809 0.070177436
0001e0 e6 a8 ae 3e 9c 3c cd bd 4a fe 5f bb 81 b5 9c 3d
       0.34113234 -0.10021326 -0.0034178668 0.076518066
0001f0 e9 aa 68 be 2f 25 aa bd 88 7d aa 3d e6 63 f9 bd
       -0.22721447 -0.083078735 0.083247244 -0.12177257
000200 c5 b4 b7 bd 02 8a 24 bd 12 41 88 bd 6d 0a cb bd
       -0.08970026 -0.040170677 -0.06653036 -0.09914098
000210 72 7a 96 3d 35 95 c2 bd bb 8f c0 3d 65 0e d3 bd
       0.07347573 -0.09501115 0.094024144 -0.1030548
000220 fe 13 61 bd 8a d7 07 3e 11 32 c8 bc 66 ff 54 3d
       -0.054950707 0.13265815 -0.024437936 0.05200138
000230 4f ef c5 3d ef ce 07 be 94 29 af bd 14 14 08 be
       0.09664785 -0.13262533 -0.08552852 -0.13288909
000240 44 1e 30 3e f8 af ef 3d 14 e3 3c bd 0e c3 87 be
       0.17199045 0.11703485 -0.046114996 -0.26516002
000250 ec 3c a5 bb 56 a9 60 be b0 8e f4 bc b1 b6 66 bd
       -0.005042663 -0.21939597 -0.029853195 -0.05632657
000260 5a c9 62 be d0 d1 d9 3d 4b c1 08 3e 5d 54 be 3d
       -0.22147122 0.10635722 0.13354985 0.09293435
000270 7d b7 b7 bc bc 3d 1a be 50 ae 8d 3e 3b 78 0b 3e
       -0.022426361 -0.15062612 0.27672052 0.13620083
000280 aa d0 0a bc 97 c1 18 be d6 c2 2a bd e3 ce c8 be
       -0.008472601 -0.14917599 -0.041689716 -0.39220342
000290 2a d7 1e 3b 59 7b dc 3d bf fd a0 bd 88 53 f9 bd
       0.0024237134 0.10765714 -0.07860898 -0.121741354
0002a0 e1 4c a2 bd 33 f7 b8 bd e4 b0 25 be 04 83 b9 3d
       -0.0792482 -0.090315245 -0.1618076 0.09058192
0002b0 33 4c 7b 3e 1d ec 0f be a5 d5 9f bc 3c a5 86 bd
       0.24540786 -0.14054914 -0.019511053 -0.06574485
0002c0 d8 a9 71 3d 43 3f 0e 3e 7b ff 91 be c8 54 5a be
       0.058999866 0.1389132 -0.2851523 -0.21321404
0002d0 ab 46 b2 bc 5a 42 12 be c2 3e 9c bd cf b2 c8 3d
       -0.021762213 -0.14283124 -0.076291576 0.0979973
0002e0 64 aa 21 bf 5a 0b 0a be 41 50 24 3e 8c 4b b3 bd
       -0.6315062 -0.13480893 0.1604624 -0.08754644
0002f0 8e 0f 5d ba da e2 8b b9 8f 2f 28 3e bc 43 a1 3e
       -0.0008432799 -0.00026681164 0.16424392 0.3149699
000300 48 7b e1 bd 34 cc df 3d 62 bb 37 3c a8 97 59 be
       -0.11009842 0.109276205 0.011214109 -0.21249259
000310 c5 ba a9 3d cf eb e8 3d a2 38 b6 bc a6 12 43 be
       0.082875766 0.11373102 -0.022243802 -0.19050083
000320 b9 6c e5 bd ca bc 02 3e cb 6a 87 3d e2 da 3e 3e
       -0.11202378 0.1276733 0.06612166 0.18638185
000330 89 63 45 bc 52 10 ff bc 3e 0d 2d 3e 78 f0 80 3d
       -0.012047657 -0.031135712 0.16899583 0.06295866
000340 7a 40 3e bd d1 51 15 3e ac 72 b4 3d b0 a3 bf 3e
       -0.04644821 0.14581992 0.088109344 0.3742957
000350 39 c8 b7 3e aa 52 8e bc 23 9d bf 3d eb 6b b3 3d
       0.35894945 -0.017373402 0.09356143 0.08760818
000360 e7 7c 03 be a4 5e a1 3d 27 17 d3 3d a2 df 53 3e
       -0.12840615 0.078793794 0.1030715 0.20690778
000370 ac ed 2c be 75 b5 c2 3d 68 5c 96 3d af 12 15 3e
       -0.1688754 0.095072664 0.07341844 0.14557908
000380 0a 94 fe bd e6 9b 46 be 28 7e d2 3b c7 0a de bd
       -0.1243058 -0.19395408 0.0064237304 -0.10841899
000390 a5 5f 1a be 34 5b ac 3d cd 9e d8 3d 07 d6 d5 bd
       -0.15075548 0.08415833 0.10577164 -0.10441213
0003a0 94 0c 6e be 53 56 ea bd 81 e5 99 3d fd ec 25 3e
       -0.23246986 -0.11442246 0.075144775 0.16203685
0003b0 8f 34 c7 bd a0 76 ec 3d 23 f3 58 3e 2f 98 95 bc
       -0.09726822 0.115460634 0.211865 -0.018261043
0003c0 67 b5 9f be bf 07 8a 3d cc 6b 64 bc 9c 8f d1 3d
       -0.31193087 0.06739759 -0.013941716 0.102324694
0003d0 ee 93 cf 3e 83 e4 82 be 20 f9 9a 3e 65 eb f3 bc
       0.4054255 -0.25564966 0.30268192 -0.02977533
0003e0 64 42 01 3c 08 0c 3a 3e 93 85 0c bd 84 b2 ad 3c
       0.007889364 0.18168652 -0.034307074 0.021203287
0003f0 7f 6a a5 be 9d 8b 48 3e 15 47 8f bd 0f ec c3 be
       -0.32307813 0.19584508 -0.0699598 -0.38266036

layer.2.bias f4 [64]
000000 34 67 9c be 21 f0 79 3c 12 6f c1 bd 11 d1 7f 3d
       -0.30547488 0.015255005 -0.09445013 0.06245524
000010 f2 4e 37 3d ff e0 c5 3d b4 22 9a 3e 0b 27 be bd
       0.044753022 0.09662055 0.301046 -0.092847906
000020 c2 a8 b6 3d c8 55 df bd dd e2 12 3e 7e 6a 67 bd
       0.08918907 -0.10905033 0.14344354 -0.056498043
000030 7b d9 49 3d c7 94 b2 3e d0 94 f6 3e 34 18 e3 bd
       0.04927967 0.34879133 0.4816041 -0.11088601
000040 0d f0 d2 3d 2d de a8 3d ed d0 63 3d d1 01 1b 3d
       0.10299692 0.08245502 0.05561917 0.03784353
000050 d0 52 cb 3d 53 12 15 3e c6 fe 2c 3e bc 46 a9 bd
       0.099279046 0.14557771 0.16894063 -0.08265445
000060 6c 3b 21 3e f5 84 45 3e 90 42 1f be b8 0e 74 bd
       0.15745324 0.19289 -0.15552735 -0.05958435
000070 1c d0 4b be e3 df e9 bd e7 2a 70 3e 0a 50 43 3e
       -0.19903606 -0.11419656 0.23453866 0.19073501
000080 29 e2 b3 3d 08 19 bf bc b2 70 36 3d 18 96 2c 3e
       0.08783371 -0.023327366 0.04454107 0.16854131
000090 20 3a 86 3e 7d 06 da 3e 73 3d 82 3e 53 1c 3b bd
       0.2621622 0.42583075 0.25437507 -0.04568131
0000a0 c8 72 bf bd 9e ea 97 be 24 fd d8 3c 4f 87 88 3e
       -0.09348065 -0.29671186 0.026487894 0.26665732
0000b0 48 90 32 3e f5 67 87 3d 67 6a 85 3e ef 1d 09 3e
       0.17437851 0.06611625 0.2605774 0.13390325
0000c0 d7 d4 a0 bd 7c 2d 94 3d 51 49 83 be 96 74 9d 3e
       -0.07853096 0.07235238 -0.25641873 0.3075301
0000d0 3f 0c b2 3d fc 9d 65 be fb 7e 65 b9 f4 40 44 be
       0.08693742 -0.22423548 -0.00021886446 -0.19165403
0000e0 0a cf 66 3e 9f 66 05 bd 16 de 59 bd 09 b1 2d 3d
       0.22539917 -0.03256857 -0.053190313 0.042405162
0000f0 92 a2 46 3e 59 fb 81 3e 86 23 27 be b3 bd 5a 3b
       0.19397953 0.25387076 -0.16322145 0.003337723

layer.4.weight f4 [128, 64]
000000 60 fa 95 3d f5 02 1f 3e 94 fc 57 bd 73 1f fc bc
       0.07323146 0.15528472 -0.05273111 -0.030776715
000010 0a 3c 00 be 70 4d b1 bf 3f f7 70 bb 5c c1 26 3e
       -0.12522903 -1.3851757 -0.0036768464 0.16284698
000020 6d 89 89 bd ec de 2a 3d 6c ed 64 3d 3a e4 46 3d
       -0.06715665 0.0417165 0.055890486 0.048557498
000030 e1 80 f6 3c 7d 4c 99 3d 44 9a 09 3e ff e0 a2 be
       0.030090751 0.07485292 0.13437754 -0.31812283
000040 61 fc 21 3e f0 26 30 3e 2d 6c 0f 3e fd c9 ec bd
       0.15818931 0.17202353 0.1400611 -0.11561964
000050 42 e9 72 3c 9e f9 3c be 2c a7 c2 3d e1 34 d2 3d
       0.014826121 -0.18454596 0.09504542 0.10263992
000060 9e 86 1b 3e cd 65 a7 bf bf 34 3a be c8 0f d2 bc
       0.15188071 -1.3077942 -0.18184184 -0.02564229
000070 6b 09 6a bd 14 a5 e5 3c 56 d3 6d bb 7d e2 44 bd
       -0.057137888 0.028032817 -0.0036289296 -0.04806756
000080 dd f5 9e bd 1c 33 4c bc bf ed a2 bd 57 b7 b8 bf
       -0.077617384 -0.012463357 -0.07955503 -1.4430951
000090 9d c3 2d bd f6 0b 4f bd 22 2e 26 3e 6d 22 4f be
       -0.04242288 -0.050548516 0.16228536 -0.20227976
0000a0 f6 6f ee bc 39 1c 14 be fb 04 33 3d ef 40 ad 3d
       -0.029106122 -0.14463891 0.04370592 0.08459651
0000b0 1a e0 fb bd 0a 8b 4d bd fa 4e ea bc 3a 09 40 bc
       -0.12298603 -0.050181426 -0.028602112 -0.01172095
0000c0 95 c1 ba 3d 59 85 87 3d 87 be 1c be 25 2a 41 3d
       0.09118954 0.06617231 -0.15307055 0.047159333
0000d0 e1 da 68 3d 03 1f d0 3d 2d 46 74 bc fa dc 07 3d
       0.056849364 0.10162165 -0.014909309 0.033169724
0000e0 fb e8 49 3d d1 ea 9f bb 02 95 65 3d 6d 2d aa 3d
       0.049294453 -0.004880287 0.056050308 0.083094455
0000f0 80 8f ee be 98 5a 67 bd a8 37 0b 3c 91 d5 0d be
       -0.46593857 -0.05648288 0.008497156 -0.13851
000100 6c 58 71 bd 94 9a 12 c0 48 9e 86 bd 9e 6b 17 3b
       -0.058922216 -2.2906847 -0.065731585 0.0023104916
000110 32 d8 86 3d 5b da 23 3e 70 9a 01 3e 8c ab c3 3d
       0.06584205 0.16001265 0.1265657 0.09554204
000120 03 17 1d bf ab 45 b2 bd 3d 72 04 3e 21 c4 ce bd
       -0.6136324 -0.08704694 0.12934203 -0.10096002
000130 af 18 9c 3d 38 22 c3 3d 9e ef ba 3d 40 4c 0a be
       0.076218955 0.09528011 0.091277346 -0.1350565
000140 62 fe e2 bf 55 b7 8f bd b0 ec 0b b9 26 fc 12 3d
       -1.7733881 -0.0701739 -0.00013344246 0.035885
000150 37 a9 37 bd 2e 85 40 3d 32 92 32 3e 33 72 12 be
       -0.04483911 0.04700201 0.17438582 -0.14301376
000160 b5 16 53 3e 13 23 35 3d a6 a9 46 bb e9 a3 83 3d
       0.20614131 0.044222903 -0.003031352 0.06427748
000170 81 26 c3 bd e2 ac 9c bd 87 89 6b bd 7f 7b dd 3d
       -0.095288284 -0.07650162 -0.057504203 0.10814571
000180 04 cf 6b bd 71 d5 b4 3d 97 a2 ae bf 4f 0b 63 3d
       -0.057570472 0.08829773 -1.3643368 0.055430707
000190 68 99 15 bd bd 20 d1 bc 30 73 19 3d ed d7 40 be
       -0.036523253 -0.025528306 0.037463367 -0.18832369
0001a0 c6 31 0e 3e bb 93 4b bd bb 28 1e 3e 5d 16 21 3e
       0.13886175 -0.049701434 0.15445225 0.15731187
0001b0 02 e9 a8 3d c5 98 e6 3d 82 1e 62 bd c9 7b c0 bd
       0.08247568 0.11259607 -0.055204876 -0.0939861
0001c0 f5 77 c0 3d d1 7d 86 3c bd fe a0 bd e6 a0 4d 3d
       0.0939788 0.016417416 -0.078610875 0.050202273
0001d0 a6 25 ae bd 3c 57 2f bc 76 ae 05 bd 77 29 fc 3d
       -0.085032746 -0.010701951 -0.032637082 0.12312596
0001e0 a7 c5 ab 3d 6c d9 1a 3d 02 64 43 bd 4b 4c ca 3c
       0.083873086 0.037805006 -0.047702797 0.024694582
0001f0 a6 e0 7b 3d 69 6c 77 bd 7b de 4a be 90 7f 0d be
       0.06149354 -0.060406122 -0.19811432 -0.13818192
000200 f1 dc de bc 7c 8a 0c 3e d8 ed e9 3b 32 2b 9f bd
       -0.027204962 0.13724703 0.007138949 -0.07771911
000210 7b 42 8b 3d 18 01 e7 3d b2 bb cf 3d a3 74 e0 bc
       0.067997895 0.112795055 0.10143222 -0.027399367
000220 6f a5 a2 bd a3 e9 a6 bd 1b 66 60 3d 35 62 33 3d
       -0.0794171 -0.081500314 0.054784875 0.04379483
000230 e8 2b 8c bd 66 5a 84 3e 73 e3 0f 3e 27 7a 1b be
       -0.06844312 0.2585022 0.14051609 -0.15183316
000240 0f 38 1e 3c 9c 9e 47 3e 70 2d ff 3c 68 7d 47 bc
       0.00965692 0.19494098 0.031149596 -0.012175895
000250 35 ab 18 bd d8 3a ca 3c 64 52 40 3d a6 e9 61 be
       -0.03727265 0.024686262 0.046953574 -0.22061786
000260 b6 51 09 3e 77 20 f5 3c 9e fc 19 be 61 4c 8d bd
       0.13410076 0.029922707 -0.15037772 -0.06899334
000270 79 aa 4b be c5 7e 1a b9 d7 1a 26 bd 5e 5b 05 3d
       -0.19889249 -0.0001473381 -0.04055294 0.032557838
000280 ac 37 9a bc 8f f7 3e bb 10 41 00 3c 4c 09 e7 bd
       -0.018825375 -0.0029139256 0.007828012 -0.1128107
000290 f7 69 a5 3a f3 fb ee bd 08 c3 4d 3e ba f8 c8 bd
       0.0012620081 -0.11669149 0.2009393 -0.09813066
0002a0 2d e2 da 3c ec 21 9a bd e2 4f 55 3c 58 ee 98 3d
       0.026719177 -0.07526001 0.013019534 0.074673355
0002b0 b5 cf 8c 3d b0 78 21 3e 35 86 0f 3e 94 6c 02 be
       0.068755545 0.15768695 0.1401604 -0.12736732
0002c0 cb 39 d8 bc 5a f9 b8 3c 33 99 b3 be 81 82 cc 3d
       -0.026394745 0.022579838 -0.3507782 0.09985829
0002d0 54 89 73 bd 68 95 3a bd 2a d1 0c 3c 91 9b c4 3d
       -0.05945714 -0.04555264 0.0085947905 0.095999844
0002e0 52 d3 fc 3c 56 30 01 3b 69 ef 08 be 69 eb 99 3d
       0.030862484 0.0019712648 -0.13372578 0.07515604
0002f0 f1 0f 71 3e 7d c2 eb 3d 6c cb 98 bc 3b 25 b6 bd
       0.23541237 0.11511705 -0.018651687 -0.0889382
000300 13 86 e9 3d ac 18 a1 be c2 08 8c 3e f9 d1 05 bc
       0.11402526 -0.31464136 0.27350432 -0.008167737
000310 dc bb 8e 3c 93 c3 8f 3e 11 52 85 bd 2b 9d 0f 3d
       0.017423563 0.280789 -0.065097935 0.035061996
000320 16 4e 2b bc e3 f0 19 3d 9f 0b 14 bb 1a fe 69 3c
       -0.010455629 0.037583243 -0.0022589935 0.014281774
000330 bc 51 9b 3d 02 5d 1a be a5 0c 21 be a0 c6 4c 3e
       0.07583949 -0.15074542 -0.1572748 0.19997644
000340 dd 2b 44 be 1e a0 46 be db 43 12 be c8 97 6a bc
       -0.19157358 -0.19397017 -0.14283697 -0.014318414
000350 31 2f 72 bd fc f9 97 3c 4e c6 2c 3d ff cd 23 3e
       -0.059127036 0.018551819 0.042181306 0.1599655
000360 08 2c ee bc 94 77 34 3e 3e 33 33 3c e2 cc 96 3d
       -0.02907373 0.1762374 0.01093751 0.07363297
000370 6f a2 64 3e 42 78 0e bc 5f a0 88 3d 0b fa eb 3d
       0.22327588 -0.008695664 0.06671213 0.11522301
000380 c6 a5 58 3d 2c 33 be 3d fe 2f e1 bd bc 92 7a 3e
       0.05289247 0.09287104 -0.10995482 0.24470037
000390 a5 a2 d8 3b fa 46 61 3d 19 c0 e4 3d 6d 16 3c 3e
       0.0066111856 0.05499933 0.11169452 0.1836793
0003a0 98 ff 4a be 9b f3 8a 3d 6a 53 1a be 1b ca f7 bd
       -0.19824064 0.06784745 -0.15070882 -0.120990954
0003b0 d5 53 5a bd 1a ba 95 3d 67 cb 6a be 12 37 01 3e
       -0.053302605 0.07310887 -0.22929154 0.12618664
0003c0 1f a8 8b bc da 49 89 3d c7 d9 81 3d c2 0d b7 bc
       -0.01704794 0.06703539 0.06340366 -0.022345427
0003d0 2c e1 b4 3d ce 48 0d be 17 12 39 3d 1f fb 31 3d
       0.088320106 -0.13797304 0.045183267 0.04345238
0003e0 f8 85 04 be d3 37 40 3e b6 2e dc bd 53 7f 08 3e
       -0.1294173 0.18771295 -0.10751097 0.1332982
0003f0 48 d2 07 3e 53 05 1e bd 7d a5 0c 3e a2 32 29 3e
       0.1326381 -0.038579296 0.13735004 0.16523221

layer.4.bias f4 [128]
000000 9f 2a 43 3e f4 01 74 3e 22 c7 bb 3e 5f 1a b0 bd
       0.19059227 0.2382887 0.36675364 -0.0859878
000010 eb db 74 be a4 c9 bd 3e 79 c9 e9 bd 77 e6 dc 3e
       -0.23912017 0.37067902 -0.11415381 0.4314458
000020 06 b3 74 3e 49 f4 63 be 03 af 26 3e 10 03 46 3e
       0.23896417 -0.22261156 0.16277699 0.19337106
000030 11 b6 0f 3e a1 52 40 bd 57 76 f2 3d 3a 84 6e be
       0.14034297 -0.0469538 0.11838978 -0.23292628
000040 bf 1a 80 be 1f ef 74 bd 91 fb 45 bd be ba 53 3d
       -0.25020406 -0.059798356 -0.048335616 0.051691763
000050 af ce 20 3e 5a fa a0 bd f7 3f 13 3e 28 29 d7 3d
       0.15703844 -0.07860251 0.1437987 0.10505897
000060 fb e0 4e 3d a7 e5 44 3e ee 57 3e be 2c ee b9 3d
       0.050507527 0.1922823 -0.1858823 0.09078631
000070 3b 4a 4e 3d ab 71 6c bd d8 d9 1c 3e 9e 5a 75 3d
       0.05036376 -0.05772559 0.15317476 0.059900872
000080 53 6c 77 3e 74 ea 41 be 36 ab b9 bc c9 05 93 3e
       0.24162416 -0.18937093 -0.022664648 0.2871535
000090 a3 4a 68 3e 2b 7a 3b 3e f7 eb 60 3e aa 93 46 3e
       0.22684722 0.18308322 0.21965013 0.19392267
0000a0 3a 67 4d 3d e7 4e 55 3e 6b b6 01 3e 3d 97 77 bd
       0.050147273 0.2083088 0.12667243 -0.060446966
0000b0 30 9d c3 3e ba 9f c2 3e 5f be ff 3c 35 8e 81 3e
       0.38205862 0.38012487 0.031218706 0.25303808
0000c0 c1 25 23 3d 91 90 61 3e 7f c5 9c be 72 39 1c 3d
       0.039830927 0.22027804 -0.30619428 0.03814072
0000d0 36 d8 38 be 43 5a 45 3e 1d 50 7c 3e 99 6d 1c 3e
       -0.18051228 0.19272713 0.24639936 0.15276183
0000e0 46 32 86 3e 47 c9 36 3e 40 66 91 3c 7d b2 62 3e
       0.2621023 0.17850219 0.017748952 0.221384
0000f0 c1 9f 4e 3d 03 6f 4d be 1e 10 98 3d dd fc 79 be
       0.050445322 -0.20061879 0.07424949 -0.24412866
000100 0c b1 8a bd 81 f9 d2 3d 1e 94 85 3e a2 ac 33 3e
       -0.0677205 0.10301495 0.26089567 0.17546323
000110 ec c1 91 3c d5 e3 62 3e 80 29 8c be 2a 42 f8 3b
       0.017792664 0.22157224 -0.27375412 0.0075762467
000120 bf 90 68 3e 9a ef 78 3e 56 76 75 3e 08 66 de 3d
       0.22711466 0.2431015 0.23970923 0.10859305
000130 61 c1 f1 be 25 93 b8 3e 59 ea 8d 3d 1a 0f f9 bc
       -0.4721785 0.36049762 0.06929464 -0.030402709
000140 76 6c 64 3e c5 17 29 be bd a1 8c bd fd 50 31 3d
       0.22307 -0.16512974 -0.06866787 0.043290127
000150 ec b9 9b 3d d8 e5 68 3e d5 08 dc 3d 10 41 85 3c
       0.07603821 0.22743928 0.10743872 0.016266376
000160 bc 63 cd 3d 55 69 5b 3e 80 01 42 3e bf e7 6e 3e
       0.100287884 0.214269 0.18945885 0.23330592
000170 dc 36 01 3e cf e7 3b 3e d0 5f 08 3d 13 29 b1 3d
       0.12618583 0.18350147 0.0332945 0.086504124
000180 e0 03 2d be ee 02 dc 3d d3 14 ff 3d 18 2b 18 3d
       -0.1689601 0.10742746 0.12455144 0.037150472
000190 d7 2c 15 3e 4b 27 f1 bd 7e 99 3a be 99 21 59 3e
       0.14567886 -0.11775073 -0.18222615 0.21204223
0001a0 93 e1 b5 3e d9 03 5d 3e 6e dd 4f 3c 41 51 86 3e
       0.35523662 0.21583499 0.01268707 0.26233867
0001b0 13 37 89 3d 22 b5 58 3e b5 cd 12 3e 17 2d 45 3e
       0.06699958 0.21162847 0.14336284 0.19255482
0001c0 7f 0e 81 3e 0b 0f d7 3d 61 4a f3 3e cd b2 91 bd
       0.25206372 0.10500916 0.47517684 -0.07114182
0001d0 35 c2 4a 3e 35 55 b9 3e 4e 5d 16 3e 38 dc 8f 3e
       0.19800647 0.3619782 0.1468403 0.280977
0001e0 fa 35 2d be 54 6b 95 3d 8e bb a3 3e 6a a4 6b 3e
       -0.16915122 0.07295862 0.3197903 0.23011938
0001f0 99 3b df bd 3a 68 35 3e b8 cf a4 3e 9d df 00 3e
       -0.10900039 0.1771554 0.32189727 0.12585302

layer.6.weight f4 [8, 128]
000000 65 20 cc 3e 9d 77 43 bf f9 3b 88 3e fb ed 1c bd
       0.39868465 -0.7635439 0.26608256 -0.038312893
000010 04 0e 9f bd e4 49 93 3e 34 14 dd be 18 4a a6 3e
       -0.07766345 0.28767312 -0.43179476 0.32478404
000020 0c 4a aa be e0 4e 03 bd 99 3e b4 bc 54 9e 2d 3e
       -0.33259618 -0.032057643 -0.022002505 0.16954929
000030 b4 92 8a be 06 a9 85 bd 20 40 80 3e 32 ec df bd
       -0.2706505 -0.06526379 0.25048923 -0.109337226
000040 13 23 6a be 21 77 bf 3d dc 65 09 3f 37 c2 9f 3e
       -0.22864942 0.09348894 0.5367105 0.31202862
000050 04 b5 32 3e ce de 15 3e 36 f9 be 3e a3 fe 4d 3e
       0.17451864 0.14635774 0.37299508 0.20116667
000060 35 24 76 bf 57 8c 38 bf 9a 41 91 bd 1b e5 e3 be
       -0.96149 -0.7208914 -0.07092591 -0.4451073
000070 12 6f 8c be 55 e1 8f be a3 a9 ab be 2b 69 ba 3e
       -0.2742849 -0.28101602 -0.3352786 0.36408362
000080 76 04 9d be 27 29 6d bd b1 f2 12 3e c7 07 6c 3e
       -0.30667466 -0.057900574 0.14350392 0.23049842
000090 27 94 c6 be bb a4 c6 be 91 4e 88 3e fd 34 8d 3e
       -0.38784906 -0.38797554 0.2662244 0.2757949
0000a0 a7 e8 10 bf 5b e4 f6 3d b9 fe c9 be 8c c4 d3 3e
       -0.56605 0.12055274 -0.3945215 0.4136089
0000b0 66 44 e2 3e 65 40 27 3e 1d 89 2c 3e 2e 1b ab 3e
       0.4419281 0.16333158 0.1684918 0.33419174
0000c0 66 f7 4b 3e 5f e8 2b 3e 5d cb 1c be 2a ff 6a 3e
       0.19918594 0.16787861 -0.15311952 0.229489
0000d0 06 f9 82 bd c0 34 13 3f 73 67 fe be f0 f9 1d bf
       -0.06395154 0.57502365 -0.496883 -0.617095
0000e0 df 44 32 bf 10 1d 08 bf 27 25 b7 be 6f b3 93 3d
       -0.6963634 -0.53169346 -0.35770532 0.072119586
0000f0 30 a7 e1 3c 6c e3 c7 3f 94 1e 5c 3e c6 f6 ee bd
       0.027545542 1.5616279 0.2149604 -0.11668162
000100 87 aa 28 3d 32 ea 57 be 99 f7 79 3e 72 c0 82 3e
       0.041178253 -0.21085432 0.24410857 0.2553745
000110 ef 0e 9e 3f 60 c7 df be 13 f1 a7 be fc 15 4f be
       1.2348307 -0.437068 -0.32801113 -0.2022323
000120 4a a1 2a 3e 05 d4 e2 3d fd 2a 8e be 7f b2 2f bf
       0.1666309 0.11075596 -0.27767172 -0.6863174
000130 c0 6b 0a be 5d 3f a0 3e e1 33 b1 be 2b 03 4a bf
       -0.13517666 0.31298342 -0.34609893 -0.78911084
000140 d4 c4 01 3e 6b db 2a be a7 c0 94 3b 19 17 a3 3e
       0.1267274 -0.16685264 0.0045395675 0.3185356
000150 35 d6 1e bf 23 48 18 bf b6 e9 e8 bd 6e 53 52 bf
       -0.62045604 -0.5948507 -0.11372702 -0.82158554
000160 23 33 1d 3f b1 f6 ea 3e 06 48 3d bf 36 f4 80 be
       0.61406153 0.45891336 -0.73938024 -0.25186318
000170 fe 51 42 bf 77 ac 0a 3f 14 8e 02 3f 73 b8 e4 be
       -0.7590636 0.5416941 0.50998044 -0.44671974
000180 b8 97 91 3d 90 b7 a4 be c1 ab 8c bd b0 cb 20 bf
       0.07109016 -0.32171297 -0.06868697 -0.628108
000190 e2 04 08 bf 0f f0 6b be 3b bd 61 be e4 a0 06 bd
       -0.5313245 -0.23040794 -0.22044842 -0.03286828
0001a0 77 db b3 3e 56 74 cf 3d 51 10 07 3f a0 a1 36 3e
       0.35128376 0.10129611 0.5275927 0.17835093
0001b0 e8 e3 d3 be 54 a7 8c 3e fb 8d 8a 3e 76 3c 8c 3e
       -0.41384816 0.2747141 0.27061448 0.27389878
0001c0 55 7a 76 3e 4e a0 b1 be c5 6b b1 3e 4b be 22 be
       0.24070103 -0.34692615 0.34652534 -0.15892904
0001d0 b9 07 ee 3d a6 7f 9d 3e a9 c6 77 3e 40 e5 10 bf
       0.11622567 0.3076145 0.24196877 -0.5659981
0001e0 c6 59 fe ba df 06 38 3e 88 0b 9c 3e 70 b0 74 3e
       -0.0019405417 0.17971371 0.30477548 0.2389543
0001f0 b2 f3 bd 3f 1f 04 66 bf 57 76 2c 3e 3e f5 0d bf
       1.4839995 -0.8985004 0.16842018 -0.55452335
000200 2a 5d f4 3e ba a1 54 3e 7f 1e 0e 3e 1f a4 7c be
       0.4772733 0.20764819 0.13878821 -0.24671982
000210 90 b9 76 3d 4a 25 d1 3d f3 bb 05 3f 77 5a 2d 3e
       0.06023556 0.102121904 0.5223991 0.16929041
000220 82 4d 6e 3e f2 35 df bc 2a b9 30 3d 1d b7 05 3e
       0.23271754 -0.027247403 0.043145336 0.13058133
000230 a1 37 40 bf c0 ba a9 bd d2 de 8b be 83 36 1a be
       -0.7508488 -0.08287573 -0.27318436 -0.15059857
000240 15 e6 5a be af 3c b6 bd b9 c4 4d 3d 6d c8 d7 bd
       -0.21376832 -0.08898293 0.050236437 -0.10536275
000250 13 5e 7b be a3 2c 89 bd 01 8e d3 be 8c 82 fb 3d
       -0.24547605 -0.06697967 -0.41319278 0.12280759
000260 41 39 a8 3e 35 b7 28 3e f8 9f d6 bd 7c 73 54 bf
       0.3285618 0.16476138 -0.1047973 -0.82988715
000270 1d dc 1c 3f 4a b9 c4 3e b2 21 54 3f 34 d9 8b be
       0.61273366 0.38422614 0.82863915 -0.2731415
000280 fd 8f 97 be ab 1e d0 bd 50 3c f4 3e 85 c7 dc 3d
       -0.29602042 -0.101620995 0.47702265 0.10780243
000290 c8 0a 45 3f 91 77 b7 3e c3 0e e1 3e be a4 1b 3d
       0.76969576 0.3583341 0.43956575 0.037998907
0002a0 f5 f9 10 bf 5a ff 09 3d c6 16 f9 3e 89 c4 3e 3e
       -0.56631404 0.033690788 0.48650187 0.1862966
0002b0 47 88 cc 3d 04 2c dd be 53 70 68 bd 4e 0a 2b 3e
       0.0998693 -0.43197644 -0.056747746 0.1670315
0002c0 38 25 1b be d0 06 89 be 30 42 1d be c1 a6 31 3e
       -0.15150917 -0.2676301 -0.1535728 0.17348768
0002d0 e2 c1 c4 3f 52 09 0d bb b5 0e 06 bf 92 fc be 3d
       1.5371668 -0.0021520448 -0.5236619 0.09325518
0002e0 c0 78 fc 3d f6 88 62 bd 35 4b 60 3f 4a 93 49 bd
       0.12327719 -0.055306397 0.87614757 -0.04921273
0002f0 fa 11 d9 bd 9e 47 69 3d 41 04 9d be 63 f9 79 bd
       -0.10599132 0.056953065 -0.30667308 -0.06102885
000300 66 7d f4 bd 5c ba 49 3f 9e c4 28 bf 75 ee 88 3e
       -0.1193798 0.78799987 -0.65925014 0.26744428
000310 d4 f5 98 3f 91 06 ec 3e c2 4d 30 be 48 31 44 3f
       1.1950021 0.4609876 -0.17217162 0.766377
000320 fc e4 84 be 03 74 97 be f6 cd 07 bf 11 a8 41 3e
       -0.2595595 -0.29580697 -0.53048646 0.18911768
000330 10 94 d9 bd 17 2a 1f 3e e2 91 14 3d 0f 57 e2 be
       -0.10623944 0.155434 0.036271937 -0.44207045
000340 d1 0e d2 be a8 10 b5 bc 4a 33 3d bd 0d 10 bc 3e
       -0.4102693 -0.022102669 -0.04619149 0.36730996
000350 8d b7 cc be 9d 21 26 3e c7 d1 14 3f f9 ba c5 be
       -0.39983788 0.1622376 0.58132595 -0.3861921
000360 ff e4 8c be 64 ac e4 3d 89 52 87 3e de 6f 5d 3e
       -0.2751846 0.111656934 0.26430157 0.21624705
000370 69 f4 bf 3d 8d 37 3f be 5f ea d6 be c1 a5 a2 3b
       0.093727894 -0.18673535 -0.41975686 0.004963607
000380 05 fa 73 be bb 6a 16 bf ca 62 f5 3e 47 6d 9c be
       -0.23825844 -0.5875661 0.47926933 -0.30552122
000390 7c e2 25 3e 21 2c 44 be 64 33 9c 3c ed aa bf bd
       0.16199678 -0.19157459 0.019067474 -0.093587734
0003a0 98 d1 1e 3e a3 1d 8c be 69 77 4c be c8 fa 00 bd
       0.15509641 -0.2736636 -0.19967426 -0.031489164
0003b0 68 ad 63 3f 1f bb 26 3e 24 ee 39 3e 46 80 98 3e
       0.8893647 0.16282319 0.1815725 0.29785365
0003c0 6b a2 20 3e 02 71 4e 3d bc 52 e5 3d a2 25 36 be
       0.15686958 0.05040074 0.11197421 -0.17787793
0003d0 5e 76 50 be 14 6c d9 3c 7e 57 8b be fc 6f 59 3e
       -0.20357653 0.026540793 -0.2721519 0.21234125
0003e0 c7 51 17 be 18 3a 87 be 60 e8 a7 3d fe ef a6 3e
       -0.1477729 -0.2641151 0.08198619 0.32604975
0003f0 d5 d4 09 be 5b 0c 2e 3e 23 7b d1 3d 7f 3c 38 bd
       -0.13460095 0.169969 0.102285646 -0.04497957

layer.6.bias f4 [8]
000000 dd 4a 84 3e 32 0e cf 3d 70 48 a0 3d af b8 ac 3d
       0.25838366 0.101101294 0.07826316 0.08433663
000010 41 32 08 bd 89 a4 f7 3c 3d b6 29 3c d1 79 d3 bc
       -0.03325105 0.030229824 0.01035839 -0.025814923
