final/save/1l_0.95_200_morelayer/save2_4000.pth (torch_old, 50952 bytes, 8 tensors)

layer.0.weight f4 [32, 28]
000000 22 06 bf 3d 85 58 9d bd 4e 52 cd 3d 4f 93 7c 3d
       0.093273416 -0.076828994 0.10025464 0.061663922
000010 59 2e 90 bd 7e f3 e7 bd 3f 1a e2 bd d6 44 7f 3e
       -0.0704009 -0.11325739 -0.11040162 0.24928603
000020 90 43 70 3e d4 c2 27 3d 36 df 53 bd 9f a1 1f 3e
       0.23463273 0.040957287 -0.051726542 0.15588997
000030 cc 50 ba bb e5 cc b1 3d e7 96 18 3d 1f 62 4b 3e
       -0.0056859013 0.08681659 0.037253287 0.19861649
000040 18 39 8c ba d6 fc 42 3e cf 2e 0b be 64 d0 89 bd
       -0.0010698168 0.19041762 -0.13592075 -0.067292005
000050 fd f7 02 3e 6b 65 3f bc 1e af 41 be 11 25 34 3d
       0.12789913 -0.011681895 -0.18914458 0.04398066
000060 94 5c d3 3d a3 bd 9d 3d 86 c6 0b 3e 4b b5 9c bd
       0.10320392 0.07702186 0.1364995 -0.076517664
000070 ae 93 1f be e5 f6 60 3e 9c 18 da bd 66 8e 82 bb
       -0.15583679 0.21969183 -0.10649225 -0.0039842604
000080 52 a9 28 3e 47 07 29 3e 53 83 08 3e 34 a9 f8 3d
       0.1647084 0.16506682 0.13331346 0.12141648
000090 18 f8 8f bd 8c df 02 3e e1 e5 ac bc ec d7 9a 3d
       -0.07029742 0.12780589 -0.021105709 0.07560715
0000a0 aa 53 f1 bc 61 56 c9 bd b4 8f 39 3e f5 4a bf ba
       -0.02945884 -0.098309286 0.18121225 -0.0014594482
0000b0 61 eb f7 3d b8 f9 d3 3d 0c bc 0a bd e8 9e f2 bc
       0.12105442 0.103503644 -0.03387074 -0.029616788
0000c0 ac ed ab bc 5b 06 1a be 56 93 58 3d 2f 73 bd bd
       -0.020987354 -0.15041487 0.052874885 -0.09250485
0000d0 3e a8 4b bd ae ae 0e 3e 4c 0f 32 bc 8e 5a 80 3d
       -0.049720995 0.13933823 -0.010867905 0.06267272
0000e0 9b da 6e 3e 13 c1 ca 3d c5 7e 02 3e 56 d4 47 3e
       0.23325579 0.09900107 0.12743671 0.19514593
0000f0 58 4a 49 3e 77 2b 10 3e 23 04 d4 bd 30 af e0 bd
       0.19657266 0.1407908 -0.103523515 -0.10970914
000100 0f dc a6 3d 2a 4b e8 bd 46 f3 84 bb 8e 47 f5 bd
       0.081474416 -0.113424614 -0.0040573208 -0.119765386
000110 d8 e7 ba 3c 89 ea f4 bd 30 0b 15 be 33 1c 20 3e
       0.02281563 -0.119587965 -0.14555049 0.15635757
000120 ff e4 b4 bd 44 6a 1d 3e a2 3f 7e bc 9c 23 98 bd
       -0.0883274 0.15372568 -0.015518101 -0.07428667
000130 64 d7 e4 bc 55 31 ae bd 33 a9 1c 3d 60 44 11 bc
       -0.027934738 -0.08505503 0.0382473 -0.0088663995
000140 54 13 89 3d ec a5 cf bd 8a da 1e 3d 7c 7d 11 3e
       0.0669314 -0.10139069 0.038782634 0.14208025
000150 47 ef db bd 49 ae c4 bd 43 b8 2c 3e d4 ce 5c 3e
       -0.10738998 -0.09603555 0.16867165 0.21563274
000160 f4 67 f2 3c 98 8d 54 3d 89 32 4a 3d fc 8d df bd
       0.029590584 0.051892847 0.0493646 -0.10915753
000170 9c 93 69 3e 0c b5 24 be 26 b5 2c be 01 01 33 be
       0.22810215 -0.16084689 -0.16865978 -0.17480852
000180 eb 7c 70 3e 1f 59 df 3d 97 56 02 3d 22 4a ea 3d
       0.23485152 0.109056704 0.03182086 0.11439921
000190 27 f4 95 bd 22 9f 5e 3e 52 84 24 bd e3 4b e4 bd
       -0.07321959 0.21740392 -0.040165253 -0.11147287
0001a0 b7 c1 bd bc 21 d1 d6 bd ee 1f 0b bc e8 0b ed bd
       -0.02316366 -0.10489107 -0.008491499 -0.115745366
0001b0 1c fe 9f 3d 44 03 30 3e 6c 59 40 3e 89 88 24 3e
       0.078121394 0.17188746 0.18784112 0.16067709
0001c0 25 6e 04 be da 0c 9e 3d 7d 53 87 3d 1b e1 3c 3e
       -0.12932642 0.07717295 0.06607721 0.18445246
0001d0 08 83 bc bd b6 a2 fb bd 45 40 5b be a9 5f 66 be
       -0.0920468 -0.12286894 -0.21411236 -0.22497429
0001e0 e9 79 b4 bd 60 3e c0 3c 78 d0 c9 bd 2c 46 3c 3e
       -0.08812315 0.023467243 -0.098542154 0.18386143
0001f0 3b 97 41 3e 5a ee 89 3d fb 98 bb 3d cd 56 72 bd
       0.18905346 0.06734915 0.09160038 -0.05916481
000200 a5 e8 9a 3d ba d9 2e be 09 bb 43 3d 75 5d 50 be
       0.07563905 -0.17075244 0.047785792 -0.20348151
000210 aa 9f a8 bd ad d8 47 3e 4b c9 7f bc 0f c2 17 bd
       -0.082335785 0.19516249 -0.015611957 -0.037050303
000220 b8 1f 72 3d 8d 48 4c 3d 34 1f 22 3e bc 52 2c 3e
       0.05911228 0.049873877 0.15832216 0.16828436
000230 47 32 76 3d ab a7 ef 3b 9d bb d7 3d a0 09 06 3e
       0.060106542 0.0073136888 0.10533831 0.13089609
000240 b3 07 c5 3c 1a 90 e0 3d 7b b7 be bd 5f 82 10 3d
       0.024051523 0.10964985 -0.0931234 0.03528058
000250 e7 b0 1f 3e b1 c0 0e bd cc 25 32 3e f1 ee 07 be
       0.15594827 -0.034851734 0.17397231 -0.13274743
000260 74 75 20 3c 63 ed 1d 3d 2c ce 28 be 84 ea f3 bd
       0.009793628 0.038556468 -0.16484898 -0.11909965
000270 54 69 a0 bc f0 d4 93 3e 9c c3 76 bd 61 9b 01 3d
       -0.019581474 0.28873396 -0.06024514 0.03164232
000280 54 d9 41 3e 83 97 c7 bc fd e5 26 3e 55 11 0d 3e
       0.1893056 -0.024364239 0.16298671 0.13776143
000290 b2 46 3b 3d 5a 2b 84 bd 1e f9 94 3b 92 c9 02 3e
       0.045721717 -0.06453581 0.0045462986 0.12772205
0002a0 5c bc 08 3e 70 44 da 3d 30 df 16 3d a2 ed 36 be
       0.13353103 0.10657585 0.036833942 -0.17864087
0002b0 f7 63 28 bc a7 4b 4e 3e fc 55 3d bb 48 e2 b4 bd
       -0.01027774 0.20146047 -0.0028890362 -0.08832222
0002c0 de 7d 2a 3e 0d e5 3b be 41 f9 fa bc 36 0b c4 bb
       0.16649577 -0.18349095 -0.030636432 -0.0059827818
0002d0 ba d8 3a 3e 83 f4 5c 3d b5 d9 07 3e d2 d7 95 bd
       0.18246737 0.053944122 0.13266642 -0.07316555
0002e0 e1 e6 4f 3e 45 33 19 3e 4e 44 26 3e d4 4d 07 3d
       0.20302917 0.14960964 0.16236994 0.033033207
0002f0 3a 8e 93 3b fe f5 ae 3d 80 be 4f bd 88 bd 09 3c
       0.0045030387 0.08543013 -0.050718784 0.008407004
000300 f2 a7 8f bd 18 a8 02 3e 62 d0 02 3b 66 d5 46 3d
       -0.07014455 0.12759435 0.0019960632 0.048543356
000310 a9 a3 a7 bb 68 e2 07 be b8 ee 9f bd da ab 8e bd
       -0.0051159454 -0.13269961 -0.07809204 -0.06966372
000320 46 a4 8c 3d d1 f0 6c 3d ae 1f 21 be 45 e8 44 3d
       0.0686727 0.057846848 -0.15734741 0.048073072
000330 43 1c 0e 3e c5 c2 cf bd db ec 07 3e 64 ee a3 3c
       0.13877968 -0.10144571 0.13273947 0.020011134
000340 7e 2d 44 bd 7d 69 03 be 81 7a 9e bd 11 01 94 3d
       -0.047894947 -0.1283321 -0.077382095 0.07226766
000350 1e 0b 97 3d 06 dc 56 3e 7b 6c 2e 3d 97 52 1e 3e
       0.07375167 0.2098237 0.042583924 0.15461193
000360 7b 9f 0d 3e 8b 6e 77 3e 0f 5f 1b 3d 70 87 06 be
       0.13830368 0.24163263 0.03793245 -0.13137603
000370 73 aa 4b 3e 4b 43 29 bd a8 69 39 bd d9 94 35 3e
       0.1988924 -0.04132394 -0.045266777 0.17732562
000380 7b 5b de bd 9b 59 13 bc f0 ec 26 3c 3a 51 97 3d
       -0.10857292 -0.008993532 0.010188326 0.073885396
000390 9f 23 14 3e a9 2e 4c bc bf bd 14 bd c0 77 81 bd
       0.14466713 -0.0124622965 -0.03631377 -0.063216686
0003a0 c5 6c 14 be e1 ed bb 3d 94 21 1c be 7d 5c c5 3d
       -0.14494617 0.09176231 -0.15247184 0.09636781
0003b0 ca 03 65 3d c7 39 36 3e 74 54 14 bc a1 5e 38 3d
       0.055911817 0.17795478 -0.009053338 0.04501212
0003c0 77 46 22 3e 53 b3 00 be d4 37 3e 3e 89 a4 02 3d
       0.15847193 -0.12568407 0.18575984 0.031895194
0003d0 12 c6 ad 3d 37 5f 26 3e 90 47 3e 3e 31 56 6b 3e
       0.084850445 0.16247259 0.18581986 0.22982098
0003e0 d4 a0 c7 3d 26 ce 02 3e 3a 92 22 be 83 93 0f 3b
       0.097474724 0.12773952 -0.15876094 0.0021907992
0003f0 4b ff d7 3d a4 4b 1b 3e 33 c1 80 bc 0f 1b 2a be
       0.1054674 0.15165573 -0.015717125 -0.16611885

layer.0.bias f4 [32]
000000 38 1f 7b bd 8b 75 02 3d f5 61 e4 3d 1e 45 d7 3d
       -0.06130907 0.03185038 0.11151496 0.1051123
000010 5d 93 db 3d 81 4e 21 bc fe 14 b5 bc 51 d1 91 bd
       0.10721467 -0.009845377 -0.022104736 -0.07120002
000020 c7 83 01 3e 34 6e ac bd f9 63 3f bc 34 28 a3 bd
       0.12647925 -0.08419457 -0.01168155 -0.079666525
000030 9e c7 4f 3e 63 cb f8 3d bb 07 16 bc 55 e9 c5 bd
       0.20290992 0.12148168 -0.0091571165 -0.09663645
000040 6b 7a 65 3e 5c e5 5f 3d 82 d4 91 3d 4b 31 4d 3e
       0.2240998 0.054662094 0.07120611 0.20038335
000050 7f 0e 9d bd 01 c8 e7 bd cd 7a ee bd c5 39 52 3d
       -0.076687805 -0.113174446 -0.11644516 0.051324625
000060 16 18 dc bd 5f 77 67 bd 02 02 b8 bc 39 67 81 3d
       -0.107467815 -0.056510326 -0.022461895 0.06318516
000070 07 47 13 bd 0f 32 dc 3c 69 5a d3 bc f3 33 32 3e
       -0.03595641 0.026879339 -0.025799947 0.1740263

layer.2.weight f4 [64, 32]
000000 c0 f4 7e 3d da 4c ad 3d d7 ac 3f be 22 6e 24 bd
       0.06224513 0.08461924 -0.18718277 -0.040144093
000010 18 2f 02 be de 41 9e bb 8d 36 35 3e bb 6d 27 3e
       -0.12713277 -0.0048296293 0.1769659 0.16350453
000020 ff ea 1a 3e b5 2c 83 3c 30 2d 73 3d 1f f5 2e be
       0.15128706 0.016012529 0.059369266 -0.17085694
000030 97 d5 02 3e b2 9e b7 bc be 51 8d bd 68 c1 38 bd
       0.1277679 -0.022414539 -0.06900357 -0.04510632
000040 4e 97 c7 bd 19 36 a8 3d 22 d9 07 be 53 e8 27 3d
       -0.09745656 0.08213443 -0.13266423 0.040993046
000050 15 c5 78 bd 6e e2 4b be af ef 47 be ef 1d c6 bd
       -0.060734827 -0.19910595 -0.19525026 -0.09673678
000060 0f 37 f3 bd 8d 6a bc 3d a2 13 01 3e 45 18 df bb
       -0.11875736 0.092000104 0.12605146 -0.006808313
000070 da c8 92 bd 3f 4a ec 3c c1 71 4a bb 75 08 a4 3d
       -0.07167216 0.028843997 -0.0030890557 0.080094256
000080 73 d5 2f bd cf ce 9a bc e6 97 ae 3d 95 c3 ee 3c
       -0.04292817 -0.018897442 0.08525066 0.029145995
000090 f2 9f 20 3d 49 0f c1 bd 59 96 7d bd 43 f0 6a be
       0.039215036 -0.094267435 -0.06191096 -0.22943215
0000a0 55 ce b9 3d 08 e6 2e 3c e8 40 9d bd ec 67 1c 3e
       0.09072558 0.010674961 -0.076783955 0.15274018
0000b0 c8 e2 08 3e b2 cb 95 bd e5 3e d2 bd c4 bf a2 bd
       0.1336776 -0.073142424 -0.102659024 -0.07946733
0000c0 78 65 24 be be 8b 09 be 34 a6 50 3e fc c6 21 be
       -0.16054332 -0.13432214 0.20375901 -0.15798563
0000d0 ef 6a 4c bd 44 ea c4 3d a6 3f 2f 3d d1 09 64 bd
       -0.049906667 0.09614995 0.04278531 -0.055673424
0000e0 43 43 58 3e e6 2b 3e bd 62 92 a6 3c 01 23 6d bd
       0.21119408 -0.046428584 0.020333473 -0.05789471
0000f0 ba f7 9e bc 3e 96 07 3e d4 95 26 be fd 41 03 3c
       -0.019405235 0.13240907 -0.16268092 0.008011338
000100 9b 4a 78 3d 3e c1 4d 3d ab 32 55 3e 65 fd 9e 3d
       0.060618024 0.05023312 0.2082011 0.07763175
000110 db fd 8b 3d e9 0b 6f 3d a9 24 aa bd 09 5b 68 3d
       0.068355285 0.058360968 -0.083077736 0.056727443
000120 92 94 bc bd 9b fc 29 3e 00 2f 5d be 83 93 38 3c
       -0.09208025 0.16600268 -0.2159996 0.011265638
000130 d3 0e 90 bd e0 7d 9a bc df ef 4e 3e bf dd 1f 3e
       -0.070340775 -0.01885885 0.20208691 0.15611933
000140 2f 08 ad 3d 86 15 97 bd f3 a1 09 3e ee ad 6d bd
       0.084488265 -0.07377152 0.13440685 -0.0580272
000150 df 43 4a be 0d 04 92 3d 00 2d 00 3e d9 b1 11 3e
       -0.19752453 0.07129679 0.12517166 0.14228
000160 94 b8 81 3c d4 3b 0a be d5 a7 c4 3d 95 62 31 3e
       0.015835084 -0.13499385 0.09602324 0.17322762
000170 2b 64 e0 3d b2 da 0d 3e 8c 41 14 be f2 65 85 3c
       0.109566055 0.13852957 -0.14478129 0.016283963
000180 3c 03 88 bd d8 b8 5d 3d d6 44 84 bd 77 73 21 3e
       -0.06641242 0.05413136 -0.06458442 0.15766703
000190 f5 b3 c0 bd 61 27 4e 3e 4f 8e a3 3d 8e 4a 07 3d
       -0.09409324 0.2013221 0.079861276 0.033030085
0001a0 bd f4 b2 bd ca f4 b8 3c 70 bf 5e 3e cb a6 8c bc
       -0.087380864 0.022577662 0.21752715 -0.017169377
0001b0 c4 dc 5a 3e 5d 9b 18 bd 1e 61 03 bd 25 42 b2 bc
       0.21373278 -0.03725754 -0.03207504 -0.021760056
0001c0 05 6a 12 3d b3 53 d0 3d c2 27 1e bd 57 ed 04 be
       0.03574564 0.10172214 -0.038612135 -0.12981163
0001d0 df d5 15 3e 0e 88 3e bd db 6e 1a 3d 79 f5 da bd
       0.14632367 -0.04651647 0.037703376 -0.106913514
0001e0 8e bb 4c bd f1 0e 1a 3d 81 f1 67 bd 82 f0 1e bd
       -0.049983554 0.037611905 -0.0566268 -0.038803585
0001f0 c8 8a 80 bd 36 59 2c 3e f3 1f 46 bd f0 5e c2 3d
       -0.062764704 0.16830906 -0.048370313 0.09490764
000200 e4 6c 15 bd 5e 0d 8b 3d d5 f3 45 3d 8c 4f 01 be
       -0.0364808 0.06789659 0.04832824 -0.12628001
000210 e8 f4 03 3e c2 a8 20 be 2f 50 b1 3d 6e 9e e8 bd
       0.12886393 -0.15689376 0.08657872 -0.11358343
000220 63 ae 15 3d 6d f9 0e 3e 3b 07 0c be e4 62 40 3e
       0.03654326 0.13962336 -0.13674633 0.18787724
000230 b2 5d 02 be 6d 7d 2c 3e f1 6b 70 3d 55 91 dc 3d
       -0.12731054 0.16844721 0.05869669 0.107699074
000240 1b ed 09 be 3d 4f c5 bc 45 a2 a9 3d c8 9b 9f bb
       -0.13469355 -0.024085635 0.082829036 -0.0048708655
000250 41 b2 ee 3c 4c 49 9f 3d 84 f8 03 be f0 00 ad bd
       0.029137732 0.07777652 -0.1288777 -0.084474444
000260 23 d1 64 bd 4a 45 eb bd 99 89 18 3e 83 f6 d1 bd
       -0.05586351 -0.11487825 0.1489624 -0.102520965
000270 41 3c 92 3d 44 2f 27 3e 81 c1 c9 3d 7d 2c 8a bd
       0.07140399 0.16326624 0.09851361 -0.06746767
000280 68 0c ea 3c 0e 9a c7 bd 22 7a 6c 3e bf 8e 19 bd
       0.028570369 -0.097461805 0.23093465 -0.03748965
000290 7c 6e 13 3c df 30 d9 3d c0 14 2d bd 89 85 23 be
       0.0089985095 0.106050245 -0.042256117 -0.15968908
0002a0 e1 31 87 3d e2 e7 8a 3d bf c5 4e bd 69 92 2c 3d
       0.066013105 0.067825094 -0.050481554 0.042131815
0002b0 75 c5 8d bd 40 04 48 be fe 8f 9e 3d 94 e9 a2 3d
       -0.069224276 -0.19532871 0.07742308 0.07954708
0002c0 41 f5 80 3d 8e 6e 0c bd 4b be b5 3c 18 d5 d6 3d
       0.062967785 -0.03428512 0.022185465 0.10489863
0002d0 8b 5e ce 3d 4c 3f d0 3d f9 f5 33 3e 72 8b c1 3d
       0.100766264 0.10168323 0.175743 0.09450425
0002e0 a3 f9 1a 3e 38 ce 2e be bb 09 83 3d 71 29 53 be
       0.15134291 -0.17070854 0.0639834 -0.20621277
0002f0 f4 10 8c bd 7e a0 22 be 18 52 0e 3e 39 81 c1 3d
       -0.06839171 -0.15881535 0.13898504 0.094484754
000300 b7 e6 1c be 6b 52 f5 bd b7 45 4f bd 41 37 d9 bd
       -0.15322386 -0.119786106 -0.050603595 -0.10606242
000310 14 98 1d be 84 4a f1 3d 14 5e d9 bd 32 a0 18 3e
       -0.15390044 0.11781791 -0.10613647 0.1490486
000320 af 33 2a 3e d4 74 34 3d 57 eb b3 3c 0b 89 0c 3e
       0.16621278 0.04405673 0.021962805 0.13724153
000330 73 8e 8d 3d 88 4f c8 bd d8 d7 ca 3d 17 b8 2b bc
       0.06911936 -0.097807944 0.0990445 -0.010480902
000340 74 34 9e 3d aa 4a 2e 3e d8 c7 7a bd 9c 76 6f 3e
       0.077248484 0.1702067 -0.061225742 0.2338509
000350 3f d0 b3 3d 80 5e 24 be dd 8f dc bd 3c 22 19 3d
       0.08779954 -0.16051674 -0.10769627 0.037386164
000360 86 d1 af bd 4d e7 22 3e 0d bb 54 3c 2a 7f 4b be
       -0.08584885 0.15908547 0.0129840495 -0.19872728
000370 df a9 cc 3d 39 a3 71 3d 98 f4 cd 3d 6d c8 90 bc
       0.09993338 0.058993552 0.10056418 -0.017673695
000380 06 43 a4 bc ea e5 82 bc 97 65 61 3e 7d 9e 6b be
       -0.02005149 -0.015978772 0.2201141 -0.23009677
000390 2e ef 29 bd 28 51 5d bc 15 d1 27 be 43 ab ba bc
       -0.041487865 -0.013508119 -0.16388352 -0.022786742
0003a0 00 d1 3c 3a cf a2 79 bd 28 53 41 3d 98 7e f6 bc
       0.0007202774 -0.060946282 0.047198445 -0.030089661
0003b0 35 d0 ce bc ba 54 fa bd 55 b2 a4 bd 38 bd 63 bd
       -0.025245765 -0.122231916 -0.08041827 -0.055600375
0003c0 0f 5b 2a be f2 4e fe 3d 41 41 3e 3c 94 51 21 3e
       -0.16636299 0.124174014 0.011612237 0.15753776
0003d0 6f 6d fb 3d 0b cc a9 bb 6b f5 1c 3e b4 7c aa 3d
       0.12276732 -0.0051817945 0.15327995 0.083245665
0003e0 ca 7b 25 bd f2 04 17 3e 33 4e 15 be 1a b3 24 be
       -0.040401258 0.1474798 -0.14580612 -0.16083947
0003f0 3d 00 0d be 4d d3 fc 3d 7e 15 6a 3e 27 eb 24 3e
       -0.13769622 0.1234499 0.22859761 0.16105329

layer.2.bias f4 [64]
000000 dd 44 b1 bd c5 54 5c 3c 31 cb 30 bd 9e ab 83 3e
       -0.08655713 0.013447945 -0.04316253 0.2571687
000010 95 e7 24 be a0 20 34 bc 26 f9 0b 3e 99 ae 4f bb
       -0.16103967 -0.0109941065 0.13669261 -0.0031689762
000020 33 1b 47 3e ce bb 07 be 58 7d 47 bd 11 a7 4d 3e
       0.1944397 -0.13255236 -0.04870352 0.20083262
000030 5d b2 3b 3d 29 54 51 3d 08 52 c7 bb 76 0b 62 bd
       0.045824397 0.051105652 -0.006082777 -0.05518671
000040 6e 84 ea 3d 26 f5 3c be 32 47 4f bd 79 fe 16 3d
       0.1145104 -0.18452892 -0.050605007 0.036863778
000050 53 89 2a bd 8b 7d 37 3e 09 25 00 3e f6 59 9e 3d
       -0.04163487 0.17918985 0.12514128 0.077320024
000060 46 3d a4 3d 05 c2 61 bd 3e a9 0d be ff 89 16 3c
       0.080194995 -0.055116672 -0.13834092 0.009188174
000070 2b 43 9d bd 07 0f ee bd 2b 48 58 b9 6d 1e 4e 3d
       -0.07678827 -0.1162396 -0.0002062625 0.050321985
000080 f9 7b a1 3d e1 78 c9 bd 96 b5 0d be bf f3 25 bd
       0.07884974 -0.09837509 -0.13838801 -0.040515658
000090 b9 e5 05 bc 01 75 20 3e 4f 3b bc bd 96 ee 19 be
       -0.008172446 0.15669633 -0.09191 -0.1503242
0000a0 c7 5c 06 3e ac 5d 07 3e 29 d8 98 bd 27 f8 75 3d
       0.13121329 0.13219327 -0.07463104 0.06005111
0000b0 11 bf e9 3d f9 f8 14 bd 25 e7 13 3e 49 92 7b bd
       0.11413396 -0.03637025 0.14443643 -0.061418805
0000c0 5f 1e 67 3c 20 20 2b 3e 4c e1 f8 3d 42 c4 d3 3d
       0.014106362 0.16711473 0.12152347 0.103401676
0000d0 29 ff 1f bd 6c f0 06 3d c9 ab 96 bc 75 69 9c bd
       -0.0390617 0.032944128 -0.01839246 -0.07637302
0000e0 c1 3b 46 3e 12 af 24 bd 99 eb 71 3d e3 09 5b 3d
       0.19358732 -0.040206023 0.059062574 0.053476226
0000f0 47 60 0f bd d7 7a d8 bd 88 54 34 3e 86 32 a0 3d
       -0.035003927 -0.10570305 0.17610371 0.078221366

layer.4.weight f4 [128, 64]
000000 58 7f d0 3d d8 dd c6 3d 50 1c f4 bc 40 0d 39 3d
       0.10180539 0.09710282 -0.029798657 0.04517865
000010 d5 da 1c 3c b6 90 7d 3d 88 fb 21 be a9 51 67 be
       0.009573658 0.061905585 -0.15818608 -0.22589745
000020 9d 18 7d bd a6 94 e5 be a8 8a 97 3e ca eb 90 3d
       -0.06179105 -0.44839972 0.29597974 0.07076223
000030 9e 30 ae 3d 22 19 a8 3e 13 96 b5 3c 4d 29 fc 3d
       0.08505367 0.32831675 0.022166288 0.12312565
000040 5c 94 c1 3d 3b 67 04 3d 5b 0f 09 bd d9 58 1c 3d
       0.094521254 0.03232501 -0.03346191 0.03817067
000050 04 4f ad bc 9d b4 59 3d 13 43 c7 3d 3f 33 b5 3c
       -0.021155842 0.053150762 0.0972959 0.022119163
000060 b3 96 2b be 23 92 f5 3c 6a 40 06 3d e4 5b a6 3d
       -0.16756706 0.02997691 0.032776274 0.081229955
000070 6c fb 6e 3b 71 eb 91 3d 3c 97 5d 3e 04 be 50 bc
       0.0036465777 0.07124985 0.21639723 -0.012740616
000080 2d 58 ed bb 98 c2 2a bd 93 77 63 3c ac f9 88 3d
       -0.0072431774 -0.041689485 0.013883489 0.06688246
000090 d6 2a 9f 3d 87 5e 8c bd b4 42 3c be 83 07 6c 3e
       0.07771842 -0.06853967 -0.1838482 0.2304974
0000a0 f2 a2 36 3e 6f a1 bc 3d 18 c4 a3 bd e3 39 8c 3e
       0.17835596 0.092104785 -0.07996386 0.27387914
0000b0 ba 2d 2b bd 22 bf b7 be 1c c3 4e bd b4 ad 2d be
       -0.041791655 -0.3588801 -0.05047904 -0.16960794
0000c0 e4 fc 8e bd 1d e2 c4 3c 86 d4 a6 bd 06 55 c2 3d
       -0.06981829 0.0240336 -0.081460044 0.09488873
0000d0 be 37 82 3d 72 e0 a3 bd d6 36 c1 3d a9 c2 44 bd
       0.06358288 -0.08001794 0.09434287 -0.048037205
0000e0 d0 8d 1d 3c 1e 0e 3d 3e 4f bd 97 3c 7e ce 0f 3e
       0.00961633 0.18462417 0.018522887 0.14043614
0000f0 4b 7d a1 3d fc a5 fd 3d a0 a9 c9 3d ef 4e 24 3c
       0.07885226 0.12385175 0.098468065 0.010028585
000100 de 1b 90 3d 1f ce f7 bc 95 14 2f bd 1b cf d2 bd
       0.07036565 -0.030249653 -0.042744238 -0.102934085
000110 ed ad b3 bd 11 30 b2 3d c6 a8 83 bd 30 4f 57 bd
       -0.08773408 0.08700574 -0.06428675 -0.052565753
000120 16 7c a4 3d 51 99 88 3d 42 19 77 3d 34 41 f3 bc
       0.0803148 0.06669868 0.060326822 -0.029694177
000130 d0 41 b8 3d f7 4d 85 3e 48 f3 07 3e 5c 46 04 bd
       0.08996928 0.26036045 0.13276398 -0.032293662
000140 de 55 9a 3d b9 49 fc 3d b4 99 f3 3d 55 25 d5 3d
       0.07535909 0.12318749 0.11894551 0.10407511
000150 f0 85 c3 bd b0 51 ce 3d eb 91 18 3e e6 32 4b bc
       -0.09547031 0.100741744 0.14899413 -0.012402272
000160 92 ac 92 3d 56 6b 09 be f0 3e f8 3d fd ac 91 bc
       0.071618214 -0.13419852 0.121213794 -0.017782683
000170 c1 3f 1b bd 70 76 7b 3e 4b 20 84 be 84 de e8 bd
       -0.037902597 0.24556899 -0.25805888 -0.113705665
000180 5f 02 0f 3e ad 27 7f 3d c5 7b e0 bb 92 f6 ef bd
       0.13965748 0.062293697 -0.006850692 -0.117169514
000190 a5 f9 89 3d cb f7 52 bc 52 cb 47 3d 54 76 da 3d
       0.06737069 -0.012876461 0.048777886 0.106671005
0001a0 4a ad f1 3d 27 6a 77 3d df 5c fc 3b fe 13 3a bd
       0.118006304 0.06040397 0.007701501 -0.045429222
0001b0 93 31 12 3e 74 b4 16 bd 38 88 95 bc 1c 71 04 3e
       0.14276724 -0.036793187 -0.01825343 0.12933773
0001c0 68 60 af bd 35 7f a7 bc d1 51 a7 bc 54 d7 1a be
       -0.0856331 -0.0204464 -0.020424755 -0.15121204
0001d0 ec ea b1 3d 15 30 75 3b c4 0c 54 bd 49 c7 bf bd
       0.08687386 0.0037412692 -0.051769987 -0.093641825
0001e0 f4 6f a7 ba 37 db 07 bd da de 0f bc 58 27 18 3c
       -0.0012774453 -0.033168044 -0.008781159 0.009286724
0001f0 7b 2c 15 3d a5 f6 6e 3d f4 17 cd bd 4c 43 1b 3d
       0.036419373 0.058340687 -0.10014334 0.037905976
000200 d8 f6 5e be 42 4e 27 bd 7a 07 a1 bd 70 eb 41 bd
       -0.21773851 -0.040846117 -0.07862754 -0.04734367
000210 2c 8d db 3b ba b7 9b 3d 95 85 e1 3d 85 21 02 3e
       0.0067001786 0.076034024 0.11011807 0.12708099
000220 28 68 22 bd d7 f4 24 3e 32 b8 90 bc 2e 12 3c 3d
       -0.039650112 0.16109024 -0.017665956 0.045915775
000230 32 74 e6 3c 6f 68 69 3d b8 53 54 bd 85 2d 00 3e
       0.028131578 0.05698436 -0.051837653 0.12517364
000240 fe da c1 3c ef 3c cb 3d ee 6f 58 3d cf 31 9a bc
       0.023663994 0.099237315 0.05284112 -0.018822579
000250 7d 38 fc 3d e7 20 fa bb 96 55 74 bd 34 38 f4 3d
       0.12315462 -0.007633317 -0.059651934 0.119247824
000260 3a 75 9b bc 21 45 4a 3c 72 70 dc 3d c4 fd b7 bc
       -0.018976796 0.012345583 0.10763635 -0.022459872
000270 c2 aa e2 3d e3 30 4c 3d 2a 89 81 be ac 39 ff bd
       0.11067726 0.04985131 -0.2529996 -0.12462172
000280 28 42 84 bd 0b 12 94 bd 51 0c 20 be b4 7b 89 bd
       -0.06457931 -0.07230004 -0.15629698 -0.067130476
000290 f7 d4 54 bd 35 f0 46 3c 6f 08 2a 3c 0b d3 6c 3d
       -0.05196091 0.012142231 0.010377987 0.057818454
0002a0 f0 eb 61 bd 50 c2 07 3e 75 56 91 3c 3c 41 68 be
       -0.05515665 0.13257718 0.017741421 -0.22681135
0002b0 70 bf df 3d a3 1d 89 3e 0a 33 79 bd 05 5d 26 3d
       0.10925186 0.26780424 -0.06083969 0.040616054
0002c0 23 bc 8c 3d 57 71 83 bd c4 54 87 3d 9a bc 15 3c
       0.06871822 -0.06418102 0.06607965 0.009139204
0002d0 6a 53 f8 bd 3c a5 9a 3d 08 d3 7c bc 69 fa aa 3c
       -0.12125285 0.07551047 -0.015431173 0.020871358
0002e0 a7 32 54 bd 4d b7 83 bd d9 0f d5 bd 8c c1 94 be
       -0.05180612 -0.06431446 -0.10403413 -0.29053915
0002f0 43 d5 5c 3c b1 75 ff 3d 3c 38 06 be 10 e3 04 3c
       0.01347858 0.1247362 -0.13107389 0.008110777
000300 f1 04 e6 bd ea 41 72 3d 53 dc c0 3d a2 ff 88 bd
       -0.11231411 0.05914489 0.094170235 -0.06689383
000310 a7 b9 b5 3c 3a 69 ab bc 2f 04 1a 3b fc 19 8e bc
       0.022183252 -0.0209242 0.0023501029 -0.017346375
000320 6b 04 d1 bc 16 3d 07 be a5 05 df be 77 ed fb 3d
       -0.025514802 -0.13206896 -0.43558994 0.12301152
000330 39 95 26 be b3 3e 39 3e 1a c9 1a be c0 01 f1 3d
       -0.16267861 0.18090324 -0.15115777 0.11767912
000340 a6 24 fe bc 87 10 dd 3d a7 dc e6 3c 7e 12 7d bc
       -0.031023335 0.10794168 0.028181387 -0.015446303
000350 3b 6f 07 3d fe 51 50 bd bf 32 63 bd e7 b3 16 3e
       0.033065062 -0.050859444 -0.055468317 0.14717065
000360 0b ff 94 bd 37 bd 95 bd 28 de 11 bd 82 56 06 be
       -0.07275208 -0.073114805 -0.035612255 -0.13118938
000370 52 0b 9b 3c 65 14 0f be d9 fd 69 be 70 16 10 be
       0.018926296 -0.13972624 -0.22850741 -0.14071059
000380 c8 46 3b 3d a9 ad b8 3c bc 14 84 3d 02 64 22 bd
       0.0457218 0.022543745 0.06449267 -0.039646156
000390 7f 87 29 be 8e 67 41 bc e1 85 3e be 8c 3d 65 3d
       -0.16555594 -0.0118044745 -0.18605758 0.0559669
0003a0 6c d3 48 3e e1 cc 6a 3d 2e b7 fb bd cf 54 76 be
       0.19611901 0.057324294 -0.12290798 -0.2405579
0003b0 4a 85 85 bc 3a 82 3d be af 9c 42 3d 60 88 07 3d
       -0.016298909 -0.18506709 0.047512706 0.03308904
0003c0 df ca f2 3d cb db ad bd 4d 4c 4d 3d 1d 09 3b be
       0.11855101 -0.08489188 0.050121594 -0.18265195
0003d0 83 d8 8b bd 73 c6 3e 3d 20 6b ae bd 2a 7d b7 bc
       -0.06828406 0.046575975 -0.08516526 -0.02239855
0003e0 e8 9d 18 3d d1 ba 4f be c8 16 bc bd df 5b 90 be
       0.037259966 -0.20286109 -0.09184033 -0.28195092
0003f0 c3 74 e4 3d 18 0d 46 3e 06 0d a3 bd 83 59 89 3c
       0.11155083 0.19340932 -0.079614684 0.016766315

layer.4.bias f4 [128]
000000 c1 3a 27 bd f4 ef bf bc ec 31 42 3d 89 32 52 3d
       -0.040827516 -0.023429848 0.04741089 0.051317725
000010 89 d6 13 3e 1f 58 02 3e 85 bc 39 3e 07 1e d3 bd
       0.14437307 0.12728928 0.1813832 -0.10308462
000020 7c 6a 80 bc 80 a6 a9 3c 5a 71 d9 3c 57 36 e8 3d
       -0.015675776 0.020709276 0.026543308 0.113384895
000030 fa 0a 98 bd 04 9a 77 3d 25 de 19 3e 01 f0 66 3d
       -0.074239686 0.060449615 0.15026148 0.05638123
000040 b9 3e 22 bc 60 5f 7d 3d 32 38 05 3e a1 9e 82 bc
       -0.00990265 0.061858535 0.13009718 -0.01594478
000050 20 4a 36 3e 5e 6d 20 3e 87 b4 4a bd c7 2a 05 be
       0.17801714 0.1566672 -0.04948857 -0.130046
000060 65 16 94 3d e9 9b a9 3c 7b 64 db 3d 80 b1 83 3d
       0.07230834 0.020704227 0.107125245 0.0643034
000070 6a 3b d7 bd fb 29 f1 3b 56 8e 9b 3d 2e 8f ca bd
       -0.10509379 0.007359741 0.07595508 -0.098905906
000080 18 ad 5f bd 9f 38 5e bd 11 e0 ef bc 82 3c b6 3d
       -0.054608434 -0.054253217 -0.029281648 0.0889826
000090 17 db df 3d c9 9c 65 3d 4e 46 7e bd ba ac 30 3d
       0.1093046 0.056057725 -0.062078767 0.043133475
0000a0 02 fc a1 3d ee 0c fb bb c8 f8 9d 3c 5c c8 44 3e
       0.07909395 -0.0076614534 0.019283667 0.19217056
0000b0 31 b4 1d 3e 01 fa 3e bd 42 1a d5 3d 5f 04 88 3c
       0.15400769 -0.04662514 0.10405399 0.016603647
0000c0 f1 5c 46 bd 56 fc 3e 3e ee 63 b6 bd 13 19 84 3c
       -0.04842848 0.18650946 -0.08905779 0.016125238
0000d0 b0 63 42 3d 2d 44 5a 3c 7c 66 0e 3d de cd 11 bd
       0.04745835 0.013321918 0.034765705 -0.03559672
0000e0 f1 85 8d bd 08 d9 79 3d 76 6c 72 3e 76 ac 0b 3d
       -0.06910313 0.060997993 0.23674187 0.03410002
0000f0 29 1d 8a 3d ed 29 49 bc 82 85 56 bc fe 22 c1 bd
       0.06743843 -0.012278062 -0.013093354 -0.09430502
000100 34 2f 48 3d 01 84 f1 3c ad e5 d4 3d f2 0b b3 3d
       0.04887314 0.02948189 0.1039537 0.08742513
000110 e9 bd f0 3c da fa 7e bc 04 4a 21 3e 98 f2 da bd
       0.029387431 -0.015562737 0.15750891 -0.10690802
000120 8e 20 24 3e 1e ea ae 3d 66 34 98 bd 81 99 5e bd
       0.16028044 0.08540748 -0.07431869 -0.05434561
000130 49 09 a5 3d d2 57 34 3e b2 26 c1 3b c3 52 8c bc
       0.08058412 0.17611626 0.0058945054 -0.017129308
000140 6c 7c 30 bd 27 3c ab bc 4a 3b 69 bd 59 5f 52 3d
       -0.043087408 -0.020902706 -0.056941308 0.05136046
000150 27 52 2f bd d9 19 91 3d 8e 47 0a be 9a 6d 47 3d
       -0.042802956 0.07085008 -0.13503858 0.04868851
000160 fd a8 12 bd 93 8d 9b bd c4 a3 48 bd 1b 02 05 3e
       -0.03580569 -0.075953625 -0.048984304 0.12989084
000170 1d 11 20 3e 9f ad e1 3d 69 e5 ac 3d 37 a2 87 3c
       0.15631528 0.11019444 0.08442194 0.016556842
000180 06 e1 9f bc 3f 1a c4 ba b1 5a 0f be 8a 08 93 bd
       -0.01951648 -0.0014961435 -0.1399944 -0.07179363
000190 64 8a d4 bd 42 14 d5 3d 2e 51 82 bd d9 d9 20 bd
       -0.103779584 0.104042545 -0.0636314 -0.039270256
0001a0 ce 3a ce 3d f0 3a 84 bd ad f1 e6 3d 01 64 7f b9
       0.1006981 -0.06456554 0.11276565 -0.0002435595
0001b0 c7 6b a7 3d 8b 4b 1d be b9 ce f4 bd bd 9a 6d 3d
       0.08174854 -0.15360849 -0.11953492 0.058008898
0001c0 e2 30 a6 3c 93 28 d4 3d 1f 48 01 be f3 b4 eb 3d
       0.020286981 0.103593014 -0.12625168 0.11509123
0001d0 4e 60 da 3d 83 2c a3 3d 5d dc 2b 3d 20 aa 96 3d
       0.106629 0.07967474 0.0419582 0.073566675
0001e0 5b 9f db 3d a7 a1 5d 3d 8a d8 7d be 82 f0 cb bb
       0.10723754 0.05410924 -0.24789634 -0.006223739
0001f0 ca b4 e6 3d 9b 73 4a 3e 2c ac 78 3d 10 58 f9 bc
       0.112649515 0.19770662 0.06071107 -0.0304375

layer.6.weight f4 [8, 128]
000000 98 c7 94 bc cd a1 9a bc e9 4c 41 bd f9 e6 bf 3c
       -0.01816158 -0.01887598 -0.047192488 0.023425566
000010 c9 5b 00 bd 21 55 f2 bc 51 69 96 3d 43 17 0d bc
       -0.031337533 -0.029581608 0.07344306 -0.008611503
000020 7e b5 13 3c 8a 2c 66 bd aa e8 8f bc 2a 27 58 bd
       0.009015439 -0.05619482 -0.017566998 -0.052771725
000030 9f 9a 59 bc 24 f3 d6 3c a3 cc 26 3d 1e a6 44 3c
       -0.013281493 0.026238985 0.0407225 0.012002496
000040 d2 1e 21 3d 0b 79 29 3d 38 58 ba 3d d4 7a fb 3c
       0.039336033 0.0413752 0.09098858 0.030698217
000050 83 da f4 3c 51 fa 8b 3d 88 12 e1 ba e5 1f c4 bb
       0.02988935 0.068348534 -0.001717166 -0.0059852474
000060 21 5b fa b9 f2 5e eb 3c 47 2c 7d 3d 65 4b 80 ba
       -0.00047751612 0.028731797 0.061809804 -0.0009788094
000070 26 71 51 3d 69 a4 be bd 9a 46 8a bd 58 a1 23 bd
       0.051133297 -0.093087025 -0.067517474 -0.03994879
000080 62 dd a1 bd d6 4e 0b 3d 8e f5 04 bd 79 b1 b2 3b
       -0.079035535 0.03401073 -0.03246074 0.0054532853
000090 21 30 13 bd 03 ab a9 bc a0 b8 a5 3c 8d a5 15 3c
       -0.03593457 -0.020711428 0.020229638 0.009133709
0000a0 70 aa 08 bc 3a 1e c7 bb c0 a5 df bc f1 be a8 3c
       -0.008341417 -0.0060766013 -0.027300715 0.02059886
0000b0 84 0b 99 bc 4a 59 9f bc 81 4b b5 3c 75 c0 23 bd
       -0.018682249 -0.019451756 0.02213073 -0.039978463
0000c0 b8 bd 65 3d cd 39 ac 3d ba 8d 90 bd 67 9f 85 bd
       0.056089133 0.08409462 -0.07058282 -0.06524544
0000d0 50 bc a3 3d 3a 51 24 bd 51 34 06 3c 61 14 83 3d
       0.07994902 -0.040116526 0.008191184 0.06400371
0000e0 14 eb ff bc be ae 1c bd 77 82 30 3c c9 98 ac 3c
       -0.031240024 -0.038252585 0.010773293 0.021068947
0000f0 1b d4 dc bc bb 82 86 bc 35 e4 26 bd 32 4a 3b 3d
       -0.026956609 -0.016419759 -0.04074498 0.045725055
000100 bf 68 22 3d 5d 98 88 3d ab ff 22 3d ca 2a 1f 3d
       0.039650675 0.06669686 0.039794605 0.038859166
000110 50 b1 3f 3d 1b 55 1b bd e9 99 60 3c 9a 60 6b 3d
       0.046799958 -0.03792296 0.01370857 0.057465173
000120 eb 0c aa bc d2 07 77 3c cd ca a6 bd 6a a4 73 bc
       -0.020758113 0.015077548 -0.0814415 -0.014870742
000130 9e 72 ac 3c 4a f8 87 bd 68 69 c6 bb 68 fe b1 3b
       0.021050747 -0.06639154 -0.006055046 0.005431939
000140 84 29 1c 3d 34 ec 4f 3d 22 92 45 bd bb b5 86 bd
       0.03812553 0.05076237 -0.048235066 -0.06577631
000150 2e ca c7 3c c6 fa 0a bd 0c c7 19 bd 46 8f 2a 3c
       0.024388399 -0.033930562 -0.03754334 0.010410136
000160 09 d4 02 3d 48 43 8b 3c 0a a8 df ba cd 9a 0a bd
       0.031940494 0.016999856 -0.0017063629 -0.033839036
000170 19 71 4d bc 44 0d 91 bb c7 a9 d4 bb 76 36 8f bc
       -0.012539172 -0.00442663 -0.0064899656 -0.017482024
000180 2e 9f ed 3c 62 b8 05 bd 74 f6 13 3d 36 72 66 3b
       0.029006567 -0.032646544 0.036123708 0.003516329
000190 a8 6f 40 3c 05 66 c9 bd d6 50 5a 3c 73 0e 56 bc
       0.011745371 -0.09833912 0.013324937 -0.013064968
0001a0 24 3d 5e 3c a4 75 12 bd 3c 70 27 3b 8b 55 59 3d
       0.013564382 -0.035756722 0.0025549075 0.053060096
0001b0 09 7d 7a bb 92 73 14 3b f2 a7 09 bd 2b 35 94 3c
       -0.00382215 0.0022651893 -0.03360743 0.018091759
0001c0 2f 28 e9 3c 17 80 eb 3c 8b c3 3f bb 04 d7 1b bc
       0.028461544 0.028747601 -0.002926084 -0.009511713
0001d0 92 51 42 bc c7 31 cf 3d de 48 4c 3d 47 b8 14 bd
       -0.011860268 0.10116916 0.04987418 -0.036308553
0001e0 a7 e6 05 3d 32 6e 34 bd 4f a0 04 3d 38 78 d3 3b
       0.03269067 -0.044050403 0.032379445 0.00645354
0001f0 70 88 5b 3c 2d ce 0b 3d b8 de 39 3c 39 06 0c 3d
       0.013399228 0.03413217 0.011344604 0.034185622
000200 d9 b2 2f bc 41 3b d4 ba 19 ca 38 bd df a3 43 bc
       -0.010723793 -0.0016191975 -0.04511461 -0.011940925
000210 b9 8c 3a 3d eb 02 f5 ba 4a b6 a9 3d b9 54 83 3d
       0.04554436 -0.0018692886 0.08286722 0.06412644
000220 c7 9f 97 3b 75 52 7e 3c 91 fe 29 3d e0 f2 c6 bc
       0.0046272012 0.015522589 0.04150254 -0.024285734
000230 a0 8e 08 3d ed 7d ee 3c e1 dd 57 3d 8a 79 fc bc
       0.033339143 0.02911278 0.052701835 -0.030819673
000240 c4 a6 36 3d a1 77 d1 bc f2 54 f2 bb bc 14 35 3d
       0.044592634 -0.025569739 -0.00739538 0.044209227
000250 ce 52 2c 3c 92 c1 9f 3d d9 7a 66 bd f4 da 4f bd
       0.010517789 0.078005925 -0.0562695 -0.05074592
000260 76 a7 3d bd 7f 30 66 3c ab 3d 8a 3b eb 21 73 bc
       -0.04630228 0.014049648 0.004218777 -0.01483963
000270 61 a9 a4 3c cd 72 fd bc 60 bc 03 3d dc 2d ce bc
       0.020100297 -0.03093853 0.03216207 -0.025168352
000280 e9 ce 81 3d b5 5b b4 3c 59 96 2f 3d 07 e0 10 bd
       0.06338293 0.022016386 0.042867992 -0.0353699
000290 3d 07 0f bd 8f eb b8 3c e0 c2 d8 3c 12 7a b4 3c
       -0.034919012 0.02257326 0.026460111 0.022030864
0002a0 f4 f4 9c 3c 50 b3 42 bd 08 be 55 bc c7 b3 20 3d
       0.019159772 -0.047534287 -0.013045795 0.03923395
0002b0 62 d7 93 ba 50 93 eb 3c 4a af 9b 3c 70 b2 14 bd
       -0.0011279399 0.028756768 0.019004483 -0.036302984
0002c0 1b 80 3f ba 0a 5c 0c 3d 71 e7 b1 3d 9b 83 e5 bc
       -0.0007305161 0.034267463 0.08686722 -0.028016856
0002d0 8f 08 81 bc 37 93 fc bc b5 fa 1c 3d 02 56 2c 3c
       -0.015751151 -0.030831916 0.03832503 0.010518553
0002e0 6a a1 19 bc eb c5 a6 3b b4 da 98 bc 9e 8c a5 3c
       -0.009376863 0.0050895116 -0.018658973 0.020208653
0002f0 84 f2 2d bc 4d 89 7f bd 7c 42 1b 3b 29 75 63 bb
       -0.010616902 -0.0623868 0.002369075 -0.0034707284
000300 58 3a 76 3b 9a 23 b3 bc ce 15 23 3d b0 48 0e 3d
       0.0037571397 -0.021867562 0.039815716 0.03473729
000310 dc 8f ed bc a4 86 9d 3c 9e 38 4b 3a 46 a1 73 3d
       -0.028999262 0.01922924 0.0007752272 0.059479974
000320 4e f8 39 bd 25 77 ab bc f5 1c 3f bd aa 14 98 3c
       -0.045402817 -0.020930836 -0.046658475 0.01856454
000330 03 48 27 bd 57 12 00 3d c0 cd 0c bc 47 99 16 3d
       -0.04084016 0.03126749 -0.0085939765 0.03676727
000340 e9 3d a1 bd ae b2 08 b9 3b 37 56 3a 4e 20 cf bc
       -0.078731366 -0.00013036534 0.0008171682 -0.025283959
000350 3d 69 99 3c db f3 29 bd 4c 54 b9 3c 50 cb c4 3c
       0.01872694 -0.041492324 0.022623204 0.024022728
000360 18 ba ff bc 43 e2 0f bd 5b 02 d8 bc 78 8b bf 3c
       -0.031216666 -0.03512789 -0.02636831 0.023381934
000370 46 c2 07 3d 58 2b 3a bd 33 c4 db 3c 48 24 9d bc
       0.033144258 -0.045451492 0.026826954 -0.01918234
000380 74 4d 5e 3c a5 b0 90 3c 94 75 2d bd 79 3d e7 ba
       0.013568271 0.017662356 -0.04234846 -0.0017642222
000390 6d 6a e9 3c c7 f2 a2 bc c6 16 01 bd 4f 9c 20 bd
       0.02849313 -0.019891156 -0.03151586 -0.039211567
0003a0 ed ef d2 bc ce dd 08 bd b1 44 a8 bc bc eb 89 3c
       -0.025749171 -0.033414654 -0.020540567 0.01683604
0003b0 e6 a9 e1 bb b9 a7 12 bc b7 c2 ec bc ef 90 dd bb
       -0.0068867086 -0.008951121 -0.028901441 -0.006761662
0003c0 21 ef 70 3c 54 00 66 bb 5b 72 38 3d 10 69 0d bc
       0.01470545 -0.003509541 0.045030933 -0.008631006
0003d0 90 5f 9f 3c 66 70 91 3d 70 25 99 bb 38 10 32 bc
       0.019454747 0.071015164 -0.0046736524 -0.010868125
0003e0 90 1b 16 bd 5f 2c b9 3c c9 51 9c bb 64 5d 9f 3b
       -0.03664738 0.022604166 -0.0047704917 0.004863428
0003f0 bc f9 10 3d 87 9a 9c 3c d4 5d 9f 3b 3c 4b 04 ba
       0.035394415 0.019116653 0.00486348 -0.0005046611

layer.6.bias f4 [8]
000000 51 c9 06 bd 48 10 4f bd 33 08 5a bd 94 28 c3 bc
       -0.032906834 -0.050552636 -0.053230476 -0.02382306
000010 d7 ba a7 3d 93 f2 e1 3d 4d a7 3e bd ed f8 7d bc
       0.08189934 0.110325955 -0.04654627 -0.015501243
