final/save/1l_0.95_200_morelayer/save2_15000.pth (torch_old, 50952 bytes, 8 tensors)

layer.0.weight f4 [32, 28]
00000000: 9190 e33d 6578 e1bb 1fb7 0c3e dd93 d93d
00000010: b042 b0bb dde2 74bb 188f 2bbe 9e23 3b3e
00000020: b1df 0a3e ebcb a4bc 6042 ccbd 6586 1cbc
00000030: fe0a 103e e769 393e 444c 983d 4082 813e
00000040: d9ce f33c aed5 343e 6514 80be 685b a1bd
00000050: 03d5 043e 0340 11be 96bc 5ebe 74f6 5f3d
00000060: cb9a af3c 471d 35bd f69d c7bc e7a5 89bd
00000070: 1bd0 dcbd 86fe 663e 032d 64bd 03fa 07bd
00000080: 932e 103e 6ce9 4b3e aada 4f3e bb81 193e
00000090: 365b b5bd 8e23 473e 4b7b c53c 09f6 253d
000000a0: c181 02bd a779 8bbd 2958 5d3e 9121 293a
000000b0: 6346 2e3e 7569 033e 4f33 b4bd 3c6d 82bd
000000c0: 4382 183d 82e1 2fbe b272 173d 6d26 d5bc
000000d0: 76c7 b8bc 5eae 933d 2ec0 b6bd 7f6c 833d
000000e0: 155b 9e3e c6bc 243e 8037 683d 09ca 913e
000000f0: f378 863e cdcc 0d3d a9cd edbd b146 65bd
00000100: 25da 1c3d e530 d6bd 28df f73c cc7c b2bd
00000110: 47c1 d83c 1cf4 04be e7fb 29be 6934 c43d
00000120: 03b7 1abe 2694 0b3d 1b0f 25bd f924 cebd
00000130: e71e 8f3d 9c93 c9bd 7a7b 4d3c 3ccf bc3d
00000140: ff87 34bd 2dcb 92bd 0173 1e3d 5407 7a3d
00000150: 84af 68bd 7222 debb 0a1c 393e 412c 453e
00000160: 7914 2a3c fa12 d63c 74bb a63a 4ca7 0abe
00000170: 10b5 603e 800b 65be d701 3cbe c78c 88be
00000180: 3740 b33e 2cbd 233e 65be 1c3d 0aba 793e
00000190: dc51 9b3a 632f 603e 7d95 01be 3eb2 0ebe
000001a0: f0ca bbbd bb11 07be e9d2 9dbc 9630 00be
000001b0: 38a7 c63d 0f60 d83d 53e7 8a3d 79a6 b93d
000001c0: cf5f bdbd 796b ff3d 92b9 fb3d 7c77 253e
000001d0: ac2e e6bd 4228 0dbe b93d 76be 474e 5dbe
000001e0: d1b6 d2bd bd84 20bd 9db2 0bbe 9198 3a3e
000001f0: 8775 9c3e 0dc5 0b3e fc82 0a3e 0a15 8d3c
00000200: 2f82 fc3d 2eed 29be 9de6 493d 2886 35be
00000210: c179 2abe d9c9 253e 92f8 0cbd a1af 86bd
00000220: 247f 063d 1e31 39bb b45b ca3d 831c e13d
00000230: c376 bd3d 3999 57bd 2aae 143e 6333 0f3e
00000240: aae4 833c 97f6 2d3e a572 23bd 5973 c93d
00000250: 7528 613e 50d7 723d 2551 663e b953 713d
00000260: 7f15 e33b f383 113d 5b73 013c 66e9 f1bd
00000270: 17bf 143d 24b6 af3e 090e 50bc 0503 8a3d
00000280: 5767 af3e 0333 a0bc 7784 463e f3b1 8f3e
00000290: 2742 f039 2358 9bbc 9da7 053c e3a0 6a3d
000002a0: 3a68 c33d cc11 db3d 7a6c ee3d 6ac0 f8bd
000002b0: 12a2 2a3d 493b 903e 9ce8 0dbd 2418 acbd
000002c0: 521d 503e 4fcf 52be 7579 b7bc d4d4 5c3d
000002d0: b71b 603e d37c 2d3d 4c7d bc3d ee5d 3bbd
000002e0: b3f2 303e af2f 113e 8317 413e 6343 2c3d
000002f0: e9fc 0bbc ab31 c03d f0ba 2abd 8096 4b3c
00000300: dd1c adbd 7c37 e73d 00bd 703c 76d7 593d
00000310: 9b46 35bd 1fd0 dcbd e55d fdbd 13b3 c2bd
00000320: 682c 143d fa22 cfbc 7941 23be d76d fb3c
00000330: 35b9 3c3e ebda cabd 33bb 103e f506 af3d
00000340: e107 9fbd de8a e4bd f7a0 0fbe e525 0f3d
00000350: a8fd 493c 507f 3f3e 9792 153e 8b0b 6c3e
00000360: 4c19 1d3e 4944 aa3e bd4c bb3d c2ac cabd
00000370: f129 bc3d 4274 84bd 3a3d e73c 5cc1 173e
00000380: e133 b4bd 11b5 c5bb 57f9 903e b7c2 573d
00000390: e9e5 023e f4f7 893e 2eeb ccbb 22d9 453c
000003a0: 2205 70bd 7ad1 d93d 2e81 dfbd b3a9 3d3e
000003b0: fbbd 7e3d f536 f33d 25dd 843d 8b0d 473d
000003c0: 180b d93d bd6d e2bc 5d29 4a3e b648 563c
000003d0: 2be4 313e c153 3b3e c268 343e f9b1 b53e
000003e0: 3983 783d 634f 90bb c0c1 fabd 454e 9a3b
000003f0: 9d80 843d 5e22 453e 9dfc 83bc f26f 3bbe
0.11111558 -0.006880807 0.1374173 0.10623906 -0.0053790435 -0.0037366666 -0.16753805 0.18275306
0.13561894 -0.020116767 -0.099735975 -0.0095535265 0.14066693 0.18106805 0.074364215 0.25294685
0.029761719 0.17659637 -0.2501556 -0.078787625 0.12971883 -0.14184575 -0.21751627 0.054678395
0.021436116 -0.044217374 -0.024367314 -0.067210965 -0.107818805 0.2255803 -0.05570699 -0.033197414
0.14080267 0.19913262 0.20298257 0.14990894 -0.08855288 0.19447157 0.024106642 0.04051784
-0.031862024 -0.06810313 0.21615662 0.000645184 0.17019038 0.12833197 -0.08798849 -0.06368491
0.037233602 -0.17175868 0.036974616 -0.0260193 -0.022556048 0.07210992 -0.08923374 0.06417178
0.30928865 0.16087636 0.056693554 0.28474453 0.26264152 0.03461914 -0.11611492 -0.05597562
0.038293976 -0.10458545 0.030257776 -0.08715209 0.02645935 -0.12983745 -0.166 0.09580309
-0.15108876 0.034076832 -0.04029761 -0.10065646 0.06988316 -0.098426074 0.012541646 0.09219214
-0.04407501 -0.07167659 0.038683895 0.061042145 -0.05680801 -0.0067790085 0.18077102 0.19255163
0.010380858 0.026132096 0.001272066 -0.13540381 0.2194407 -0.22367668 -0.18360077 -0.26669905
0.3500993 0.15990132 0.038267512 0.24387375 0.0011849958 0.21893077 -0.12654682 -0.13935181
-0.09169567 -0.13190357 -0.019265609 -0.12518534 0.09699863 0.10565197 0.06782403 0.09064955
-0.0924679 0.12471671 0.12291254 0.16158861 -0.11239371 -0.13784888 -0.24046983 -0.21611892
-0.10288776 -0.03918909 -0.13642354 0.18222262 0.30558416 0.13649388 0.13526529 0.017221946
0.12329518 -0.16594383 0.049292196 -0.17726958 -0.16648008 0.1619028 -0.034416743 -0.06576467
0.032836094 -0.0028258036 0.09880772 0.10991766 0.092511676 -0.05263636 0.14519563 0.13984446
0.016100246 0.16988598 -0.039904255 0.09836454 0.2198809 0.05928737 0.22491892 0.058917735
0.006930053 0.035526227 0.007901038 -0.11812095 0.03631505 0.3431865 -0.012698659 0.06738857
0.3425853 -0.019555574 0.19386469 0.28065452 0.00045825655 -0.018962925 0.008157638 0.05728234
0.09541364 0.10696754 0.11641784 -0.12146075 0.04165847 0.2817023 -0.03464566 -0.08403042
0.20323685 -0.20586894 -0.022396782 0.053913906 0.21885572 0.04235537 0.09203586 -0.045743875
0.17280082 0.14178346 0.18856625 0.042056452 -0.008544185 0.093844734 -0.041682184 0.012426019
-0.08452771 0.1128988 0.014693499 0.053183995 -0.044256788 -0.107818834 -0.123714246 -0.09506812
0.03617516 -0.025285233 -0.15942945 0.030692024 0.18430026 -0.099050365 0.14133911 0.08546249
-0.07765175 -0.11159299 -0.14026247 0.03494825 0.012328543 0.1870091 0.14606701 0.23051278
0.15341681 0.33255222 0.09145496 -0.09896232 0.09187687 -0.06467487 0.028227437 0.14819854
-0.087989576 -0.0060335477 0.2831523 0.05267593 0.12783016 0.26946986 -0.0062536215 0.012075694
-0.058598645 0.106356576 -0.10913311 0.18521766 0.0621929 0.118757166 0.064874925 0.0485969
0.10597819 -0.027640218 0.19742341 0.013078859 0.17372195 0.18293668 0.17618087 0.35487345
0.06067202 -0.004403995 -0.12243986 0.0047090375 0.064698435 0.19251391 -0.016111666 -0.18304422

layer.0.bias f4 [32]
00000000: 8622 3bbd dec8 9b3d 7dae 7d3d c5b0 083c
00000010: 6918 ca3d 11b6 353e d29e 0abb 2092 3ebe
00000020: 9f7d 803e af40 34be ef6b ce3d f1b9 663b
00000030: 9be2 b23e 1574 353e 5152 c7bd 96ce 67bd
00000040: 69b3 a53e 2333 37bc 7374 f63d 4253 3d3e
00000050: 4a76 3c3d 16f3 2bbe ad39 97bd 3509 7fbc
00000060: b317 45be 539c a03d 971f fcbc 0675 3e3d
00000070: 6fef 26be c5db d03d 07a0 61bd 0af1 9d3d
-0.04568722 0.07606672 0.061933983 0.008342926 0.09867937 0.17745234 -0.0021151793 -0.1861043
0.2509584 -0.176028 0.100791804 0.0035206045 0.3493851 0.17720063 -0.097324975 -0.0565935
0.32363442 -0.011181626 0.1203393 0.18488792 0.046011247 -0.16791949 -0.07384048 -0.01556616
-0.19247322 0.078423165 -0.030776782 0.04649832 -0.16302274 0.10198168 -0.055084255 0.0771199

layer.2.weight f4 [64, 32]
00000000: 7802 86be 7485 0c3d 46ef e3be af8b 01be
00000010: ccbb afbd 531e 5dbb dfbe 273e dba1 3a3e
00000020: 6e2e 0b3e 763c 843d 914b 8c3d 182f 5abe
00000030: 2212 0f3e 9c01 353d 2753 44be 6e06 b4bd
00000040: 233a abbd 318e b4bd 18c7 2bbe 9571 5f3d
00000050: 9b83 82bd 7a4b 42be f4bf 1ebf 1e7e 0ebe
00000060: 0086 30be edae f93d 07aa a83d 3128 d83d
00000070: 1613 5d3e b7f3 983b 5868 5bbd f1e0 bfbd
00000080: 8fcf ba3c dc0e d1bc 90d7 513e d0f8 2a3e
00000090: 7946 153e 5402 57bd ccdc 38bd 3180 73be
000000a0: 98cc c93d efdb 51bd 1975 02bd 0363 183e
000000b0: 340d 2a3e a3fa 01be a94d 6e3d 85a6 413d
000000c0: 95d0 0bbe 6e35 fcbd da41 6b3e c42f 83be
000000d0: de86 963b a9db 2d3e a403 f43d cf92 d9bc
000000e0: 9b3e 903e d103 bdbd f8d6 5c3d 45ee a1bd
000000f0: 1349 34be b328 b83d 3dc0 7fbe ae94 1c3d
00000100: 9896 023e bef6 9d3d 93b5 7a3e cc66 223e
00000110: 1f72 ec3d 7a40 1f3d 99c6 6abd 4a78 123e
00000120: 22f4 62bd 1bfe 4e3e ea53 3cbe c899 f83c
00000130: 4123 3dbd 04e4 b93c 461f 533e 3909 4f3e
00000140: a016 0d3e eecc 0ebe 9c85 2c3e 78e1 613c
00000150: 21d8 34be 5cc7 bd3d 9a2f 163e 4111 193e
00000160: 6dfa d33d ca26 00be 8659 d43d 8b9c 343e
00000170: 1c54 c53d a413 383e d2c6 19be 2a15 8d3c
00000180: 052d 5ebd 2e52 623d 50a1 a9bd 6de1 133e
00000190: 2407 0abe b6fd 713e 4666 823d 93e7 5bbc
000001a0: d479 b8bd 4996 b4bb fefd 423e 008a a7bc
000001b0: 8743 643e 42ad 6abd f322 e1bd 6006 ecbc
000001c0: adc5 fb3c 5232 ef3d 28a2 22bd 3237 1bbe
000001d0: ca03 263e ec7f 56bd 3bf4 5b3c 8859 afbd
000001e0: d8c3 0fbe 0697 0e3d 3626 09bd ca65 2abc
000001f0: 8773 b2bd 0fba 0e3e e412 45bd 5005 9f3c
00000200: 14e3 66bd 475d 113d ed2b eebc d761 2fbe
00000210: 6f27 763d 6a16 70be 21fa 143e e437 1bbe
00000220: 1004 ccbb 4486 403e 9cb9 28be a2ac 2a3e
00000230: 7f79 32be f285 773e be09 863b e52e e73c
00000240: 03ff 38be 7cc6 51bd 6fe8 623d 9cd9 afbc
00000250: 5496 5bbc b7ca ce3b 50b5 39be ea8d 16be
00000260: 3a36 733d c719 cdbd 30d5 033e dc4f 853d
00000270: ec78 453d 023f 193e b580 f13d 7a02 4cbd
00000280: 191b df3d 9602 bebc 521f d03e 31b0 adbc
00000290: 9d2f b9bd 2a2b 253e 0773 90bd 7dbd 7bbe
000002a0: 66c2 173d adde c0bb 2ce3 cfbd 7061 2e3e
000002b0: cee7 93bd 0dc2 74be fe5d 463e 834b 143d
000002c0: 4564 263d be1f ff3d ac2d dc3c 4ef3 8f3d
000002d0: 6b2b cd3d 3b2b 803d 0898 d43e e548 103d
000002e0: 53e0 dc3d a817 1cbe eadc 9e3d b2bc 93be
000002f0: bb12 94be 6e2c 02be 10ee 733e d0af 163e
00000300: d127 58be 4899 18be 3dfd 10bd f25b 7fbe
00000310: 15e2 5cbe bacc ea3d 2d98 abbd 8f28 1f3e
00000320: 76a1 1e3e b0df a33d 59aa 723d d21e 0e3e
00000330: bc96 753d b871 33bb 78ff babd dd09 b8bd
00000340: 1fde 8f3d 6430 583e 5a16 d3bd 6e50 5c3e
00000350: 4977 9e3d eabf c5bd e22a c4bd 3850 bcbc
00000360: 7213 2fbe 3bd1 373e d6e3 aebc e31b 0ebd
00000370: 4d7e 7b3d 47c3 3b3d 2439 223e eb90 dbbc
00000380: d04b a1be ec8c 223c b46b 703e ef99 98be
00000390: 0003 febd 66e4 533c 67d4 fdbd 88d4 02be
000003a0: ea55 e33b b713 a8bd b7fc 5e3d 5616 503d
000003b0: 646d 0cbd 5838 09be f78a 33be 7a4d 80be
000003c0: 7ffc 1bbe fc8d 103e b471 903d 5f76 bf3d
000003d0: cbe4 e03d 741c a63c c033 783e 2c37 183d
000003e0: d08e 2abe 3d27 203e 4367 07be 4d49 f7be
000003f0: 7d26 babe 00f6 0b3e 3a6c 523e 3384 ff3d
-0.26173759 0.03430696 -0.4451849 -0.12650941 -0.08580741 -0.0033739998 0.16381405 0.18225805
0.1359193 0.064568445 0.06850351 -0.21307027 0.13971761 0.044190988 -0.19172345 -0.08790289
-0.08360698 -0.08816183 -0.16775167 0.05455168 -0.06372758 -0.18974105 -0.6201165 -0.13915297
-0.17238617 0.121915676 0.08235555 0.10554541 0.21589312 0.004667725 -0.053566307 -0.09369076
0.02280405 -0.02551978 0.20492387 0.16696477 0.14577664 -0.052492455 -0.045132443 -0.2377937
0.09853476 -0.051235136 -0.031849954 0.1488152 0.16606599 -0.12693267 0.05817953 0.047277946
-0.13653786 -0.123148784 0.22974339 -0.2562238 0.004593714 0.16978325 0.11914757 -0.026559262
0.28172764 -0.092292435 0.053915948 -0.079067744 -0.17606 0.08992138 -0.24975677 0.03822773
0.1275276 0.07713078 0.24483328 0.15859526 0.11545204 0.03887985 -0.057318304 0.14303699
-0.055408604 0.20214121 -0.18391386 0.030346766 -0.0461762 0.022691734 0.20617399 0.20218362
0.13778162 -0.13945362 0.16847843 0.013786666 -0.17660572 0.092665404 0.14666596 0.14947988
0.10350499 -0.12514797 0.10368638 0.17637841 0.09635183 0.17976242 -0.1501725 0.017222006
-0.054242153 0.055254154 -0.08282721 0.14441462 -0.13479286 0.2363194 0.06367163 -0.013421911
-0.09007612 -0.0055110794 0.19042203 -0.020451546 0.22291385 -0.057294138 -0.10992994 -0.028811634
0.030733908 0.1167952 -0.039705426 -0.15157774 0.16212383 -0.05236809 0.013424928 -0.085619986
-0.14039552 0.034811996 -0.033483706 -0.010400245 -0.08713441 0.13938163 -0.04811372 0.019411713
-0.056368902 0.035489347 -0.02907368 -0.17127167 0.0600962 -0.2344605 0.14548542 -0.1515804
-0.00622607 0.18801218 -0.16477054 0.16667417 -0.1742916 0.2417219 0.004090517 0.028220603
-0.18066029 -0.05121468 0.055397447 -0.021466069 -0.01340254 0.0063107866 -0.18135571 -0.14702573
0.059377886 -0.10014682 0.12874293 0.065093726 0.048211023 0.14965442 0.11792127 -0.04980705
0.1089384 -0.023194592 0.40648896 -0.021202179 -0.09042285 0.16129747 -0.0705319 -0.24584003
0.037050627 -0.00588592 -0.101507515 0.17029357 -0.072219476 -0.2390215 0.19371793 0.036204826
0.04062297 0.12457226 0.026877247 0.070288286 0.10018047 0.062582456 0.4152224 0.035225768
0.10784974 -0.15243399 0.0775698 -0.288549 -0.2892054 -0.12712261 0.23821282 0.14715505
-0.21108939 -0.14902222 -0.035397757 -0.24937418 -0.21570618 0.1146483 -0.083786346 0.15542816
0.1549128 0.080016494 0.059244487 0.13878945 0.059958205 -0.0027381014 -0.09130758 -0.08986256
0.07024788 0.2111221 -0.103069976 0.21515056 0.077375956 -0.09655745 -0.09578492 -0.02298747
-0.17097262 0.17950909 -0.021348875 -0.034694564 0.061399747 0.045840528 0.1584211 -0.0268025
-0.31503153 0.009921294 0.23478585 -0.29804942 -0.12402916 0.012932872 -0.12394028 -0.12776387
0.006937732 -0.08206885 0.054440226 0.05080255 -0.03428401 -0.134004 -0.1753348 -0.2505911
-0.15233038 0.14116663 0.07052937 0.09348749 0.10981139 0.02027724 0.24238491 0.03716199
-0.16656041 0.15639968 -0.13222985 -0.48298112 -0.3635749 0.1366806 0.20549098 0.12476387

layer.2.bias f4 [64]
00000000: 6ab0 9dbd 0470 3f3d a5ed 79be 23f7 043f
00000010: 98a6 2dbe 59cf c33c 3905 e23e 6c94 9d3b
00000020: 9e88 e33e 441e 86bd 9bee b1bd 56d9 da3e
00000030: 2f2c 9a3d 9fcb 013d 0d69 79bd 41f1 c2bd
00000040: 8aa4 c33d 4389 59be 1be8 b9bb 3e93 dc3c
00000050: b27e d43c 3e35 6c3e 5155 5e3d 59aa 033e
00000060: 2538 a33e 3b5e 133d 897f 8cbe 1b38 16be
00000070: 8001 173d 2209 f0bd f565 673d 816f 7e3d
00000080: 8785 f7bd baf9 b6be 5bc9 2cbe 4201 cb3d
00000090: 209c fd3d 8e23 b63e b1f8 57bd 8702 17be
000000a0: 9837 7d3e 601d b33e 893b 85be 0c30 923d
000000b0: c51a b03e fc47 7cbb 3f20 633e 72a4 123c
000000c0: 01b1 1f3e a3e4 a83e 9e7f a33e 4e40 363e
000000d0: a52d acbd 28da 9c3e b196 7dbc a30d afbd
000000e0: aa51 ea3e f6a8 1cbd 41cf 80bc 15b2 9a3d
000000f0: 2ec9 003d 7006 853d 673e 073e cf1a ab3c
-0.07699664 0.046737686 -0.2440706 0.519396 -0.16958082 0.023902582 0.4414461 0.004808953
0.44440168 -0.065487415 -0.086880885 0.4274394 0.075279586 0.03168833 -0.0608912 -0.09518672
0.09552868 -0.21243767 -0.005673421 0.02692568 0.02593932 0.23067185 0.054280583 0.12857951
0.31878772 0.035978537 -0.27441052 -0.1466984 0.036866665 -0.11720492 0.05649372 0.062118057
-0.12086015 -0.357374 -0.16873686 0.09912349 0.12383294 0.35574 -0.052727405 -0.14747058
0.24728239 0.3498335 -0.26021984 0.071380705 0.34395424 -0.0038495054 0.2218027 0.00895034
0.15594865 0.32986936 0.31933302 0.17797968 -0.084071435 0.3063519 -0.015477822 -0.08547523
0.4576543 -0.03824707 -0.015723826 0.07553498 0.03144186 0.064953685 0.13207398 0.020886807

layer.4.weight f4 [128, 64]
00000000: 99f3 283f f1b5 823e 351c 42bb 32c0 933d
00000010: dfaa 65bb cfad 0a3e d6fa 75be d010 0cbf
00000020: dfc6 92bd 578f 8cbe 2c3c 013f 49b3 c13d
00000030: 3765 313d 27ba 2a3f aa96 e73d bea4 ba3e
00000040: d760 033e bc85 283d 9950 c33d d0b5 9d3e
00000050: 7e67 eabd 1dde 4b3d f150 653c 20bb 523d
00000060: 43a4 44be 0d0e 523e 571d 013d bd84 a13d
00000070: 8548 09bc ade7 fd3e f0cf cb3e 753f e13d
00000080: 982d 143c 3a91 c53c 5352 0d3d 2fca 5cbb
00000090: 6fd8 a3bc 904a babb 390f 1cbe 8af4 b63e
000000a0: e9cf 973e 9884 c53c c617 003e 09a4 e73e
000000b0: ea69 1b3c 1120 e3be aa6d ab3c fcf9 03be
000000c0: 1f6d 4fbd 6b7b c6bd f9b5 90bd 2c68 de3d
000000d0: 5527 4a3e 49e5 94bd 84c0 123e ca30 203b
000000e0: f5e9 033d f519 a83e 4754 073f c84f e13e
000000f0: d809 a33e 6188 7d3e ca79 673e db93 e53d
00000100: 04ad 883e 42bb cabd a633 d8bd ddb5 ccbc
00000110: 1b3d 91be dd13 e13d 9714 5c3d e33e 613e
00000120: 5b23 aa3d cd5f a63e 2910 383d ddd8 8ebd
00000130: 2e47 e9bd 7334 5a3e ea6d 6dbe 58c1 b3bd
00000140: d2db c73b f15a a73e 895c 683c 8df8 b93e
00000150: ba72 96bd e73c 093e 3e9e a93c 69c1 50bb
00000160: 91be 063e ae28 1fbf 1035 c03d 0d72 033c
00000170: e82e 4bbd 1598 b23e 52e4 61bf 1efb ecbe
00000180: 956b 513e 2db9 a6bc c91b 98bd 5669 eebd
00000190: 5e99 893e ee0a a93d 545d 9a3e c2f8 333e
000001a0: 8e36 d33d 2a00 ab3d 76ba 4b3e 3f12 01bf
000001b0: 004d 003e e8ff 813e 2a13 263c 07cc 4f3e
000001c0: 4d7e 53bd 56f9 413d ee6f 6ebc 4f3d 5abe
000001d0: 9873 253e 7c18 6a3d 0bd7 06be 8ec4 7abd
000001e0: cfb3 1f3b 94a6 04bf dc85 633e dbec 243e
000001f0: b984 2bbd 52cb 5bbb 9e5b 16bf edb3 f73c
00000200: ea9f 18bf 7c04 9abd 9436 cbbd c0cb 87bc
00000210: cf67 babc a383 723d 9d67 0c3e 87d2 293e
00000220: 034c 4ebc 9141 833e 2eef b2bd 76c6 8e3d
00000230: 7ba2 a8bc d08b 9d3d 5a3d c6be 8e5b e23d
00000240: a90a c6ba f616 cfbe 38cd 8e3c ac49 00be
00000250: f535 183e 99d2 163c 8bb1 bdbd bbf4 e93d
00000260: 5146 e83c cf71 09bf ea0b cc3d 936d bdbc
00000270: c4c7 0d3e 9582 17bf 94eb 96bf d7a1 cfbe
00000280: d1f7 acbd e028 1ebe 9099 c8bd 3c29 ad3c
00000290: 61da 9f3c 5902 2abb 5745 8e3d 03fa 24bf
000002a0: 4581 2ebd 72b9 203e d93b b2bc 398f 29bf
000002b0: 2a58 de3d 3a09 c83e cf4d b2bc 8374 5d3d
000002c0: c6b1 6abd 59e2 c83b 9a4c 623d bc65 503e
000002d0: 94c2 37bf 66d6 9f3d 669e 61bc a63d 98bc
000002e0: c94f 81bd 5acf f4be 5e7e 4dbd 9715 c5bf
000002f0: 0e4c 51bc 6c99 e73d 607d 65bf 305e 73bd
00000300: 6797 37bf c8e4 043d 73d4 bc3c 1ae7 96bc
00000310: ef47 60bd ff8f 483a b591 ad3d a0f6 6abd
00000320: e1bb 663c 9072 50bf a5e2 9ebf 62be 053e
00000330: 8b42 80be e8a1 153e f9f9 9cbf 99e7 173d
00000340: 6ef6 dcbc 9e1c d9bd 4ddf 1abd 086e 873d
00000350: 42a4 2e3d b003 7a3c 38a2 29be ae3c 033e
00000360: 1dbd d63c 902f 68bf ae9c 64bd de42 29be
00000370: fae2 823d 8428 80bf 28d0 b2bf fa28 2fbf
00000380: a097 c43b cac0 cabd 0c74 59bd 867c 9f3d
00000390: 0eab cdbe 6cab ee3c ab00 ecbd 1c74 91be
000003a0: 0204 263e 505d d13d 0106 59bc c240 f9bf
000003b0: bc94 9ebb b01f 91be 6f06 a43d b8aa 803d
000003c0: afce 9a3d d2b3 c4bc 8c49 513d c8e7 6abe
000003d0: 9615 4fbe 4bea 7f3d 2c3a b9bd d112 17bd
000003e0: ca21 ac3c da2f fbbf 55b9 b6bf 46ea 4ebf
000003f0: f410 5c3d 61dd 473e c53a 3ebf b3e4 21bd
0.659967 0.25529435 -0.0029618863 0.07214393 -0.0035044474 0.13542865 -0.24021468 -0.54713154
-0.07166838 -0.2745311 0.5048244 0.09458024 0.043309417 0.66690296 0.11308034 0.36453813
0.1282991 0.041143164 0.09536857 0.30802774 -0.11445521 0.04977237 0.013996349 0.051447988
-0.19203286 0.20513172 0.03152212 0.07886646 -0.008379106 0.49590817 0.3980708 0.109984316
0.0090440735 0.024117101 0.03450234 -0.0033689847 -0.020000665 -0.005685158 -0.15240182 0.35733443
0.2965081 0.024111077 0.12509069 0.45242336 0.009485701 -0.44360402 0.020926315 -0.1288833
-0.050641175 -0.09691509 -0.070659585 0.10859713 0.19741566 -0.07270295 0.14331251 0.0024443143
0.03220554 0.32832304 0.5286297 0.4400618 0.31843448 0.24759056 0.22605053 0.11209842
0.266945 -0.09898998 -0.10556726 -0.024989063 -0.28366932 0.10990117 0.053730574 0.21996646
0.08307525 0.32494965 0.044937287 -0.06974957 -0.113905296 0.2130907 -0.2318646 -0.08777112
0.0060992027 0.3268657 0.014182218 0.36322442 -0.07346101 0.13402139 0.020705339 -0.0031853563
0.13158633 -0.6217145 0.09385121 0.008022797 -0.04960528 0.34881654 -0.88239014 -0.46285337
0.20451196 -0.02035197 -0.074271746 -0.11641185 0.26874822 0.08254038 0.3014933 0.17575362
0.1031314 0.08349641 0.19895348 -0.50418466 0.12529373 0.25390553 0.010136405 0.20292674
-0.05163412 0.047356926 -0.014553053 -0.2131245 0.16157377 0.057152256 -0.1316797 -0.061222605
0.002436865 -0.5181668 0.22219032 0.16105978 -0.04187462 -0.0033537936 -0.58733547 0.030237162
-0.5961901 -0.075203866 -0.09922519 -0.016576648 -0.022754578 0.05920757 0.137114 0.16584216
-0.012591365 0.2563596 -0.08737026 0.06971447 -0.02058529 0.07692683 -0.38718683 0.11052619
-0.0015109378 -0.40447205 0.01743184 -0.12528104 0.14864333 0.009205484 -0.09262379 0.11423632
0.028353842 -0.53689283 0.0996321 -0.023123538 0.13845736 -0.5918363 -1.1790643 -0.40553162
-0.08445705 -0.1544528 -0.09794915 0.021137826 0.01951331 -0.002594134 0.06946819 -0.6444399
-0.04260375 0.15695742 -0.021757053 -0.66234165 0.1085666 0.3906954 -0.021765618 0.054066192
-0.057298444 0.0061304984 0.055248834 0.20351309 -0.7178128 0.07804565 -0.013770675 -0.018584084
-0.06314046 -0.47814447 -0.05016934 -1.5397214 -0.0127744805 0.1130856 -0.8964443 -0.059415996
-0.71715397 0.032444745 0.023050522 -0.018420745 -0.0547561 0.00076508516 0.08475057 -0.057364106
0.01408288 -0.8142481 -1.2412916 0.13060907 -0.25050768 0.14612544 -1.2263786 0.037086103
-0.026972976 -0.106011614 -0.037810612 0.06612784 0.042637117 0.015259668 -0.16565788 0.12816116
0.026213223 -0.90697575 -0.055813484 -0.16529414 0.063909486 -1.0012364 -1.3969774 -0.684219
0.0059995204 -0.09900053 -0.053089187 0.07787423 -0.40169567 0.029134475 -0.11523565 -0.28408897
0.16212466 0.10222876 -0.01324606 -1.9472888 -0.004839508 -0.28344488 0.080090396 0.06282562
0.07558953 -0.024011526 0.05109553 -0.2293998 -0.20223078 0.0624793 -0.090442985 -0.03688318
0.021012206 -1.9623978 -1.4275309 -0.8082622 0.053727105 0.19518043 -0.74308425 -0.039524745

layer.4.bias f4 [128]
00000000: 27ae 77bd 3bb8 353e 4f14 823e 8e17 213e
00000010: 058f 553e 605f 433e ef6a 4c3e a36d b9bd
00000020: dea3 9a3a fc8f 46be 9694 d23d cde8 cb3e
00000030: daa4 293d c9ce 983c a4fd d33e 26a8 333e
00000040: 6790 9b3b ee76 283e e064 743e 1130 363e
00000050: a0da 753e 880f 413e cf46 03bd 8eb5 7ebe
00000060: 1c58 1e3d 6f53 aa3d 828c 3fbe 8345 5a3e
00000070: d6c9 9a3c b342 573e 99f7 ed3d 8f38 823d
00000080: 18ad 5fbd 4280 d1be 89b7 d13d c805 f83d
00000090: 97ac 503e 2bec 703e e409 dc3c 43ba 513e
000000a0: e6e4 323e 83f0 863d c8f8 9d3c 6423 a53e
000000b0: fabb a23e f9b6 74be fac5 27b8 cfd9 253e
000000c0: af24 283e 90df 9f3e d512 12be 2b68 383e
000000d0: 5611 1b3e cfba 7d3e 7da8 353e 2faa 993d
000000e0: 0758 d93d cabb e13d 266c e73e c431 503e
000000f0: d34a 033e a6a0 8abc ed6e 143d 037a edbd
00000100: 755d af3d 0c19 09be d06f 313e 2f65 a73e
00000110: 46ce e73d 1b28 26bd dd23 403e 98f2 dabd
00000120: 27bc 563e 2e6b 53bd 5a7e 083c ad84 143e
00000130: 40fd 913e 0c90 653e 92e8 993d aac3 a5bd
00000140: 9b60 a33c 9c8e cc3d 7ffd d63c 35a1 1d3e
00000150: cac4 003c 29f4 883e 81bc b9be afb0 b83d
00000160: 477a 513e 108f e73d 37de 85bd c9ef 8b3e
00000170: eb01 893e ab9a 2c3e 247f 743e d4ba 1a3e
00000180: ee65 1d3e b8db 073e f352 0f3d 8130 3abe
00000190: e158 10bb 5af7 6a3e c1b7 33be 4a08 183e
000001a0: fb81 813d 907f 9f3b 616a 283e 06d0 123e
000001b0: 2e20 5a3e 8b22 83be ece6 2fbd 2cdb 0e3e
000001c0: f30a 4d3e 4ebc e93d 4635 c43c 60c8 253e
000001d0: b497 5d3e e85f 8b3e 8365 3c3e 8da7 ed3a
000001e0: 485b 803e 2ae9 003d c7d4 c8be 48ca 2fbd
000001f0: af33 7f3e 9cf1 9a3e ae1e 9d3e 7f52 3d3e
-0.06046882 0.1774606 0.2540612 0.15731642 0.20855339 0.19079351 0.19962667 -0.09054115
0.0011798104 -0.19390863 0.10282247 0.3982605 0.04141698 0.01865329 0.4140445 0.17544612
0.0047474387 0.16451618 0.23866606 0.17791773 0.2400918 0.18853581 -0.03204995 -0.24873945
0.038658246 0.08316695 -0.18705943 0.21315579 0.018895071 0.21021537 0.11619491 0.06358444
-0.054608434 -0.40918165 0.10240085 0.12110478 0.20378338 0.23527591 0.026860185 0.2048121
0.1747013 0.06588843 0.019283667 0.32253563 0.3178404 -0.23897924 -4.0000283e-05 0.16196369
0.16420244 0.31225252 -0.14264996 0.18008487 0.15143332 0.24778293 0.17740054 0.07503163
0.10612493 0.11022146 0.45199698 0.20331484 0.12821512 -0.016922306 0.0362386 -0.115955375
0.085627474 -0.13388461 0.1732781 0.32694384 0.113186404 -0.04056559 0.18763681 -0.10690802
0.20970212 -0.051615886 0.008330906 0.14503737 0.28513527 0.22418231 0.075150624 -0.080939606
0.019943526 0.09988138 0.026243923 0.15393527 0.007859418 0.2674878 -0.3627663 0.09018075
0.20456801 0.11306584 -0.06536525 0.2733138 0.26759276 0.16855876 0.23876625 0.15110332
0.15370914 0.1326741 0.034991216 -0.18182565 -0.0022025632 0.2294592 -0.17550565 0.14846912
0.0632362 0.0048675016 0.1644683 0.14337167 0.21301338 -0.25612292 -0.042944834 0.13950795
0.20023708 0.114128694 0.023951184 0.16189718 0.21639901 0.27221608 0.18398099 0.0018131599
0.25069642 0.031472363 -0.39224836 -0.04291752 0.2492206 0.30262458 0.3068747 0.18488501

layer.6.weight f4 [8, 128]
00000000: 2ada beba bcdb 15bc fb87 dabc e6c7 513c
00000010: b27f 0dbd 1c82 bbbc 8ce9 7f3d 9f62 26bb
00000020: 9510 a83c d8a9 23bd 7e3a 89bc 905e 1bbd
00000030: 634d efbb d9d6 a13c a679 1f3d 51ef 9cbb
00000040: 4a34 143d 6814 503d 18ea 953d 8f69 253c
00000050: d4d0 b83c 31da 4c3d d283 f2bc 2a4e 8cbc
00000060: a4c6 383b a59e 6f3c ec33 813c 1907 3fbc
00000070: 52a5 823c dcb1 80bd baa0 42bd 96e7 39bd
00000080: 62dd a1bd cd81 263d 097a 5fbd 99d2 8ebb
00000090: 0ae9 b4bc 9a61 1fbc 04d4 6b3a 29d2 6a3c
000000a0: 19fb 5bbb 1416 133b c0a5 dfbc 503d b63c
000000b0: 332a c6bc 10a8 f3bc dea2 efbb 76ae f5bc
000000c0: d59a 423d a69f f63c b246 19be 2aa4 2ebd
000000d0: e79a 8d3d 8f4c 03bd 4136 f33b 5f71 193d
000000e0: 3a5a bebc cb0c 33bd b020 423c 7491 513c
000000f0: c82a bdbc 8a76 09bb bf69 20bd 8c25 b0bc
00000100: 43e0 043d a7b6 1a3d 6682 313d 0781 a33b
00000110: cf81 093d 1752 65bc 3bc5 bd3c 9a60 6b3d
00000120: 8e90 b3bc d6b1 4f3c 69ae 8dbd 3053 00bc
00000130: 57ba b93c 7a5a 37bd 46cb 793c ea56 2ebc
00000140: 4b5e 1f3d 3014 033d dae6 76bd 61b7 1dbd
00000150: 29ba 2d3c b732 c4bb e92b 05bd 7a39 f73b
00000160: 8b38 f03c 73f9 cd3c 3598 b73c eda3 7ebc
00000170: a200 99bc 194c cebb 5426 18bb 5cdc 94bb
00000180: 63ac 953c 810d 4cbc ed8d cb3c 1686 5c3a
00000190: 8471 cc3c ded0 b6bd 5c2c c2bc ea11 e4bc
000001a0: a6a3 a13c 74f9 e8bc 7305 a23b 1a3b 693d
000001b0: 7b4d 253b 78b2 bab8 f0db e4bc 8d7d ac3c
000001c0: 1c06 d83b 7cae af3c f4a5 05bc 1135 98bc
000001d0: 0301 04bd 178b a53d be69 503c d0d2 87bc
000001e0: cb51 f73b 1501 adbc 17c2 2cbc 89cc 383c
000001f0: d828 26bc c530 bb3c a6d1 b2bc 7925 b83c
00000200: be70 15bb 9e1c 913c b7af 1bbd 1f49 86bc
00000210: fe73 0b3d aeb4 d6bb a888 b53d 9d1d 453d
00000220: 7c73 773c c944 5d3c 36b8 cb3c 50e6 43bc
00000230: 0fa7 1c3c b304 7c3c 7bf5 173d 6085 25bd
00000240: 610e 393d 1a14 10bc 59a1 63bc b1cf f43c
00000250: 2045 9c3c 124e 803d fd7e 09bd 71d9 b1bc
00000260: 58f2 50bd e7af 63ba 3ce0 a7bb 0c4c 64bc
00000270: 56b2 bc3a 463e 1a3c 1bda f53c 91ee dbbc
00000280: e9ce 813d 724d b93c 0df1 553c 33d3 22bd
00000290: 3ae9 68bc 14d6 a93c 2fcf 933c 5894 953c
000002a0: 8c9f 4b3c 4ca1 c7bc 08be 55bc 6a40 183d
000002b0: 5f7b 7dba 8ae1 58bc 8dcc b43b 591b 7abc
000002c0: f904 f3bb 20c6 813b 3a7a 87bd ea2c b5bc
000002d0: d186 d4bb fdc7 a0ba 5ecc 443c 6ac9 91ba
000002e0: a0ec 00bc ff3d 13bc 2801 7cbc d8b0 e03c
000002f0: c613 b93a aa3f 2cbd fa4e 80bc ae87 fdbc
00000300: 6f4d 0ebc 6d3c aabc 13a8 1d3d be55 ee3c
00000310: d138 febc 86b0 b93c 9123 813a 46a1 733d
00000320: fbb3 44bd b787 60b9 4770 4dbd 6057 0f3c
00000330: d51d 98bc fb04 133d f291 75bc 06af 34bc
00000340: 5039 52bd 9c6f 6abc 7dc2 8ebb 080e 47bc
00000350: 3c55 db3b 65a8 67bc aa25 453c 2630 4e3c
00000360: f363 15bd be5d bbbb b261 a5b9 6c40 d03c
00000370: 1b84 c23c 7be0 40bd 5bd2 b93c 8ff5 eabb
00000380: a64e d93b db03 883c c05f 43bc c94f 9abb
00000390: 5bbd d53c 4570 fdbc bfa4 28bd 2bb7 5fbd
000003a0: 80ae 8abb 6b29 94bd bf43 70bc 66ac c43c
000003b0: 8422 97bc fc1f 9239 f8cb 01bd e19e a9bc
000003c0: 4623 46bc 6686 e1bb 753d ca3c 84f2 b9bc
000003d0: 2833 2c3c c706 583d f741 82bc 13fb 8cbb
000003e0: 2005 debc b400 ee3c e904 58bc a21c 6e3b
000003f0: 95ce 7f3c 83ad a93c 2f39 79bc c6e6 553c
-0.0014560868 -0.009146627 -0.026676169 0.012804007 -0.034545608 -0.02288919 0.062478587 -0.0025388373
0.02051572 -0.039956897 -0.016751524 -0.03793198 -0.0073029264 0.019755768 0.038934372 -0.004789271
0.03618268 0.05080071 0.073200405 0.010095968 0.022560515 0.05001277 -0.029603872 -0.017127115
0.002819457 0.014625226 0.015771829 -0.011659407 0.015947971 -0.06283924 -0.047516562 -0.045386873
-0.079035535 0.04065113 -0.05455974 -0.0043586013 -0.022083778 -0.00972786 0.00089961314 0.014332333
-0.0033566414 0.002244358 -0.027300715 0.022246033 -0.024190044 -0.029743224 -0.0073131165 -0.029990416
0.04751094 0.030105423 -0.14968374 -0.042637028 0.06914311 -0.032055434 0.007422239 0.037461635
-0.023236383 -0.043713372 0.011848614 0.012791026 -0.023091689 -0.0020975196 -0.039163347 -0.021502279
0.032440435 0.037771847 0.04333725 0.0049897465 0.03357106 -0.0139966225 0.023165336 0.057465173
-0.021919515 0.012676677 -0.06918032 -0.007832333 0.022671862 -0.04476402 0.015246218 -0.010640839
0.038908284 0.032001674 -0.06027875 -0.038504962 0.010603466 -0.005987491 -0.03251258 0.0075446935
0.029323837 0.02514336 0.022411445 -0.015542013 -0.01867706 -0.0062956926 -0.0023216205 -0.0045428704
0.018270677 -0.012454391 0.024847949 0.00084123143 0.024956472 -0.08926557 -0.023702793 -0.027840573
0.019731354 -0.028439261 0.0049444973 0.05694113 0.0025223184 -8.9024135e-05 -0.027936906 0.021055961
0.006592525 0.021445505 -0.008157242 -0.018579992 -0.032227527 0.0808317 0.012720523 -0.016580015
0.0075475923 -0.02111868 -0.0105443215 0.011279234 -0.010141574 0.022850404 -0.021828484 0.022478806
-0.0022802795 0.017713841 -0.03800937 -0.016392289 0.034046166 -0.0065523004 0.08863956 0.048123945
0.015103217 0.013505169 0.024868112 -0.011956766 0.009561314 0.01538198 0.037099343 -0.0404104
0.04517973 -0.008793855 -0.013893449 0.029884191 0.01907593 0.06264891 -0.03356837 -0.02171013
-0.051012367 -0.0008685574 -0.0051231664 -0.013934147 0.001439641 0.009414261 0.030011227 -0.026847156
0.06338293 0.022619937 0.013057959 -0.039752197 -0.014215762 0.020731963 0.018043129 0.018259212
0.012428176 -0.024368905 -0.013045795 0.037170805 -0.0009669568 -0.013237366 0.0055175484 -0.015265309
-0.0074163643 0.003960386 -0.0661511 -0.022116143 -0.006485798 -0.0012266632 0.012011616 -0.0011122648
-0.007868916 -0.008986949 -0.015381135 0.027428076 0.0014120273 -0.042052902 -0.015662659 -0.030948486
-0.008685454 -0.020780766 0.038490366 0.02909362 -0.031032952 0.02266718 0.0009852519 0.059479974
-0.048023205 -0.00021412862 -0.050155904 0.008748859 -0.018568913 0.03589342 -0.014988409 -0.011028057
-0.05132419 -0.014308836 -0.004356681 -0.012149341 0.0066935103 -0.0141392695 0.012032906 0.012584722
-0.036472272 -0.005717962 -0.0003154404 0.025421344 0.023744633 -0.04708908 0.022683313 -0.007170386
0.00663169 0.0166034 -0.011924684 -0.004709218 0.026091268 -0.030937323 -0.04117274 -0.054618042
-0.004232228 -0.07234462 -0.014664589 0.024007987 -0.018449076 0.0002787112 -0.03168866 -0.020705642
-0.012093371 -0.0068824766 0.024687508 -0.022698648 0.0105102435 0.05274084 -0.015900595 -0.0043023913
-0.027102053 0.02905307 -0.013184764 0.0036332984 0.015613218 0.02071262 -0.015211388 0.013055509

layer.6.bias f4 [8]
00000000: cbbe 3dbc cb0e 55bb 89eb 8ebb e5ec a3bc
00000010: c6ee 2e3e 3f18 2b3e 0a47 86bc 0b02 df3c
-0.011581133 -0.0032510038 -0.004361574 -0.020010421 0.17083272 0.16708468 -0.016391296 0.027222654
