final/save/1l_0.95_200_morelayer/save0_13000.pth (torch_old, 50952 bytes, 8 tensors)

layer.0.weight f4 [32, 28]
00000000: 06e4 1bbe 78e0 bb3c 9c21 10be fe83 8a3d
00000010: 8fa5 a43a 6323 873e fef5 e2bc 745f 153d
00000020: ed43 56be d8b2 ee3c 83e0 13bd ed19 163e
00000030: 2c6d 3c3e 79ad 9fbc 8c35 18bd e02d b9bc
00000040: 6a9b 943b 9cb7 763d 5516 843e 74f2 783e
00000050: 3244 123e c6d0 66be 660e cb3c 449a f3bd
00000060: 4fb9 1a3d 2d44 4fbd 50ae 60bd bbe1 923d
00000070: 2e01 433c 9ab9 95bc fe48 aebd 8c95 83bd
00000080: cc38 b8bd ac55 13bd 5f9d 2e3e e62e ebbc
00000090: 3349 3c3e be63 dfbd 9b31 0c3e 036a e6bd
000000a0: d229 59be a367 1bbe 583d d43d 868f a13e
000000b0: 4c81 2b3e f491 d3bd eb47 99bb a158 83be
000000c0: 4525 103e c780 9b3e a374 56bc 2e56 5ebd
000000d0: ad5a 5ebd fa68 2a3e 2dcc 74bd 442d be3c
000000e0: d7b0 b53d eb0c 8cbd ab4b 693e 85d9 4c3e
000000f0: 71bc d03d 2ed0 303d 7ec6 08be cae9 643d
00000100: 3141 bd3b 0911 aa3d fc60 97bc 8c23 553d
00000110: 5f13 83bd cd3b 143e 6cc6 cd3d a75f 2f3e
00000120: f8cf 19bc f59b 6d3e 58ab dbbc c276 763d
00000130: 6b63 4b3e 6267 b4bc 3f89 753e e540 513e
00000140: 12e6 03bd 5d78 68bd ad1b 553d 7bca d13c
00000150: 62cb 50be e36a 3e3e d119 383e b113 1fbe
00000160: 1921 eabd b550 1a3d 4a9a 97bd 562e 513e
00000170: a5ba 2a3e 79fc b6bd 71a7 0d3e 8225 903c
00000180: 0717 19bd 87ba df3c edb2 93bd 1d0a 8d3e
00000190: 55c3 d33d cd46 f3bc 387b 3a3c e011 003e
000001a0: 1c57 b23d deee 793e f741 423e ddef fb3d
000001b0: 50fd 863d 0edd 30be 4b83 c8bd 26d5 08be
000001c0: 885c 84bd 907a 39be 9e5a dcbd 6098 983e
000001d0: 3d08 323e 6798 8ebe bcea 4ebd 860a 493d
000001e0: 1eaa 1abd 7775 eb3c 1109 803e 44d9 c03d
000001f0: 931f 57be b46a 1abe 477d 8cbd 39f0 4fbc
00000200: 6feb 053e f756 473e ec92 bb3c ce32 85be
00000210: a2a9 3ebe c72d 52bd a00c 083e 29a6 1f3e
00000220: 3b2a ea3d 00c4 2a3c 7d7c 90bd 9a81 fabd
00000230: c016 f43d 87bd 7e3e cb59 4bbe c6f9 cdbc
00000240: d9b3 01be e135 25be 1ebe ee3d 029a b0bd
00000250: 97ae a0bd a58b 6f3d 3e3c c7bd dbfc c3bd
00000260: d8c8 b3bd de86 c7ba 7d21 183d de3a 88be
00000270: 5859 63be fae4 86be b2b5 903d 59dc 99bd
00000280: 8afa b23d f506 3a3e c7d8 463e 8202 973e
00000290: 2dfb 443d 1c38 a7bd 9489 563d d467 7d3d
000002a0: 42fa 823e 25d4 523e a198 2c3e 7943 ea3d
000002b0: f9b0 0b3e 2a37 b13e fe44 153e 4e36 0a3e
000002c0: 5338 e73d 0ea5 6ebd 962d 163e f8bd 133e
000002d0: e38a e13d d08d 063c 0404 413e 5719 97bd
000002e0: 73fd ed3d dc0c 9b3e 69aa 9ebb 2433 5d3e
000002f0: 917b 54b9 1024 df3c 3f5c 17bd b0e2 2f3e
00000300: a36c 5ebe 3215 30be d931 bfbd 4637 993c
00000310: eb46 7c3e 9cfc 813e 3f2b 7fbd b6e6 08be
00000320: f949 923c a84d f53b 05eb 473e 1525 483e
00000330: bcb5 2e3e 9875 6cbd 9e61 04be 4d93 a1bd
00000340: 6cb1 963d 6707 94bd 9af2 093e 67b7 14be
00000350: ecf5 09be ab7b c6bc bed6 58bd 8285 023d
00000360: adbe 6b3e cabc 1abe 81c2 233b c2d4 c1bd
00000370: af76 97bc 0e7a 6abd e7de 383d 8094 243e
00000380: 7d59 833e 5444 27bd 590a 233e 49c3 9c3d
00000390: 10f8 94bd e6c5 5c3e 0823 213d 4ae5 763d
000003a0: 4e41 4f3c 8717 d9bd fece 36be 7750 4abe
000003b0: b482 61bd bbda 233e e351 833e 3344 0abe
000003c0: a66e f63c c03c 61be 487e 583d a0cf 8abd
000003d0: 5ef7 05be 3bfc 0f3d 1e70 ba3d 1250 22be
000003e0: 0c78 953c 7e9b 3ebc 26aa 233d 9941 ab3c
000003f0: 169a b73c 8662 133e c055 1bbe dea0 64be
-0.15223703 0.022934183 -0.14075321 0.06763457 0.0012561547 0.26394185 -0.027705189 0.036467984
-0.20924349 0.029138014 -0.036102783 0.14658327 0.18401021 -0.019491898 -0.03716044 -0.022604883
0.0045351284 0.060233697 0.25798288 0.24311239 0.14283827 -0.22540578 0.02478714 -0.11894658
0.03777438 -0.050602127 -0.054853737 0.07171961 0.011902137 -0.018276978 -0.08510016 -0.06425008
-0.08995208 -0.035970375 0.1705222 -0.028708886 0.18387298 -0.10907696 0.13690798 -0.11250689
-0.2120736 -0.15176253 0.10363263 0.31554812 0.16748542 -0.10330573 -0.0046777627 -0.25653556
0.14076717 0.30371687 -0.013089332 -0.054281406 -0.054285694 0.16641608 -0.05976503 0.023214944
0.0887162 -0.068384014 0.22782771 0.20004852 0.10192192 0.043167286 -0.13356969 0.05588702
0.0057755937 0.083040304 -0.018478863 0.052035853 -0.06400179 0.14475937 0.100476116 0.17126332
-0.0093879625 0.23204024 -0.026815102 0.06017185 0.19862144 -0.022021953 0.23978136 0.20434912
-0.032201834 -0.056755412 0.052028347 0.025609246 -0.20390084 0.18595462 0.17978598 -0.15534855
-0.11432094 0.037674624 -0.07402475 0.20427832 0.16672762 -0.08934874 0.13833405 0.01759601
-0.037375476 0.027310623 -0.07211862 0.27546778 0.10339991 -0.029696846 0.011381917 0.12506819
0.08708021 0.24407527 0.18970476 0.1230161 0.06591284 -0.17271826 -0.09790667 -0.1336256
-0.064629614 -0.1811316 -0.10759471 0.29803753 0.17385955 -0.2785065 -0.05051683 0.0490823
-0.037759893 0.028742535 0.25006917 0.0941644 -0.21008138 -0.15079767 -0.06859832 -0.012691551
0.13078092 0.19466768 0.022897206 -0.26015323 -0.18619397 -0.051313188 0.13286066 0.15590729
0.11433836 0.010422707 -0.07054994 -0.12231751 0.11918402 0.24876986 -0.19858472 -0.025143515
-0.12666263 -0.16133834 0.11657356 -0.08623125 -0.078458 0.058482785 -0.09728287 -0.09569713
-0.08778542 -0.0015222689 0.037141312 -0.26607412 -0.2220205 -0.2634657 0.07065906 -0.07512731
0.08739193 0.18166716 0.19418631 0.294941 0.048091102 -0.08164999 0.0523773 0.061866596
0.25581557 0.20588739 0.16855098 0.11438651 0.13641728 0.346124 0.145771 0.13497278
0.1129004 -0.058262877 0.14665827 0.14427936 0.11012819 0.008212522 0.18849188 -0.0737788
0.11620607 0.30283248 -0.004842092 0.2160154 -0.00020263928 0.027238876 -0.036953207 0.17176318
-0.21721129 -0.17195585 -0.093356796 0.018703114 0.24636428 0.25388038 -0.062297102 -0.13369259
0.017857539 0.007486064 0.19523247 0.19545396 0.17061514 -0.057729334 -0.12927863 -0.078894235
0.07358059 -0.072279744 0.13471451 -0.14523087 -0.13472718 -0.024228891 -0.05293917 0.031865604
0.23021956 -0.1511108 0.002498776 -0.094644085 -0.01848921 -0.057245307 0.04513445 0.16072273
0.25654212 -0.040836647 0.15921916 0.07654435 -0.07273877 0.21559867 0.03934005 0.06027726
0.012649847 -0.106001906 -0.17852399 -0.19757257 -0.05505629 0.16001408 0.25648412 -0.13502578
0.030082058 -0.2199583 0.052854806 -0.067778826 -0.13082644 0.035152655 0.09103416 -0.15850857
0.01824572 -0.011633752 0.039957188 0.020905303 0.022412341 0.14393052 -0.1516943 -0.22326991

layer.0.bias f4 [32]
00000000: 4405 c1bc 2e70 11be a424 8b3c 667f bfb9
00000010: 2174 7bbc 919a 7e3e eddf f23c 6154 953c
00000020: fe4a dabd 79fa 143e e8af 1c3e b94f 2bbd
00000030: 935c 503e 7570 843d a47a b63d a936 013d
00000040: ee23 023e 709d ad3c 1809 35bd f336 1bbd
00000050: f12f 4d3e d957 d0bd 9212 42bd d3c6 8c3e
00000060: d100 c0bd 34b6 bdbc 6142 153e 956d c8bd
00000070: 7e4f bd3d 225a cf3d a543 a73c c6ac 30bd
-0.023562081 -0.1420295 0.016985245 -0.00036525278 -0.0153475115 0.2486365 0.029647792 0.018228712
-0.10658835 0.14548673 0.15301478 -0.041824076 0.20347814 0.06466762 0.089101106 0.03154627
0.12709019 0.021193236 -0.044198126 -0.0378942 0.2003782 -0.101730056 -0.04738099 0.2749544
-0.09375156 -0.02315817 0.14576103 -0.09786526 0.092436776 0.10124613 0.020417998 -0.04313352

layer.2.weight f4 [64, 32]
00000000: cd5e 97bd 14b5 3a3e 8e57 853e 4b28 6ebd
00000010: 0618 bb3e e317 6bbe fd20 05bd 2bc7 e3be
00000020: 7783 063b e21c b0bc c42f b93c a017 803e
00000030: ef10 12be 0525 8b3e 1871 88bd 59f3 ee3d
00000040: c27c a73d d605 99bd 5c99 6fbe 4a28 97bc
00000050: 7c99 a9bd 1cf2 823d 0bed 5e3c 5763 8fbe
00000060: 0f2f 303d 4599 4e3e f337 043d 4eeb 92be
00000070: 0c65 2cbc c08d 58be db0f 003d b933 eb3d
00000080: 564f ba3d ca32 033d 6d3c 323e 45c0 f43d
00000090: b85b e9bc e23c 8f3d 5842 f2bd 43aa c3bc
000000a0: f6d0 b23d 7cb7 70bd 4806 85bd 2e40 20be
000000b0: d9a3 503d 3ff5 00be 4d88 513e e61a a73d
000000c0: 57c3 e03c 6c25 083c 0f3e 2a3d f3b1 3abd
000000d0: c900 553e 4ba1 13be 73e7 fcbd 5de3 453e
000000e0: 5f76 02be ea20 bd3b facd 80bd 07e0 d8bd
000000f0: 33de 62bd 8d74 e13c 3d4c 23be 0e7e 9f3d
00000100: d726 263e 7be5 f5bd 87e0 07bd 1070 fc3d
00000110: 76de 32be 1d39 85be 2311 3639 b94d 24bf
00000120: 4b21 76bd b18f 45be c274 613e b27f 4cbe
00000130: 6e7a 213e a895 65be 0a74 c5be 125b 93be
00000140: 87b4 233e 6d86 313c 7eef 8abd 9d2f 94be
00000150: d53f 173e cbc2 9cbd 0615 103e 07a9 1d3d
00000160: 6c8b 95be 9df8 85be 0f3b 07be 6380 8ebd
00000170: 5045 54be 3319 74be 4734 863c c9db eb3c
00000180: 14c7 6fbd 513f aabd aaf9 393e 2dc7 05be
00000190: 70bb cbbe 042e e73c 3956 8e3d dbb5 b93e
000001a0: 2b49 a13d 6c13 b8bd 9981 cbbe 94a4 64be
000001b0: 0faf f8bc 4c74 f8bc affd 23bc a597 5e3e
000001c0: 8f31 0ebe e15e f7bd ec2f 2fbe 11ff 45be
000001d0: d3c2 01be 5845 e7be 227a 0ebe 33f2 213e
000001e0: 0ff5 2fbe 0e18 7b3e bce7 873b 0847 bc3d
000001f0: fbe5 cb3d 4f2e 173d 69c6 ff3d 2e7f 8abd
00000200: 14a3 46be 8065 9b3e fd2f 3c3d 4ab9 4b3e
00000210: c6ab 5fbe 0077 66bc 0314 253c 0a88 a2be
00000220: d45b d4bd b601 10bd 9d3d 92be 55c9 a7bd
00000230: 5de3 47b9 9fc2 88be dbdb 92bd 6d1b 873e
00000240: 0e31 043e 6d47 4f3e 9d9b 103e 7623 393e
00000250: 4146 803c 4c4e 433e f873 53bd 6262 aabd
00000260: cf99 e23d bbcd 863d 59bb 07bd 3930 2f3b
00000270: 2829 b3bd 62e7 823d 08ef 8ebe b645 87be
00000280: 639e 39bd e551 aa3d aabf 26be f9e2 b63d
00000290: f043 e9be 93a3 ba3d 1e38 d9bc 24dd 8e3d
000002a0: 63d4 743d 56f2 a33d 3768 b4be 04a9 32be
000002b0: 1dc9 0fbd 4b17 75be 1843 8c3a f699 5c3e
000002c0: 3240 12bd f511 bc3d 4dd4 863d ab22 363e
000002d0: d1e7 a3bc 4da9 223d 9a19 a7be a9c9 843e
000002e0: 5c2c 6e3d d0bd ebbd e361 b33c eb7b 2e3e
000002f0: 5bdd 03bd d63b a33d 8bb2 2dbc f363 a8bd
00000300: f130 0abe 31d4 ecbb 5ad5 38be 7ab8 79bd
00000310: 3e31 90be 0b89 483e 4998 4b3e 3de6 cb3e
00000320: de7e 693d 534b 2d3d 73f8 83be 767b 22be
00000330: fb0f 26be 958e e33d a8ff 4a3d 72b6 7c3e
00000340: fca6 4a3c 6999 42bd c817 753d 92a9 e33d
00000350: fec6 c1bd d548 97be 564c 9dbd 81cb 803c
00000360: e328 8d3c 0006 433e 2dc9 1a3e 5f2d 353e
00000370: 2c21 0c3e 74c2 303e de5f 8dbc 3f8b 06be
00000380: c009 a2bc b0f0 953e 7d13 90bd be2b 6dbd
00000390: ba14 5d3e 142b 333e 2bca 42bd 9c99 afbe
000003a0: 0890 dfbc 5559 e23d 7ddb f23d 1912 463e
000003b0: c16c 083e a6a6 77bd c438 d7bc 81af b53d
000003c0: efe8 a0bd a4c7 153e bc3c 653e 1ef0 173e
000003d0: d888 d03d bc17 5f3d d7fc 853d 338b 8ebd
000003e0: d3f4 073d 3150 0bbd ac82 023d d626 15bd
000003f0: 367d e6bd cc0d c5bc 56d0 38be 4ee6 173e
-0.07391129 0.18233138 0.2604336 -0.058143895 0.36541766 -0.22958331 -0.032502163 -0.4448789
0.0020525136 -0.021498147 0.022605784 0.25018024 -0.14264272 0.2717668 -0.06662196 0.11667509
0.081780925 -0.07471816 -0.23398346 -0.018451829 -0.08281228 0.06393835 0.01360632 -0.28005478
0.04301363 0.20175655 0.03227992 -0.28695148 -0.010522138 -0.21147823 0.03126512 0.11484475
0.090971634 0.032030858 0.17405863 0.11950735 -0.028486118 0.06994034 -0.1182906 -0.023884898
0.087312624 -0.058768734 -0.06495339 -0.15649483 0.050937507 -0.12593554 0.20462151 0.08159427
0.027436895 0.008309703 0.04156309 -0.04557986 0.20801081 -0.14416997 -0.12348833 0.19325013
-0.12740467 0.005771746 -0.06289287 -0.10589605 -0.055387687 0.027521396 -0.15947051 0.07787715
0.16225754 -0.120066606 -0.03317311 0.12326062 -0.17467675 -0.26020136 0.00017363256 -0.64181095
-0.060090344 -0.19293095 0.22017196 -0.19970587 0.1576936 -0.2242037 -0.38565093 -0.2878042
0.15986834 0.010835272 -0.06783961 -0.28942576 0.14770444 -0.07654341 0.1407052 0.038491275
-0.29207933 -0.2616624 -0.13206123 -0.069580816 -0.20729566 -0.23837738 0.01638235 0.028791325
-0.058539465 -0.08312858 0.18161646 -0.13064261 -0.3979144 0.028220184 0.069500394 0.36271557
0.07875284 -0.089880794 -0.39747313 -0.22328407 -0.030356912 -0.030328892 -0.010009213 0.21737535
-0.13886093 -0.120786436 -0.17108124 -0.19335581 -0.12671976 -0.45170093 -0.13913777 0.15815048
-0.17183326 0.24520895 0.004147498 0.09193236 0.09955975 0.036909398 0.124890156 -0.06762539
-0.19398147 0.30350876 0.045944203 0.19894901 -0.2184287 -0.014066458 0.010075572 -0.31744415
-0.10369077 -0.03515788 -0.28562632 -0.08192698 -0.00019062818 -0.26710984 -0.0717084 0.26388112
0.12909338 0.2024209 0.14121862 0.18079934 0.0156585 0.19072837 -0.05162427 -0.08319546
0.11064493 0.06582209 -0.033137653 0.0026731624 -0.08748084 0.06391789 -0.2791674 -0.26420373
-0.045317065 0.083164014 -0.16284052 0.0893001 -0.45559645 0.091132306 -0.026516017 0.06975773
0.05977286 0.08005206 -0.3523576 -0.17447287 -0.035103906 -0.23934667 0.0010701148 0.21543106
-0.035705753 0.091831125 0.06583462 0.17786662 -0.020008 0.03971224 -0.3263672 0.25935104
0.058147773 -0.11510813 0.021897262 0.17039458 -0.032193523 0.07970397 -0.01060165 -0.08222189
-0.13495232 -0.0072274436 -0.18050137 -0.060966946 -0.2816257 0.19583528 0.19882311 0.39824095
0.057005756 0.042308163 -0.2577549 -0.15867409 -0.16217034 0.1111118 0.04956022 0.24678972
0.012368914 -0.047509585 0.059837133 0.11116327 -0.09461783 -0.29547754 -0.076805755 0.015722038
0.01723141 0.19045258 0.15115805 0.17693089 0.13684529 0.17261678 -0.017257627 -0.13139056
-0.01978004 0.29285192 -0.07034967 -0.057903044 0.21589938 0.17496902 -0.047556084 -0.34296882
-0.02729036 0.11052195 0.1185827 0.19342841 0.13322736 -0.060461663 -0.026272185 0.08871365
-0.078569286 0.14626938 0.2238645 0.14837691 0.10182351 0.054465994 0.06542366 -0.06960144
0.033192467 -0.034012023 0.0318629 -0.03641399 -0.11254351 -0.02405443 -0.18048224 0.14833948

layer.2.bias f4 [64]
00000000: c8e4 67be 9315 c0bc 12f2 2c3e 3e62 2b3d
00000010: 75db 88bd 69d5 7f3d 68dd b3bc 92e4 d0bd
00000020: 1e8d 14be 6dfe 633e 04e0 07be b400 433e
00000030: 2f08 03be 55bb 33bb 7ffb edbd b4f5 043e
00000040: fade a73e 9cf0 f4bd ebde ffbc b630 dd3d
00000050: a564 3f3e 39d3 bf3e 9fb0 50bd 0876 22be
00000060: da5e 783d 109a c6bd 512e d0bd 89be fc3e
00000070: 8bf6 853e 8999 4a3c 9b1f c739 6948 fe3d
00000080: 5ed8 d53d cfea 6b3e c5ef ebbc 7b25 25be
00000090: 0e44 3d3d 4545 36be fb85 54be 660a bf3e
000000a0: 5c34 4d3e e6ec 493e b7f0 793e 4f3f 4c3d
000000b0: c12a 55bd abcc b03e f0dc b4bd 9f18 7dbd
000000c0: c2ec b43e 5c44 aebd c1e8 2c3e 8a08 193e
000000d0: 6286 5b3e 2c00 fc3d 7ed3 92be 2495 b7bd
000000e0: e03e aebd c300 de3e 8e9c c43e 745d 87bd
000000f0: c017 e1bd 777a 5c3e 713a 3bbd 753b c43d
-0.22645867 -0.023447787 0.16889217 0.041841738 -0.06682483 0.062459383 -0.02195616 -0.10199846
-0.14506957 0.22265024 -0.13269049 0.19043237 -0.1279609 -0.002742489 -0.11620235 0.12984353
0.32787305 -0.11959955 -0.031234225 0.108003065 0.18690737 0.37465838 -0.05094969 -0.15865338
0.060637332 -0.09697354 -0.10165084 0.49364117 0.2616466 0.012365707 0.00037979786 0.12416155
0.104416594 0.23038791 -0.028800854 -0.16127579 0.04620748 -0.17799862 -0.20754234 0.3731262
0.20039505 0.19719276 0.24408232 0.049865063 -0.052042726 0.3453115 -0.08831203 -0.06179106
0.35336882 -0.08509132 0.16885664 0.14944664 0.21437982 0.1230472 -0.2867698 -0.08963993
-0.08508086 0.43359956 0.38400692 -0.06609622 -0.10990858 0.21531092 -0.04571003 0.09581653

layer.4.weight f4 [128, 64]
00000000: 9b14 2ebe 96df 42bd bb3e e23e 2b48 0c3e
00000010: 2c73 103e f801 82be 31eb 403d 5ffb c2bd
00000020: e67c b63d 954d 203c 9b0a c03d 9210 313d
00000030: 4e10 dd3d b250 b73d 9f0c b53d da56 6abd
00000040: 3874 81bd 0681 52be b97b cc3e f2eb 1c3e
00000050: c9b3 3a3d e3bf afbc bd2b 2bbc 24a9 323e
00000060: 4893 043e 7555 243d 7cfb c43e 715e 41bd
00000070: 58f0 c93d 0bba a53c f35b 1fbb 5665 9abe
00000080: 6248 0b3e f543 db3d da27 3f3e b235 16be
00000090: 399f c0bd fca7 7f3d 1449 72bd b9ae 91bc
000000a0: f973 d1bc add9 fd3c 195a a33d c9c9 81bc
000000b0: f8ee 2b3d 5abf 1ebd d061 12be 8576 783e
000000c0: 2615 d6bb 8cb4 29bc 5a7e 64bd 15ba 343d
000000d0: 9cef 80bd 6958 d5bd f3cb f4bd 85a2 b03d
000000e0: 8060 3b3e a593 adbd 889d 8b3d a639 b63d
000000f0: 2d61 0bbe 478d 033f 1a2c 7f3d 5dcc 703e
00000100: 91a7 303d f209 573b 8fa2 b83e dca6 b7be
00000110: 983c 333e c9c5 883e c31a 85be 3ab9 36bd
00000120: 999e 00bd 1a42 03be b6cf 7b3d 106e 393e
00000130: c355 09bd a98d 54be 1da3 2abd 8ff6 fb3d
00000140: 856f 19be 006e ea3d 619b 833e 7186 2dbb
00000150: 9f48 003d e434 a33d fd6e 933c dfd1 e3bd
00000160: d779 f3bc 04b5 743d d66d 9c3d cb6f 83bb
00000170: 3146 38ba 28df a23d ba00 d3bd 9bf5 223d
00000180: 5ebe 3a3c f411 153d d4ff 04be 0250 e03c
00000190: 67c5 913d 0705 8c3c c61a a73d 5191 813d
000001a0: 4072 533e bf9e 86bd 89a2 f9bc 1451 193a
000001b0: 1a2a e93d 41ed 903b 4723 9b3e f086 133e
000001c0: 6d91 533c cb13 783e 0c26 033e f441 9abd
000001d0: be10 873d a409 fa3d 47cc 6d3d 7846 283e
000001e0: 8b96 08bd 8745 043c d6fa c43d 1ceb 38be
000001f0: 7f17 663d 1b88 b83e 0d8e 7f3d 4e60 193e
00000200: d1b2 953c b3da 3fbd 9e26 a23e 9b32 efbe
00000210: 1b45 143e a0d6 833e 2999 c1bc 099e 3bbd
00000220: 307d 493d 4648 6dbd 2fa2 a63a 07a0 5e3a
00000230: ee3f 30bd 562b 1ebe ccd3 81bb 3147 3b3e
00000240: 05f9 a3bb affa c33c 6218 433e dbd9 8c3d
00000250: 3664 b33d be61 ca3b bc02 323d 339b 00be
00000260: 6875 893e d690 9abd 8873 8b3e d1e6 80be
00000270: 8c20 c83c c1fa 293e 6b3f a4bb 7443 de3e
00000280: 6338 083d 62f3 c63c 6094 4fbe ce88 04bd
00000290: 5d84 883e 6366 053d 0a7a 333c 0150 db3d
000002a0: 9871 a73d aa40 a1bb 8acb c5bd 8ead df3d
000002b0: 518f 373e 2eb9 ddbd 8cd6 2c3e c6be ea3d
000002c0: be8b 4b3b 453f 97bb 5e2e 843d 4c50 9fbd
000002d0: cf92 983d 335a f93d 845d 48bc ed17 683e
000002e0: b43e 2e3e 894a cd3d 000a 883d 0833 c7bd
000002f0: f12a f1bc 4727 db3e 0698 993d 307b c93d
00000300: 06d4 b5be 0d7b 1b3c 0f02 a03e 987d c83d
00000310: d19d 58bf 6e06 873e ecf6 093d 45fd 643c
00000320: 83c1 e1bb fb6d 2a3d a6f1 c9bd f75a 5dbd
00000330: 9a80 ecbd cca8 f63d b749 46bd 216b 09bc
00000340: f8a3 ae3d ffa5 8e3e 72ed 373e 8510 ac3d
00000350: 5a25 e3bd abde 76bc c0bf 85bd bca6 8abc
00000360: 52b2 9f3b 41b1 64bd 34a5 0a3e 468a a0be
00000370: ca13 f03d 8166 46bd 7b8e 0a3d 5a60 ebbd
00000380: aa96 603d 49e7 0a3e 20e1 e3bd 7c29 cbbd
00000390: c660 8a3c a232 c5be 95b3 1a3d f1ab 3dbb
000003a0: e049 053d 021d 90bd ea8b 94bc e3d3 8fbd
000003b0: 02e1 17bc a4c6 d23d f6dc 8fbd 3392 963c
000003c0: d0c3 e03c a56e 99be 6cdb 973d 2cc6 143e
000003d0: bc05 05bd 318c 95bd cadd 2cbd f64c 85be
000003e0: 0031 f2bd ef54 a6bb 97fa e63d 41c3 de3d
000003f0: bb5e 25be e5b5 b23e 6a4b 8c3d 495f c63d
-0.17000048 -0.04757651 0.44188485 0.13699405 0.14106435 -0.25392127 0.047099296 -0.095206015
0.08910541 0.009784122 0.09377023 0.043228693 0.107941255 0.08950938 0.08840298 -0.057211734
-0.06320995 -0.20557031 0.39938143 0.15324381 0.045581613 -0.021453803 -0.01044744 0.17447335
0.12946808 0.04012056 0.38473117 -0.047209207 0.09860295 0.020230314 -0.002431628 -0.30155438
0.1360183 0.10706321 0.18667546 -0.1466892 -0.09405369 0.06241606 -0.059151724 -0.01778351
-0.025567995 0.030987585 0.07976169 -0.015843289 0.041975945 -0.038756706 -0.14295125 0.24263962
-0.006533283 -0.010357987 -0.05578456 0.044122774 -0.06295702 -0.104172535 -0.11952963 0.08624748
0.1829853 -0.084754266 0.06817156 0.08897714 -0.13611288 0.5138745 0.062297918 0.23515458
0.043128554 0.0032812324 0.36061522 -0.3586949 0.17503583 0.26713398 -0.2599698 -0.04461024
-0.03140125 -0.12818184 0.061477385 0.18108392 -0.033529054 -0.20757164 -0.041659463 0.12302887
-0.14983948 0.11446762 0.25704482 -0.0026477838 0.031319257 0.079690725 0.01799726 -0.11124014
-0.029721184 0.059742942 0.07638137 -0.0040111295 -0.00070295023 0.0795272 -0.10302873 0.03978501
0.011397926 0.036394075 -0.12988216 0.0273819 0.0711773 0.017092241 0.081594035 0.06326545
0.20649052 -0.06573247 -0.03047301 0.00058485684 0.11384983 0.004422814 0.30300352 0.14406943
0.01291309 0.242263 0.12807482 -0.07532111 0.0659499 0.1220887 0.058056142 0.16433132
-0.033346694 0.008073217 0.09618156 -0.18058437 0.05617475 0.3604134 0.06239133 0.14978144
0.018273743 -0.046839427 0.31670088 -0.46718296 0.14479487 0.25749683 -0.023632603 -0.04580501
0.049191654 -0.057930253 0.0012713129 0.0008492474 -0.043029718 -0.15446219 -0.0039620157 0.18288876
-0.0050040507 0.023923246 0.1905227 0.0687749 0.08759348 0.0061762026 0.04345964 -0.12559204
0.26847386 -0.075471565 0.2723658 -0.251761 0.024429582 0.16599561 -0.005012443 0.43410838
0.0332569 0.024285976 -0.20271444 -0.03235703 0.26663485 0.032568347 0.010954389 0.10708619
0.08175963 -0.0049210386 -0.096579626 0.10921775 0.17925765 -0.10826336 0.16878718 0.114621684
0.0031058635 -0.0046156966 0.06454156 -0.07778987 0.074498765 0.12175407 -0.012229327 0.22665377
0.17016107 0.10023982 0.06642532 -0.0972653 -0.029439421 0.42803404 0.07499699 0.09837949
-0.35513324 0.009489787 0.3125157 0.0978958 -0.8461581 0.26372093 0.03368275 0.0139764
-0.0068895235 0.04160879 -0.09860544 -0.05404183 -0.11547966 0.12043914 -0.048410144 -0.008387358
0.08527368 0.2786102 0.17961672 0.08401588 -0.110911086 -0.015067737 -0.06530714 -0.016925208
0.0048735524 -0.055833105 0.13539582 -0.31355494 0.117225245 -0.0484376 0.033827286 -0.11492987
0.054831184 0.13564791 -0.111269236 -0.09920022 0.016891848 -0.38515192 0.03776892 -0.0028941596
0.032541156 -0.07036783 -0.018133122 -0.07022836 -0.009269955 0.10291794 -0.07024567 0.01838026
0.02743712 -0.29967228 0.07414898 0.14528722 -0.03247617 -0.0730213 -0.042203702 -0.2603528
-0.11825752 -0.005076043 0.11278265 0.108770855 -0.16149418 0.349044 0.068503216 0.09686143

layer.4.bias f4 [128]
00000000: fa4b b33d 4616 183d 00c8 af3d 13ac 7f3e
00000010: 8e26 0ebe 9a77 6bbe 52a3 d73d 9495 9c3d
00000020: 142a 2b3e 1079 473e f104 8f3e ebe4 e03e
00000030: 0e5a 593e dc8e a43d d5bf 843e d44e 0b3e
00000040: 8055 813e 5392 08be 3f3a 3d3e 84db 5abe
00000050: 5831 bfbd 2fc9 343e ca76 4d3e b8d0 9f3d
00000060: 1cab 0b3e 08fb d03c d7ea a5be 197e 8ebe
00000070: 9b5e 453d 8f25 fbbd 4412 073e b697 533e
00000080: 23a4 a1be f28f 823e adb0 1a3e dc97 2f3e
00000090: b309 5bbc 9ad2 8a3d bc12 9b3e 47bd 9b3e
000000a0: ca78 58be 9145 a1be 0f53 863d 3410 6d3e
000000b0: 1ff1 bc3e a7c5 623e aab7 5ebd 7c1f 573e
000000c0: 86b8 0e3e ea91 1b3e b0d8 373e d1d2 c13d
000000d0: 8300 1a3e e9f9 753e 0583 c43d a9d3 083e
000000e0: fcfa ba3e 5e2a 0dbe 8c2e 993e 6a1c 98bd
000000f0: b341 05bd a931 4a3d a37e 543e 3b3b e8bd
00000100: 18ec c2bd 2bef 423e eb9c 383e 0d60 a2be
00000110: b2bf 513e 783e 0e3d 01be e13e 418d 43be
00000120: 1353 f03d fff2 803e 8ec7 f1bc d6de 553e
00000130: be79 8a3d 6585 803e 59f3 963e 6596 363e
00000140: ebeb 183e 91f4 5d3e c683 d43c 650a 533d
00000150: 16cb 4e3e c54f 8d3d 8355 7a3e 76ad 753e
00000160: f888 e23d a3ca 9c3d 53e8 003d eafb a93c
00000170: 3ca1 c23d 57f8 433e 5e63 be3e 3ee8 553e
00000180: 4d9b 123e f9b5 4d3e 2932 953d ca88 abbd
00000190: 6938 fbbd 7cf4 a03e c95b 603d 0d52 343c
000001a0: c780 13bd 9327 3a3e 646a 263e 63c6 cb3d
000001b0: 3138 f53d 370e 963e 6d63 523e b5ac 8e3d
000001c0: 8d31 343e fc2d 4b3e 9716 69bb 8ea8 073d
000001d0: 20bf 6e3e b528 553c f0dc 883d ae66 613e
000001e0: 9b48 9c3e a142 a8be ee0b a13d d2af 813d
000001f0: e961 863e ce53 6a3d 2c66 923d 5b34 183d
0.08754726 0.037130617 0.08583069 0.24967985 -0.13881895 -0.22994843 0.10529198 0.07645717
0.1671527 0.19479775 0.27933457 0.4392465 0.2122576 0.08035061 0.25927606 0.1360429
0.25260544 -0.13337068 0.1847925 -0.21372801 -0.093355834 0.1765487 0.20064846 0.07803482
0.13639492 0.025510326 -0.3240573 -0.2783058 0.048185926 -0.12263023 0.13190562 0.20663342
-0.3157054 0.25500447 0.15106459 0.17147774 -0.013369012 0.0677845 0.3028773 0.30417845
-0.21139827 -0.31498387 0.06558811 0.23150712 0.3690271 0.22145711 -0.054374374 0.21008104
0.13937578 0.1519238 0.17953753 0.09464038 0.15039258 0.24021114 0.095953025 0.13361992
0.3651961 -0.13785693 0.29918325 -0.074272946 -0.03253336 0.049363766 0.20751433 -0.11339422
-0.095176876 0.19036548 0.1802861 -0.31713906 0.20483282 0.034727544 0.44090274 -0.19096853
0.11734595 0.2518539 -0.0295141 0.20885786 0.06761502 0.25101772 0.29482535 0.17830808
0.14933746 0.21675326 0.02594174 0.051523585 0.20194659 0.068999805 0.24446683 0.23991951
0.11061281 0.076558374 0.03147156 0.020750005 0.09503409 0.19137703 0.37185186 0.20889375
0.14317055 0.20088948 0.07284958 -0.083757 -0.12266619 0.31436527 0.054775033 0.011005891
-0.036011484 0.18179159 0.16251522 0.09949949 0.11973608 0.2930772 0.2054574 0.06966535
0.17597027 0.1984176 -0.0035566443 0.03311973 0.23315096 0.013010194 0.066827655 0.22011825
0.30524144 -0.32863334 0.078636035 0.06332363 0.26246575 0.05720883 0.07148394 0.037159305

layer.6.weight f4 [8, 128]
00000000: d913 85bd 5e0a c9be d197 cdbe 96f9 7d3e
00000010: 12bc b3bc 3308 04be 7d68 89be 31bd 223f
00000020: 5322 e5be 8b94 b7bd 383a 553d d72f 063e
00000030: 13a1 df3d c68e c33b edc1 883e fce1 2a3e
00000040: 2ac8 b13d 5e2c 38be 5a0c 52be 0ad6 1dbe
00000050: 87eb 10be dd2e 233d 7f99 913e 1505 7bbd
00000060: f387 a2be 34a5 2a3f f4d5 dfbd 277e 04be
00000070: fa16 243c 7326 04be e106 24be 8a2c 1d3e
00000080: d8b7 ddbd 2d3e d7be 1c2e 253f a8e0 303e
00000090: 958f 3a3e 384d c3be 32a3 133e da49 153e
000000a0: daee d83f c130 70be f1cf 8abe 77fa d1be
000000b0: 1ccc 573e 43a2 06bf 5db3 7dbe bd76 2a3e
000000c0: a102 bd3d 48ab 833e ca08 a53d ffb3 c5be
000000d0: 4cdd 413e 16b6 f83c 8aef d03d 81cf 90be
000000e0: 99ce 773d b129 e8bd 0a1b a1be 4b08 34bc
000000f0: 40a7 5b3c a1e3 10bf ba08 1cbf 8b08 44bd
00000100: 67b7 a5be e4fd 723e 0014 2fbe 3a9d 3cbe
00000110: 8db3 b73d a765 823e 6700 073e 7ca8 afbd
00000120: 66c9 963e 4984 373e 0931 61be 2365 b3be
00000130: dc72 a63e ea38 a93e c3ec d13d 0be3 c6bd
00000140: 735c b93d 801f 3a3e 170a 31be 657d 8fbe
00000150: e1a3 853d b5df 813e 7ee5 433e f0a8 a83e
00000160: df3f 743e 8972 7dbe c901 52be 85fc d23c
00000170: d468 ad3e c1a3 593e 0385 443e 2a4c 823d
00000180: 6282 a73e 4312 fc3c af20 e6bc c6fd 253e
00000190: 4875 3cbe 3c8f 083e 664c 463f 688f 16be
000001a0: 9de0 c5bd 5c5e 843e b36e 83bd 7f13 bcbe
000001b0: bedb cabe 7485 adbe e3f7 33bf 7376 003d
000001c0: aad3 1c3d 7b30 8fbe babc dc3e 6048 ce3e
000001d0: 48b4 e43d bda3 dbbd dbe4 c9be 7c0f a4be
000001e0: bc16 ff3d 75cd a1bd 6633 d6bc aa30 bdbe
000001f0: 9722 713e 54a1 353f 181d 363f 5c8e bd3f
00000200: dca6 cf3d b574 ed3d 1049 eb3d d97b a43e
00000210: 0840 9abe f07e 30be e4b3 6f3e d942 1fbe
00000220: 689f 9f3e f75e cbbe f400 2ebf 020b be3e
00000230: a629 b13e 2618 c6be c3bc 3abe 5e25 b43e
00000240: dd56 0b3e 1bb5 f2be 83e0 fbbe b667 b93c
00000250: f00e c1bd ef74 d1be dd72 85be e1b5 0cbf
00000260: 1cd4 7f3e 2196 e7be 5556 cebd 1ce9 0dbe
00000270: 917e f9bc e4ac 98bd 6308 2ebe b95b 433e
00000280: ea3a 4cbe 0aa7 083e 0d86 41be 7904 bcbe
00000290: 64aa 0d3e 9b86 3f3e a4f8 9c3e 2baa 723e
000002a0: 2419 cebd 649f cbbd f2a9 f2be 1c8f 083e
000002b0: 857c d23e 5684 1b3e 1d9b 2ebd e704 2bbf
000002c0: 3667 ccbe 5f5f 81be 24e2 0c3e 1f2a 4a3e
000002d0: 9238 9a3e 3354 b03e 11cc 813d 9783 693e
000002e0: 38b4 453e 9530 30be fb56 9d3e a90f 1e3e
000002f0: d919 66bd 645f a93e ca09 c43e 9823 6ebe
00000300: 886d ae3f a127 9e3d 6465 763e 8053 9bbd
00000310: 545d f73d adb3 633e da7b 893e d976 d53f
00000320: f8bc 2f3e 9eca ef3d 0cd8 50be ebfe 003e
00000330: e2d9 a53e ae8e 073e dc43 213e 6f8f f13e
00000340: a170 3a3e 0910 9dbe 928a a8be 83b3 17bf
00000350: 3f4f f3be 8862 debe 7281 0a3e 9918 503e
00000360: 2e08 5fbf a48b c8be c57b 0bbe c117 a1bd
00000370: 5804 1ebe 745a 463e 9a4f 133e a8c7 3a3d
00000380: dcfb 60be 0a59 14bf bdcf 2ebf e03e 73bd
00000390: 532f ee3d a4fb febe 0935 a4be 96ed 1cbe
000003a0: 00e9 9c3d 06fb a9be c741 45bf b66f 1dbf
000003b0: e21d 193f 8feb 523e 45e3 9a3e d9fe 08bf
000003c0: da02 58bf 549b 303e aa7a 62bd 58e5 cb3f
000003d0: 9514 ccbe d6aa 20bf dcbd 333c aa36 373e
000003e0: 2e6a d0bd 518c 1bbe 3029 9eba 643b 153f
000003f0: 4298 ebbe be03 91be 8ab7 f6bd 5f46 91bb
-0.06497926 -0.39265722 -0.4015489 0.2480224 -0.021940265 -0.12893753 -0.2683753 0.63569933
-0.4475275 -0.08963879 0.052057475 0.13104187 0.10919394 0.0059679477 0.26710454 0.16687769
0.086807564 -0.17985675 -0.20512524 -0.1541368 -0.14152347 0.039839614 0.2843742 -0.061284143
-0.31744346 0.6665833 -0.1092948 -0.12938748 0.010015244 -0.12905292 -0.16018249 0.15349022
-0.10826081 -0.42039624 0.6452348 0.172732 0.18218835 -0.3814485 0.14417723 0.14578953
1.6947892 -0.23456098 -0.27111772 -0.41011402 0.21073955 -0.5259134 -0.24775453 0.16646858
0.09229017 0.25716615 0.08058317 -0.3861389 0.18932074 0.030360263 0.102019385 -0.28283313
0.06049976 -0.11336077 -0.31465942 -0.010988305 0.013406575 -0.56597334 -0.60950816 -0.04785971
-0.32366487 0.23729664 -0.17097473 -0.18419352 0.089697935 0.2546818 0.13183747 -0.08577058
0.2945053 0.17921557 -0.21991362 -0.350381 0.32509506 0.33051234 0.10250237 -0.09711274
0.090508364 0.18176079 -0.17289005 -0.28025356 0.06525398 0.25365987 0.19130513 0.3294139
0.2385249 -0.24750723 -0.20508493 0.025755176 0.3386904 0.21253873 0.19191365 0.063621834
0.32716662 0.030770427 -0.028091757 0.16210088 -0.18404114 0.1333589 0.77460325 -0.14703143
-0.09661982 0.2585324 -0.064175986 -0.36733624 -0.39620775 -0.3389088 -0.7030012 0.031362962
0.038287796 -0.27966675 0.43112737 0.40289593 0.111671984 -0.1072459 -0.39432415 -0.32043064
0.12455508 -0.07900516 -0.026147556 -0.3695119 0.23548351 0.7094929 0.71138144 1.480907
0.10139248 0.11594526 0.11488545 0.32125738 -0.30126977 -0.17235923 0.23408467 -0.15552844
0.31176305 -0.3972089 -0.67970204 0.37117773 0.34602088 -0.386903 -0.1823607 0.3518476
0.13607354 -0.47403798 -0.49194726 0.022632461 -0.09426677 -0.40909526 -0.26064196 -0.54965025
0.24983257 -0.45231727 -0.1007506 -0.13858455 -0.03045586 -0.07454851 -0.16995387 0.19077958
-0.19944349 0.1334497 -0.18898793 -0.36722162 0.1383453 0.18703692 0.30658448 0.23697726
-0.10063389 -0.09942511 -0.47395283 0.13335842 0.41110626 0.15187201 -0.042628396 -0.66804355
-0.39922494 -0.25268075 0.13758141 0.1974263 0.30121285 0.3443924 0.06337751 0.22804104
0.19307029 -0.17206033 0.30730423 0.15435661 -0.056176994 0.3308059 0.38288718 -0.23255765
1.3627176 0.07722402 0.24062115 -0.07584286 0.12078348 0.2223651 0.26852304 1.6676894
0.1716193 0.11708568 -0.20394915 0.12597243 0.32392794 0.13238022 0.15748543 0.47179744
0.18207027 -0.30676296 -0.3291822 -0.5925829 -0.47521397 -0.43434548 0.13525942 0.20321883
-0.87121856 -0.39169037 -0.13621433 -0.07865859 -0.15431345 0.19370443 0.14385834 0.045600563
-0.21971077 -0.5794836 -0.68285733 -0.059386134 0.1163012 -0.49801362 -0.32071713 -0.15325007
0.07661629 -0.33199328 -0.77053493 -0.6149858 0.5981122 0.20597671 0.30251518 -0.53513867
-0.8437935 0.17246753 -0.055292763 1.5929365 -0.39859453 -0.62760675 0.010970559 0.17891946
-0.10176502 -0.15190245 -0.0012066718 0.5829375 -0.460146 -0.28323168 -0.12046726 -0.0044334377

layer.6.bias f4 [8]
00000000: 7775 313e 673a f93d e96e 773a 5512 373e
00000010: 786a 92bc 620e 08bb 371c b93b cd80 0fbd
0.17329966 0.121693425 0.0009438829 0.17878087 -0.017873034 -0.0020760526 0.0056491154 -0.035034943
