final/save/0.9_0.99_500/save1_2500.pth (torch_old, 15355 bytes, 6 tensors)

layer.0.weight f4 [32, 28]
0	0x3ceb52f5	0.02872608
1	0x3dffb39b	0.12485429
2	0xbcfdc955	-0.030979792
3	0xbcdb2c5a	-0.026754547
4	0x3e4177ec	0.18893403
5	0x3a8d46f4	0.0010778592
6	0x3d964820	0.073379755
7	0xbda7edc3	-0.08199646
8	0x3e6ce34c	0.23133582
9	0xbc515e1b	-0.012778784
10	0x3eb497b9	0.35272005
11	0x3e004129	0.12524857
12	0x3e766ad8	0.24064195
13	0x3e454701	0.19265367
14	0x3e0ce459	0.13758983
15	0xbdeff8d9	-0.11717386
16	0xbe03853c	-0.12843794
17	0xbd25917f	-0.04042196
18	0xba797476	-0.000951595
19	0x3e44d5ed	0.19222231
20	0x3e8e62e1	0.27809814
21	0x3cab6c94	0.020925798
22	0xbc035859	-0.008016669
23	0x3df1ac56	0.118004486
24	0xbcf7a3dc	-0.030229501
25	0xbdf85481	-0.12125493
26	0x3d751dce	0.059842877
27	0xbce38cf9	-0.027777182
28	0x3db8094a	0.08986147
29	0xbdf23eb0	-0.11828363
30	0xbe09b442	-0.13447669
31	0x3c948e70	0.018134326
32	0x3da7a666	0.08186035
33	0xbda3b3c2	-0.079932705
34	0xbe77436e	-0.24146816
35	0xbee5ef85	-0.449093
36	0xbb1d3bf3	-0.0023992031
37	0x3e941df9	0.28929117
38	0x3dd3d170	0.103426814
39	0xbdb0d999	-0.086352535
40	0x3da3e2a5	0.080022134
41	0x3e37a044	0.1793223
42	0x3e00fe1f	0.1259694
43	0x3b4f45bb	0.0031627256
44	0xbd3bca90	-0.045847476
45	0xbdc786cf	-0.097425096
46	0x3d58b14b	0.052903455
47	0x3e210926	0.15726146
48	0x3e32f60c	0.17476672
49	0xbd2fef98	-0.042953104
50	0xbda0838b	-0.0783759
51	0xbd54b68a	-0.051931895
52	0xbdd7ed8c	-0.10543355
53	0x3e0d8966	0.13821945
54	0x3e0c92bb	0.13727848
55	0xbdf2c1c1	-0.11853362
56	0xbe0a5928	-0.13510573
57	0xbd9662f6	-0.07343094
58	0xbc600357	-0.013672671
59	0xbd2015ca	-0.03908328
60	0x3dc8ce63	0.0980499
61	0x3c7249f7	0.014788142
62	0x3d552757	0.05203947
63	0xbdf5c816	-0.12001054
64	0xbdb791bb	-0.08963343
65	0x3e801361	0.25014785
66	0x3ea70e91	0.326283
67	0x3e44ec5a	0.19230786
68	0x3da976ea	0.08274634
69	0xbe591a8a	-0.2120153
70	0xbc821ccb	-0.01588287
71	0x3e1cd40c	0.15315264
72	0x3df8b6fc	0.121442765
73	0x3dfb3383	0.122656845
74	0xbe020be3	-0.12699847
75	0x3e037a6c	0.12839669
76	0xbdd340cb	-0.10315093
77	0x3e26efeb	0.16302459
78	0x3db48adf	0.0881555
79	0x3e007c90	0.12547517
80	0x3e9379b3	0.28803787
81	0xbd8e35c0	-0.06943846
82	0x3db73259	0.0894515
83	0x3e5f392f	0.21799158
84	0x3d9722b8	0.07379669
85	0x3e245f4f	0.16051982
86	0x3dea1eff	0.11431693
87	0xbe23783c	-0.15963835
88	0x3e35c900	0.17752457
89	0xbd4e645a	-0.05038867
90	0x3d5afa24	0.05346121
91	0x3ea567f1	0.32305863
92	0x3e91e469	0.28494576
93	0xbc5e5c24	-0.013571773
94	0xbdb777b4	-0.089583784
95	0xbc60219b	-0.013679887
96	0x3e21ca26	0.1579977
97	0x3e7b2e3d	0.24529357
98	0x3dcd4c24	0.10024288
99	0xbd82865f	-0.063732855
100	0xbe62464c	-0.22097129
101	0x3e1db6b7	0.15401731
102	0x3d88ca6f	0.06679236
103	0x3db1b137	0.08676379
104	0x3ed36abf	0.41292378
105	0xbe23dc4f	-0.1600201
106	0xbe074412	-0.1320956
107	0xbe2083a2	-0.15675214
108	0xbc822513	-0.015886819
109	0xbdfcf98c	-0.12352285
110	0x3e273cd0	0.16331792
111	0x3dee5100	0.11636543
112	0x3e0be7ac	0.13662595
113	0x3dae4867	0.085099034
114	0xbc46643d	-0.01210886
115	0x3be04690	0.006844349
116	0xba2f9111	-0.0006697337
117	0x3e0b101b	0.13580362
118	0x3e7f5664	0.24935299
119	0x3ee594a1	0.44839957
120	0x3e1e3fdf	0.15454052
121	0xbdfa3514	-0.12217155
122	0xbe4b3793	-0.19845419
123	0x3dbfd269	0.093663044
124	0x3d1670ad	0.03672855
125	0x3dad4779	0.08460898
126	0x3d10ade5	0.03532209
127	0xbd025bdd	-0.03182589
128	0x3e218cc5	0.15776356
129	0x3dd74b20	0.10512376
130	0xbd1aac13	-0.03776176
131	0x3de692c4	0.11258462
132	0x3e34e0d7	0.17663895
133	0x3d99737d	0.07492731
134	0x3d6d4231	0.057924453
135	0xbaa239d5	-0.0012376854
136	0x3d10db55	0.03536542
137	0xbd765bb9	-0.060146067
138	0xbd556da0	-0.0521065
139	0xbdd820f0	-0.10553157
140	0x3e1cc568	0.1530968
141	0x3d9e212f	0.07721173
142	0x3d573553	0.05254109
143	0x3d386abf	0.045023676
144	0x3e0191ae	0.12653229
145	0x3dea38df	0.114366286
146	0x3ecde5d2	0.402144
147	0x3ea09e9e	0.31371015
148	0xbc8e42f9	-0.01736592
149	0x3e034e23	0.12822776
150	0x3e0fe445	0.14051922
151	0x3ddc3404	0.10752109
152	0xbdf0b8cd	-0.11753998
153	0x3dbabdb1	0.09118212
154	0x3dc9ebd1	0.098594315
155	0x3dcf3ac3	0.1011863
156	0xbdbc341e	-0.09189628
157	0xbcd4aa44	-0.025960095
158	0x3d56ad82	0.052411564
159	0xbdffac97	-0.12484091
160	0x3d136910	0.035988867
161	0xbb7f06f4	-0.0038914056
162	0xbe3069ef	-0.1722791
163	0x3af94649	0.0019018139
164	0xbd21cdc5	-0.039502878
165	0x3e459db9	0.19298448
166	0xbc9c7251	-0.019097479
167	0x3c856df5	0.016287783
168	0x3d3dbd93	0.04632337
169	0xbd90e829	-0.07075531
170	0xbe0a768f	-0.13521789
171	0x3d4d7604	0.050161377
172	0x3d2ad945	0.04171111
173	0xbbff2715	-0.0077866414
174	0xbeb7b03b	-0.3587664
175	0xbea9b51c	-0.33145988
176	0xbbbe0bae	-0.005799732
177	0x3e811ed0	0.2521882
178	0x3e153ee0	0.14574766
179	0x3d9f986f	0.07792746
180	0x3e18e1c2	0.1492987
181	0x3c6aa713	0.01432206
182	0x3c670e15	0.0141024785
183	0xbd9a88ca	-0.07545622
184	0xbd87c62d	-0.06629596
185	0x3e268289	0.16260733
186	0x3e3c5677	0.18392359
187	0x3c84febf	0.016234754
188	0x3e0de9d5	0.13858731
189	0xbda987f6	-0.082778856
190	0x3c1770f8	0.009243242
191	0xbd62924d	-0.055315305
192	0xbde2c6a6	-0.110730454
193	0x3e17a193	0.1480773
194	0xbd9aae4c	-0.07552776
195	0x3db234dd	0.08701489
196	0xbc67738a	-0.014126668
197	0x3c5bf5f9	0.013425344
198	0xbdc47829	-0.09593231
199	0x3d589c39	0.05288336
200	0xbe20ae3a	-0.15691462
201	0xbc6f77fa	-0.014616007
202	0x3e62f165	0.22162397
203	0xbc09804b	-0.008392404
204	0x3d361497	0.04445323
205	0xbd9bb033	-0.07601967
206	0xbe785ca8	-0.24254096
207	0x3dbc702d	0.09201083
208	0x3e653d10	0.22386575
209	0x3e875b0e	0.26436657
210	0x3e2eee9b	0.17083208
211	0xbde2db00	-0.11076927
212	0xbe971e81	-0.2951546
213	0xbdcbd070	-0.09951866
214	0x3dcfd54a	0.101481035
215	0x3e94f86c	0.2909578
216	0x3e00cc1c	0.12577862
217	0xbdeeadb5	-0.11654226
218	0xbe13b990	-0.14426255
219	0xbd09a4e6	-0.033604525
220	0x3dc213d2	0.09476437
221	0xbc9a0c99	-0.018804835
222	0x3c561d8c	0.013068568
223	0x3dbfeb11	0.09371007
224	0x3d10c290	0.0353418
225	0x3e35287a	0.17691222
226	0x3e03460d	0.12819691
227	0x3d49a4cb	0.049229424
228	0x3d7dd54f	0.061971005
229	0xbd59a8aa	-0.053139366
230	0x3e91d278	0.28480887
231	0x3e451444	0.19246012
232	0xbe2543c5	-0.16139133
233	0x3dd64a16	0.104633495
234	0x3e5b8a4a	0.21439472
235	0x3daaa43b	0.08332106
236	0xbe8f7dcb	-0.2802566
237	0xbdc6c77a	-0.09706016
238	0xbd39d534	-0.045369342
239	0x3c3760ed	0.0111925425
240	0x3e081ce8	0.13292277
241	0x3bdcff02	0.0067442665
242	0xbe5cbffc	-0.21557611
243	0x3d83f15b	0.06442519
244	0xbe628020	-0.22119188
245	0xbc824a91	-0.015904697
246	0x3e299d72	0.16563967
247	0x3e4ddb88	0.20103276
248	0xbe050dbf	-0.12993525
249	0x3c9e9786	0.019359361
250	0x3dfbbfc1	0.122924335
251	0x3e152f51	0.14568831
252	0xbd8a9333	-0.06766357
253	0x3cdea0ba	0.02717625
254	0x3d274117	0.04083356
255	0x3de76f41	0.11300517

layer.0.bias f4 [32]
0	0x3c6b57c0	0.014364183
1	0x3d1e94e7	0.038716223
2	0x3e0db474	0.13838369
3	0x3e688376	0.22706398
4	0x3da03ca6	0.07824068
5	0x3dfb15a6	0.122599885
6	0x3d7959c1	0.06087661
7	0xbe428e15	-0.18999512
8	0x3b929cc8	0.004474256
9	0x3e86774d	0.26262894
10	0xbd0d222f	-0.03445643
11	0x3e8f5f7e	0.28002542
12	0x3caddb3b	0.021222701
13	0x3e190211	0.14942195
14	0x3e07cdda	0.1326212
15	0x3e461a75	0.1934603
16	0x3bb1d4fd	0.0054270015
17	0x3dff7f25	0.12475423
18	0x3dfd8240	0.12378359
19	0x3ce4541e	0.027872141
20	0x3e9bad6c	0.30405748
21	0x3e1043df	0.14088391
22	0xbe1a7b0e	-0.15086004
23	0x3dcf7fb8	0.10131782
24	0x3d7d44ea	0.0618333
25	0x3dfdd206	0.123935744
26	0x3e5918ff	0.21200942
27	0x3e6f8389	0.2339002
28	0xbd037833	-0.032097053
29	0x3d329be0	0.043605685
30	0x3e65acf5	0.22429259
31	0xbe0a4fdc	-0.13507026

layer.2.weight f4 [64, 32]
0	0x3e425fec	0.18981904
1	0xbdbf0fd5	-0.093291916
2	0xbe0358b3	-0.12826805
3	0x3e82c23c	0.25538814
4	0xbe026149	-0.12732424
5	0xbe064f9d	-0.13116308
6	0xbe3613c9	-0.17780985
7	0x3e9a78cd	0.3017029
8	0x3ba78e28	0.005113382
9	0xbb8b2717	-0.004246603
10	0x3e3b2867	0.18277131
11	0x3d9f6536	0.07782976
12	0xbd9dd747	-0.077070765
13	0x3e0c5e01	0.13707735
14	0x3e6d0d1f	0.23149537
15	0xbcedb6da	-0.029017854
16	0x3d1a1a6b	0.03762285
17	0xbd9c06ab	-0.07618459
18	0x3d8b86c7	0.06812816
19	0x3e44c8d5	0.19217236
20	0x3ce6e045	0.028183112
21	0x3e997aa6	0.29976386
22	0xbe625646	-0.22103223
23	0xbe361a6f	-0.17783521
24	0x3e8a462b	0.2700666
25	0x3e7e846d	0.24855204
26	0xbd9c17b8	-0.076217115
27	0xbe10154e	-0.14070627
28	0xbe25e391	-0.16200091
29	0xbd02791c	-0.03185378
30	0x3d7e1ab3	0.06203718
31	0x3e00fe1b	0.12596934
32	0x3e2501d1	0.16113974
33	0x3e81acb9	0.2532709
34	0x3e9ebb62	0.31002337
35	0xbde1d5db	-0.11027118
36	0xbdc90fd9	-0.09817476
37	0x3de6c653	0.11268296
38	0x3d57cbd6	0.052684627
39	0xbec13a22	-0.37739664
40	0x3c72b0b8	0.014812641
41	0xbc34de5c	-0.011039343
42	0x3a28ce2e	0.00064394146
43	0x3daf0610	0.08546078
44	0x3e590c19	0.21196021
45	0xbea55cb8	-0.322973
46	0xbe79f784	-0.24410826
47	0x3c065a9d	0.008200315
48	0xbe112626	-0.14174709
49	0xbe8f4397	-0.27981254
50	0x3d92b718	0.071638286
51	0x3baf34fb	0.005346892
52	0xbd818835	-0.063248076
53	0xbe5f973c	-0.21835035
54	0x3e2a0915	0.16605027
55	0x3e2d7d26	0.16942272
56	0xbdd4671a	-0.103712276
57	0xbe3245da	-0.17409459
58	0xbcca739b	-0.024713328
59	0x3df01a25	0.11723737
60	0xbd37066d	-0.044683862
61	0x3d87edfa	0.06637187
62	0x3e33fae2	0.17576173
63	0xbe367f7d	-0.1782207
64	0x3de56fd9	0.11202974
65	0xbcc7c622	-0.02438647
66	0x3e870885	0.26373687
67	0xbe35a8f4	-0.17740232
68	0x3e6aad32	0.22917631
69	0x3e196ffc	0.14984125
70	0x3dbae8ef	0.0912646
71	0xbf06d7b2	-0.52672875
72	0x3dc51977	0.09623998
73	0xbbbe9180	-0.005815685
74	0xbe29dd9f	-0.16588448
75	0x3d06c18b	0.03289942
76	0x3e6cc18b	0.23120706
77	0xbdc28a6d	-0.09499059
78	0x3e3ce01c	0.18444866
79	0x3e4317ac	0.19051999
80	0xbd00e3b7	-0.031467166
81	0x3d7b8169	0.061402712
82	0x3ca5bd6c	0.020231925
83	0xbe0a060c	-0.13478869
84	0xbd46eb3e	-0.04856419
85	0xbdbed0ae	-0.09317146
86	0x3e892cfb	0.2679213
87	0x3e4208a2	0.18948606
88	0xbdf64d03	-0.120264076
89	0xbe6453aa	-0.2229754
90	0x3e3aa4ef	0.1822698
91	0x3e74eb2c	0.23917836
92	0x3d87d6b8	0.06632751
93	0xbc402960	-0.011728615
94	0xbde23561	-0.110453375
95	0xbdfb3837	-0.122665815
96	0xbe00597c	-0.12534136
97	0xbe2c7cc3	-0.16844468
98	0x3d818546	0.06324248
99	0x3ccf08ac	0.02527269
100	0xbda020ab	-0.07818731
101	0x3d8a67c8	0.06758076
102	0xbe484c6a	-0.195604
103	0xbea2d748	-0.31804872
104	0x3e822c78	0.25424552
105	0xbe4c1282	-0.19928935
106	0xbd37c78b	-0.044868033
107	0x3d801400	0.06253815
108	0x3e1f3abe	0.15549752
109	0xbddc9863	-0.10771253
110	0x3d01cb1b	0.031687837
111	0x3e9eeca9	0.31039932
112	0x3d05a705	0.032629985
113	0x3c5977e2	0.013273211
114	0x3e591ce9	0.21202435
115	0xbe1a9ad1	-0.1509812
116	0x3e3bc908	0.18338406
117	0x3c4e0b4e	0.012575937
118	0x3d88f8da	0.0668809
119	0x3db05292	0.08609499
120	0xbd9b871d	-0.0759413
121	0xbcc958b6	-0.024578433
122	0x3da1c660	0.07899165
123	0x3e599b00	0.21250534
124	0x3e759fbb	0.23986714
125	0xbd2d17a9	-0.042258892
126	0x3b3979c3	0.0028301335
127	0xbde9ff49	-0.11425645
128	0x3dc52d01	0.096277244
129	0xbe1d849f	-0.15382622
130	0xbdd7b769	-0.105330296
131	0x3e2e8d0d	0.17045994
132	0x3e218789	0.15774359
133	0x3e88f760	0.26751232
134	0xbec1e7a0	-0.37872028
135	0x3e999636	0.29997414
136	0xbcbe64b0	-0.02324137
137	0xbda403c7	-0.08008533
138	0x3deee321	0.11664415
139	0xbd241180	-0.04005575
140	0xbb8902fe	-0.004181265
141	0x3e8bb580	0.2728691
142	0x3dce2cde	0.100671515
143	0x3d9b6eb9	0.07589478
144	0xbd85997d	-0.06523416
145	0x3e3cb0d6	0.18426833
146	0xbe274206	-0.1633378
147	0xbda042da	-0.07825251
148	0xbd87ce60	-0.0663116
149	0x3d827e2f	0.06371724
150	0xbe1da59f	-0.1539521
151	0xbe67839d	-0.226088
152	0x3da1c8f0	0.07899654
153	0x3da5c05a	0.08093329
154	0x3e392d2d	0.1808364
155	0x3c09e298	0.008415841
156	0x3e323eec	0.17406815
157	0xbe32f3ac	-0.17475766
158	0xbd5729a8	-0.05252996
159	0x3b771beb	0.003770585
160	0x3dbc7f39	0.09203953
161	0x3df63921	0.12022615
162	0xbe1288f9	-0.14310063
163	0xbcf4f4d0	-0.029901892
164	0x3d557cb4	0.05212088
165	0xbd9a56de	-0.075361
166	0x3c10fe2a	0.00884966
167	0x3e95b4c1	0.29239467
168	0xbe0a10ad	-0.13482924
169	0x3e24ffaa	0.16113153
170	0x3e21bc08	0.15794384
171	0xbdbddf85	-0.092711486
172	0xbd38dcae	-0.04513233
173	0x3de4c757	0.111708336
174	0x3e020792	0.126982
175	0xbde3d164	-0.111239225
176	0xbd1c031b	-0.0380889
177	0x3e7df0f5	0.24798949
178	0xbe4ebfdb	-0.20190375
179	0x3a83ef8c	0.0010065897
180	0x3c8696ce	0.016429331
181	0x3dc033dd	0.09384892
182	0x3d8fb7cc	0.07017478
183	0x3d4353cc	0.047687337
184	0x3e82b887	0.25531408
185	0x3dfa1b99	0.12212295
186	0xbd34b215	-0.044115145
187	0x3c4a154e	0.012334181
188	0xbdccb3f7	-0.09995263
189	0x3e314d47	0.17314635
190	0x3e47586e	0.19467327
191	0x3e8fb208	0.28065515
192	0xbe4a3cf6	-0.19749817
193	0xbe690b65	-0.22758253
194	0x3dc7e00d	0.09759531
195	0xbe2c1efb	-0.16808693
196	0x3e064d2d	0.13115378
197	0xbd9fafe9	-0.07797224
198	0xbdf39ab1	-0.118947394
199	0xbda95efe	-0.082700714
200	0xbe68f885	-0.22751053
201	0x3e2a70ea	0.16644636
202	0x3e7bc58d	0.24587078
203	0x3d71ffd4	0.059081867
204	0xbbfe01ed	-0.0077516944
205	0x3e28dab6	0.16489682
206	0x3c8587cd	0.016300106
207	0x3cc6b90a	0.024258155
208	0x3dff4337	0.12463992
209	0x3d373e10	0.04473692
210	0xbe1575fb	-0.14595787
211	0x3b10f83a	0.002212061
212	0x3cba45b8	0.022738323
213	0x3e5c64fb	0.21522896
214	0xbe55c713	-0.20876722
215	0x3c52b622	0.012860807
216	0x3e818d98	0.2530334
217	0x3bf03e99	0.007331681
218	0xbe41313a	-0.18866435
219	0x3d878f1e	0.06619094
220	0xbe77ab3b	-0.24186413
221	0x3e0b209f	0.13586663
222	0xbd8fe179	-0.07025427
223	0x3e4f4c79	0.20244016
224	0x3d9f7a2f	0.077869765
225	0x3ea1db03	0.31612405
226	0x3cb68231	0.022278877
227	0x3d70b5a9	0.058766995
228	0x3d1f5e7e	0.038908474
229	0xbe7d5b8c	-0.24741954
230	0x3e62e857	0.22158943
231	0x3dba9e69	0.091122456
232	0xbea263d2	-0.31716782
233	0x3e519823	0.20468192
234	0xbd1556f8	-0.036459893
235	0x3d47ead7	0.048807945
236	0xbec4c415	-0.3843085
237	0xbda14bd6	-0.07875793
238	0xbdf4cc37	-0.119530134
239	0x3d23b3ad	0.039966274
240	0xbd83abdf	-0.06429266
241	0xbc7f7c51	-0.015593604
242	0xbbda1354	-0.006655136
243	0x3bce8698	0.006302666
244	0x3e581d9d	0.21105047
245	0x3da14a78	0.07875532
246	0x3e41a920	0.18912172
247	0xbd5e8195	-0.054322798
248	0x3cd0621d	0.025437409
249	0x3e47193e	0.19443223
250	0xbee9aead	-0.4564108
251	0xbde6185c	-0.11235115
252	0xbe6137f4	-0.21994
253	0x3d912bf6	0.07088463
254	0x3e8515ac	0.25993097
255	0xbc818982	-0.01581264

layer.2.bias f4 [64]
0	0x3e57c607	0.21071635
1	0x3e856710	0.26055193
2	0x3d98a294	0.07452884
3	0x3e455d61	0.19273902
4	0x3e1f4dc1	0.15557005
5	0x3de22064	0.11041334
6	0xbdb2b84c	-0.08726558
7	0xbe2a4531	-0.16627957
8	0x3e23d3a9	0.1599871
9	0xbcf7fb6d	-0.030271256
10	0x3e053fa9	0.13012566
11	0xbcd1131f	-0.025521813
12	0xbd9638c2	-0.073350444
13	0xbdd273cf	-0.10275995
14	0x3d24ef34	0.040267184
15	0xbd0ad7e1	-0.033897284
16	0xbe3ac895	-0.18240578
17	0xbe690d7e	-0.22759053
18	0x3cd08a00	0.025456429
19	0x3dd22daf	0.1026262
20	0xbdbcc1d4	-0.09216657
21	0x3dfcd58e	0.1234542
22	0x3e8d843b	0.27639946
23	0x3e2c71a0	0.1684022
24	0xb9ba230d	-0.000355028
25	0x3ea5836e	0.32326835
26	0x3e6208f9	0.22073735
27	0x3e0c6669	0.13710941
28	0x3e90f2e1	0.28310302
29	0x3d8f622a	0.07001145
30	0xbd201255	-0.039079983
31	0x3e3fc30c	0.18726748
32	0x3cef41fc	0.029206268
33	0x3db30835	0.087418
34	0x3e17c05d	0.14819475
35	0x3e664a6c	0.22489327
36	0xbe151273	-0.14557819
37	0x3e0593d7	0.13044678
38	0x3db1f938	0.08690113
39	0x3ec73f26	0.38915366
40	0x3e69422a	0.22779146
41	0x3db0b2e3	0.0862787
42	0xbd6800f2	-0.056641527
43	0x3e94da9a	0.2907303
44	0x3e7b36d0	0.24532628
45	0x3d6fb080	0.058517933
46	0x3e1039c2	0.14084533
47	0x3ec906a4	0.3926288
48	0x3de695f1	0.11259068
49	0x3f2334ae	0.6375226
50	0x3dd735bb	0.10508295
51	0x3d3ef95a	0.04662452
52	0x3d2f0879	0.04273269
53	0xbcc27197	-0.023735804
54	0x3e22465d	0.15847154
55	0x3e2c0784	0.16799742
56	0xbe1b23a1	-0.1515031
57	0xbd9ce3e0	-0.07660651
58	0xbd9d6ef1	-0.07687176
59	0x3dbfa258	0.093571365
60	0x3a8d4269	0.0010777238
61	0xbd7f31c6	-0.062303327
62	0xbeb7af18	-0.35875773
63	0xbd81f6d7	-0.06345909

layer.4.weight f4 [8, 64]
0	0xbe426392	-0.18983296
1	0x3e692e8f	0.22771667
2	0x3ea4ac75	0.32162824
3	0x3ea7a3f9	0.3274229
4	0xbe0dfa4e	-0.13865015
5	0xbe80d848	-0.2516501
6	0xbe09f508	-0.13472378
7	0x3f51e74e	0.8199357
8	0xbe4ab07e	-0.19793889
9	0xbe909cff	-0.2824478
10	0xbdcf9d65	-0.101374425
11	0x3e0f7169	0.14008106
12	0xbca0bce2	-0.019621316
13	0xbe6d7119	-0.23187675
14	0x3eec39e6	0.46137923
15	0xbe25f1b3	-0.16205482
16	0xbd27574c	-0.040854737
17	0xbe1c5c82	-0.15269664
18	0x3e9bcd31	0.30429986
19	0x3d85378c	0.06504735
20	0xbdd10584	-0.1020613
21	0xbe2ace90	-0.1668036
22	0xbd1823b2	-0.037143417
23	0xbe89d2dd	-0.26918688
24	0x3e0d5939	0.13803567
25	0x3d3fc13e	0.04681515
26	0x3cede435	0.029039482
27	0xbe903da4	-0.28172028
28	0x3e6a42d0	0.2287705
29	0xbe263b14	-0.16233474
30	0xbe4e64dd	-0.20155664
31	0x3e11666f	0.14199232
32	0x3e3d28d5	0.18472607
33	0xbe325d59	-0.17418422
34	0xbdbc0580	-0.091807365
35	0x3eff7561	0.4989424
36	0xbe6e276d	-0.23257227
37	0x3eecd663	0.46257314
38	0xbd42e64c	-0.04758291
39	0x3d99778d	0.074935056
40	0xbe6a7061	-0.22894432
41	0x3e1327bb	0.14370625
42	0xbe94c515	-0.29056612
43	0xbe29ab5d	-0.16569276
44	0xbe4549a4	-0.19266373
45	0x3e7dc953	0.2478383
46	0x3ed71df8	0.42015052
47	0x3e12d413	0.14338712
48	0xbe25bcc5	-0.16185291
49	0xbe6ea6d7	-0.23305832
50	0x3f7be03d	0.98389035
51	0xbe1e85b5	-0.15480693
52	0xbe2fc09a	-0.17163315
53	0x3e367b72	0.17820528
54	0x3db696e3	0.08915498
55	0xbddcbdf8	-0.10778421
56	0xbdbb5975	-0.09147922
57	0xbd41df4a	-0.047332086
58	0xbddf0fcb	-0.10891684
59	0x3e53c75e	0.20681521
60	0xbd717496	-0.058949076
61	0xbe2bf4d7	-0.16792618
62	0xbe0a472c	-0.13503712
63	0xbe61d8fe	-0.22055432
64	0x3e78d9d6	0.24301848
65	0xbda0a17a	-0.07843299
66	0xbe166719	-0.14687766
67	0xbd1292f3	-0.035784673
68	0x3dfeef1c	0.1244795
69	0x3cc59c7a	0.024122465
70	0xbd4973c7	-0.04918268
71	0xbe89d6b3	-0.26921615
72	0x3d2a131a	0.041522123
73	0x3da76ab6	0.0817465
74	0x3cf2555e	0.029581722
75	0xbe0d437d	-0.13795276
76	0x3edd9e15	0.4328467
77	0xbbb3aa83	-0.005482973
78	0xbe2b11ba	-0.16705981
79	0x3e729994	0.23691398
80	0x3d92086d	0.07130513
81	0x3e5cec7d	0.21574588
82	0xbe571252	-0.21003082
83	0xbe5a11b9	-0.21295823
84	0xbe244daa	-0.16045251
85	0x3db67a16	0.08910005
86	0x3e8e887a	0.27838498
87	0xbdf6185e	-0.120163664
88	0xbd7d7272	-0.06187672
89	0x3e2ea871	0.17056443
90	0x3e801a96	0.25020283
91	0xbe2e042e	-0.16993782
92	0x3eb3b318	0.35097575
93	0x3ef6e6f6	0.48223084
94	0x3ef844f6	0.48490113
95	0x3e09d8d5	0.13461621
96	0x3de7d65a	0.11320181
97	0x3daa6189	0.083193846
98	0xbd8fb74f	-0.07017385
99	0x3e61001c	0.21972698
100	0xbe8f33cc	-0.27969205
101	0xbdc4a92b	-0.09602579
102	0x3f541c4d	0.82855684
103	0x3decd9e3	0.11564996
104	0xbbfb742c	-0.007673761
105	0xbe2a3b88	-0.16624272
106	0x3da06439	0.07831616
107	0x3ccfdb73	0.025373196
108	0x3b70fb3b	0.0036770839
109	0xbc66d06f	-0.01408778
110	0xbda18d44	-0.078882724
111	0xbd97bc87	-0.074090056
112	0xbe318255	-0.17334874
113	0xbf15c342	-0.58501065
114	0xbc84ded7	-0.01621954
115	0x3ed6ba66	0.41939086
116	0xbd4956da	-0.049155094
117	0xbdb7da29	-0.089771576
118	0x3d516e9b	0.051130872
119	0x3e819b4e	0.253138
120	0xbe45549a	-0.19270554
121	0xbd4dc923	-0.050240647
122	0x3f0ebb16	0.5575422
123	0xbd7f97f2	-0.062400766
124	0xbcb52eed	-0.022117103
125	0x3e188b20	0.14896822
126	0x3e896466	0.2683441
127	0xbdc1ba5b	-0.094593726
128	0xbe0a5f7a	-0.13512984
129	0x3e9793dd	0.29604998
130	0x3d834485	0.064095534
131	0x3d7e220c	0.06204419
132	0x3f4bb951	0.79579645
133	0xbcf8b321	-0.030358853
134	0xbde4564e	-0.11149274
135	0x3df16277	0.11786359
136	0x3e15094c	0.14554328
137	0xbe7985f8	-0.24367511
138	0x3e4cd095	0.20001443
139	0xbde59360	-0.1120975
140	0xbdcb1413	-0.09915938
141	0x3ebc083e	0.36725038
142	0xbe5f561d	-0.21810193
143	0x3e73c302	0.23804858
144	0x3ec06ccd	0.37583008
145	0xbe4d3b68	-0.20042193
146	0xbdd0599b	-0.10173341
147	0x3ea29f54	0.31762183
148	0xbd4ded47	-0.050275113
149	0x3e80f513	0.25186977
150	0x3e83eb45	0.25765434
151	0x3ea8c4fd	0.3296279
152	0xbd7e8b4e	-0.06214457
153	0x3ddbe2ec	0.10736641
154	0x3e7ca00d	0.2467043
155	0x3f11bb9b	0.5692689
156	0x3d9040cc	0.07043609
157	0xbd91cb4b	-0.07118853
158	0xbd0db866	-0.034599684
159	0xbd547bdc	-0.051875934
160	0xbdfc5cc7	-0.123223834
161	0xbdcb0a91	-0.09914125
162	0x3f06886c	0.52551913
163	0xbe1f23b3	-0.15540962
164	0xbe8457e1	-0.25848296
165	0xbe917f07	-0.28417227
166	0xbda6dd38	-0.08147663
167	0xbca7b96a	-0.020474155
168	0x3e0f2795	0.13979943
169	0xbe6e8de3	-0.23296313
170	0x3d5ed6cf	0.054404076
171	0x3e6ba484	0.23011976
172	0x3e2433cf	0.16035388
173	0xbcaa16d8	-0.020762846
174	0xbdce4edf	-0.10073637
175	0x3d44a292	0.0480066
176	0x3db3c04d	0.08776913
177	0xbee63fac	-0.44970453
178	0xbe7dadb4	-0.24773294
179	0xbe1de6b5	-0.15420039
180	0x3f1bdca3	0.6088354
181	0x3df877c7	0.12132221
182	0x3debefc2	0.115203395
183	0x3e509587	0.2036954
184	0xbe226862	-0.15860131
185	0xbdf6de92	-0.12054171
186	0x3c5af912	0.013365047
187	0x3d85bf95	0.06530682
188	0xbcede377	-0.029039128
189	0x3e98fd84	0.29880917
190	0xbd954e24	-0.07290295
191	0x3ea2961d	0.31755152
192	0x3eaa8f18	0.33312297
193	0x3deadc9d	0.1146786
194	0xbe2e3abf	-0.17014597
195	0xbe27e189	-0.16394629
196	0xbe035d02	-0.12828448
197	0x3dbe79bb	0.09300562
198	0x3eb3baf8	0.35103583
199	0xbe34a0f5	-0.17639525
200	0x3e4b7240	0.19867802
201	0xbd70690f	-0.05869394
202	0x3dccbed0	0.09997332
203	0x3e0f1c89	0.13975729
204	0xbe694f4d	-0.22784157
205	0xbe6f19f2	-0.23349741
206	0xbcfd0baa	-0.03088935
207	0xbe2cfa78	-0.16892421
208	0xbe9036ae	-0.28166717
209	0xbebfa965	-0.37433925
210	0xbde2a40c	-0.11066446
211	0xbde3f0a9	-0.11129887
212	0x3ef3e8fb	0.47638687
213	0x3e0f5039	0.13995446
214	0x3c9ffbfa	0.019529331
215	0x3bd65760	0.0065411776
216	0x3e8c3def	0.27391002
217	0x3e16f5ec	0.14742249
218	0x3cea138f	0.02857378
219	0xbd85eb2d	-0.06538997
220	0xbdb981eb	-0.09057983
221	0xbe7af9ce	-0.24509355
222	0xbe51d469	-0.20491184
223	0x3da47151	0.08029426
224	0xbbf17307	-0.0073684487
225	0x3e017a78	0.12644374
226	0xbde59e3c	-0.112118214
227	0x3d64de12	0.055875845
228	0x3f0466d8	0.5171943
229	0xbcedb687	-0.0290177
230	0x3ea95856	0.33075207
231	0x3e2c7324	0.16840798
232	0x3e9fc3f5	0.3120419
233	0x3eed7e58	0.46385455
234	0x3d2ec823	0.042671334
235	0x3e66627f	0.22498511
236	0x3e3cfb6e	0.18455288
237	0x3e3a80ac	0.18213147
238	0x3d371bb9	0.044704173
239	0x3e4c33d9	0.19941653
240	0x3e71090d	0.23538609
241	0xbf409696	-0.75229776
242	0x3db59039	0.08865399
243	0xbe8f145d	-0.27945223
244	0x3cd33fcb	0.025787255
245	0xbe742a81	-0.23844339
246	0xbddd96fc	-0.108198136
247	0x3e382efd	0.17986675
248	0x3ee54251	0.44777158
249	0xbdfbc1fa	-0.122928575
250	0xbdad9f7d	-0.084776856
251	0x3d873be2	0.066032186
252	0xbd9ef69a	-0.07761879
253	0x3e177e07	0.1479417
254	0xbe47e9e7	-0.1952282
255	0xbdf710f5	-0.12063781

layer.4.bias f4 [8]
0	0x3d9f1ede	0.07769559
1	0x3e3365ef	0.17519353
2	0x3d29120e	0.041276984
3	0x3e049bf8	0.12950122
4	0x3cfbabea	0.030721623
5	0x3b6905e4	0.003555649
6	0xbddaa616	-0.1067621
7	0xbb517cfc	-0.0031965366
