final/save/0.9_0.99_500/save0_1500.pth (torch_old, 15355 bytes, 6 tensors)

layer.0.weight f4 [32, 28]
-0.04468167 0.043195084 -0.015218955 0.052690003 0.13135327 -0.09256211 -0.092340745 -0.092628114
0.17575082 0.06040816 0.2436024 -0.10952303 -0.034076124 -0.0214136 -0.050744012 -0.070121445
0.0403523 0.17086887 0.11404905 -0.118241616 -0.15001537 -0.0627556 0.00011894394 0.0793348
0.045495737 -0.0876138 0.14406367 -0.08624966 0.054501764 0.20653121 0.087240115 0.12570903
0.25258476 0.16790068 0.009645614 0.0643153 0.21890032 0.20145594 -0.06600522 0.02892556
0.09128978 -0.035406884 -0.14998287 0.13630876 0.14763287 -0.07921672 0.102159 -0.16412614
0.1717865 -0.19226652 0.15147012 0.057331312 0.1517769 -0.063568994 -0.025650421 -0.153601
-0.16340305 0.16309746 -0.13414381 0.096330546 -0.024382116 0.14392163 0.036023356 0.05815503
-0.027870994 0.1893899 -0.1259709 0.11365687 0.022517592 0.21022351 0.20810296 0.06127815
0.22833194 0.029770399 -0.19173771 0.051871177 0.1602943 -0.1025804 -0.08493449 -0.08645583
0.10203 -0.008647093 0.1270778 -0.18479425 -0.19310506 -0.22057106 -0.044688284 -0.112558015
0.0045653717 0.017958738 0.08807731 0.10117649 0.05271348 -0.17112806 0.021570591 -0.17519976
0.14949676 0.21216354 -0.03379299 -0.05880052 0.04138341 0.14302881 0.023239711 0.08090208
0.016227182 0.05082986 0.18684925 0.20895652 -0.105438806 0.10700175 -0.030826021 0.12322717
-0.008639717 -0.16010475 -0.16737063 0.05836937 -0.14366469 0.10373717 0.11985369 0.018979862
0.02463119 -0.15386553 0.10695136 -0.12741223 0.1980944 -0.012573797 0.07508457 0.15482913
0.22492842 -0.06425847 0.049402338 0.1292852 0.13889067 0.107907794 0.0015877117 0.11684651
0.18950704 -0.15572415 0.18677631 0.13677415 -0.046289682 0.14733243 -0.08512181 0.22698686
0.006572131 0.19708608 0.11836859 0.098983556 -0.104496114 -0.06993775 -0.029662365 -0.005060689
-0.20686844 -0.19476764 -0.1333831 0.14759842 -0.06727557 -0.16354789 -0.11841261 0.16413137
0.11098322 -0.13709924 -0.12489174 0.117033094 -0.0076083727 -0.03410639 0.06585387 0.023975406
0.12339704 0.18507321 -0.07533262 -0.16317059 -0.025148693 -0.0027635545 0.18517698 -0.06522176
0.20646396 0.04780626 -0.0134226 0.113318935 0.09909511 0.12492404 0.19732825 0.1189992
0.030817883 0.17582665 0.021554029 0.05725157 -0.018114718 -0.014746542 0.12342837 0.026455
0.07678895 0.18193898 0.088060655 -0.015023794 -0.090143666 0.035425853 -0.06705634 0.19749708
0.048482846 -0.09199267 0.13624828 0.09696938 -0.009971698 -0.06415712 0.014914478 0.11662183
-0.10222882 0.12328067 -0.039805397 -0.08342397 -0.17369801 -0.02676721 0.1572448 0.011012316
-0.011717322 0.23316781 0.03354703 0.10564816 0.085185066 0.05021877 -0.116183735 0.17820664
-0.13247107 -0.013649546 -0.116294354 0.14571561 -0.020747295 0.0008773637 0.08044118 -0.02708614
-0.059235867 0.1607379 0.17581451 -0.16477421 -0.034223218 -0.09365413 0.17031905 -0.052961163
-0.01346298 0.15532182 0.15167469 0.21337835 0.17685275 0.12335 0.20516391 -0.11517545
-0.112728715 0.02516898 -0.084703416 0.16591933 -0.054098703 -0.09892945 -0.049918212 0.054100253
00000000: 2004 37bd 54ed 303d ed58 79bc 79d1 573d
00000010: 7981 063e 3491 bdbd 251d bdbd cfb3 bdbd
00000020: 06f8 333e 8c6e 773d e872 793e 9c4d e0bd
00000030: 6893 0bbd 936b afbc f4d8 4fbd d59b 8fbd
00000040: 7448 253d 40f8 2e3e 8c92 e93d a928 f2bd
00000050: a19d 19be 0286 80bd 8b71 f938 497a a23d
00000060: bd59 3a3d dd6e b3bd 6d85 133e a9a3 b0bd
00000070: 3e3d 5f3d eb7c 533e f2aa b23d deb9 003e
00000080: ca52 813e 28ee 2b3e a308 1e3c bdb7 833d
00000090: 6827 603e 774a 4e3e bf2d 87bd 4cf5 ec3c
000000a0: 23f6 ba3d cf06 11bd 1c95 19be 8694 0b3e
000000b0: 122d 173e 603c a2bd bd38 d13d af10 28be
000000c0: cde8 2f3e 84e1 44be fc1a 1b3e 3dd4 6a3d
000000d0: 676b 1b3e 7630 82bd d520 d2bc 9549 1dbe
000000e0: 2153 27be 0503 273e ff5c 09be f348 c53d
000000f0: 01bd c7bc 3160 133e 3a8d 133d f833 6e3d
00000100: b651 e4bc 6def 413e 84fe 00be efc4 e83d
00000110: d076 b83c d544 573e f118 553e ccfe 7a3d
00000120: d9cf 693e 0de1 f33c e456 44be df76 543d
00000130: 3024 243e ac15 d2bd 22f2 adbd c10f b1bd
00000140: 1bf5 d03d 89ac 0dbc af20 023e b43a 3dbe
00000150: 55bd 45be 61dd 61be 100b 37bd d184 e6bd
00000160: 1d99 953b 341e 933c e061 b43d 9f35 cf3d
00000170: 17ea 573d 323c 2fbe cfb4 b03c 9167 33be
00000180: ae15 193e 6641 593e 856a 0abd d0d8 70bd
00000190: a781 293d 2576 123e 3561 be3c fdaf a53d
000001a0: deee 843c f932 503d 6955 3f3e b3f8 553e
000001b0: 4df0 d7bd bc23 db3d da86 fcbc 875e fc3d
000001c0: 998d 0dbc 80f2 23be 3563 2bbe b814 6f3d
000001d0: d61c 13be 2774 d43d da75 f53d a87b 9b3c
000001e0: 59c7 c93c ed8e 1dbe 5109 db3d 5a78 02be
000001f0: 42d9 4a3e 5402 4ebc f0c5 993d 878b 1e3e
00000200: a353 663e f299 83bd 1b5a 4a3d 5763 043e
00000210: 5b39 0e3e c3fe dc3d c41a d03a 394d ef3d
00000220: 220e 423e 2776 1fbe 4a42 3f3e 860e 0c3e
00000230: 409a 3dbd 50de 163e 5854 aebd 3e6f 683e
00000240: 085b d73b efd0 493e 3b6b f23d e4b7 ca3d
00000250: 0f02 d6bd 863b 8fbd 7dfe f2bc 23d4 a5bb
00000260: 52d5 53be 2b71 47be 9495 08be 0a24 173e
00000270: c6c7 89bd 1979 27be 4f82 f2bd 0e12 283e
00000280: 2c4b e33d be63 0cbe 3ec7 ffbd 0caf ef3d
00000290: a84f f9bb 24b3 0bbd 65de 863d 1268 c43c
000002a0: 96b7 fc3d d583 3d3e fd47 9abd 3116 27be
000002b0: a204 cebc c01c 35bb 099f 3d3e fc92 85bd
000002c0: 4a6b 533e 7fd0 433d 77ea 5bbc c213 e83d
000002d0: 61f2 ca3d 2dd8 ff3d 6b10 4a3e dab5 f33d
000002e0: c975 fc3c e70b 343e 1392 b03c 9f80 6a3d
000002f0: 5165 94bc 7b9b 71bc 03c8 fc3d 28b8 d83c
00000300: 8643 9d3d 364e 3a3e 2559 b43d 5c26 76bc
00000310: 3e9d b8bd b31a 113d d654 89bd ad3c 4a3e
00000320: f395 463d a766 bcbd ab84 0b3e e297 c63d
00000330: 5560 23bc cf64 83bd db5b 743c 6dd7 ee3d
00000340: 585d d1bd 937a fc3d fc0a 23bd 30da aabd
00000350: e4dd 31be e846 dbbc c804 213e 006d 343c
00000360: 03fa 3fbc 8bc3 6e3e 9c68 093d 105e d83d
00000370: 8275 ae3d 32b2 4d3d bdf1 edbd cd7b 363e
00000380: 7fa6 07be 58a2 5fbc bc2b eebd 7936 153e
00000390: 3bf6 a9bc e2fe 653a 58be a43d c1e3 ddbc
000003a0: 4fa1 72bd 7a98 243e b808 343e 92ba 28be
000003b0: a52d 0cbd bdcd bfbd 1e68 2e3e ceed 58bd
000003c0: d593 5cbc af0c 1f3e 9c50 1b3e db7f 5a3e
000003d0: e318 353e ed9e fc3d 7d16 523e 1be1 ebbd
000003e0: 50de e6bd 2d2f ce3c fc78 adbd c2e6 293e
000003f0: 9a96 5dbd 869b cabd 0a77 4cbd 3a98 5d3d

layer.0.bias f4 [32]
0.1760963 0.041147377 0.14636797 0.1438286 -0.07569649 0.15414801 0.009174417 0.0107345525
0.21864374 0.038150225 -0.07625149 -0.10410053 0.24462634 -0.13496935 0.04415936 0.08961302
0.12890752 0.23638673 0.18756093 -0.1522797 0.09512324 -0.13914278 0.19189544 0.00928455
-0.004042279 0.11969156 -0.07401106 -0.10337037 0.01655553 0.13640186 0.23241627 0.25333259
00000000: 9752 343e 278a 283d 7ce1 153e ce47 133e
00000010: c306 9bbd fad8 1d3e 4b50 163c fadf 2f3c
00000020: 25e4 5f3e 6943 1c3d be29 9cbd a932 d5bd
00000030: 547f 7a3e 6835 0abe 72e0 343d 0887 b73d
00000040: 5500 043e 5d0f 723e f90f 403e 36ef 1bbe
00000050: f9cf c23d 727b 0ebe 3d80 443e 3a1e 183c
00000060: 1875 84bb d920 f53d 1c93 97bd d8b3 d3bd
00000070: 769f 873c eeac 0b3e 88fe 6d3e cfb4 813e

layer.2.weight f4 [64, 32]
-0.09678566 0.19236936 -0.11940461 -0.17290385 0.084998704 0.2060537 -0.10988013 -0.10152471
0.06327383 -0.022711823 0.03661665 -0.11532288 0.02591743 -0.10552138 0.20764399 0.13041118
0.18945839 0.14542118 -0.18647645 0.033301096 -0.1535821 0.039107744 -0.09322658 -0.0071197376
0.12910235 -0.12001812 0.110622466 -0.04812689 0.13736585 0.15369773 0.14280815 0.16684544
-0.07981993 0.025457453 -0.11445018 -0.18016775 0.10883756 -0.053941354 -0.034369238 0.18509565
-0.027175326 0.2718599 0.024002487 -0.022794425 0.059089694 -0.0748868 0.18333843 0.27566501
0.17237276 -0.017192636 -0.006954743 -0.016379781 -0.18999428 -0.013123915 0.09090779 0.05752426
0.18826759 0.017084943 -0.1221602 0.060177885 0.042785157 -0.033253275 0.0029051104 -0.18670778
-0.17217514 -0.04256139 0.010707468 -0.19387987 0.05015943 -0.071240745 0.03620884 0.016078578
-0.16396481 -0.13110901 0.11546585 -0.08378341 -0.07510005 0.22115517 0.05799602 -0.08277129
-0.037202254 0.1446142 -0.085068725 0.030928643 -0.05113686 -0.10291627 0.2258663 0.13880678
-0.032837663 -0.15772201 0.16746524 -0.034034915 -0.12630713 0.28505552 0.085671775 0.17120367
-0.13804404 0.010230706 -0.040140808 0.061638024 0.027170593 0.08305325 0.20871624 0.011177741
-0.11099036 0.025650356 0.069510266 0.026428405 0.044869233 -0.23222816 0.095277116 -0.25029293
-0.046590604 0.17901851 0.08537748 0.1499273 0.10964492 0.07236299 -0.16367896 -0.030147053
0.16327457 -0.11162512 -0.0102581065 0.003873757 0.20396788 -0.10266282 0.10456432 -0.14168549
0.021452187 -0.08055195 0.19084898 0.024304323 -0.04137804 -0.14461951 0.09008658 -0.23367466
-0.06521594 -0.038656548 -0.036425777 -0.23156387 -0.05346496 0.2671002 -0.04193461 -0.17467411
-0.2663446 0.27003172 0.091169156 0.046029154 -0.063708685 0.18183291 0.1888038 0.13619557
0.060189936 -0.08770798 0.108912565 -0.18105982 -0.3422014 0.26291543 -0.065307155 0.23368487
-0.037888158 -0.12575825 -0.11991889 -0.15454075 0.0071752793 -0.035063677 0.097436205 0.13575043
0.0844735 -0.2542351 -0.09397875 -0.12669502 0.15659834 -0.2483301 -0.056667376 0.0012919076
-0.07426963 0.12957594 -0.1407947 0.042111088 -0.13569586 0.20350122 0.1572563 0.11143748
0.038564987 0.065111674 0.11809666 -0.21291865 0.15883347 -0.122940086 0.1078266 0.05541583
0.0008010666 -0.0984131 -0.07860072 0.2333155 0.058718856 -0.16495554 -0.032109015 -0.13721043
0.11365095 -0.21218267 0.12117548 0.119688205 0.16499126 0.2324929 0.031667516 -0.058674134
-0.011715702 0.0808731 0.13310753 -0.022619056 -0.015518261 -0.063239835 0.15689614 -0.06585399
-0.099405915 -0.08605224 0.10523818 0.11110797 -0.09759789 0.22140567 0.01570863 -0.111419864
0.17312138 0.0036012777 0.08000767 -0.108458824 0.031071208 0.07763236 -0.14708212 0.012349534
-0.017331382 0.11707513 0.084021054 -0.13611695 -0.13466072 -0.1991667 -0.057680845 0.12300371
0.2127974 0.11121859 -0.02790026 0.19691738 0.003904059 0.0074241627 -0.19608206 -0.07829445
0.15394035 0.14694405 0.1896503 -0.14128634 0.1906406 0.11531344 0.17016467 0.06716747
00000000: 8f37 c6bd 79fc 443e 678a f4bd b50d 31be
00000010: cd13 ae3d beff 523e d508 e1bd 30ec cfbd
00000020: b695 813d 250e babc 57fb 153d 672e ecbd
00000030: ca50 d43c 981b d8bd a0a0 543e 828a 053e
00000040: 6101 423e 4ae9 143e aff3 3ebe bb66 083d
00000050: a044 1dbe 712f 203d 94ed bebd b04c e9bb
00000060: 6833 043e 0fcc f5bd 088e e23d b420 45bd
00000070: a2a9 0c3e f062 1d3e 4d3c 123e 88d9 2a3e
00000080: a278 a3bd 268c d03c db64 eabd e57d 38be
00000090: 3ae6 de3d 9cf1 5cbd c2c6 0cbd b789 3d3e
000000a0: ca9e debc 3931 8b3e dda0 c43c 60bb babc
000000b0: 0908 723d 405e 99bd 12bd 3b3e f723 8d3e
000000c0: 7c82 303e 92d7 8cbc 9de4 e3bb e42e 86bc
000000d0: dc8d 42be b005 57bc dd2d ba3d 8f9e 6b3d
000000e0: 38c9 403e b9f5 8b3c 202f fabd 167d 763d
000000f0: 7d3f 2f3d 9634 08bd aa63 3e3b 5330 3fbe
00000100: ae4e 30be da54 2ebd 606e 2f3c 7288 46be
00000110: f973 4d3d abe6 91bd b84f 143d 39b7 833c
00000120: 64e6 27be 7141 06be 5c79 ec3d a396 abbd
00000130: 0ece 99bd 8076 623e 3c8d 6d3d fe83 a9bd
00000140: 6461 18bd bf15 143e 8338 aebd 115e fd3c
00000150: e274 51bd c4c5 d2bd 7f49 673e 5d23 0e3e
00000160: c980 06bd e181 21be 027c 2b3e 3268 0bbd
00000170: a856 01be ccf2 913e af74 af3d 0450 2f3e
00000180: 6b5b 0dbe b19e 273c b06a 24bd 2778 7c3d
00000190: dd94 de3c d317 aa3d b6b9 553e d822 373c
000001a0: ea4e e3bd b220 d23c 665b 8e3d 6280 d83c
000001b0: cdc8 373d 38cd 6dbe a620 c33d 6526 80be
000001c0: cad5 3ebd a150 373e 63da ae3d 8b86 193e
000001d0: 848d e03d 0c33 943d 759b 27be f4f6 f6bc
000001e0: 7331 273e b69b e4bd 9e11 28bc dcde 7d3b
000001f0: f5dc 503e e240 d2bd d125 d63d 0016 11be
00000200: 7fbc af3c 6cf8 a4bd ea6d 433e dc19 c73c
00000210: 057c 29bd 2317 14be 507f b83d 6948 6fbe
00000220: ef8f 85bd 5456 1ebd 3233 15bd 141f 6dbe
00000230: 13fe 5abd 5bc1 883e a0c3 2bbd c5dd 32be
00000240: 525e 88be 9941 8a3e e5b6 ba3d 1189 3c3d
00000250: b379 82bd 6832 3a3e c955 413e da76 0b3e
00000260: b989 763d 3ea0 b3bd 8d0d df3d bf67 39be
00000270: 0635 afbe da9c 863e c2bf 85bd 164b 6f3e
00000280: 9d30 1bbd c5c6 00be 0998 f5bd ee3f 1ebe
00000290: 9b1e eb3b ee9e 0fbd a28c c73d 2902 0b3e
000002a0: 7100 ad3d 1a2b 82be ee77 c0bd 57bc 01be
000002b0: 515b 203e 3f4a 7ebe 0d1c 68bd 3a55 a93a
000002c0: ad1a 98bd 8eaf 043e 7c2c 10be ad7c 2c3d
000002d0: dbf3 0abe a062 503e cc07 213e 5539 e43d
000002e0: 52f6 1d3d 4559 853d a9dc f13d 5907 5abe
000002f0: 3ea5 223e 03c8 fbbd 31d4 dc3d b6fb 623d
00000300: abfe 513a cf8c c9bd 6af9 a0bd 42ea 6e3e
00000310: 2f83 703d 1bea 28be be84 03bd e480 0cbe
00000320: d4c1 e83d 6a46 59be da2a f83d 171f f53d
00000330: 78f3 283e 9e12 6e3e ccb5 013d 4a54 70bd
00000340: 37f3 3fbc cca0 a53d 574d 083e 994b b9bc
00000350: 4e40 7ebc e383 81bd 62a9 203e 75de 86bd
00000360: 5495 cbbd 283c b0bd 1d87 d73d 938c e33d
00000370: 67e1 c7bd 2bb8 623e 63af 803c 1930 e4bd
00000380: bb46 313e 6a03 6c3b 10db a33d a91f debd
00000390: 0c89 fe3c b7fd 9e3d b29c 16be b355 4a3c
000003a0: 8bfa 8dbc 16c5 ef3d 3b13 ac3d 3e62 0bbe
000003b0: 80e4 09be 5bf2 4bbe c042 6cbd 5ee9 fb3d
000003c0: 90e7 593e 92c6 e33d 168f e4bc b6a4 493e
000003d0: 3edb 7f3b 6446 f33b bcc9 48be d758 a0bd
000003e0: 8aa2 1d3e 8078 163e b033 423e 5ead 10be
000003f0: 4a37 433e 7429 ec3d a63f 2e3e 198f 893d

layer.2.bias f4 [64]
0.23161885 0.03538842 -0.015113779 0.13983396 0.025183422 0.044330075 0.095892414 0.19049257
-0.12019082 0.11013018 -0.27362 -0.09851091 -0.10637386 0.012325502 0.1272386 -0.06966329
0.11226161 0.08051146 0.33837962 0.18897372 -0.01627147 -0.11236446 0.13354163 0.109002374
-0.15575503 -0.046685547 0.030345693 -0.0001393708 0.04833928 -0.022298422 -0.0780177 0.098750204
0.29526272 0.08693395 -0.019175692 0.055795163 -0.066022456 0.059320558 0.16440903 0.082166046
0.005600673 -0.011360975 0.15681335 0.01752403 0.0075862454 0.22929344 0.1054405 -0.054863542
-0.04400838 0.07580445 -0.11983054 0.07725315 0.10213433 0.15170188 0.00240673 -0.019034665
-0.13509308 -0.08638706 0.16755272 0.17536661 -0.25711927 0.051568717 -0.1150008 0.20613518
00000000: 7e2d 6d3e 73f3 103d c99f 77bc a230 0f3e
00000010: 774d ce3c 7493 353d 3e63 c43d 7c10 433e
00000020: 9b26 f6bd ef8b e13d ec17 8cbe 17c0 c9bd
00000030: 8ada d9bd e7f0 493c d64a 023e a1ab 8ebd
00000040: 6ae9 e53d 31e3 a43d 1840 ad3e 5482 413e
00000050: bf4b 85bc 571f e6bd 23bf 083e a33c df3d
00000060: 3f7e 1fbe 5839 3fbd 8897 f83c 1024 12b9
00000070: 69ff 453d 2eab b6bc bec7 9fbd 8c3d ca3d
00000080: ad2c 973e 6d0a b23d 5716 9dbc 7889 643d
00000090: c836 87bd 1dfa 723d d75a 283e ac46 a83d
000000a0: da85 b73b 6223 3abc ae93 203e 8e8e 8f3c
000000b0: 0a96 f83b e6cb 6a3e 30f1 d73d 98b8 60bd
000000c0: 2242 34bd 5d3f 9b3d b769 f5bd e636 9e3d
000000d0: ce2b d13d bd57 1b3e 3bba 1d3b 96ee 9bbc
000000e0: d755 0abe b3eb b0bd f192 2b3e 4e93 333e
000000f0: 23a5 83be b839 533d 8a85 ebbd 1a15 533e

layer.4.weight f4 [8, 64]
0.21146636 0.13205014 0.06609232 0.23018013 -0.15654074 0.26757625 -0.051227678 0.1447243
-0.31754053 -0.013680087 -0.06266795 -0.037647255 0.0540721 0.055761583 0.06935249 0.2883463
0.34918278 0.21314868 0.121340945 0.11392853 0.009432846 0.30327868 -0.07108531 0.1171691
-0.22363542 -0.10288866 0.13555047 -0.17016456 0.047110252 -0.06307521 -0.2482903 -0.2830833
-0.06279649 -0.07861998 0.14273751 0.15046893 -0.16205424 0.17253925 -0.09291624 0.096451804
0.053497925 -0.16831957 0.006232418 0.13880596 -0.1624082 0.015826073 -0.064372174 -0.077922955
0.07822296 0.037635393 -0.11280583 0.07326317 -0.14881893 0.34369576 -0.13224581 0.04301424
0.08130581 -0.19866435 0.06868162 0.021056367 -0.043057516 -0.0038006648 -0.037877295 0.06569783
-0.05445124 0.053582795 0.03753232 -0.026253548 -0.065418266 -0.02350272 0.11152051 0.04536055
0.060303614 0.041107714 0.010526356 0.023595365 0.062530234 -0.035124697 -0.018687477 0.039137173
0.08603471 0.051455922 0.03510246 0.028087145 0.036794465 -0.07231215 -0.051833045 0.008644123
0.06715982 0.018716924 -0.0924449 0.08630548 0.056900997 -0.06125724 -0.03390714 -0.06960105
-0.028586872 -0.017443629 0.025185643 -0.038941395 -0.01594118 0.05457227 -0.014154732 -0.13190503
0.033514366 -0.015305188 0.067588516 0.007101342 0.069108576 0.037675593 0.03067093 0.010079277
-0.09719163 0.00079551426 -0.01150192 0.013862148 -0.10362544 -0.029170403 -0.014468979 0.015656136
-0.057947513 0.045158025 0.04291351 0.0653142 0.015662005 -0.028637398 -0.044493288 0.023675678
0.10170477 0.14348985 -0.04659354 -0.20918246 -0.06938196 -0.004846244 -0.026819596 0.20263846
0.3598439 0.13700357 -0.10425934 -0.09794214 0.14843923 -0.1464595 -0.10342327 0.01108246
-0.1547778 0.21321276 0.18213889 0.10898288 -0.15777023 -0.14499682 0.085424684 0.03222554
0.0023274708 -0.0037347856 -0.049305312 -0.08637169 -0.057125095 0.24119714 0.2508794 -0.091776825
0.19645423 0.17548569 -0.009949999 0.14595407 0.13537313 -0.14427313 -0.12820083 -0.22385047
0.119389586 0.051860936 -0.2727238 -0.055129997 0.23117311 0.18670295 0.22409418 0.14495252
0.1757174 -0.15924805 0.23144911 -0.19166508 0.16089581 0.037967432 -0.09630219 0.15897116
-0.13215317 0.040908985 -0.095234066 -0.2957507 -0.10233021 0.60759056 -0.1326788 -0.15779573
-0.033083633 -0.06858998 -0.0425065 0.06610056 -0.05347024 0.010109738 0.091445856 -0.010093371
0.014717297 0.007968926 -0.02019435 -0.011752104 0.03320788 0.0130842775 -0.005566791 -0.04797633
-0.02931298 0.07377735 0.012721284 -0.055367935 0.028211089 0.034788743 -0.015617792 0.08661735
-0.0022785082 -0.06678785 0.033209994 -0.013990924 0.07511767 0.00044066887 0.0013086952 0.0030119529
-0.009226283 0.021374604 -0.074410185 -0.07509148 0.024430068 -0.005051246 0.072719306 -0.05720404
0.033999693 -0.022248197 0.06536635 -0.08135585 -0.00024147253 -0.013640541 -0.015628247 -0.0013189969
-0.0017823105 0.028967783 -0.013412164 -0.0850762 -0.08526749 0.047143694 0.067041636 0.07635356
-0.021029044 0.034063846 -0.005765644 0.047538355 0.10931824 0.004736136 -0.05895081 0.04249746
00000000: a38a 583e 2738 073e 695b 873d 57b4 6b3e
00000010: 374c 20be c1ff 883e 1dd4 51bd 9b32 143e
00000020: ac94 a2be 7222 60bc 0e58 80bd 0234 1abd
00000030: b57a 5d3d 4266 643d ae08 8e3d 20a2 933e
00000040: 16c8 b23e a643 5a3e 9a81 f83d 5c53 e93d
00000050: 398c 1a3c 5847 9b3e 2d95 91bd 5af6 ef3d
00000060: af00 65be 4ab7 d2bd becd 0a3e 9e3f 2ebe
00000070: aef6 403d 932d 81bd d03f 7ebe 4bf0 90be
00000080: 729b 80bd 8303 a1bd c829 123e 8714 1a3e
00000090: 8cf1 25be 21ae 303e df4a bebd 8688 c53d
000000a0: a420 5b3d f75b 2cbe 5039 cc3b 2623 0e3e
000000b0: 564e 26be aea5 813c 8fd5 83bd 1296 9fbd
000000c0: 5c33 a03d 9227 1a3d be06 e7bd 000b 963d
000000d0: fd63 18be e4f8 af3e 726b 07be b32f 303d
000000e0: a983 a63d ab6e 4bbe f3a8 8c3d 677e ac3c
000000f0: 145d 30bd 9314 79bb 3925 1bbd 958c 863d
00000100: 4308 5fbd a279 5b3d 7dbb 193d ae11 d7bc
00000110: 03fa 85bd c788 c0bc dd64 e43d fccb 393d
00000120: ec00 773d 9060 283d bd76 2c3c 114b c13c
00000130: da0f 803d eade 0fbd 7b16 99bc 4d4e 203d
00000140: f732 b03d 72c3 523d 99c7 0f3d 0317 e63c
00000150: cbb5 163d 6418 94bd e34e 54bd 14a0 0d3c
00000160: 168b 893d 3c54 993c c053 bdbd edc0 b03d
00000170: 0511 693d dfe8 7abd 37e2 0abd ff8a 8ebd
00000180: 042f eabc f1e5 8ebc 1f52 ce3c 0381 1fbd
00000190: 1497 82bc 2c87 5f3d 40e9 67bc 1d12 07be
000001a0: 5c46 093d 9cc2 7abc d96b 8a3d 60b2 e83b
000001b0: cc88 8d3d b951 1a3d 9a41 fb3c 8d23 253c
000001c0: 680c c7bd 0f8a 503a 8d72 3cbc 101e 633c
000001d0: 9339 d4bd c5f6 eebc 4c0f 6dbc 4c41 803c
000001e0: 5f5a 6dbd 9ff7 383d 14c6 2f3d 74c3 853d
000001f0: 9b4d 803c fa98 eabc 983e 36bd 7ff3 c13c
00000200: 974a d03d 01ef 123e ded8 3ebd ed33 56be
00000210: 2118 8ebd 3ecd 9ebb c5b4 dbbc 7580 4f3e
00000220: 763d b83e aa4a 0c3e ec85 d5bd e495 c8bd
00000230: 7400 183e 7bf9 15be 94cf d3bd 3593 353c
00000240: 127e 1ebe 7254 5a3e 9e82 3a3e 6b32 df3d
00000250: 858e 21be 0c7a 14be 23f3 ae3d eefe 033d
00000260: 7b88 183b 4ec3 74bb 5ef4 49bd a4e3 b0bd
00000270: 01fc 69bd 62fc 763e 4473 803e 7df5 bbbd
00000280: 4c2b 493e 85b2 333e 5205 23bc fc74 153e
00000290: 419f 0a3e 56bc 13be 1447 03be 0f39 65be
000002a0: 8782 f43d 226c 543d 74a2 8bbe fecf 61bd
000002b0: a5b8 6c3e 0f2f 3f3e f278 653e 6f6e 143e
000002c0: 43ef 333e ec11 23be ff00 6d3e da43 44be
000002d0: dfc1 243e bd83 1b3d 153a c5bd 56c9 223e
000002e0: 2953 07be 2e90 273d 140a c3bd a36c 97be
000002f0: 8092 d1bd 0e8b 1b3f f4dc 07be 3495 21be
00000300: b482 07bd e778 8cbd 4c1b 2ebd bb5f 873d
00000310: 9c03 5bbd 51a3 253c f747 bb3d ab5e 25bc
00000320: d120 713c 1990 023c 9f6e a5bc e68b 40bc
00000330: fc04 083d 705f 563c a169 b6bb d482 44bd
00000340: c621 f0bc 9418 973d ef6c 503c 7dc9 62bd
00000350: f11a e73c a47e 0e3d c4e1 7fbc 7064 b13d
00000360: 0653 15bb 11c8 88bd 3407 083d 303a 65bc
00000370: 4bd7 993d 9309 e739 8688 ab3a 2f64 453b
00000380: d629 17bc cb19 af3c 5e64 98bd 90c9 99bd
00000390: 9121 c83c ec84 a5bb dced 943d c94e 6abd
000003a0: 4343 0b3d da41 b6bc cbde 853d e59d a6bd
000003b0: ca33 7db9 937c 5fbc cf06 80bc 31e2 acba
000003c0: 6b9c e9ba d84d ed3c b1be 5bbc 6e3c aebd
000003d0: b9a0 aebd bf19 413d 204d 893d 415f 9c3d
000003e0: 1a45 acbc 8886 0b3d baed bcbb 94b7 423d
000003f0: 3ee2 df3d 9731 9b3b 6876 71bd d111 2e3d

layer.4.bias f4 [8]
0.07223659 -0.04229156 0.12165101 -0.016214047 0.0031047272 -0.053678233 0.1096981 0.19270478
00000000: c7f0 933d ea39 2dbd 2a24 f93d 52d3 84bc
00000010: ae78 4b3b b5dd 5bbd 66a9 e03d 6754 453e
