final/save/0.9_0.99_500/save2_1500.pth (torch_old, 15355 bytes, 6 tensors)

layer.0.weight f4 [32, 28]
0.12124186 0.052083652 0.048867736 0.023129325 0.16094296 0.057291027 -0.048995204 0.2072739
-0.056298412 0.037695233 0.072379455 0.006462779 0.10812815 -0.12856123 -0.0139049515 -0.26718158
-0.06717178 -0.16475596 0.14161009 0.13390344 -0.009790131 0.052422635 -0.05403389 -0.07455025
-0.03138048 0.103624776 -0.04386131 0.05152448 -0.07953328 -0.07023876 0.16597347 -0.0028850352
0.12910365 -0.09723317 -0.12939715 0.16422799 0.01262136 0.19633444 0.041752793 0.20742089
0.08312353 -0.037650082 -0.12181857 0.20892636 -0.02125443 0.18555722 -0.0057197474 -0.07055105
-0.16451721 -0.0962776 0.20358974 0.0082625775 0.14595556 0.12163702 0.044945683 -0.07456522
0.19844154 0.20997314 0.11662674 0.09116151 -0.13382423 -0.067511216 0.016975693 0.121417515
0.27931315 -0.16502444 -0.037138402 -0.016088534 -0.036931653 0.09191411 0.029950548 -0.03842347
0.16249074 -0.13666211 -0.10807273 0.06263017 0.16013968 -0.1425461 -0.011926958 -0.034904312
-0.041889794 -0.09525466 0.1797621 -0.0202721 0.015959155 0.178179 -0.1630832 -0.07307567
-0.19379501 -0.10768602 -0.12402357 -0.14088906 0.090915486 -0.002780101 0.046560526 0.06556373
-0.10060454 0.11026838 0.24122396 0.048316944 -0.070933044 0.15040113 0.21109222 -0.039616033
-0.080160774 0.14148991 0.14222176 0.0071810265 0.016238244 0.022974199 -0.10041813 -0.17638808
0.1905212 0.025295699 0.15788075 0.09230949 0.22188923 0.17360991 0.15746878 -0.1096453
0.17876056 0.22490883 -0.07908691 0.054410372 -0.15819223 -0.18545477 -0.09324057 -0.13579217
0.20423666 0.15468897 -0.1835283 -0.0881928 0.07942316 0.080277584 0.16623713 0.008559446
0.122682385 0.0041060834 -0.08382963 0.10323419 -0.11917948 0.015714822 -0.07922953 -0.028915204
0.20582609 0.21742624 -0.10046698 0.17118068 -0.0026278317 0.043442402 0.21400276 0.1234011
-0.007734343 0.25719947 0.10107231 0.026983222 0.15954319 0.06837512 0.12812643 0.2359407
0.15663119 -0.06626217 -0.13804518 0.042648483 -0.059692077 -0.008539398 -0.091482624 0.07600999
0.12608498 0.03402781 -0.029463852 -0.1894479 -0.1865219 -0.07054042 0.17765912 0.18082732
0.1427295 0.029356608 0.11550745 -0.20295404 0.1583247 -0.026893277 0.014600195 0.010113271
0.08532985 0.15933503 0.0800481 -0.003516793 0.1536406 -0.025980728 -0.1604291 -0.108988844
-0.05789376 0.04433021 -0.14920904 0.030424202 -0.055884592 0.15444498 -0.1413584 -0.090163216
-0.03690193 -0.19529435 0.07145716 0.16063273 -0.07416048 -0.22272743 -0.033241328 0.0028835519
0.0184967 0.25380522 0.16933316 -0.10167283 0.16450536 -0.11944156 0.16178973 -0.051923197
0.057117272 0.017001683 0.15257506 0.15727311 -0.05495768 -0.09099913 0.12992226 0.1573136
0.10723413 0.21279794 0.15672788 -0.031702824 0.19205211 0.17666121 0.17519267 0.16665179
0.036249094 0.016722051 -0.10325208 0.0542205 0.1702679 0.11126625 -0.06463516 -0.18343635
-0.18182556 0.019107193 0.0751196 -0.04226198 0.08491218 -0.117296696 -0.1230316 0.05469712
-0.027506184 0.22253034 0.02710081 -0.1293433 0.2096723 -0.084356934 -0.065112464 0.14889921
00000000: a74d f83d ab55 553d 8929 483d b679 bd3c
00000010: 3bce 243e ffa9 6a3d 32af 48bd 9c3f 543e
00000020: 2a99 66bd 5166 1a3d ae3b 943d b8c5 d33b
00000030: 4b72 dd3d 8ea5 03be 98d1 63bc 06cc 88be
00000040: 5c91 89bd c9b5 28be 3c02 113e fc1d 093e
00000050: c966 20bc 1eb9 563d a452 5dbd cdad 98bd
00000060: d188 00bd 3a39 d43d eba7 33bd 550b 533d
00000070: 58e2 a2bd 57d9 8fbd f3f4 293e dc12 3dbb
00000080: bf33 043e 2f22 c7bd b080 04be 622b 283e
00000090: d2c9 4e3c e50b 493e fa04 2b3d 2466 543e
000000a0: ab3c aa3d f936 1abd 047c f9bd cbf0 553e
000000b0: c51d aebc b602 3e3e b86c bbbb 127d 90bd
000000c0: 3377 28be 312d c5bd d479 503e c35f 073c
000000d0: 6075 153e d41c f93d f718 383d a6b5 98bd
000000e0: 4234 4b3e 3303 573e 00da ee3d e3b2 ba3d
000000f0: 3809 09be 5243 8abd 9c10 8b3c bfa9 f83d
00000100: 2202 8f3e 2bfc 28be 701e 18bd 1acc 83bc
00000110: a545 17bd 773d bc3d da5a f53c ee61 1dbd
00000120: f963 263e 27f1 0bbe 3c55 ddbd 3f44 803d
00000130: a8fb 233e 9bf7 11be 4a69 43bc d3f7 0ebd
00000140: a294 2bbd e014 c3bd 8e13 383e ad11 a6bc
00000150: c6bc 823c 8e74 363e 48ff 26be b2a8 95bd
00000160: 3372 46be 7d8a dcbd 1200 febd 3945 10be
00000170: e631 ba3d 5b32 36bb 40b6 3e3d 4746 863d
00000180: c109 cebd 63d4 e13d 6a03 773e fde7 453d
00000190: 5845 91bd c102 1a3e 8f28 583e 6c44 22bd
000001a0: 552b a4bd bbe2 103e 95a2 113e d14e eb3b
000001b0: 1106 853c 6334 bc3c 05a8 cdbd 149f 34be
000001c0: fd17 433e ed38 cf3c 7eab 213e c20c bd3d
000001d0: ee36 633e ccc6 313e 7f3f 213e b78d e0bd
000001e0: 020d 373e 804e 663e 51f8 a1bd 69dd 5e3d
000001f0: 25fd 21be dbe7 3dbe e9f4 bebd 1a0d 0bbe
00000200: 6a23 513e c966 1e3e d8ee 3bbe 6d9e b4bd
00000210: 9ca8 a23d 9368 a43d 113a 2a3e eb3c 0c3c
00000220: e740 fb3d 538c 863b deae abbd 726c d33d
00000230: 5f14 f4bd 5fbc 803c 1843 a2bd 94df ecbc
00000240: 13c4 523e fca4 5e3e a2c1 cdbd fd49 2f3e
00000250: b337 2cbb a9f0 313d 8a23 5b3e b7b9 fc3d
00000260: 5f70 fdbb a6af 833e 00ff ce3d eb0b dd3c
00000270: 4a5f 233e 4108 8c3d 9333 033e 709a 713e
00000280: ed63 203e 76b4 87bd b75b 0dbe 2db0 2e3d
00000290: ae7f 74bd d5e8 0bbc 3e5b bbbd 20ab 9b3d
000002a0: 6c1c 013e bf60 0b3d 2d5e f1bc a1fe 41be
000002b0: 99ff 3ebe 7f77 90bd 46ec 353e cc2a 393e
000002c0: af27 123e 457d f03c 2c8f ec3d 2fd3 4fbe
000002d0: df1f 223e 4a4f dcbc a835 6f3c 22b2 253c
000002e0: 6bc1 ae3d b928 233e 42f0 a33d ff79 66bb
000002f0: f653 1d3e 89d5 d4bc 8747 24be 8b35 dfbd
00000300: 0222 6dbd 9893 353d 41ca 18be 2d3c f93c
00000310: 3ee7 64bd d326 1e3e 42c0 10be 7ea7 b8bd
00000320: 7a26 17bd 3efb 47be 2258 923d e87c 243e
00000330: 73e1 97bd a912 64be 0f28 08bd f9f9 3c3b
00000340: 6486 973c c2f2 813e ac65 2d3e d839 d0bd
00000350: 1874 283e c79d f4bd 35ac 253e 6bad 54bd
00000360: cdf3 693d 1d47 8b3c a33c 1c3e 340c 213e
00000370: 4e1b 61bd c05d babd 570a 053e d116 213e
00000380: 919d db3d b4e7 593e 467d 203e d2da 01bd
00000390: 4fa9 443e ade6 343e b565 333e c4a6 2a3e
000003a0: ee79 143d affc 883c d475 d3bd 5116 5e3d
000003b0: b55a 2e3e 8fdf e33d 705f 84bd bdd6 3bbe
000003c0: 7b30 3abe b086 9c3c 4ed8 993d e61a 2dbd
000003d0: 70e6 ad3d 4039 f0bd fef7 fbbd 160a 603d
000003e0: a654 e1bc fede 633e 8502 de3c 9272 04be
000003f0: 56b4 563e 54c3 acbd af59 85bd 0979 183e

layer.0.bias f4 [32]
0.17173782 0.0924484 0.021346845 -0.105777025 0.106993645 0.21390553 0.15910828 0.05848358
0.26893058 0.06616644 0.20971061 0.23320767 0.21081197 0.22838801 -0.037574556 -0.019393953
0.007318105 -0.17474577 -0.072211795 0.0070066317 0.033023562 0.016164832 0.06529148 0.056005605
0.17824107 0.19492154 -0.09204329 -0.01975059 0.035746984 0.14639737 0.19389962 0.04893071
00000000: 0adc 2f3e 9655 bd3d 94df ae3c a0a1 d8bd
00000010: 7c1f db3d 0d0a 5b3e 48ed 223e 7a8c 6f3d
00000020: 45b1 893e 4582 873d 61be 563e fecd 6e3e
00000030: 18df 573e 8cde 693e c7e7 19bd 11e0 9ebc
00000040: b7cc ef3b 8ef0 32be c7e3 93bd e397 e53b
00000050: b743 073d 1c6c 843c 8ab7 853d 2266 653d
00000060: d484 363e 8399 473e 3181 bcbd fdcb a1bc
00000070: 6e6b 123d 31e9 153e 9f8d 463e 916b 483d

layer.2.weight f4 [64, 32]
-0.0627015 0.047775883 0.1663516 0.0011872681 -0.10823236 -0.14049584 0.2335652 0.20909972
0.23982859 0.006155377 -0.04729129 -0.20951152 -0.13392083 -0.071306184 0.20218365 -0.10383335
0.24081191 0.25116754 0.14772587 0.0674846 -0.27126893 -0.27131727 -0.17843185 0.14518629
0.04401075 -0.024349991 0.07373886 -0.031230895 0.043104734 0.16384783 -0.1919036 -0.15838052
0.058171857 0.046842292 -0.09987281 -0.122236185 -0.08088413 -0.11249837 0.0051360377 -0.12031394
0.14834115 0.014635138 0.15925765 0.034110837 0.19887345 0.09965009 0.066412166 -0.07732023
-0.034669906 -0.19905867 0.111235514 -0.0038666038 0.050782863 -0.055237208 -0.15454644 -0.033679746
0.1385136 -0.10473898 0.14605676 0.08129718 -0.07207688 -0.13959353 0.12383636 -0.033051383
-0.071376406 0.13292898 0.1494127 -0.03954159 -0.021934446 0.19932508 0.041110184 0.06548839
0.15821023 0.04106361 0.2046259 -0.059339236 0.14694633 0.22513768 0.0023735547 0.18517578
0.278604 0.26059723 0.21087408 0.033563748 -0.18193373 -0.05400607 -0.1589669 0.19153887
0.040709287 0.10278185 -0.07318716 0.014583529 -0.12343008 -0.09234794 -0.06545219 -0.11399198
-0.20862475 0.17866026 0.064059645 -0.12815063 -0.036474746 -0.07066931 0.018499719 -0.060698893
-0.19261715 -0.039100282 0.17441452 -0.12927309 0.15634169 0.25177634 -0.27099377 -0.16324039
0.09327761 -0.26077485 -0.23844735 0.21318018 -0.014567655 -0.0049305544 -0.13800383 0.14475948
0.19783361 0.113560624 0.091636956 0.11874552 0.095597915 -0.22084245 -0.010082841 -0.03783558
0.096105665 -0.16120812 -0.08956862 0.034038056 -0.23961648 -0.0049186777 0.048634868 0.19469081
0.030437024 -0.13763256 0.10933676 0.23816809 0.06292309 0.025199043 0.09311129 0.2857085
-0.111945525 -0.033329893 0.115501985 0.04823424 0.23760697 -0.0388773 -0.020757703 0.10878954
-0.10794948 0.18497173 -0.24849337 -0.21361855 -0.11189222 0.01603133 0.066036575 0.07360318
0.15507483 -0.15366013 -0.0043949625 0.12970717 0.18612958 0.06514342 0.20955276 0.0764785
-0.08867604 0.26619676 0.08359832 -0.027320838 0.15641625 0.2526201 0.23963541 -0.17295396
0.19090307 0.101775035 0.10615925 -0.08381885 -0.028585041 -0.12655744 -0.0547964 -0.18223588
0.19058056 -0.13148215 0.10503451 -0.07671592 0.029617852 0.19790973 -0.08917323 -0.15133496
-0.069653906 0.08831842 0.03510616 -0.13400964 0.0560405 0.13575073 0.14685003 -0.24507785
0.19849114 0.13016166 0.04780751 -0.15177503 -0.04192076 -0.01997887 -0.005448234 -0.33077028
-0.20031676 -0.07566122 -0.18146004 -0.13316517 0.057193886 -0.06180166 0.17426305 -0.16072881
-0.028920569 -0.2471197 -0.29399163 0.060260355 0.19197452 -0.034999505 -0.1226042 0.15001914
0.052108705 0.055173256 -0.056118213 -0.15530899 0.08207677 -0.042904917 -0.11092688 -0.04783376
0.22249086 0.2631331 -0.14477794 0.0045143655 0.051956747 -0.2759652 -0.06596063 -0.053951815
-0.3162116 0.022931557 -0.21385367 -0.13751498 0.0972248 -0.03106532 0.14822528 -0.051019635
0.026085978 -0.22712545 -0.15801968 -0.13865912 0.1738253 0.087511994 -0.22050409 0.12903374
00000000: a569 80bd a5b0 433d 1358 2a3e 1b9e 9b3a
00000010: eda8 ddbd 24de 0fbe b72b 6f3e 3d1e 563e
00000020: a095 753e 0bb3 c93b 83b4 41bd 308a 56be
00000030: 8b22 09be fa08 92bd 3b09 4f3e 94a6 d4bd
00000040: 6697 763e 0899 803e 7345 173e 5e35 8a3d
00000050: c3e3 8abe 19ea 8abe d7b6 36be b7ab 143e
00000060: 9e44 343d a279 c7bc 6604 973d efd7 ffbc
00000070: 978e 303d bac7 273e 6182 44be 812e 22be
00000080: 9d45 6e3d b4dd 3f3d 1e8a ccbd f756 fabd
00000090: 94a6 a5bd 8c65 e6bd 354c a83b 2867 f6bd
000000a0: bee6 173e 38c8 6f3c 7014 233e ceb7 0b3d
000000b0: 7ba5 4b3e 5915 cc3d 1a03 883d 125a 9ebd
000000c0: 0802 0ebd 09d6 4bbe 72cf e33d d966 7dbb
000000d0: b101 503d 6940 62bd 6c41 1ebe c6f3 09bd
000000e0: 82d6 0d3e 6481 d6bd e78f 153e 237f a63d
000000f0: 0b9d 93bd 9bf1 0ebe eb9d fd3d e360 07bd
00000100: cb2d 92bd 891e 083e a5ff 183e 5df6 21bd
00000110: deaf b3bc e01b 4c3e 2763 283d c71e 863d
00000120: dd01 223e 5132 283d 7489 513e b30d 73bd
00000130: 1979 163e 7e8a 663e a48d 1b3b b89e 3d3e
00000140: 2fa5 8e3e 006d 853e 60ef 573e 247a 093d
00000150: d64c 3abe 7835 5dbd 38c8 22be c422 443e
00000160: c8be 263d 4a7f d23d 26e3 95bd c1ef 6e3c
00000170: e9c8 fcbd eb20 bdbd cc0b 86bd a174 e9bd
00000180: baa1 55be b7f2 363e b431 833d eb39 03be
00000190: 8b66 15bd 12bb 90bd b98c 973c 679f 78bd
000001a0: 6e3d 45be 9e27 20bd b899 323e 2a60 04be
000001b0: 0918 203e d4e8 803e b2bf 8abe 7d28 27be
000001c0: 5508 bf3d 4884 85be 8b2b 74be e84b 5a3e
000001d0: 2cad 6ebc 7d90 a1bb e050 0dbe d43b 143e
000001e0: e594 4a3e 7992 e83d 28ac bb3d da30 f33d
000001f0: d7c8 c33d 8624 62be 8032 25bc 7bf9 1abd
00000200: 0cd3 c43d be13 25be c16f b7bd 7d6b 0b3d
00000210: 065e 75be dc2c a1bb 5b35 473d 075d 473e
00000220: 1157 f93c 8def 0cbe f4eb df3d 56e2 733e
00000230: d2dd 803d 396e ce3c 22b1 be3d 6248 923e
00000240: b243 e5bd ed84 08bd 4e8c ec3d 4491 453d
00000250: 3e4f 733e ce3d 1fbd 0f0c aabc 0dcd de3d
00000260: 9e14 ddbd 3b69 3d3e 0c75 7ebe d2be 5abe
00000270: c027 e5bd 2354 833c 2f3e 873d 44bd 963d
00000280: f0cb 1e3e 1559 1dbe 9e03 90bb f5d1 043e
00000290: c198 3e3e ea69 853d 0095 563e c3a0 9c3d
000002a0: c99b b5bd f14a 883e 9935 ab3d f3cf dfbc
000002b0: 952b 203e 6c57 813e fc62 753e d81a 31be
000002c0: 187c 433e 6e6f d03d 056a d93d 38a9 abbd
000002d0: 2d2b eabc 4698 01be 3172 60bd 0b9c 3abe
000002e0: 8d27 433e 42a3 06be 551c d73d 3c1d 9dbd
000002f0: 23a1 f23c d9a8 4a3e 74a0 b6bd 8df7 1abe
00000300: b5a6 8ebd 4ae0 b43d 7acb 0f3d d339 09be
00000310: b98a 653d 3d02 0b3e db5f 163e b0f5 7abe
00000320: 4341 4b3e 1949 053e cfd1 433d ea6a 1bbe
00000330: 1ab5 2bbd baaa a3bc 1987 b2bb b95a a9be
00000340: d61f 4dbe 45f4 9abd a9d0 39be 735c 08be
00000350: 2344 6a3d bd23 7dbd 0372 323e 1896 24be
00000360: d4ea ecbc f20c 7dbe 1286 96be 90d3 763d
00000370: f894 443e a45b 0fbd e917 fbbd 9e9e 193e
00000380: f06f 553d 5afd 613d 36dc 65bd 5209 1fbe
00000390: de17 a83d 11bd 2fbd a22d e3bd 55ed 43bd
000003a0: a5d4 633e 62b9 863e ab40 14be 3eed 933b
000003b0: 99d0 543d 504b 8dbe 5e16 87bd 94fc 5cbd
000003c0: 7de6 a1be f6da bb3c 75fc 5abe bad0 0cbe
000003d0: cc1d c73d b37c febc 5ec8 173e f7f9 50bd
000003e0: 43b2 d53c 9393 68be e9cf 21be a8fc 0dbe
000003f0: 42ff 313e 7d39 b33d d3cb 61be 6c21 043e

layer.2.bias f4 [64]
0.12772512 -0.042339884 0.1963453 0.15073135 -0.033763926 0.0036300526 0.160262 0.23645933
0.096231945 -0.04818659 0.12093764 0.048963107 0.17018864 0.18097618 -0.023834458 0.013366952
-0.041555658 -0.109415755 -0.17404942 0.20826955 -0.029554727 -0.20054322 0.2609972 -0.037887447
0.110062376 -0.05134131 -0.12939577 -0.03736423 -0.13089287 0.13262396 0.18819676 -0.080857895
-0.16711581 0.061000858 -0.119657576 -0.050228544 0.01737163 0.2009222 0.1926367 0.06187038
-0.090465225 0.07961256 0.20867434 -0.08347467 -0.059491426 -0.05378836 -0.09206928 0.05090123
0.2399683 -0.078146085 0.20386657 0.013756983 0.065098256 0.1441616 -0.035775643 0.17252477
0.0943405 0.12835959 0.09989513 -0.0046145367 -0.11395092 -0.13503885 0.27071202 -0.061984666
00000000: 60ca 023e 966c 2dbd be0e 493e 5259 1a3e
00000010: 0b4c 0abd 2de6 6d3b b91b 243e 6522 723e
00000020: 4115 c53d 4d5f 45bd 27ae f73d 8a8d 483d
00000030: ee45 2e3e d251 393e 7b40 c3bc 0f01 5b3c
00000040: 4436 2abd 5e15 e0bd 033a 32be 9d44 553e
00000050: c11c f2bc 345b 4dbe 6da1 853e de2f 1bbd
00000060: 6268 e13d 444b 52bd 5380 04be 3c0b 19bd
00000070: c808 06be 93ce 073e a7b6 403e d398 a5bd
00000080: 6820 2bbe 09dc 793d 080f f5bd 72bc 4dbd
00000090: f34e 8e3c 8dbe 4d3e 8e42 453e cc6b 7d3d
000000a0: d545 b9bd e90b a33d baae 553e c5f4 aabd
000000b0: 48ad 73bd 2f51 5cbd d28e bcbd cf7d 503d
000000c0: 40ba 753e 0e0b a0bd 66c2 503e f864 613c
000000d0: 3c52 853d 199f 133e 7b89 12bd 55aa 303e
000000e0: 9835 c13d b270 033e d195 cc3d 8a35 97bb
000000f0: 1a5f e9bd a047 0abe c49a 8a3e a2e3 7dbd

layer.4.weight f4 [8, 64]
0.39368534 -0.10989698 0.1545513 -0.2533205 0.03902244 0.17263773 0.09397341 -0.12832908
-0.07556 0.17612657 0.2451669 -0.12029539 0.009935263 -0.23646115 0.058114324 0.095794685
0.009957282 0.12650053 0.08541952 0.10779707 -0.10266664 0.010791006 0.12253601 0.25594202
0.04123197 -0.053145397 0.0016040247 -0.13804924 -0.18388659 0.0042589796 -0.2513102 -0.11319388
-0.11982264 0.33815342 0.03221833 -0.19637693 -0.1532599 -0.13707152 -0.17523833 0.2369238
0.15835707 0.197904 0.03375625 0.10478416 -0.27580604 -0.14779142 0.104630984 -0.1580926
0.032409392 0.022220923 -0.024291053 -0.0041792854 0.039782513 0.14167748 0.017492944 0.36324355
-0.089229144 0.044450052 -0.111007266 -0.0983035 0.05677905 -0.08290237 0.17536023 0.031458236
-0.13923869 -0.021669747 0.003665445 -0.109520994 0.21651582 -0.16168441 -0.1296141 0.08249543
0.1899414 0.06624888 -0.18248789 -0.00031772477 0.15668151 -0.06725502 -0.10765835 -0.120659344
-0.03391743 0.12995526 -0.12299386 0.06362338 0.004475743 0.24174742 0.05467925 0.17488967
0.055745102 0.37159386 -0.13581015 -0.06793281 -0.13742885 0.13090204 -0.12451632 -0.008746135
0.32375935 -0.15329298 -0.07577217 0.103949144 0.13351464 0.24642643 0.15646182 0.038819164
-0.11948677 0.110966794 0.06405554 0.08167195 0.47830993 0.04257085 0.10682245 0.10070002
-0.13437152 0.01230408 -0.036901124 -0.13450351 -0.048961554 0.040872335 0.3361642 -0.11526938
0.1414677 -0.18069585 0.12421501 -0.008505934 0.27700073 0.2622987 0.17333272 -0.10391256
0.009519942 -0.15625943 -0.21451661 -0.14258018 -0.14868127 0.06936076 0.33010602 0.3667001
0.07037117 -0.061302867 -0.044737477 -0.13375084 0.30050978 0.33813033 -0.024261856 0.15738505
-0.023132293 -0.06743251 0.07298184 -0.0582998 -0.2174615 -0.07536323 0.12955977 -0.028707502
0.071022555 -0.084926695 -0.08261487 0.20357703 -0.017137924 0.15502769 0.36570868 0.13320832
-0.02127588 -0.15135579 -0.11177964 0.031478137 0.11993548 0.051195063 0.15938072 0.054830886
0.146198 -0.20894858 0.057505377 0.109792426 -0.1287698 -0.090406075 -0.1534919 0.2813853
0.6862755 -0.17958157 0.2338985 0.32286447 -0.013345511 -0.02582253 0.028429912 -0.07250847
0.052772675 -0.11302854 0.14780131 0.17872949 -0.22270124 0.02665106 -0.06632097 -0.22054899
0.038615618 0.17338863 0.038985968 0.34444293 -0.0626084 0.15913196 -0.060400885 -0.078007765
-0.08129419 0.06919439 -0.094846256 0.3056106 0.02291146 0.048516076 0.32324788 0.01472401
0.17263548 -0.0884648 -0.1652174 0.16924652 0.34063956 -0.15372537 0.0065609305 -0.1167183
0.106014065 -0.14231579 0.23373273 -0.030607298 0.28606048 -0.08017065 -0.31937158 0.358755
-0.10650364 -0.08506021 -0.003541613 0.09374309 0.111099124 0.0478031 0.06847407 -0.018915854
-0.051422093 0.0073399195 0.08906937 -0.105049595 -0.014311883 0.2987245 -0.090022705 -0.03641804
0.040909052 -0.09480479 -0.084294245 -0.051132597 0.37778416 0.0679472 -0.10123682 0.008923285
-0.1930523 0.3071698 0.16114272 0.16012383 -0.049858376 -0.2054433 0.052932866 0.25881445
00000000: 2091 c93e ab11 e1bd b242 1e3e 39b3 81be
00000010: fed5 1f3d f2c7 303e 2275 c03d b368 03be
00000020: 34bf 9abd 865a 343e 080d 7b3e 6e5d f6bd
00000030: 83c7 223c df22 72be 4909 6e3d 0130 c43d
00000040: de23 233c 5b89 013e 6ef0 ae3d b6c4 dc3d
00000050: e342 d2bd c2cc 303c 29f4 fa3d d50a 833e
00000060: dbe2 283d fdae 59bd 233e d23a c85c 0dbe
00000070: c44c 3cbe e98e 8b3b bbab 80be 31d2 e7bd
00000080: 9365 f5bd 7222 ad3e 5ef7 033d 0917 49be
00000090: 2af0 1cbe 7a5c 0cbe ad71 33be 279c 723e
000000a0: 5b28 223e 59a7 4a3e fe43 0a3d 1499 d63d
000000b0: 7336 8dbe a256 17be c548 d63d 07e3 21be
000000c0: b6bf 043d a708 b63c 08fe c6bc 63f2 88bb
000000d0: fdf2 223d e713 113e 5d4d 8f3c 0ffb b93e
000000e0: c5bd b6bd 4211 363d c757 e3bd 5853 c9bd
000000f0: 2691 683d b8c8 a9bd a291 333e 5ada 003d
00000100: 9694 0ebe c184 b1bc f637 703b 8b4c e0bd
00000110: 53b6 5d3e 9990 25be 8fb9 04be 5df3 a83d
00000120: 0080 423e 7ead 873d 1bde 3abe 4c94 a6b9
00000130: 1e71 203e 00bd 89bd fb7b dcbd 3f1c f7bd
00000140: 01ed 0abd fe12 053e 34e4 fbbd fa4c 823d
00000150: 41a9 923b a38c 773e 59f7 5f3d 4716 333e
00000160: fa54 643d 8d41 be3e d111 0bbe 5b20 8bbd
00000170: 26ba 0cbe 2f0b 063e 6a02 ffbd f34b 0fbc
00000180: c9c3 a53e d6f8 1cbe 712e 9bbd 4ae3 d43d
00000190: 10b8 083e 3657 7c3e 8737 203e d800 1f3d
000001a0: 7bb5 f4bd 8f42 e33d 8d2f 833d a043 a73d
000001b0: 0ae5 f43e c65e 2e3d bbc5 da3d d03b ce3d
000001c0: b098 09be 0d97 493c a225 17bd 4abb 09be
000001d0: e98b 48bd c069 273d b71d ac3e 5a12 ecbd
000001e0: e9dc 103e 5508 39be 7064 fe3d 795c 0bbc
000001f0: 0ad3 8d3e 044c 863e 227e 313e 1cd0 d4bd
00000200: 88f9 1b3c 7902 20be 3eaa 5bbe 8a00 12be
00000210: e73f 18be 040d 8e3d a803 a93e 1ec0 bb3e
00000220: c31e 903d b718 7bbd a53e 37bd fbf5 08be
00000230: 6bdc 993e 6b1f ad3e cdc0 c6bc 8c29 213e
00000240: ef7f bdbc 0e1a 8abd 8177 953d c5cb 6ebd
00000250: 3aae 5ebe 0a58 9abd 51ab 043e ff2b ebbc
00000260: 4674 913d 0cee adbd fc31 a9bd 7f76 503e
00000270: d564 8cbc 94bf 1e3e 2b3e bb3e c367 083e
00000280: c14a aebc 03fd 1abe b9ec e4bd 38ef 003d
00000290: bca0 f53d eab1 513d b334 233e 5a96 603d
000002a0: eeb4 153e 9ef6 55be c28a 6b3d dada e03d
000002b0: 3bdc 03be d226 b9bd fb2c 1dbe bc11 903e
000002c0: c0af 2f3f 3be4 37be 1783 6f3e 7e4e a53e
000002d0: 21a7 5abc c589 d3bc d9e5 e83c 527f 94bd
000002e0: 2928 583d 827b e7bd 3a59 173e dd04 373e
000002f0: cb0b 64be 5353 da3c 4ad3 87bd 98d7 61be
00000300: 692b 1e3d ca8c 313e c0af 1f3d d35a b03e
00000310: d538 80bd 7df3 223e eb66 77bd 89c2 9fbd
00000320: 917d a6bd cab5 8d3d c13e c2bd fe78 9c3e
00000330: d0b0 bb3c cbb8 463d bf80 a53e f93c 713c
00000340: 5bc7 303e 082d b5bd c02e 29be f64e 2d3e
00000350: 4f68 ae3e 2f6a 1dbe 13fd d63b 010a efbd
00000360: e71d d93d 3bbb 11be a257 6f3e 28bc fabc
00000370: 8576 923e 8230 a4bd ac84 a3be bcae b73e
00000380: 951e dabd 0c34 aebd 681a 68bb 61fc bf3d
00000390: f087 e33d 2fcd 433d 223c 8c3d 6cf5 9abc
000003a0: f99f 52bd b583 f03b 006a b63d 3e24 d7bd
000003b0: 637c 6abc 6bf2 983e d35d b8bd 152b 15bd
000003c0: 4090 273d 0429 c2bd 76a2 acbd 6a70 51bd
000003d0: ed6c c13e e727 8b3d 4055 cfbd f832 123c
000003e0: 81af 45be 5c45 9d3e 9902 253e 80f7 233e
000003f0: 4c38 4cbd ba5f 52be 22d0 583d 5483 843e

layer.4.bias f4 [8]
0.13517727 0.052368797 0.24941605 0.12873882 0.032169513 -0.045021996 -0.05989828 -0.00965134
00000000: e96b 0a3e aa80 563d ec66 7f3e 1cd4 033e
00000010: 2ec4 033d fc68 38bd e657 75bd a720 1ebc
