final/save/0.9_0.99_500/save1_4000.pth (torch_old, 15355 bytes, 6 tensors)

layer.0.weight f4 [32, 28]
0.046293866 0.15496744 -0.038210787 -0.029610362 0.19667919 -0.023255134 -0.021131717 -0.16185461
0.30606055 0.029243793 0.38656992 0.40120107 0.25020182 0.18271847 0.22659394 -0.09705183
-0.14067131 0.06614379 0.0022268738 0.18889365 0.3065196 0.024043376 -0.022434779 0.1403827
0.012549893 -0.094355576 0.08810846 0.017387705 0.09371035 -0.09010528 -0.11673003 -0.0011767007
0.06458941 -0.0652773 -0.739378 -1.0039281 -0.49323612 0.2963228 0.12385914 0.055122897
0.058557987 0.14428784 0.10316284 -0.015131646 -0.071062095 -0.09622481 -0.0027053012 0.104376025
0.1343295 -0.0138409585 -0.10150354 -0.008380696 -0.10256678 0.10723692 0.12604955 -0.11694101
-0.14986187 -0.13514994 -0.018434424 -0.0077214604 0.11497749 0.01780108 0.065558955 -0.08507866
-0.017518217 0.360782 0.4301632 0.41315097 0.09049113 -0.21308492 0.034155402 0.24195549
0.21353523 0.22709839 -0.105613746 0.14913617 -0.10768282 0.21393031 0.11668522 0.16405219
0.2888232 -0.049127 0.08927295 0.25213698 0.06232412 0.14640412 0.09211293 -0.17107211
0.1611151 -0.0760272 0.1729539 0.47050035 0.48265588 -0.15462635 -0.25419134 -0.16037358
0.14716332 0.21717146 0.08626027 -0.17783171 -0.36967048 0.028198458 0.057565108 0.048371628
0.40945143 -0.21203522 -0.17246127 -0.24356465 -0.05823951 -0.12522747 0.08205803 0.075352654
0.10671054 0.026811194 -0.044040676 0.017810559 -0.0020186007 0.11424156 0.4557844 0.711934
0.5751497 -0.0905503 -0.17701253 -0.007910497 0.049548894 0.11153684 0.047209788 -0.009185325
0.17521867 0.1348962 -0.018183788 0.11771294 0.18765132 0.062105406 0.093587495 -0.022741228
0.03902419 -0.021394555 -0.053361654 -0.084178135 0.112375505 0.005686699 0.021215247 0.05038024
0.10420567 0.09385363 0.5739698 0.5372139 0.3523858 0.20142528 0.20474982 0.12838945
-0.103151456 0.064136215 0.11638584 0.13939732 -0.11508601 0.085824266 0.06796771 -0.12651369
0.035728544 0.018971052 -0.1432884 -0.01647207 -0.026155762 0.18705215 -0.034148574 0.028047923
0.05338912 -0.046282746 -0.12129249 0.033927336 0.029580962 0.0015552752 -0.81721896 -0.8526343
-0.42527038 0.2432443 0.14994526 0.21082965 0.108668335 -0.05068348 -0.01111481 -0.117220685
-0.1342744 0.15317416 0.124787375 -0.044026602 0.090793386 -0.062717795 -0.019565446 -0.033822875
-0.10348229 0.112422995 -0.06743044 0.05803518 -0.035553213 -0.001196 -0.12254863 0.04102634
-0.16126578 -0.034343462 0.28358164 0.052473962 0.038717132 -0.28354007 -0.45330834 -0.10235397
0.23694809 0.261469 0.15462188 -0.18865134 -0.40880755 -0.20175704 0.09725344 0.25443244
0.14351046 -0.16440256 -0.19719069 -0.10958154 0.030742792 -0.049302015 -0.047008693 0.02457076
0.0032901354 0.1162028 0.115810476 0.06366023 0.06663001 -0.06554499 0.41589874 0.35013816
0.11692057 0.3120665 0.41205356 0.29425818 -0.25439245 -0.11383943 0.07577806 0.11834699
0.20883088 0.16770267 -0.19971125 0.054684427 -0.18777415 0.015613225 0.19422896 0.22186852
-0.080124624 0.01406809 0.11346621 0.18683971 -0.047608133 0.068066575 0.059338823 0.11652762
00000000: a39e 3d3d c9af 1e3e ea82 1cbd 6e91 f2bc
00000010: 4566 493e 8d81 bebc 6c1c adbc 37bd 25be
00000020: f8b3 9c3e ae90 ef3c 7eec c53e 3a6a cd3e
00000030: 741a 803e 8d1a 3b3e 3e08 683e 1cc3 c6bd
00000040: 240c 10be 6576 873d bef0 113b 566d 413e
00000050: 23f0 9c3e 9df6 c43c 24c9 b7bc 7cc0 0f3e
00000060: 119e 4d3c 7f3d c1bd 3572 b43d a970 8e3c
00000070: 36eb bf3d 1e89 b8bd 2710 efbd 863b 9aba
00000080: 7447 843d 1bb0 85bd e047 3dbf b780 80bf
00000090: 7289 fcbe 9fb7 973e dca9 fd3d 8cc8 613d
000000a0: 80da 6f3d 31c0 133e 0a47 d33d b9ea 77bc
000000b0: 0189 91bd 8311 c5bd 6c4b 31bb 19c3 d53d
000000c0: ac8d 093e 30c5 62bc 17e1 cfbd 304f 09bc
000000d0: 880e d2bd 089f db3d 2213 013e c57e efbd
000000e0: 6475 19be bf64 0abe ca03 97bc 4e04 fdbb
000000f0: 5179 eb3d 92d3 913c c643 863d b83d aebd
00000100: 5d82 8fbc 6bb8 b83e 5a3e dc3e 8688 d33e
00000110: 6a53 b93d ef32 5abe 89e6 0b3d 2ec3 773e
00000120: fba8 5a3e 7b8c 683e 054c d8bd 27b7 183e
00000130: cf88 dcbd 8c10 5b3e a9f8 ee3d 4cfd 273e
00000140: a2e0 933e 6539 49bd bdd4 b63d 1918 813e
00000150: 9447 7f3d f6ea 153e b4a5 bc3d 872d 2fbe
00000160: 5bfb 243e 26b4 9bbd d41a 313e 6ce5 f03e
00000170: ac1e f73e 5f56 1ebe 5e25 82be f938 24be
00000180: fbb1 163e 3262 5e3e 39a9 b03d 8419 36be
00000190: 7345 bdbe 7400 e73c 64c9 6b3d 5421 463d
000001a0: 9ea3 d13e c31f 59be b099 30be 0369 79be
000001b0: 8d8c 6ebd a13b 00be 0a0e a83d 7e52 9a3d
000001c0: 0e8b da3d 26a3 db3c ff63 34bd 73e7 913c
000001d0: 804a 04bb 7bf7 e93d 935c e93e 4e41 363f
000001e0: 033d 133f 7072 b9bd c642 35be 079b 01bc
000001f0: c8f3 4a3d 6d6d e43d 0d5f 413d 0c7e 16bc
00000200: 866c 333e 3b22 0a3e 2bf6 94bc 7b13 f13d
00000210: ab27 403e 3d62 7e3d cdaa bf3d d04b babc
00000220: d4d7 1f3d a243 afbc c091 5abd 9665 acbd
00000230: 2125 e63d 7d57 ba3b 99cb ad3c 835b 4e3d
00000240: c869 d53d 5536 c03d afef 123f da86 093f
00000250: e96b b43e 6e42 4e3e f0a9 513e 8678 033e
00000260: 1241 d3bd d959 833d b35b ee3d 2cbe 0e3e
00000270: 37b2 ebbd a2c4 af3d a832 8b3d ce8c 01be
00000280: 1858 123d 2e69 9b3c 32ba 12be 6ff0 86bc
00000290: 9c44 d6bc 998a 3f3e 60df 0bbd c2c4 e53c
000002a0: 8dae 5a3d fa92 3dbd 3268 f8bd 64f7 0a3d
000002b0: c653 f23c 60da cb3a 4335 51bf 3e46 5abf
000002c0: 0abd d9be 0915 793e 408b 193e bae3 573e
000002d0: 818d de3d 7b99 4fbd e41a 36bc 6611 f0bd
000002e0: 3a7f 09be b0d9 1c3e 8690 ff3d 3d55 34bd
000002f0: e2f1 b93d 3072 80bd b747 a0bc db89 0abd
00000300: 86ee d3bd 073e e63d f818 8abd 4cb6 6d3d
00000310: 3fa0 11bd 1ac3 9cba c7fa fabd 3c0b 283d
00000320: db22 25be bbab 0cbd 9d31 913e f0ee 563d
00000330: db95 1e3d 2a2c 91be 0818 e8be f59e d1bd
00000340: 85a2 723e 44df 853e 3355 1e3e d12d 41be
00000350: 394f d1be 6699 4ebe d02c c73d f844 823e
00000360: 68f4 123e 2559 28be 5bec 49be 496c e0bd
00000370: 4fd8 fb3c e9f0 49bd 308c 40bd 9e48 c93c
00000380: 509f 573b bcfb ed3d 0b2e ed3d 4b60 823d
00000390: 5175 883d 743c 86bd aef0 d43e 4f45 b33e
000003a0: 0d74 ef3d 2ec7 9f3e aff8 d23e 02a9 963e
000003b0: ba3f 82be a624 e9bd 8731 9b3d e85f f23d
000003c0: c3d7 553e 40ba 2b3e 1b81 4cbe c7fc 5f3d
000003d0: de47 40be 9dce 7f3c f5e3 463e 8031 633e
000003e0: 6118 a4bd d97d 663c f960 e83d e952 3f3e
000003f0: bf00 43bd 7d66 8b3d 440d 733d 08a6 ee3d

layer.0.bias f4 [32]
0.07096363 0.028963272 0.12587327 0.18959393 0.1261111 0.081750974 0.031163717 -0.24553935
0.010900374 0.3153964 -0.008843741 0.3193959 0.027381659 0.22240046 0.16775897 0.20263574
0.10507805 0.1733623 0.10119055 0.08172781 0.36143818 0.18718004 -0.17207946 0.18870795
0.11944177 0.15286884 0.21876596 0.31847516 -0.02594149 0.07918864 0.2128875 -0.13786958
00000000: 6155 913d 6244 ed3c ece4 003e e924 423e
00000010: 4523 013e 0e6d a73d 0d4b ff3c ab6e 7bbe
00000020: 7b97 323c a37b a13e 57e5 10bc dc87 a33e
00000030: 804f e03c f2bc 633e 02c9 2b3e be7f 4f3e
00000040: 2933 d73d e385 313e fe3c cf3d e960 a73d
00000050: 6d0e b93e 20ac 3f3e 9935 30be a83c 413e
00000060: e39d f43d a689 1c3e 2f04 603e 2d0f a33e
00000070: 3f83 d4bc a72d a23d 2eff 593e af2d 0dbe

layer.2.weight f4 [64, 32]
0.21573652 -0.07083364 -0.21261296 0.36081365 -0.12608935 -0.16263013 -0.17511381 0.44883606
-0.2155098 0.029366925 0.21821025 0.09969101 -0.20199847 0.16516063 0.28244996 -0.16463995
0.13878559 -0.052400496 0.043626156 0.22360416 0.10735675 0.42859545 -0.27716333 -0.19033892
0.38677463 0.30395716 -0.27849075 -0.19507329 -0.17213817 -0.043351542 0.059821483 0.15623093
0.20426765 0.21822967 0.44590032 -0.11898664 -0.071721226 0.17510282 0.041718617 -0.6407939
0.10540958 0.013178313 -0.093017414 0.07803533 0.21705136 -0.30643854 -0.199257 0.07266583
-0.30614161 -0.38293236 0.13563827 0.036188297 -0.029654907 -0.56366915 0.14458074 0.22490537
-0.44819948 -0.2998701 0.09587823 0.15040326 -0.0046056584 -0.02378572 0.17843689 -0.24958056
0.13689496 -0.08290659 0.4013824 -0.25480673 0.25369337 0.16463637 0.05001493 -0.82999676
0.13311777 0.03408578 -0.19738002 0.021198196 0.22346091 -0.059240233 0.20613779 0.2604321
0.027401384 0.030347748 0.041248832 -0.109394245 0.0028523253 -0.07276391 0.2608326 0.2362364
-0.08656682 -0.29102618 0.22292422 0.270883 0.07103428 -0.028367894 -0.07272114 -0.14599618
-0.07802644 -0.17510721 0.22428124 -0.057597265 -0.050862085 0.08347096 -0.19594228 -0.6448618
0.2862075 -0.120324306 -0.058004797 0.06745721 0.13557759 -0.03948964 0.0729693 0.37213606
0.107961565 0.021983663 0.24623923 -0.10402746 0.25030774 0.06837556 0.075615406 0.157905
-0.014352144 -0.07155985 0.10596992 0.24476801 0.24107999 -0.046896845 0.0736337 -0.11738466
0.06018544 -0.33372653 -0.09529821 0.116222724 0.22058387 0.33535835 -0.5713914 0.32006174
0.0806771 -0.1943119 0.128095 -0.2318704 0.06982573 0.36206707 0.22045128 0.1244264
0.016958198 0.20806894 -0.11370624 -0.010977137 -0.13753515 0.18904215 -0.38304484 -0.22407834
0.25207183 0.07089162 0.36278558 -0.018448312 0.17042704 -0.33122253 -0.11049461 0.038498256
0.10424549 0.1555477 -0.21237542 0.04382561 0.039488327 -0.11219162 0.010133364 0.4816242
-0.30911732 0.15322562 0.16365206 -0.10914425 -0.15002666 0.13876304 0.173447 -0.23494151
-0.008090459 0.25380477 -0.22685722 0.028368142 0.004887426 0.1614942 0.0023868312 0.007859489
0.3185164 0.16966774 -0.16223042 -0.064573854 -0.12300709 0.11696294 0.1629633 0.2875888
-0.18048355 -0.19318113 0.043818057 -0.18469332 0.1330311 -0.12930493 -0.12722968 -0.17779998
-0.3365855 0.23237248 0.2644044 0.12544176 -0.02338238 0.14800218 0.0029637464 -0.031436425
0.18878175 0.05286836 -0.16354574 -0.001945787 0.09444693 0.31486136 -0.2182941 0.034090865
0.34164017 0.030390514 -0.3513457 0.09266265 -0.23151569 0.19449423 -0.05717889 0.22018467
0.06125828 0.35483804 0.09898208 0.04851514 0.038735807 -0.2389391 0.2732093 0.16245781
-0.22004314 0.2327368 -0.030070575 0.2411479 -0.5232671 -0.047501232 -0.16523506 0.059761632
-0.015534521 0.015015653 0.029891828 -0.0052742604 0.35589787 0.09621589 0.2599045 -0.011146423
0.04333387 0.21833466 -0.7534982 -0.10665588 -0.30171475 0.090213865 0.29355615 0.011800464
00000000: 09ea 5c3e 3a11 91bd 36b7 59be 91bc b83e
00000010: 911d 01be 8388 26be 0951 33be d7cd e53e
00000020: 9aae 5cbe e892 f03c 8272 5f3e cd2a cc3d
00000030: b0d8 4ebe de1f 293e 489d 903e 6097 28be
00000040: cf1d 0e3e e7a1 56bd 57b1 323d 7df8 643e
00000050: dbdd db3d dd70 db3e 5ae8 8dbe 35e8 42be
00000060: 5307 c63e 46a0 9b3e 5796 8ebe 4bc1 47be
00000070: fd44 30be 6391 31bd 5f07 753d 00fb 1f3e
00000080: 8a2b 513e 9977 5f3e 0c4d e43e 44af f3bd
00000090: 94e2 92bd 274e 333e 24e1 2a3d 120b 24bf
000000a0: fae0 d73d dae9 573c ea7f bebd fdd0 9f3d
000000b0: b642 5e3e 83e5 9cbe 070a 4cbe d3d1 943d
000000c0: 98be 9cbe b60f c4be c2e4 0a3e 2e3a 143d
000000d0: d9ee f2bc 9f4c 10bf f90c 143e 984d 663e
000000e0: 677a e5be 9388 99be ce5b c43d 5003 1a3e
000000f0: 10eb 96bb 45da c2bc 29b8 363e 0c92 7fbe
00000100: 312e 0c3e eeca a9bd fe81 cd3e 0776 82be
00000110: 19e4 813e 7096 283e 75dc 4c3d ab7a 54bf
00000120: 0650 083e 889d 0b3d fd1d 4abe d7a7 ad3c
00000130: f0d2 643e e3a5 72bd c915 533e 5b57 853e
00000140: de78 e03c d79b f83c 89f4 283d 170a e0bd
00000150: 14ee 3a3b 3f05 95bd da8b 853e f4e7 713e
00000160: f249 b1bd 6201 95be 3f46 643e 2db1 8a3e
00000170: 6c7a 913d c963 e8bc d2ee 94bd 0680 15be
00000180: 54cc 9fbd 4e4f 33be fba9 653e 1ceb 6bbd
00000190: c354 50bd d3f2 aa3d 18a5 48be aa15 25bf
000001a0: ca89 923e 976c f6bd 7096 6dbd 0127 8a3d
000001b0: dad4 0a3e e4bf 21bd ee70 953d 9e88 be3e
000001c0: f41a dd3d 1517 b43c 2326 7c3e 590c d5bd
000001d0: 5628 803e 7c08 8c3d 40dc 9a3d d9b1 213e
000001e0: 4125 6bbc f88d 92bd c206 d93d 77a4 7a3e
000001f0: acdd 763e e816 40bd 44cd 963d 5e67 f0bd
00000200: 0285 763d 34de aabe b52b c3bd 2e06 ee3d
00000210: bde0 613e 17b4 ab3e b546 12bf 22df a33e
00000220: 093a a53d b3f9 46be 562b 033e 6f6f 6dbe
00000230: cb00 8f3d db60 b93e fbbd 613e 45d3 fe3d
00000240: ebeb 8a3c 0610 553e d1de e8bd 73d9 33bc
00000250: 04d6 0cbe 4494 413e 741e c4be cb74 65be
00000260: 8f0f 813e a02f 913d 08bf b93e ea20 97bc
00000270: 6d84 2e3e 0096 a9be 004b e2bd 59b0 1d3d
00000280: a97e d53d e547 1f3e f178 59be 7c82 333d
00000290: 83be 213d b8c4 e5bd 6906 263c 7297 f63e
000002a0: a044 9ebe 2de7 1c3e 6894 273e 0587 dfbd
000002b0: 97a0 19be e617 0e3e 179c 313e 8294 70be
000002c0: d88d 04bc b3f2 813e 424d 68be 4e64 e83c
000002d0: b326 a03b bc5e 253e 626c 1c3b 16c5 003c
000002e0: 9514 a33e 61bd 2d3e bb1f 26be 4c3f 84bd
000002f0: 24eb fbbd 448a ef3d dadf 263e d73e 933e
00000300: aed0 38be 46d1 45be 907a 333d 3f20 3dbe
00000310: 4e39 083e 8368 04be 7f48 02be 3311 36be
00000320: ef54 acbe 0df3 6d3e 0360 873e ce73 003e
00000330: 688c bfbc e28d 173e 6a3b 423b 7bc3 00bd
00000340: 0150 413e 7e8c 583d 8978 27be c709 ffba
00000350: 646d c13d 8235 a13e 7d88 5fbe dda2 0b3d
00000360: 76eb ae3e 87f5 f83c 95e3 b3be eac5 bd3d
00000370: 7312 6dbe 7f29 473e 6934 6abd 1778 613e
00000380: f6e9 7a3d 55ad b53e 1eb7 ca3d d0b7 463d
00000390: 70a9 1e3d 74ac 74be 17e2 8b3e 575b 263e
000003a0: fd52 61be 8e52 6e3e 9156 f6bc 7aef 763e
000003b0: d5f4 05bf a790 42bd 6133 29be 9dc8 743d
000003c0: 8184 7ebc 3704 763c b5df f43c b4d3 acbb
000003d0: 3f38 b63e d60c c53d 3412 853e 7d9f 36bc
000003e0: db7e 313d 1f93 5f3e 42e5 40bf 666e dabd
000003f0: 5b7a 9abe 0cc2 b83d fe4c 963e bc56 413c

layer.2.bias f4 [64]
0.29799223 0.3360481 0.1257319 0.27032283 0.001152407 0.13873324 0.013642038 -0.25486
0.23315829 -0.013264808 0.16035971 0.064941674 -0.05956946 -0.07001029 0.10017449 -0.015386164
-0.18095481 -0.18389545 0.07734607 0.1181572 0.012292936 0.1684412 0.28871268 0.20913976
0.092111595 0.3813992 0.16181906 0.15832435 0.36023808 0.09172883 -0.018871153 0.2935177
0.10343165 0.16007608 0.16476175 0.31030464 -0.03976591 0.19163185 0.11630811 0.48781803
0.30384624 0.19449598 -0.017664256 0.35062316 0.30190787 0.1449544 0.22610638 0.49322256
0.18144234 0.5843579 0.051124446 0.06964832 0.06578629 0.017902132 0.18966216 0.17965218
-0.044098604 -0.0713283 -0.068660095 0.1738395 0.0010777238 -0.037382033 -0.3180349 -0.022245087
00000000: 7092 983e 7f0e ac3e ddbf 003e c167 8a3e
00000010: 5d0c 973a 1610 0e3e db82 5f3c 037d 82be
00000020: 0cc1 6e3e a354 59bc 5635 243e 2400 853d
00000030: 1bff 73bd 8e61 8fbd 4828 cd3d 4016 7cbc
00000040: 384c 39be 174f 3cbe 9e67 9e3d 67fc f13d
00000050: 5068 493c da7b 2c3e 26d2 933e bc28 563e
00000060: 01a5 bc3d c246 c33e e5b3 253e c71f 223e
00000070: 2071 b83e 53dc bb3d ad97 9abc f447 963e
00000080: f9d3 d33d fcea 233e 4eb7 283e 40e0 9e3e
00000090: 94e1 22bd 243b 443e f232 ee3d 49c3 f93e
000000a0: bc91 9b3e f429 473e a1b4 90bc e184 b33e
000000b0: ab93 9a3e ed6e 143e 6e88 673e ab87 fc3e
000000c0: 05cc 393e 7b98 153f de67 513d c7a3 8e3d
000000d0: f6ba 863d 7ea7 923c cc36 423e bef6 373e
000000e0: bda0 34bd 9214 92bd aa9d 8cbd fb02 323e
000000f0: 6942 8d3a e71d 19bd 78d5 a2be 543b b6bc

layer.4.weight f4 [8, 64]
-0.29789332 0.32869497 0.40417838 0.3982897 -0.20373896 -0.32545382 -0.18765403 1.0897115
-0.4295237 -0.3484023 -0.13885337 0.18572769 0.007290052 -0.54142785 0.62514883 -0.13643794
-0.13793409 -0.17329295 0.45179322 -0.044024657 -0.08918623 -0.47267252 -0.23628376 -0.6155818
0.12207553 0.042487953 -0.079207815 -0.57725203 0.31680202 -0.1255821 -0.19938357 0.18112491
0.2299434 -0.27753574 -0.33096874 0.5783101 -0.23994395 0.62476766 -0.02616158 0.09077624
-0.2334595 0.13699345 -0.33862337 -0.3941725 -0.33428323 0.30402732 0.5802407 0.17065254
-0.21980518 -0.24201587 1.1617453 -0.14796057 -0.47611344 0.23641083 0.11553988 -0.09083717
-0.11148055 -0.12739575 -0.088381805 0.30744725 -0.058949076 -0.3720466 -0.105441004 -0.5977718
0.26646507 -0.02446764 -0.21758886 -0.11357328 0.11790568 0.027087022 -0.06087963 -0.29706457
-0.0319907 0.08243017 0.0153300045 -0.16506417 0.61016244 -0.009622372 -0.18738732 0.2362405
0.09952071 0.33510774 -0.21098192 -0.26484686 -0.17085817 0.041117106 0.30171946 -0.18328932
-0.053814784 0.14291975 0.47762534 -0.22345571 0.45642197 0.65546334 0.654128 0.11846728
0.09875825 0.095587455 -0.10558831 0.29628506 -0.3182658 -0.13413857 1.1700387 0.08693159
0.0009229033 -0.21140112 0.08074858 -0.04733755 -0.036782622 -0.024128215 -0.10109116 -0.109606564
-0.313503 -0.4092436 -0.034059875 0.5919495 -0.10425582 -0.13579258 0.08079425 0.30686492
-0.2015829 -0.12770072 0.7201232 -0.18223652 -0.022117103 0.15023404 0.4403644 -0.16055667
-0.17413455 0.39060634 0.0997265 0.08576901 1.2426624 -0.0639212 -0.25783876 0.19335946
0.23369576 -0.27497843 0.2614146 -0.27287146 -0.089964405 0.49740833 -0.2837258 0.28943023
0.50242263 -0.23023455 -0.14834714 0.47361377 -0.12059757 0.32442722 0.37449992 0.4928043
-0.06361895 0.07985961 0.34691954 0.7591566 0.039231066 -0.096444055 -0.034592632 -0.086536705
-0.13340397 -0.2010382 0.7127667 -0.21727696 -0.43837112 -0.37754154 -0.06719478 -0.05252015
0.21475182 -0.37117568 0.07791809 0.31296182 0.2196992 -0.17548344 -0.116662584 0.03824476
0.1317529 -0.6286266 -0.21994373 -0.17269856 0.79813266 0.14828993 0.15332818 0.3214297
-0.27015737 -0.10770446 0.007212125 0.11591253 -0.029039128 0.47091672 -0.076466955 0.4836208
0.49306047 0.24859753 -0.249042 -0.19354045 -0.019558081 0.15666324 0.45715785 -0.15282874
0.23199585 -0.004003792 0.15261045 0.11518366 -0.37966684 -0.30993533 0.0037774572 -0.15798028
-0.36378142 -0.7782487 -0.19729453 -0.122936755 0.5907563 0.15570197 -0.14725427 -0.021378024
0.37446198 0.24798967 -0.08111944 -0.03908341 -0.39972818 -0.46850866 -0.33596364 0.14823346
-0.013384164 0.24635103 -0.08802069 0.03834299 0.6460025 0.010530588 0.22963637 0.2490816
0.373064 0.6050286 0.09993489 0.27078924 0.20640318 0.18322648 0.2969662 0.21561131
0.29357395 -0.88541895 0.17144576 -0.48228717 0.06687594 -0.30564234 -0.1918955 0.15235138
0.5509531 -0.18353319 -0.18033808 0.10590003 -0.07761879 0.3789114 -0.4189912 -0.1248747
00000000: 7985 98be b54a a83e 78f0 ce3e a1ec cb3e
00000010: f2a0 50be e2a1 a6be 6128 40be ab7b 8b3f
00000020: 88ea dbbe c961 b2be 942f 0ebe 662f 3e3e
00000030: 63e1 ee3b 049b 0abf c109 203f 63b6 0bbe
00000040: 983e 0dbe b573 31be 7151 e73e 3353 34bd
00000050: 45a7 b6bd 2202 f2be 5ff4 71be c596 1dbf
00000060: bc02 fa3d d907 2e3d b537 a2bd cac6 13bf
00000070: e033 a23e 9898 00be 352b 4cbe cf78 393e
00000080: 4876 6b3e 2a19 8ebe bc74 a9be 210c 143f
00000090: deb3 75be c6f0 1f3f cf50 d6bc e5e8 b93d
000000a0: 0210 6fbe 0348 0c3e 0b60 adbe fad0 c9be
000000b0: 2c27 abbe 78a9 9b3e a88a 143f 8abf 2e3e
000000c0: 9c14 61be 02d3 77be 12b4 943f fa82 17be
000000d0: 24c5 f3be ae15 723e 2ca0 ec3d d708 babd
000000e0: ea4f e4bd 0874 02be 8501 b5bd ba69 9d3e
000000f0: 9674 71bd e47c bebe 74f1 d7bd 9307 19bf
00000100: 1c6e 883e 5c70 c8bc 9dcf 5ebe 1c99 e8bd
00000110: 8878 f13d 9ae5 dd3c eb5c 79bd d918 98be
00000120: ae08 03bd 26d1 a83d b32a 7b3c 9506 29be
00000130: 9b33 1c3f 27a7 1dbc 76e2 3fbe 08e9 713e
00000140: 84d1 cb3d 3e93 ab3e a50b 58be 029a 87be
00000150: 72f5 2ebe 696a 283d f97a 9a3e 32b0 3bbe
00000160: e46c 5cbd 8e59 123e 4f8b f43e 93d1 64be
00000170: 24b0 e93e 72cc 273f ef74 273f f99e f23d
00000180: c441 ca3d 5bc3 c33d af3e d8bd adb2 973e
00000190: bcf3 a2be 9f5b 09be d4c3 953f 3109 b23d
000001a0: feee 713a 8979 58be 835f a53d 05e5 41bd
000001b0: 60a9 16bd 89a8 c5bc e208 cfbd 6879 e0bd
000001c0: 7783 a0be 6188 d1be 5e82 0bbd 018a 173f
000001d0: 1384 d5bd 360d 0bbe 7577 a53d 661d 9d3e
000001e0: bf6b 4ebe fac3 02be fe59 383f 369c 3abe
000001f0: ed2e b5bc f4d6 193e 7177 e13e f868 24be
00000200: 5450 32be 8efd c73e 683d cc3d aaa7 af3d
00000210: 900f 9f3f 1ee9 82bd 7103 84be 0600 463e
00000220: f14d 6f3e f9c9 8cbe 22d8 853e cfb5 8bbe
00000230: 423f b8bd 4eac fe3e 8244 91be 3330 943e
00000240: c59e 003f 9bc2 6bbe 50e8 17be 817d f23e
00000250: dcfb f6bd 531b a63e 74be bf3e d850 fc3e
00000260: a74a 82bd 6f8d a33d 709f b13e 1658 423f
00000270: c1b0 203d 7684 c5bd 01b1 0dbd 283a b1bd
00000280: 0d9b 08be f5dc 4dbe e177 363f da7d 5ebe
00000290: 2e72 e0be 204d c1be 6b9d 89bd 5e1f 57bd
000002a0: e7e7 5b3e bd0a bebe 8593 9f3d 883c a03e
000002b0: d4f8 603e eeb1 33be cbec eebd 8aa6 1c3d
000002c0: 3bea 063e aced 20bf ee38 61be e4d7 30be
000002d0: 6c52 4c3f 51d9 173e 1002 1d3e 6f92 a43e
000002e0: 1152 8abe 2894 dcbd b153 ec3b 8c63 ed3d
000002f0: 77e3 edbc ff1b f13e b59a 9cbd 259d f73e
00000300: 6c72 fc3e 5a90 7e3e de04 7fbe 782f 46be
00000310: 4538 a0bc 546c 203e 9810 ea3e 237f 1cbe
00000320: 5290 6d3e 3e32 83bb ea45 1c3e 69e5 eb3d
00000330: b163 c2be d8af 9ebe 378f 773b 95c5 21be
00000340: 8f41 babe 4f3b 47bf 9407 4abe 44c6 fbbd
00000350: ce3b 173f 5670 1f3e d3c9 16be f720 afbc
00000360: 7bb9 bf3e 01f1 7d3e f321 a6bd ed15 20bd
00000370: 2ca9 ccbe 5ee0 efbe 6d03 acbe 83ca 173e
00000380: 4149 5bbc 7243 7c3e 3144 b4bd 8a0d 1d3d
00000390: 6b60 253f 7d88 2c3c cc25 6b3e 3f0f 7f3e
000003a0: 3f02 bf3e 28e3 1a3f aaaa cc3d e3a4 8a3e
000003b0: 5b5b 533e b99f 3b3e f40b 983e 36c9 5c3e
000003c0: 534f 963e d1aa 62bf 7a8f 2f3e 58ee f6be
000003d0: 41f6 883d 277d 9cbe 4180 44be 0002 1c3e
000003e0: 430b 0d3f 20f0 3bbe 8caa 38be 1de2 d83d
000003f0: 9af6 9ebd ad00 c23e 0486 d6be 4fbe ffbd

layer.4.bias f4 [8]
0.16110913 0.17118303 0.010096085 0.20722517 0.052408133 0.011981543 -0.0659367 0.027854403
00000000: cbf9 243e 9b4a 2f3e 0d6a 253c d632 543e
00000010: e9a9 563d 3c4e 443c d209 87bd eb2e e43c
