final/save/0.9_0.99_500/save1_5000.pth (torch_old, 15355 bytes, 6 tensors)

layer.0.weight f4 [32, 28]
00000000: 55cd 323d f391 3b3e bf80 93bd ef94 0ebd
00000010: 13c6 5c3e dde1 44bd addc 0ebe a6d4 a9be
00000020: b863 153f 6f26 673c a471 b63e 17b5 253f
00000030: 202f 6d3e be34 203e bfbf 9b3e 0535 f7bd
00000040: 4008 30be cb15 403e 2c3e b93b 2a4d 533e
00000050: 318c a63e 03e0 a7bb 6e0e 85bd 417d 213e
00000060: fc18 bc3d bb15 a6bc 5bc5 c73d 3668 513d
00000070: 8301 bc3d 1ac4 64bd 32b3 efbd 8052 74bc
00000080: 77a7 9d3d 3acd 31bd 6a8e 83bf 42bd a5bf
00000090: c93c 59bf 5247 893e 3c9e dd3d 03f5 fb3d
000000a0: 8118 1d3d 1cf9 fb3d d50f ed3d 49d9 d0bc
000000b0: 8218 93bd 364c c5bd f9ea 87bc 9e15 dd3d
000000c0: 21ff 143e d65e 31bc 9d36 ebbd 5b10 f7bb
000000d0: d390 9cbd c8a7 c93d bb7d f23d 9c44 d7bd
000000e0: 0dd6 97bd c618 98bd b4ef 833d 2ae8 8c3c
000000f0: d072 0f3e 651f ec3c a774 563c eb84 41be
00000100: 6672 843e 2fe2 b63e a39c c53e ae48 293f
00000110: 20c2 e33d bc5a 54be 5e55 813d 397f 883e
00000120: f34a 7b3e bac0 853e f4cb cbbd 486c 2a3e
00000130: 1f22 08be b24a 4a3e face d63d fe34 213e
00000140: 11d2 a53e 010f 573b cb72 f33d 5e5f 8e3e
00000150: 9ede fe3c 91c7 df3d 318d 4b3d 7e8f 3ebe
00000160: 3b8a 033e 7c32 ccbd a23f 5c3e 9463 023f
00000170: 13fb 323f 9fdf 70be e04c b1be 4135 94be
00000180: fa83 0d3e 23a7 563e 81e9 a73d cdcc 7ebe
00000190: d033 e0be 6e01 bfbd 5197 893d 11ea 263d
000001a0: 42cf d53e cd45 6bbe 8fff 45be 2224 87be
000001b0: c7c2 a1bd 099c eebd 4e28 8c3c 6e02 273d
000001c0: f757 fb3d c06c c33b e8cb abbc 0846 9a3c
000001d0: 4789 e7bc 939e a23d 3e4f df3e ba44 263f
000001e0: 3222 793f 198f 8ebd 2371 2fbe 7869 4dbd
000001f0: d88c 5f3d 71b5 f73d 45fd d83c 1dd1 62bb
00000200: f43d 303e 761f 183e 1817 27bc 991b dd3d
00000210: 86ad 273e 4c1e 4a3d 54f7 c63d ae14 a2bc
00000220: 9e79 053d 48de 9fbb 515e 28bd 506a 9abd
00000230: 4db0 003e 4188 80bc 4b9c 363d b48b 843d
00000240: 3006 b33d 5e59 9c3d a7d9 033f f842 dc3e
00000250: b6c5 393f f677 6a3e cb91 573e f4cb 263e
00000260: f5f1 cabd 749d 653d 877c c33d 13da 0b3e
00000270: 8eb5 05be c2ff 903d bea3 873d 2830 0dbe
00000280: 565e 753c 02f2 3b3c 3c64 16be 08bd 80bc
00000290: dc14 d2bc f02c 2c3e c90f 03bd 911c 053d
000002a0: 97f6 493d 4843 12bc dce8 07be 38d3 e73c
000002b0: 0dab 4f3d 3b8d bd3c 3407 92bf cd40 97bf
000002c0: 0433 4cbf eb65 623e 0f27 0d3e f851 983e
000002d0: ce34 943d 95e8 c0bd d81e 3a3c ef4c 12be
000002e0: 1644 25be 9f0d 2f3e f212 c93d 3887 56bd
000002f0: f533 bf3d 29b0 86bd dbfd 2abd 3e05 e4bc
00000300: 9615 78bd 6d48 e03d 9b07 5dbd df25 753d
00000310: 1c85 86bd 3eaa d9bc 89e6 1fbe bb0c 293d
00000320: 543e 20be adf1 23bd e1dc a43e 4afa ef3d
00000330: 294c 7abd 3329 d2be 9e51 14bf da79 74be
00000340: 465d 6a3e 71e7 8a3e 0b74 183e 2185 a3be
00000350: 6b5d 0cbf 665b b9be 9bd3 c23d 2b4f 6b3e
00000360: 7628 2b3e 9275 3ebe 1111 66be f878 0abe
00000370: 3728 c83b 8eb1 7abd bd8e b3bd e297 18bc
00000380: 1b98 d93c 7cfd e33d 8101 113e db32 963d
00000390: d32b 883d 088f 98bd a28c db3e 7f3c a63e
000003a0: 92f6 cf3e 3cb7 e63e c1e8 063f 08a4 043f
000003b0: 8024 6ebe cc15 03be 46f4 f83d 5a20 1f3e
000003c0: 3780 813e 3b85 3e3e 0219 47be 3226 303d
000003d0: 7cce 43be 2a35 893c a3b1 4b3e 92ad 4f3e
000003e0: 3dc8 50bd 85b7 2f3c 387e ef3d 06e2 273e
000003f0: d51a 39bd 2117 d73d 9a2d 4c3d 115e c93d
0.04365285 0.18317394 -0.07202291 -0.034810003 0.21559934 -0.048066963 -0.13951369 -0.3317005
0.58355284 0.014108284 0.35633576 0.64729446 0.23162508 0.1564512 0.30419728 -0.120706595
-0.17190647 0.18758313 0.0056531634 0.20634905 0.32528833 -0.00512314 -0.06496893 0.15770437
0.09184453 -0.020274034 0.097544394 0.051124774 0.09179976 -0.05585108 -0.11704101 -0.014912248
0.07697957 -0.04340861 -1.0277836 -1.2948382 -0.84858376 0.26812226 0.108211964 0.12302592
0.038353447 0.12303373 0.11575285 -0.025494235 -0.07182409 -0.09633677 -0.016591536 0.10795139
0.14550449 -0.010825833 -0.11485026 -0.0075397915 -0.076448105 0.09846455 0.118403874 -0.10511133
-0.07413874 -0.074266 0.06442204 0.017200548 0.14008641 0.028823564 0.0130893355 -0.1889836
0.2586853 0.3571944 0.38596067 0.66126525 0.11121011 -0.20737737 0.063151106 0.26659563
0.2454031 0.261236 -0.0995101 0.16642869 -0.13294266 0.19755057 0.104886964 0.15742871
0.3238683 0.003281534 0.118871294 0.27807134 0.031112012 0.10926736 0.049695197 -0.18609425
0.128457 -0.09970567 0.21508649 0.50933194 0.6991436 -0.23522805 -0.34628963 -0.2894688
0.13819876 0.20962195 0.08198834 -0.24882813 -0.4378953 -0.093264446 0.067183144 0.040750567
0.41759688 -0.22975846 -0.19335769 -0.26394755 -0.07898479 -0.11650855 0.017109063 0.0407738
0.12272637 0.0059638917 -0.020971254 0.018832222 -0.028263701 0.07940402 0.43615144 0.6494862
0.973178 -0.069608875 -0.17133002 -0.05014941 0.05457768 0.12095154 0.026487956 -0.0034609505
0.17211133 0.14855751 -0.010198377 0.107962795 0.16374788 0.0493453 0.09715143 -0.019785251
0.032586686 -0.004878793 -0.041105572 -0.07539809 0.12567253 -0.01568997 0.044582646 0.06471959
0.087414145 0.07634233 0.51503986 0.43019843 0.7256731 0.22897324 0.2105171 0.1628874
-0.09909431 0.056058362 0.09545236 0.13657407 -0.13057539 0.07080032 0.06623028 -0.13787901
0.014976105 0.011471273 -0.14686674 -0.015715137 -0.025644712 0.16814017 -0.031997476 0.032497946
0.049307432 -0.008927174 -0.13272423 0.02829896 0.050700236 0.023138633 -1.1408448 -1.1816651
-0.79765344 0.22109191 0.13784431 0.29750037 0.07236634 -0.094193615 0.011359893 -0.1428716
-0.16139254 0.1709504 0.09818067 -0.05237505 0.09336082 -0.06576569 -0.041746 -0.02783453
-0.06056746 0.10951314 -0.05396233 0.05985057 -0.06568357 -0.026570436 -0.15615286 0.041271906
-0.15648776 -0.0400254 0.32199767 0.11717661 -0.06110779 -0.41047058 -0.5793704 -0.23874608
0.22887143 0.271297 0.14888017 -0.31937507 -0.54830045 -0.36202544 0.09513017 0.22979419
0.16714653 -0.18599537 -0.22467448 -0.13522708 0.0061083096 -0.061204486 -0.087674595 -0.009313555
0.026561787 0.11132333 0.1416073 0.07333919 0.06648984 -0.07449156 0.42880732 0.3246803
0.40617806 0.45061672 0.52698904 0.5181279 -0.23256111 -0.12801284 0.121559665 0.15539685
0.25293133 0.18605511 -0.19443133 0.043005176 -0.19121736 0.016748983 0.19891982 0.20281056
-0.050972212 0.010724907 0.11693996 0.16394815 -0.045191605 0.10502458 0.049848177 0.09832395

layer.0.bias f4 [32]
00000000: 814d 473e f877 ad3d 8066 663e b10c 353e
00000010: 2067 ef3d c651 393d 2ac4 b83d 62b5 91be
00000020: 7b37 a73c f040 c93e 466c 453c 3e2d c43e
00000030: 01b4 9c3c dc84 623e 2629 303e c423 4e3e
00000040: 3718 1f3e 2f96 3c3e 2c4b 063e 55d0 fe3d
00000050: 99a9 d13e 201c 623e 1211 01be ba83 a53e
00000060: 0e9c 1c3e e30d 493e bef1 373e 9324 d23e
00000070: 4381 07bd 4844 093e 89c5 893e d185 33be
0.19463159 0.08470148 0.22500038 0.17680623 0.116895914 0.045244 0.0902179 -0.28458697
0.020412197 0.39307356 0.01204974 0.38315767 0.019128801 0.22120994 0.17203197 0.20130831
0.15536581 0.18416665 0.13114613 0.1244208 0.40949705 0.22081041 -0.12604168 0.32327062
0.15293905 0.19634204 0.17963311 0.4104353 -0.033082258 0.13404953 0.2690852 -0.17531516

layer.2.weight f4 [64, 32]
00000000: 08c2 573e e1e3 bbbd a042 73be d04d c93e
00000010: d742 0fbe 2643 24be 1941 24be a57b 023f
00000020: 1933 b6be b469 093d c315 663e 393d b63d
00000030: fe97 79be ce59 213e f3c7 973e 6c7b 78be
00000040: 275c 213e 7dcb 69bd 7da7 f13c 6026 6a3e
00000050: 3f23 023e 3779 ea3e b1ff 9fbe 7c6e 4ebe
00000060: 006e d03e c793 9a3e 99f9 cebe 37f6 63be
00000070: 6402 36be 1ec5 7bbd 5ddc 493d c760 223e
00000080: 79f9 7f3e b841 2c3e a633 f83e fc93 babd
00000090: 1f6a 91bd 13cd 423e cb67 443d bec1 45bf
000000a0: 2832 0b3e 73e9 463d 2a56 dabd a86a 083d
000000b0: 0a20 563e b0cc a1be 2ffc 44be 6136 8f3d
000000c0: cf37 bebe 86ed edbe aa5e 203e f708 483d
000000d0: 8bcd ddbc 4918 38bf d591 e83d 84b9 853e
000000e0: 1990 12bf 95f0 bebe 3a66 023e 0e23 3f3e
000000f0: 15b1 03bb 4388 98bd d563 2a3e e26b 8bbe
00000100: a0bb 1d3e fd3c 19be dabc cf3e 75c1 74be
00000110: 8729 833e b021 283e e63d bdbc 5e9d 85bf
00000120: 9cd7 0c3e 7f54 133d 3e33 49be 43e3 09bc
00000130: dfed 673e 3396 a4bd 14e2 383e 751c 8b3e
00000140: 2291 753d d981 523b 23e9 ee3c abc1 eabd
00000150: 1a74 743b 89ae 71bd 9841 723e e2d5 813e
00000160: 6c3e 7ebd c182 a5be 01b5 853e 3354 a03e
00000170: fd88 8f3d ebba 25bd bc3c afbd 2216 0dbe
00000180: 742a 4dbd 8250 6dbe c921 753e 2f68 42bd
00000190: 47ba 50bd 4c69 a53d b41c 7abe 48df 5ebf
000001a0: 8a3f 933e 85e5 c9bd 4f07 58bd da78 093d
000001b0: fddf 063e 1983 69bd 0417 5f3d 541a c23e
000001c0: 03fa 0d3e e8ff 33bb 9bf9 753e fff2 d4bd
000001d0: 6c1e 7d3e 5776 a53d 83f9 653d e1ec 3d3e
000001e0: 411a 043c 9476 d4bd 6d51 063e 90a4 923e
000001f0: 7a07 743e 7c2b 71bd fa04 943d ef00 dfbd
00000200: 0339 783d 03d8 d6be 7a68 0ebe 27fc f03d
00000210: 82c6 663e 3a43 a73e 9ca5 2cbf 1539 9c3e
00000220: e398 8d3d a898 9dbe caf2 193e 7325 b1be
00000230: f61c 8e3d de9d af3e 7869 5d3e b051 113e
00000240: 40f1 913d 1c8f 6f3e d2a6 dbbd 43e7 483c
00000250: a135 01be ea7b 803e 0bbf f0be 236a 65be
00000260: ed82 a13e ec8a c13d 1bdc b13e 466e 123b
00000270: 35a5 3b3e 9a6a abbe 73f0 01be 33c9 c33d
00000280: 462e ea3d 44df 1d3e 0f6c 67be a1c7 cf3d
00000290: 3654 1c3d 5a99 d1bd d902 623c b929 133f
000002a0: a866 d4be 04bf 373e 07a5 2f3e b600 f5bd
000002b0: 49b6 3abe a397 153e 4147 373e 48e5 a2be
000002c0: fc79 253c 8999 803e fa37 59be bd10 ea3c
000002d0: 54d8 133c b117 403e 499b 13bd 9200 c43b
000002e0: e918 af3e 5371 343e fdc5 86be a2c3 9bbd
000002f0: bb67 03be f311 bd3d 517e 143e adac 973e
00000300: 3520 33be 174c 40be d257 ad3c 3a40 0dbe
00000310: 144d 033e e256 11be 5d9a f7bd b577 23be
00000320: 4776 b7be 9fab 823e da86 8d3e 89db 0a3e
00000330: 6cac 173c 9572 033e 2d6c f2bb bde6 58bd
00000340: c22a 533e 361f 793d 2d4e 3bbe 339a a9bb
00000350: ba4a ec3d 027c b33e 62e5 64be fd25 033d
00000360: c10f bc3e 257b 1b3d 5546 b4be ee22 e03d
00000370: ccbd 58be 2e2e 613e aefd 78bd cb22 6b3e
00000380: e6ca 873d efdb c83e e722 183e 28cd 083d
00000390: 68ce 073d aac1 62be 75a4 bd3e 1e37 593e
000003a0: 332a 12be 1734 803e bc43 17bd 1686 aa3e
000003b0: f3c6 15bf a6ea a7bc f9c3 19be 4832 873d
000003c0: c327 533b c653 963d a2d0 4f3d 1f96 b33c
000003d0: dc99 cb3e 752a d03d d71c a33e df3c 0b3c
000003e0: 95f3 3f3d 54c8 863e 2f20 46bf 4d45 e2bd
000003f0: ecf9 a5be 5ea3 b83d a161 a43e b422 043d
0.21070111 -0.09174324 -0.23755884 0.3931718 -0.13990341 -0.1604124 -0.16040458 0.50969917
-0.3558586 0.033548072 0.22469239 0.08898396 -0.24374387 0.15756914 0.29644737 -0.24265832
0.1575781 -0.057078827 0.02949881 0.22866201 0.12708758 0.45795605 -0.31249765 -0.20159334
0.40708923 0.3019087 -0.40424803 -0.22261892 -0.1777435 -0.061467282 0.04928242 0.1585723
0.2499751 0.16821945 0.48476905 -0.09110257 -0.07100319 0.19023542 0.047950547 -0.7724875
0.13593352 0.04856248 -0.10660966 0.03330484 0.2091066 -0.31601477 -0.19236825 0.06992794
-0.37151954 -0.46470279 0.15661111 0.048836675 -0.02707555 -0.71912056 0.1135594 0.261181
-0.57251126 -0.37292925 0.12734309 0.18665716 -0.0020094563 -0.07447865 0.16639645 -0.27230746
0.15403605 -0.14964671 0.4057377 -0.23901923 0.2561762 0.16419101 -0.023100805 -1.043865
0.13754123 0.035969254 -0.19648454 -0.008416 0.22649334 -0.08036461 0.18054992 0.27170148
0.059952863 0.0032120852 0.029163903 -0.114627205 0.0037300647 -0.05900434 0.23657835 0.25358492
-0.06207125 -0.3232632 0.26114658 0.3131424 0.0700855 -0.040461462 -0.08556506 -0.13777974
-0.050089315 -0.23175243 0.2393867 -0.04746264 -0.050958898 0.080767244 -0.24425012 -0.8705945
0.28759414 -0.098582305 -0.052741345 0.03356252 0.13171382 -0.05700979 0.05446531 0.37910712
0.13864903 -0.0027465764 0.24020998 -0.1039791 0.24718636 0.08079212 0.056146156 0.18547393
0.0080629 -0.103741795 0.13116999 0.28641176 0.23830977 -0.05887936 0.07227512 -0.1088885
0.060601246 -0.4196168 -0.13907042 0.11766844 0.22536662 0.32668477 -0.674402 0.305123
0.069139265 -0.3078053 0.15034023 -0.34598884 0.069391176 0.3430013 0.21622264 0.14191318
0.07126093 0.23394436 -0.10725178 0.012262168 -0.12618114 0.2509454 -0.47020754 -0.22403769
0.315452 0.09450325 0.3473824 0.002234356 0.1832474 -0.33479768 -0.1268938 0.0955986
0.11434607 0.154172 -0.22599815 0.10145498 0.038166247 -0.102343276 0.013794624 0.5748554
-0.4148457 0.1794396 0.17152797 -0.11963026 -0.18233599 0.14608626 0.17898275 -0.31815553
0.010099884 0.25117138 -0.2121276 0.028572435 0.009023745 0.18759038 -0.036036763 0.0059815133
0.34198692 0.17621355 -0.26322928 -0.076056734 -0.12832539 0.09231939 0.14501311 0.2962393
-0.17492755 -0.18779026 0.02116004 -0.13794032 0.12822372 -0.141933 -0.12089989 -0.15963633
-0.35832426 0.25521562 0.27641946 0.13560309 0.009257417 0.12836678 -0.0073981495 -0.052954424
0.2062178 0.06082078 -0.1829154 -0.0051758527 0.115376905 0.35055548 -0.22353128 0.03201865
0.3673077 0.037959237 -0.3520991 0.10944162 -0.21166152 0.21990272 -0.060788803 0.22962491
0.06630497 0.39230296 0.14857064 0.033398777 0.03315583 -0.2214419 0.37039533 0.21212432
-0.1427391 0.2503974 -0.03692983 0.33305424 -0.585067 -0.020497631 -0.15016164 0.06601387
0.0032219745 0.07340197 0.050736077 0.02192217 0.39765823 0.10164348 0.3185794 0.0084983995
0.046863157 0.26324713 -0.7739286 -0.11048374 -0.32417238 0.09015535 0.32105735 0.032259658

layer.2.bias f4 [64]
00000000: 624f ab3e 55bd f53e 7267 633e 97d2 c33e
00000010: eb7b d6bd 3d13 143e dc5d b33d 93b6 4bbe
00000020: 8d1a 8a3e d647 5e3a 7ac8 523e f182 e33d
00000030: 063c 9cbc 49c0 7ebc 41ff 233e edf7 1e3d
00000040: 3b55 06be ba5d fdbd 672e 2b3e 5f93 503e
00000050: 9854 c53d 78a0 663e 53a7 bd3e c20c 843e
00000060: 5bb9 493e 2a91 e23e 0fd3 583e 941b 643e
00000070: 4956 f03e 1488 0b3e 96ba 7f3c 82c3 c63e
00000080: d7ff 4f3e e948 3f3e 8ed0 733e 5d5b d13e
00000090: 374e b63c 8086 693e 4a94 da3d 6960 0e3f
000000a0: 332b a83e b629 8e3e 2d28 e7bc 2f80 c93e
000000b0: 9713 ae3e 1bb5 793e e166 aa3e 1aaa 163f
000000c0: 48f1 513e f273 f03e 3575 013e 85d5 ee3d
000000d0: 928a 103e ec4f c53d 12c7 a83e 2538 703e
000000e0: ff0a 033d 8d4f 14be 7908 18bd e9d8 9e3e
000000f0: 6942 8d3a de5c ac3c e7f3 85be c8b1 1a3d
0.33459002 0.4799601 0.2220743 0.38246605 -0.10472854 0.14460464 0.08758137 -0.19893865
0.26973382 0.00084793323 0.20584288 0.111089595 -0.01907159 -0.015548774 0.1601534 0.03881066
-0.1311845 -0.123713925 0.1671692 0.20368718 0.096352756 0.22522151 0.3704172 0.25790983
0.19699614 0.44251376 0.21174262 0.22276145 0.4694083 0.13626128 0.01560845 0.38821036
0.20312439 0.18680157 0.23810026 0.40890017 0.022254093 0.22805214 0.10672815 0.5561586
0.32845458 0.27766198 -0.0282174 0.3935561 0.3399932 0.24385493 0.33281615 0.58853304
0.20502198 0.4696346 0.12642367 0.11661819 0.1411536 0.096343845 0.3296438 0.23458917
0.03199291 -0.14483471 -0.037117455 0.31024864 0.0010777238 0.021040376 -0.26162645 0.0377672

layer.4.weight f4 [8, 64]
00000000: 07fb b3be 95f1 c63e ed45 e33e 4e4b de3e
00000010: 9bc8 60be 1a83 c1be 2eb0 5fbe 2a2a 973f
00000020: e536 11bf 6c91 d9be 212d 18be b574 683e
00000030: abff ebbc d648 3dbf 28b8 313f 3f44 17be
00000040: 2699 28be 958b 45be 6743 093f 09a3 a2bd
00000050: fa58 b2bd 7d1d 2bbf abae b6be 4d56 52bf
00000060: 790d 103e 0898 8a3d 1ebf b2bd 05b5 3bbf
00000070: b698 c13e 8bc2 1fbe 2c3c 74be 5934 4e3e
00000080: 9764 833e 4253 a9be d998 e0be 9dc8 1c3f
00000090: 91e7 7abe 6777 2f3f 6dfc babc a7f2 0a3e
000000a0: 85f2 86be 1df0 0c3e 7ed0 cabe c188 00bf
000000b0: 9748 ddbe 9374 b13e 85fc 233f fc42 453e
000000c0: 3e68 81be 7a8c 61be 379e a33f 06ee 3cbe
000000d0: f856 26bf 70c8 863e 585e 123e 900e 4abd
000000e0: 89ad fdbd 0efa 51be b941 03be ae92 b33e
000000f0: 9674 71bd 9563 ffbe 1a42 0abe f243 4fbf
00000100: 53a9 923e 3add 553b 1088 7ebe 1d75 1cbe
00000110: b6d5 0f3e 658d fb3c 821d 8bbd 03e2 a9be
00000120: 4ac5 66bd 4fc9 b93d 6953 2c3c 6a8e 2dbe
00000130: c254 353f 8354 87bc e1d2 73be 0f69 6c3e
00000140: 00db 163e 47e7 be3e b7f7 6cbe 07a1 87be
00000150: 5d42 37be a562 8b3d 1054 993e 791a 49be
00000160: 349f 17bd abe4 073e aaf3 0b3f c7a2 6fbe
00000170: 78d2 fa3e 8867 3d3f 91c9 3d3f f7dd 023e
00000180: c116 df3d 4305 db3d 6b89 c3bd e3ff b63e
00000190: ec52 aabe f596 2cbe 2239 9f3f c49f 9f3d
000001a0: 5a38 9f3b 6e7b 5fbe 3ad6 c23d c5d3 c0bd
000001b0: 03c5 9dbd 4fa0 423c 8525 1bbe ea49 e9bd
000001c0: eb30 b6be 3635 e0be 4d76 97bd e775 2d3f
000001d0: 3e88 ebbd a176 16be ff67 df3d f454 b93e
000001e0: 0e1b 6cbe a545 10be 625a 4e3f bb92 81be
000001f0: ed2e b5bc 41af 143e f9a7 073f 8de2 2fbe
00000200: 8e66 40be d9f3 dc3e 7229 d93d 2906 b13d
00000210: cdac a83f 6bd3 a6bd 2d33 9ebe 1909 7b3e
00000220: bb63 823e f770 9dbe 28c6 8f3e 27ca 9cbe
00000230: 09ea a1bd 0bb4 0a3f 7e3d 8fbe 923c 9a3e
00000240: 0b27 0b3f 1621 6ebe bc34 b4bd 2903 0b3f
00000250: b809 15be 7e98 b03e 4b09 de3e 42fe 0d3f
00000260: 0c51 5fbd 113e 8b3d 063d c63e 0774 553f
00000270: 29ac bb3d 89ab d5bd df97 1dbd d61c e2bd
00000280: 5777 13be 0535 80be 276e 4b3f 9c3f 67be
00000290: 1c2a fdbe 5bf6 c7be 0d39 84bd ecea 7dbd
000002a0: 2f43 843e 018a d7be 9c2d c43d 2245 ab3e
000002b0: fee1 723e ad4b 66be 5f61 c3bd 2321 e03c
000002c0: e4c5 243e d772 1fbf 1b6c 34be 0281 3ebe
000002d0: f6cc 603f c953 133e 66c0 2f3e 5ee0 ce3e
000002e0: 0e6b 9fbe 907c 7fbe e888 1aba 7a45 0a3e
000002f0: 77e3 edbc 5c52 083f 3bb3 88bd 024e 0a3f
00000300: 6b55 0b3f f1a7 963e e0c8 82be 6c0f 4cbe
00000310: 6d82 0f3d 81b7 3c3e 1682 f53e 88df 2abe
00000320: 7b6f 6d3e fbf8 6c3d 208f 2b3e 6170 dc3d
00000330: 31b8 dabe d6eb 9cbe 52bf 49bc 7c38 26be
00000340: 2ff3 c3be 45ab 79bf f2de 7bbe a640 11be
00000350: 164e 1e3f 6082 243e 76bf 91be 3e63 17bd
00000360: ce6c cf3e 1199 943e 929f c5bd 2a53 1cbd
00000370: 697c fdbe dd78 11bf 58e9 bebe f382 263e
00000380: 96d1 46bc 1bd4 943e 2264 afbd 8566 4c3d
00000390: 867e 2c3f a887 b63b 1aba 653e 84de 893e
000003a0: de06 c73e 3db6 233f 1ef7 063e 825e 893e
000003b0: 18f3 4d3e 73f2 4c3e b908 a83e b327 5d3e
000003c0: 9de1 9c3e 6775 60bf ac67 3f3e 61b5 10bf
000003d0: 5134 6c3d 928a a4be 49de 6cbe d270 f33d
000003e0: 32f9 123f cbbd 51be bc4e 67be a28b 023e
000003f0: 9af6 9ebd 1d0f de3e 4038 01bf 43b7 0fbe
-0.35152456 0.38856187 0.44389287 0.43416828 -0.21951525 -0.37795335 -0.21844551 1.1809742
-0.5672439 -0.4249376 -0.14860965 0.2270077 -0.028808435 -0.73939264 0.69421625 -0.14772128
-0.16464671 -0.19291528 0.5361847 -0.07941253 -0.08708377 -0.6684187 -0.35680136 -0.82162935
0.1406764 0.06767279 -0.08727859 -0.7332309 0.37811822 -0.15601556 -0.23851079 0.20137157
0.2566268 -0.33071333 -0.43866614 0.6124361 -0.24502398 0.6854157 -0.022825444 0.13569127
-0.26356903 0.13763471 -0.39612192 -0.5020867 -0.43219444 0.34659252 0.6405719 0.19263834
-0.25274843 -0.22026244 1.2782658 -0.18450174 -0.64976454 0.26324797 0.14293802 -0.049330294
-0.12386615 -0.20505545 -0.1281804 0.35072845 -0.058949076 -0.49880663 -0.13501778 -0.8096305
0.2864481 0.0032633082 -0.24856591 -0.1527905 0.14046368 0.03070707 -0.067927375 -0.33180246
-0.056340493 0.090716 0.010517933 -0.16948858 0.70832455 -0.01651979 -0.23810913 0.23086952
0.1473198 0.37285826 -0.2314137 -0.26490042 -0.1789641 0.06805924 0.29946947 -0.19639005
-0.037017062 0.13270824 0.54668677 -0.23401938 0.489887 0.739861 0.7413569 0.12779985
0.10893012 0.10694363 -0.09547695 0.357421 -0.3326639 -0.1685446 1.243931 0.07794145
0.0048590126 -0.21824428 0.09513517 -0.09415392 -0.07703593 0.011879041 -0.15151031 -0.11391051
-0.35584196 -0.43790597 -0.07395611 0.6775803 -0.115005955 -0.14693691 0.109085076 0.36197627
-0.23057196 -0.14089067 0.80606663 -0.2530726 -0.022117103 0.14519979 0.5299068 -0.17176266
-0.18789122 0.4315479 0.10603608 0.08643753 1.3177735 -0.081457935 -0.3089842 0.24515189
0.25466713 -0.30750248 0.2808087 -0.3062298 -0.07905967 0.54180974 -0.27976602 0.30124336
0.5435645 -0.23254809 -0.08799121 0.54301697 -0.14554489 0.34491342 0.43366465 0.5546609
-0.05452065 0.067989476 0.38718432 0.8338017 0.09163696 -0.10433108 -0.038474914 -0.11040656
-0.14400993 -0.2504045 0.79464954 -0.22582859 -0.4944619 -0.39055142 -0.06456194 -0.061991617
0.25832507 -0.42097476 0.09579012 0.33451182 0.23719022 -0.22489806 -0.095400564 0.02735955
0.16091114 -0.62284607 -0.17619364 -0.186039 0.87812746 0.1438743 0.17163238 0.40405554
-0.31136364 -0.2494986 -0.00058950344 0.13503066 -0.029039128 0.5325067 -0.066748105 0.5402528
0.5442721 0.29425004 -0.2554388 -0.19927758 0.035036493 0.18429376 0.4795081 -0.16686833
0.23187058 0.057854634 0.16753817 0.10763622 -0.42718652 -0.3064868 -0.012313681 -0.16232485
-0.38271472 -0.9752696 -0.24596766 -0.14184818 0.618379 0.16065359 -0.28466386 -0.03695988
0.405127 0.2902303 -0.09649576 -0.03816525 -0.4950898 -0.5682505 -0.37287402 0.1626089
-0.01213493 0.29068074 -0.08564021 0.049902458 0.6738056 0.0055703707 0.22434273 0.26927578
0.38872427 0.6394995 0.13180205 0.26829916 0.20112264 0.20014362 0.32819155 0.21597175
0.3064088 -0.8767914 0.18691891 -0.5652676 0.05766708 -0.3213697 -0.2313167 0.11886753
0.5741149 -0.20482557 -0.22588629 0.12748578 -0.07761879 0.43370906 -0.50476456 -0.14034753

layer.4.bias f4 [8]
00000000: 54f6 9b3e 915f 433e f0c8 703d d0c2 643e
00000010: 90a5 843d 3640 8d3c 3fc8 1bbd e202 153d
0.3046137 0.19079424 0.05878538 0.2233994 0.06476891 0.017242532 -0.038032766 0.036379702
