final/save/0.9_0.99_500/save1_2000.pth (torch_old, 15355 bytes, 6 tensors)

layer.0.weight f4 [32, 28]
0.020263417 0.12228726 -0.04758157 -0.027472261 0.18830489 0.011961324 0.09963241 -0.05304625
0.21882659 -0.03891267 0.31718624 0.10393342 0.23016323 0.19630226 0.1261377 -0.116396256
-0.11276368 -0.042948104 -0.0047188275 0.19226865 0.27972588 0.038053177 0.020469438 0.13169421
-0.035521008 -0.10035181 0.07481625 -0.0343654 0.080110654 -0.12624928 -0.15172656 0.023934316
0.09244688 -0.07347885 -0.15261294 -0.3358733 0.036913063 0.27441972 0.07456122 -0.05787248
0.09135881 0.20018592 0.14837484 0.0023456442 -0.038307272 -0.08819286 0.052591614 0.1576046
0.18586382 -0.04602294 -0.06741416 -0.05280993 -0.116434045 0.17104068 0.16396576 -0.115340136
-0.1325273 -0.075671606 -0.0047770673 -0.03319555 0.10389461 0.020924537 0.061758075 -0.12944399
-0.022795761 0.20196688 0.25943133 0.1911127 0.0912559 -0.2187691 -0.01652131 0.1339641
0.09584174 0.101677105 -0.12718767 0.1205846 -0.10225743 0.1430317 0.07688204 0.10316684
0.2708333 -0.059102982 0.08170557 0.20836405 0.08173296 0.17100565 0.11295035 -0.17650785
0.16193695 -0.058108885 -0.005508428 0.2624717 0.21153043 -0.0071542356 -0.06826234 -0.04129105
0.13661987 0.23746173 0.0907443 -0.031173877 -0.16996937 0.18250705 0.054615892 0.080394946
0.4057747 -0.14602797 -0.111243166 -0.13928919 -0.0007462181 -0.1124762 0.18246628 0.12642863
0.1636651 0.11189983 0.016075434 0.0043689474 -0.00768524 0.13608119 0.18268263 0.3554265
0.11866656 -0.11612436 -0.1776791 0.05726799 0.02968608 0.07269494 0.022905936 -0.032696355
0.15623225 0.09346012 -0.03537905 0.118352965 0.16962053 0.076520614 0.046705425 -0.0019820617
0.05033796 -0.08768753 -0.06368026 -0.10438594 0.18576775 0.105916046 0.08019909 0.04962589
0.13339308 0.12312699 0.32706887 0.21408124 -0.0501385 0.074211955 0.092073 0.043954637
-0.13977775 0.07469278 0.06914322 0.08553309 -0.092854455 -0.05831814 0.05386556 -0.12355452
0.034311246 -0.013217597 -0.17967056 -0.005015403 -0.035228245 0.20398341 -0.022239668 0.015274494
0.036817197 -0.076273605 -0.15320608 0.053315625 0.050157383 -0.0028248364 -0.26904297 -0.21948558
0.030390203 0.23993966 0.11975638 0.10765566 0.16216697 0.03976505 0.034741875 -0.07117816
-0.053448576 0.17731181 0.18220195 0.017141707 0.1464883 -0.08691259 0.019288607 -0.0552711
-0.124545544 0.18305516 -0.052332424 0.093052484 -0.013973775 0.019052558 -0.10387413 0.058261592
-0.15454522 0.0014583177 0.2222377 0.006555826 -0.0008457642 -0.007011063 -0.16487001 0.12985556
0.21396247 0.27244174 0.1797111 -0.07986107 -0.2488826 -0.061702672 0.085825846 0.2849302
0.11598002 -0.086245574 -0.09945899 0.0022352822 0.11626078 0.003801531 0.053969648 0.12044123
0.059244614 0.19938648 0.15083879 0.05953333 0.07167516 -0.04495664 0.23627205 0.12037105
-0.16117813 0.042488795 0.15366906 0.0222248 -0.28010282 -0.10323273 -0.07593312 -0.009121053
0.11891341 -0.03157113 -0.1984511 0.083657004 -0.22169423 -0.027435267 0.15108761 0.18922003
-0.1319461 0.018521808 0.104723915 0.14724845 -0.090948924 0.006756237 0.019044254 0.11817851
00000000: 77ff a53c be71 fa3d e4e4 42bd 820d e1bc
00000010: ffd2 403e 6ef9 433c 140c cc3d 0647 59bd
00000020: 1414 603e e462 1fbd 3c66 a23e 0bdb d43d
00000030: e9af 6b3e 7603 493e 3e2a 013e 2961 eebd
00000040: a5f0 e6bd 5aea 2fbd 65a0 9abb 13e2 443e
00000050: 3b38 8f3e a6dd 1b3d 86af a73c d9da 063e
00000060: 7a7e 11bd 4085 cdbd 4339 993d bcc2 0cbd
00000070: 0e11 a43d 7e47 01be 355e 1bbe e611 c43c
00000080: ca54 bd3d 147c 96bd 9146 1cbe 96f7 abbe
00000090: 2732 173d be80 8c3e 8eb3 983d b20b 6dbd
000000a0: 541a bb3d 8afd 4c3e 93ef 173e 61b9 193b
000000b0: 16e8 1cbd 759e b4bd 4e6a 573d 1a63 213e
000000c0: 1653 3e3e 8d82 3cbd 6f10 8abd 3a4f 58bd
000000d0: f974 eebd 4a25 2f3e a4e6 273e 7337 ecbd
000000e0: 3db5 07be b7f9 9abd f288 9cbb 0ff8 07bd
000000f0: b3c6 d43d ef69 ab3c 09f6 7c3d f78c 04be
00000100: 2dbe babc 68d0 4e3e 2fd4 843e 0cb3 433e
00000110: 60e4 ba3d 0205 60be b357 87bc e32d 093e
00000120: ad48 c43d 163c d03d 7c3d 02be 0ff5 f63d
00000130: 586c d1bd e776 123e 5574 9d3d 2349 d33d
00000140: aaaa 8a3e f815 72bd 4055 a73d 635d 553e
00000150: 9c63 a73d 1b1c 2f3e 8352 e73d 79be 34be
00000160: cdd2 253e 9503 6ebd 0b80 b4bb b162 863e
00000170: 6f9b 583e 146e eabb 20cd 8bbd ce20 29bd
00000180: 14e6 0b3e 2b29 733e 26d8 b93d 5c60 ffbc
00000190: 730c 2ebe 21e3 3a3e eab4 5f3d 1ba6 a43d
000001a0: b4c1 cf3e 5b88 15be 75d3 e3bd d3a1 0ebe
000001b0: d99d 43ba ec59 e6bd 71d8 3a3e 8276 013e
000001c0: d397 273e bd2b e53d a1b0 833c 6329 8f3b
000001d0: 77d4 fbbb de58 0b3e 2811 3b3e 76fa b53e
000001e0: 7407 f33d 9cd2 edbd 83f1 35be d791 6a3d
000001f0: 3930 f33c 16e1 943d 3ba5 bb3c 9dec 05bd
00000200: 59fb 1f3e 0568 bf3d 9fe9 10bd 0a63 f23d
00000210: 01b1 2d3e d7b6 9c3d 304e 3f3d 7ae5 01bb
00000220: 2d2f 4e3d 8595 b3bd cc6a 82bd 4cc8 d5bd
00000230: e739 3e3e 83ea d83d 6c3f a43d 8444 4b3d
00000240: 3298 083e 012a fc3d 9275 a73e 1d38 5b3e
00000250: 075e 4dbd 70fc 973d c590 bc3d c709 343d
00000260: e621 0fbe 87f8 983d f69a 8d3d f92b af3d
00000270: 7a2a bebd 01df 6ebd 22a2 5c3d 270a fdbd
00000280: f389 0c3d 9f8e 58bc 8ffb 37be 4058 a4bb
00000290: 7e4b 10bd 07e1 503e f72f b6bc df41 7a3c
000002a0: a1cd 163d 5635 9cbd 0ee2 1cbe 7c61 5a3d
000002b0: d471 4d3d e420 39bb 00c0 89be d4c0 60be
000002c0: e0f4 f83c beb2 753e d542 f53d 927a dc3d
000002d0: 190f 263e ade0 223d 7f4d 0e3d dbc5 91bd
000002e0: e5ec 5abd 3a91 353e 2693 3a3e c46c 8c3c
000002f0: 0701 163e 3aff b1bd 2403 9e3c f363 62bd
00000300: bc11 ffbd d072 3b3e 865a 56bd 4d92 be3d
00000310: 43f2 64bc 1c14 9c3c f6bb d4bd b5a3 6e3d
00000320: 1a41 1ebe 0625 bf3a 4892 633e 41d2 d63b
00000330: 46b6 5dba 0fbd e5bb afd3 28be dbf8 043e
00000340: fa18 5b3e 7c7d 8b3e 3006 383e 338e a3bd
00000350: 15db 7ebe f1bb 7cbd 76c5 af3d 5fe2 913e
00000360: ef86 ed3d 85a1 b0bd 28b1 cbbd d07d 123b
00000370: 221a ee3d 1b23 793b 470f 5d3d e4a9 f63d
00000380: 7baa 723d f82b 4c3e 7c75 1a3e 39d9 733d
00000390: 6dca 923d 7424 38bd 4df1 713e 1985 f63d
000003a0: e10b 25be bb08 2e3d 6c5b 1d3e c910 b63c
000003b0: a369 8fbe ae6b d3bd d382 9bbd 7870 15bc
000003c0: e088 f33d bb50 01bd c436 4bbe 5d54 ab3d
000003d0: d003 63be edbf e0bc b6b6 1a3e e5c2 413e
000003e0: e11c 07be 0cbb 973c 7e79 d63d 4cc8 163e
000003f0: 6e43 babd 6c63 dd3b b202 9c3c 9307 f23d

layer.0.bias f4 [32]
0.027447091 0.064160556 0.13827348 0.23237064 0.055635568 0.124697134 0.08824744 -0.15915877
0.0027212377 0.24762945 -0.045513127 0.2810775 0.008102595 0.13506931 0.12562633 0.16890125
-0.012946453 0.10329068 0.1281619 0.020345034 0.29076383 0.14335749 -0.11970273 0.101465724
0.054888476 0.12446033 0.18809351 0.21153723 -0.028670192 0.03950688 0.2433441 -0.1347806
00000000: b9d8 e03c 9c66 833d 9097 0d3e 92f2 6d3e
00000010: 1fe2 633d 3661 ff3d 13bb b43d 84fa 22be
00000020: cb56 323b 9392 7d3e f96b 3abd 64e9 8f3e
00000030: bfc0 043c 9c4f 0a3e 30a4 003e 73f4 2c3e
00000040: 5c1d 54bc 108a d33d e03c 033e a1aa a63c
00000050: ffde 943e 4ecc 123e b426 f5bd 43cd cf3d
00000060: bdd2 603d 0fe5 fe3d 969b 403e 379d 583e
00000070: c0dd eabc f7d1 213d 322f 793e ed03 0abe

layer.2.weight f4 [64, 32]
0.18003401 -0.10189616 -0.06741458 0.19920443 -0.13573036 -0.12961358 -0.1815247 0.21980283
0.053128656 -0.023348218 0.15584546 0.082674414 -0.03705364 0.1277665 0.22224185 0.040834554
-0.00024986902 -0.08690982 0.085273184 0.18114936 0.033942766 0.21858296 -0.17108062 -0.16560282
0.20370674 0.21900107 -0.033684906 -0.14496271 -0.15804645 -0.03684704 0.07075457 0.09699236
0.15012418 0.22732121 0.2776606 -0.1014715 -0.079649925 0.11192396 0.03328833 -0.2740154
0.014369719 -0.0046174284 0.04409861 0.07442541 0.22473653 -0.3066486 -0.23662451 0.003302148
-0.09354427 -0.2487542 0.053718258 0.0057050916 -0.07264402 -0.12665686 0.12255082 0.15728916
-0.029317688 -0.13416019 -0.04520271 0.12862475 -0.061679333 0.07773757 0.16944623 -0.14242096
0.10521628 -0.023717774 0.20414829 -0.14136608 0.22653757 0.152573 0.09635892 -0.39290327
0.08794574 -0.0066430923 -0.14051922 0.016611224 0.222121 -0.11489031 0.17290893 0.15969679
-0.039867826 0.04588336 0.0111128045 -0.14561532 -0.08376382 -0.0905918 0.21654713 0.17755897
-0.13129106 -0.20398776 0.16000672 0.23998845 0.05775135 -0.014372734 -0.123310894 -0.10101758
-0.13440278 -0.14683388 0.00916539 0.054013714 -0.091036476 0.06411934 -0.16898634 -0.1768872
0.2397691 -0.20750228 -0.022291085 0.06919324 0.14044487 -0.14146419 0.011827072 0.2772394
0.016249003 -0.012127691 0.19951376 -0.16708544 0.1494498 -0.00485811 0.050842434 0.07195159
-0.102785125 -0.012106058 0.051826403 0.19999689 0.22652386 -0.03497402 -0.00019116087 -0.09973782
0.12856364 -0.04859366 -0.08512551 0.15973979 0.096139565 0.22867116 -0.24999453 0.24653435
-0.0842817 -0.06026537 0.08213559 0.02908904 -0.030171528 0.17903647 0.013034952 0.023680203
-0.092209935 0.13028318 -0.1609013 -0.1297189 -0.040778406 0.00910737 -0.035110064 -0.20123129
0.0068758572 0.050961353 0.06252371 0.025471369 0.1609885 -0.12859946 -0.005611286 -0.036725897
0.0865362 0.09890633 -0.09142974 -0.06414458 0.050371755 -0.07550138 -0.009033852 0.21176502
-0.117903136 0.14933433 0.13393767 -0.09774929 -0.027049601 0.11616041 0.12759401 -0.06916229
-0.048887245 0.25219706 -0.19565885 -0.0037255108 0.02882301 0.052596804 0.10138084 0.052242536
0.22162934 0.0991672 -0.021381212 0.014139427 -0.093454786 0.16785672 0.19603992 0.2572081
-0.18494052 -0.1997164 0.13121782 -0.14111474 0.11785227 -0.055370964 -0.07338335 0.0068578967
-0.18504255 0.15271573 0.23474929 0.04759914 0.04023258 0.15406574 0.014631049 0.0510647
0.08771959 0.030074207 -0.112465926 -0.0014269802 0.0059339856 0.15009423 -0.1690991 0.026315883
0.19050819 -0.009100331 -0.16240266 0.05038056 -0.23165168 0.12006343 -0.059155885 0.18781449
0.08988834 0.30938828 0.009459979 0.068037525 0.049805075 -0.22612903 0.2108458 0.07049541
-0.27902222 0.19734497 -0.050224178 0.006535861 -0.28076407 -0.07798276 -0.12159987 0.04011819
-0.096494615 -0.03262688 0.008682493 0.0057616523 0.17959449 0.06934759 0.16647924 -0.061465178
0.002177752 0.1974561 -0.3627725 -0.05412992 -0.19587374 0.04524815 0.23931423 -0.01785371
00000000: d65a 383e efae d0bd a810 8abd 3ffc 4b3e
00000010: e6fc 0abe 6cb9 04be 9ce1 39be fe13 613e
00000020: 6f9d 593d c344 bfbc f495 1f3e 3451 a93d
00000030: 8fc5 17bd 39d5 023e 5e93 633e 2242 273d
00000040: da00 83b9 c7fd b1bd b5a3 ae3d 387f 393e
00000050: 9207 0b3d 36d4 5f3e c22f 2fbe c993 29be
00000060: 8098 503e d141 603e 2ff9 09bd 1b71 14be
00000070: eed6 21be ecec 16bd c6e7 903d eea3 c63d
00000080: 27ba 193e e4c6 683e 8829 8e3e 4ad0 cfbd
00000090: 801f a3bd 6438 e53d 5859 083d bf4b 8cbe
000000a0: f86e 6b3c cc4d 97bb bea0 343d 596c 983d
000000b0: 5521 663e 0c01 9dbe b24d 72be da68 583b
000000c0: 2394 bfbd 6cb9 7ebe ad07 5c3d c7f1 ba3b
000000d0: 63c6 94bd 56b2 01be edfb fa3d 6910 213e
000000e0: a62b f0bc 4a61 09be 7a26 39bd 35b6 033e
000000f0: 78a3 7cbd e034 9f3d 5083 2d3e cdd6 11be
00000100: a27b d73d c74b c2bc 400c 513e 45c2 10be
00000110: 77f9 673e 193c 1c3e d357 c53d 9e2a c9be
00000120: e51c b43d 4cae d9bb 45e4 0fbe 4314 883c
00000130: b073 633e 9c4b ebbd 0a0f 313e 8e87 233e
00000140: 724c 23bd 31f0 3b3d 7b12 363c 2f1c 15be
00000150: 5e8c abbd 3288 b9bd 88be 5d3e 05d2 353e
00000160: 2a71 06be 2be2 50be cdd8 233e 88bf 753e
00000170: ae8c 6c3d 9e7b 6bbc 6c8a fcbd 4ee2 cebd
00000180: e2a0 09be 9f5b 16be 6f2a 163c 7c3d 5d3d
00000190: 5571 babd 0051 833d c10a 2dbe eb21 35be
000001a0: 0886 753e 7a7b 54be cb9b b6bc 2fb5 8d3d
000001b0: c8d0 0f3e fddb 10be 56c6 413c 53f2 8d3e
000001c0: a11c 853c 39b3 46bc 564d 4c3e 7218 2bbe
000001d0: 5e09 193e c830 9fbb 2840 503d 5b5b 933d
000001e0: 0281 d2bd 7d58 46bc ec47 543d fccb 4c3e
000001f0: dff5 673e eb40 0fbd 5b72 48b9 5843 ccbd
00000200: 30a6 033e 250a 47bd 4956 aebd d492 233e
00000210: d2e4 c43d c628 6a3e 91fe 7fbe 8073 7c3e
00000220: e29b acbd d2d8 76bd b436 a83d 234c ee3c
00000230: 482a f7bc 5655 373e 8d90 553c fcfc c13c
00000240: 90d8 bcbd f468 053e 4fc3 24be 08d5 04be
00000250: 4207 27bd 1437 153c 92cf 0fbd 930f 4ebe
00000260: df4e e13b dabc 503d 6e0c 803d 55a9 d03c
00000270: 2bda 243e 94af 03be e1de b7bb e56d 16bd
00000280: e439 b13d 678f ca3d 843f bbbd 3c5e 83bd
00000290: 9d52 4e3d 78a0 9abd b902 14bc eed8 583e
000002a0: 3377 f1bd 19eb 183e f526 093e c830 c8bd
000002b0: 2097 ddbc 82e5 ed3d 01a8 023e f5a4 8dbd
000002c0: fe3d 48bd f91f 813e cb5a 48be b327 74bb
000002d0: 3c1e ec3c bf6f 573d c2a0 cf3d 45fc 553d
000002e0: cdf2 623e 2c18 cb3d a727 afbc 0ea9 673c
000002f0: 3965 bfbd a2e2 2b3e b0be 483e c8b0 833e
00000300: 0c61 3dbe 7582 4cbe f75d 063e 6280 10be
00000310: 885c f13d aacc 62bd 034a 96bd 35b8 e03b
00000320: cb7b 3dbe 8361 1c3e 1e62 703e 51f7 423d
00000330: ebca 243d 69c3 1d3e 11b7 6f3c 3829 513d
00000340: 54a6 b33d 2f5e f63c 8954 e6bd 8309 bbba
00000350: e171 c23b 4db2 193e 5128 2dbe 6894 d73c
00000360: 9414 433e 8e19 15bc e24c 26be d95b 4e3d
00000370: 1936 6dbe d1e3 f53d 714d 72bd 7152 403e
00000380: 6117 b83d 2468 9e3e 07fe 1a3c 4257 8b3d
00000390: 6800 4c3d 5e8e 67be f6e7 573e e65f 903d
000003a0: 00dc 8ebe cd14 4a3e deb7 4dbd c72a d63b
000003b0: 4fc0 8fbe 6db5 9fbd 5a09 f9bd f952 243d
000003c0: f89e c5bd c3a3 05bd 0441 0e3c 3ecc bc3b
000003d0: 9ee7 373e 1c06 8e3d 8979 2a3e e9c2 7bbd
000003e0: 9eb8 0e3b ef31 4a3e 51bd b9be 56b7 5dbd
000003f0: 2093 48be 2056 393d ca0e 753e f241 92bc

layer.2.bias f4 [64]
0.17611952 0.2518934 0.06737646 0.17661075 0.1591639 0.09245727 -0.10381785 -0.1325618
0.1367145 -0.026287489 0.13806807 -0.042468905 -0.047619283 -0.07782552 0.036628317 -0.008168889
-0.15886964 -0.21221842 0.022996545 0.12365471 -0.109431036 0.12661247 0.28647685 0.17136063
-0.007124705 0.29187337 0.2305795 0.15156218 0.27933863 0.090373024 -0.017796423 0.15551524
0.015126205 0.066897616 0.16849507 0.20387265 -0.16199392 0.11552323 0.07708796 0.33669427
0.20320135 0.07167492 -0.060390826 0.26553726 0.22706947 0.040336914 0.13433635 0.34736338
0.1035695 0.56590295 0.08924114 0.06745375 0.05946866 -0.022870788 0.18757182 0.16107751
-0.16718744 -0.08024758 -0.05167982 0.07873321 0.0010777238 -0.052592132 -0.35002246 -0.041509468
00000000: ad58 343e 2cf8 803e abfc 893d 73d9 343e
00000010: ddfb 223e 3d5a bd3d 749e d4bd 48be 07be
00000020: e3fe 0b3e dc58 d7bc b761 0d3e e0f3 2dbd
00000030: 700c 43bd fc62 9fbd 9307 163d ced6 05bc
00000040: b9ae 22be c94f 59be 4063 bc3c ae3e fd3d
00000050: 611d e0bd b3a6 013e 18ad 923e 2979 2f3e
00000060: 5b76 e9bb 6d70 953e 081d 6c3e 1e33 1b3e
00000070: 7905 8f3e 7e15 b93d cec9 91bc 633f 1f3e
00000080: e7d3 773c 9e01 893d f989 2c3e fec3 503e
00000090: bce1 25be 7197 ec3d 4be0 9d3d 3163 ac3e
000000a0: 0414 503e 4dca 923d 5f5c 77bd 80f4 873e
000000b0: e684 683e 5238 253d 788f 093e 9dd9 b13e
000000c0: 3f1c d43d 04df 103f 0fc4 b63d 3125 8a3d
000000d0: 6995 733d 855b bbbc d412 403e 81f1 243e
000000e0: 2f33 2bbe d858 a4bd 38ae 53bd e13e a13d
000000f0: 6942 8d3a d96a 57bd 2536 b3be d505 2abd

layer.4.weight f4 [8, 64]
-0.11998 0.19343781 0.28794044 0.2915976 -0.11892037 -0.20513666 -0.12886143 0.7331428
-0.14707546 -0.23790754 -0.0849497 0.12906507 -0.031058112 -0.15806267 0.39393282 -0.18415749
-0.022130746 -0.15629749 0.2495292 0.069247894 -0.09948479 -0.0991688 -0.006179121 -0.18765436
0.13280444 0.049475342 0.061210137 -0.21921122 0.19429508 -0.1662219 -0.20227821 0.12830754
0.17102093 -0.11899929 -0.041316014 0.45198494 -0.2225623 0.38962442 -0.049903546 0.07101606
-0.20400225 0.140148 -0.26643792 -0.103926346 -0.13796769 0.22577398 0.34259063 0.13887168
-0.13043238 -0.25713906 0.8954615 -0.1531428 -0.0993747 0.16049166 0.07898096 -0.13560468
-0.091155365 -0.023553386 -0.118694976 0.18010373 -0.058949076 -0.14262283 -0.137049 -0.12767106
0.21757345 -0.07541063 -0.12398663 -0.031145023 0.10959285 0.016813857 -0.01758244 -0.24485396
0.05705326 0.06466778 0.02665964 -0.13100083 0.33248395 0.027715487 -0.101077236 0.21794891
0.054879397 0.12429035 -0.16616139 -0.22858779 -0.12795313 0.104751796 0.24254769 -0.10247445
-0.029930878 0.16854022 0.065243006 -0.15949456 0.2828144 0.38436547 0.39068258 0.14219019
0.11078943 0.06446251 -0.06441999 0.2146735 -0.23426601 -0.0176478 0.58899045 0.10903718
0.003093384 -0.11964882 0.07225462 0.04530881 0.00965789 0.0023402802 -0.0047099516 -0.065731764
-0.14165771 -0.67023396 -0.004091477 0.32018942 -0.044525124 -0.08148149 0.04592537 0.22662997
-0.16661769 -0.06970642 0.46732098 -0.05394839 -0.022117103 0.14253475 0.18991658 -0.063520715
-0.13077323 0.25221357 0.05273011 0.07639103 0.45490444 -0.0272724 -0.053218763 0.108214505
0.12479887 -0.21703169 0.19537324 -0.09833973 -0.11299029 0.29536426 -0.15956274 0.22515076
0.30505925 -0.17570692 -0.055482693 0.25525662 -0.036189202 0.2193292 0.2270158 0.26241797
-0.0906301 0.10959051 0.1996941 0.48376304 0.07945118 -0.07248373 -0.04817987 -0.054872714
-0.11419178 -0.06089945 0.4488548 -0.12285358 -0.19886583 -0.2029781 -0.061451208 -0.009855678
0.12823372 -0.19076394 0.051640667 0.20163637 0.15010273 -0.0048114113 -0.040666442 0.049116325
0.08078706 -0.38828653 -0.22576548 -0.14213617 0.5236538 0.11124223 0.121619046 0.18411909
-0.1333224 -0.10966057 -0.0049212654 0.06823728 -0.029039128 0.2296671 -0.07412374 0.24028294
0.26948398 0.019011306 -0.12734301 -0.14981176 -0.1786489 0.083635606 0.26771325 -0.18706758
0.17886004 -0.07079954 0.07860893 0.13215308 -0.1852451 -0.211005 -0.01555166 -0.16775683
-0.26001355 -0.2686625 -0.05947274 -0.12396868 0.39246795 0.12654375 -0.010625886 0.03098094
0.21560556 0.11784986 0.06750129 -0.08845586 -0.022163693 -0.18568471 -0.16089854 0.055446647
-0.0036709174 0.09419788 -0.14577007 -0.005618312 0.42662144 -0.05468223 0.33132178 0.15088724
0.29230666 0.36870438 0.0290705 0.19828846 0.17246051 0.17968288 -0.019218937 0.19359052
0.20343289 -0.66184896 0.06336642 -0.21904685 -0.016787268 -0.19012582 -0.12858395 0.11312808
0.36617675 -0.1252224 -0.061386205 0.083939046 -0.07761879 0.04530495 -0.15339823 -0.11609533
00000000: 13b8 f5bd 9014 463e ee6c 933e 484c 953e
00000010: 868c f3bd 580f 52be 40f4 03be 3faf 3b3f
00000020: f39a 16be 099e 73be 1cfa adbd a229 043e
00000030: 956d febc 2edb 21be 90b1 c93e c893 3cbe
00000040: 8a4b b5bc 730c 20be 9584 7f3e d7d1 8d3d
00000050: aebe cbbd 0319 cbbd 397a cabb 7728 40be
00000060: e3fd 073e a8a6 4a3d 7bb7 7a3d e878 60be
00000070: 4af5 463e 1336 2abe 0522 4fbe 0d63 033e
00000080: 1c20 2f3e e6b5 f3bd fb3a 29bd 926a e73e
00000090: 5fe7 63be da7c c73e a967 4cbd de70 913d
000000a0: f7e5 50be f582 0f3e 8d6a 88be 56d7 d4bd
000000b0: 6747 0dbe 4b31 673e 0a68 af3e 6134 0e3e
000000c0: 1190 05be bba7 83be f73c 653f 77d1 1cbe
000000d0: f684 cbbd ed57 243e c5c0 a13d f4db 0abe
000000e0: aaaf babd 08f3 c0bc 5a16 f3bd 1d6d 383e
000000f0: 9674 71bd b80b 12be 9356 0cbe 34bc 02be
00000100: 93cb 5e3e e370 9abd b4ec fdbd d923 ffbc
00000110: 3772 e03d 37bd 893c 0d09 90bc ffba 7abe
00000120: aeb0 693d 8b70 843d 5165 da3c 1525 06be
00000130: 563b aa3e 970b e33c 9501 cfbd 002e 5f3e
00000140: 38c9 603d f08b fe3d 3626 2abe eb12 6abe
00000150: 2506 03be 1c88 d63d 6c5e 783e 20de d1bd
00000160: 9a31 f5bc cf95 2c3e 209e 853d 8b52 23be
00000170: 0dcd 903e 8dcb c43e 8c07 c83e 4e9a 113e
00000180: 92e5 e23d ec04 843d a1ee 83bd 5fd3 5b3e
00000190: 6ee3 6fbe 1e92 90bc 14c8 163f e34e df3d
000001a0: 5fba 4a3b 710a f5bd 3bfa 933d bb95 393d
000001b0: 203c 1e3c 635f 193b f055 9abb 609e 86bd
000001c0: b80e 11be 7494 2bbf cc11 86bb deef a33e
000001d0: fa5f 36bd c4df a6bd 3e1c 3c3d b011 683e
000001e0: d49d 2abe 3dc2 8ebd b244 ef3e fdf8 5cbd
000001f0: ed2e b5bc a1f4 113e 7e79 423e 2617 82bd
00000200: 6be9 05be 2322 813e 87fb 573d e672 9c3d
00000210: 3ce9 e83e 5e6a dfbc ebfb 59bd 919f dd3d
00000220: 8d96 ff3d 8e3d 5ebe ec0f 483e 5766 c9bd
00000230: 7467 e7bd fc39 973e 6a64 23be ec8d 663e
00000240: ba30 9c3e 84ec 33be d241 63bd ffb0 823e
00000250: 213b 14bd d597 603e d476 683e a65b 863e
00000260: 469c b9bd fd70 e03d 9c7c 4c3e caaf f73e
00000270: 4db7 a23d 5a72 94bd 4158 45bd 36c2 60bd
00000280: 61dd e9bd b471 79bd 4cd0 e53e a89a fbbd
00000290: 7ca3 4bbe 7ed9 4fbe 43b4 7bbd b679 21bc
000002a0: b34f 033e 9f57 43be 2a85 533d c479 4e3e
000002b0: 88b4 193e 0ba9 9dbb db91 26bd 332e 493d
000002c0: b073 a53d 7ecd c6be 112f 67be 258c 11be
000002d0: 2d0e 063f f7d2 e33d 6813 f93d b789 3c3e
000002e0: ab85 08be b995 e0bd 9142 a1bb fdbf 8b3d
000002f0: 77e3 edbc da2d 6b3e 30ce 97bd bb0c 763e
00000300: cef9 893e 99bd 9b3c 3566 02be 4168 19be
00000310: bdef 36be 2549 ab3d b611 893e a58e 3fbe
00000320: 1627 373e 59ff 90bd b8fd a03d 2353 073e
00000330: e4b0 3dbe b211 58be 64cc 7ebc 72c8 2bbe
00000340: 7f20 85be 228e 89be b099 73bd 4be3 fdbd
00000350: 8ff1 c83e af94 013e 3218 2ebc becb fd3c
00000360: b4c7 5c3e 445b f13d 1e3e 8a3d 5928 b5bd
00000370: a290 b5bc 2224 3ebe 96c2 24be 061c 633d
00000380: c693 70bb d1ea c03d c044 15be d119 b8bb
00000390: 206e da3e 79fa 5fbd 02a3 a93e 2f82 1a3e
000003a0: 38a9 953e d2c6 bc3e 4225 ee3c 210c 4b3e
000003b0: 7d99 303e cafe 373e 0871 9dbc 983c 463e
000003c0: b650 503e ef6e 29bf 41c6 813d d14d 60be
000003d0: 7485 89bc 58b0 42be 83ab 03be b2af e73d
000003e0: 857b bb3e 4d3a 00be 1a70 7bbd 3ce8 ab3d
000003f0: 9af6 9ebd af91 393d 6d14 1dbe 63c3 edbd

layer.4.bias f4 [8]
0.06204844 0.16913012 0.05633042 0.075221546 0.03426873 0.00096282404 -0.114893794 -0.008297294
00000000: 8126 7e3d 7230 2d3e baba 663d c10d 9a3d
00000010: 5e5d 0c3d 0766 7c3a 704d ebbd 60f1 07bc
