final/save/0.9_0.99_500/save0_5000.pth (torch_old, 15355 bytes, 6 tensors)

layer.0.weight f4 [32, 28]
00000000: aa41 a3be bdb7 64be 01f3 cebe beb9 753e
00000010: 9ef4 c73e cd7d 40bd f1c6 9abd d4e7 7dbd
00000020: 3f61 163e c390 c43a d3a0 453e b505 40be
00000030: c935 9cbd 8072 07bd 8f91 fabd 5828 0abe
00000040: dc7a dfbb f317 b63d 074e d43d 7034 a8bd
00000050: 8ee9 29be c99d bfbc f71f 363d f981 d13d
00000060: b39f 1b3d 986c 27bd 4d48 063e 8c2f 48bc
00000070: bce8 c13c 96bd 473e ca04 403d 648f 813e
00000080: d975 ea3e 0d59 5c3e 96e3 0dbc 1c04 7c3d
00000090: 53cd 213e 3239 3f3e ac8d 3abd 53f4 08bd
000000a0: 2cfa ae3d 857f 623b aa56 44be 8608 053e
000000b0: 03a3 333e 5d03 ccbd c546 e83d 3edf 00be
000000c0: e0e0 1c3e 0c07 13be 9152 573e 998c c93d
000000d0: bfc2 1a3e 0d35 993c 3225 b23c fd9f 79bd
000000e0: 6b2a 723b cef0 803e 1aa6 333e b93b 9e3d
000000f0: 76a9 bebd eed7 403e 05f1 913c 76e8 243d
00000100: 6030 96bd 0d5b 473e 3484 09be 636b 543d
00000110: b0ba 4f3d f58d 7c3e ad69 a33e ccdc cc3d
00000120: 4ab7 863e cf03 303e 2836 81be 56d2 58bd
00000130: 118d d03d 28d7 f4bd 40ed 0fbe 7a0e fabd
00000140: 6ec4 b6bd 5277 c8bd 509a 4bbd 7cb1 72be
00000150: d69b 37be d8e2 88be 0b27 1f3e 3140 49be
00000160: af46 98bd 989c 82bc aff8 c13d fbff ed3d
00000170: fb6b cf3d a852 33be 8cc4 7cbb 58a8 1abe
00000180: 4797 2a3e 14ef 6c3e e4b0 903d 1d8d bd3c
00000190: 2e75 123e ab39 8f3e 029b 493d cb73 003e
000001a0: cb96 003d 57be 6b3d 13fb 443e 0471 433e
000001b0: 9db8 edbd d3a1 e33d 2684 82bd 3c70 583d
000001c0: 2386 753c f221 76be 5b28 043e 8f23 b8bd
000001d0: 089b a1be 773f 0a3d 7952 bc3d d225 52bc
000001e0: 903e 4b3d cdbd 1dbe 8545 873d 9baf d9bd
000001f0: c790 5f3e c5fd 873c fb0e 593e 77ad 2e3e
00000200: 369d 893e 5ce1 393d 4727 2a3d 8502 cb3d
00000210: 602f 233e 0b7c e93d 77d9 8f3c eed8 d23d
00000220: 5766 193e 4be8 5bbd eca5 c73d bfe0 503c
00000230: a7d9 8ebd 1490 313e 767a 43be e899 4e3e
00000240: 01d7 e73c 3914 0b3e 67ca 803d f05c 283d
00000250: 0ccb 0fbe 5133 e4bc 18c7 f53c 2bc6 313d
00000260: 9e89 0cbf 058e 11bf 39c1 00bf a111 9e3e
00000270: 579b dc3d c56f 9ebc 64db 14be f627 1f3e
00000280: 6c6d 8d3d dbe6 90bd 7b36 6bbc 4c98 1c3e
00000290: 85c8 27bd 2f20 babd f49a e43d bbe0 8f3d
000002a0: 891c b83e d045 ff3e 8d41 5b3e 6501 22be
000002b0: 7eb9 9cbd 89ef 223e 1e69 053e dd0a b7bd
000002c0: 9caa c73d 0e7e cc3d b597 633d fd79 2b3e
000002d0: 0f88 053d 5b4d 813d 2192 a43e 76b7 e73d
000002e0: e217 2f3d b7a7 943e 79eb 313c ef8b 413d
000002f0: f682 02bd 9973 10bd 25fa f53d dac3 98bc
00000300: f10d 2e3d 4616 0d3e adad 0d3e 186e 4b39
00000310: 791f 5abe eae6 86bd 3538 37be 139a 213e
00000320: 77f9 953d d525 1cbe 9bcc 173e cd16 f63d
00000330: fc53 403d 9915 0cbe ddf7 c7bc e4a2 943d
00000340: 7ffa 5cbd b43a 1e3e ee3c aa3b 1e00 fabd
00000350: 39cf 6abe 7636 d3bc 1bc1 0f3e 58c9 f73c
00000360: bee7 bfbc 827d 333e 5b5a 8a3c 80cd 2e3d
00000370: 2fc1 043e 2baa c63d 23e5 52bd 7774 313e
00000380: 704b 92be 86b8 25be 114e 2ebe 4ff1 123e
00000390: a4d1 4d3d b91d 90bb c66c c43d 501f ef3b
000003a0: 8d8e 6fbc e46c c53d 86c0 f53d 39fb 3fbe
000003b0: 467a 2b3d 59da 983b 93b8 8e3e 2167 e5bc
000003c0: 598f 0e3d 2b15 5a3e d829 003e d885 6a3e
000003d0: 0353 163e 0297 083e bdd8 783e 1563 e3bd
000003e0: a6f3 71bd 5f28 f83d 1c60 debc 9dc2 2c3e
000003f0: af94 03bf 30f3 1fbf f369 c8be 4920 433e
-0.31886035 -0.22335716 -0.40419772 0.23996636 0.39053816 -0.046994973 -0.07557476 -0.061988667
0.14685534 0.0014996756 0.19299631 -0.18752177 -0.07627446 -0.03306818 -0.12234794 -0.13491952
-0.006820066 0.08891287 0.10366445 -0.08213127 -0.16593 -0.023390668 0.044464078 0.102298684
0.037994098 -0.040875047 0.13113518 -0.012218367 0.023670547 0.19505915 0.046879567 0.2530471
0.45793036 0.21518345 -0.008660218 0.061527357 0.15800981 0.18674162 -0.045545265 -0.03343613
0.0854381 0.003456087 -0.19173685 0.12991533 0.17542653 -0.09961579 0.11341623 -0.1258516
0.15320158 -0.14358157 0.2102759 0.0984127 0.15113352 0.018702054 0.021746252 -0.060943592
0.0036951553 0.2518372 0.17543831 0.07726235 -0.09309666 0.1883237 0.017815122 0.040260755
-0.073334455 0.19468327 -0.13429338 0.051860224 0.05071515 0.24663527 0.31916562 0.10003051
0.26311713 0.17188953 -0.2523663 -0.052934967 0.10183156 -0.119551 -0.14055347 -0.122097924
-0.08924185 -0.097883835 -0.04970771 -0.23700517 -0.1793054 -0.26735568 0.15542237 -0.19653393
-0.07435357 -0.01594381 0.09471261 0.1162109 0.101280175 -0.17512 -0.00385693 -0.1510328
0.1665927 0.23138076 0.07064989 0.023138577 0.14302513 0.27973685 0.049220093 0.12544172
0.031393807 0.05755457 0.19236402 0.19086081 -0.11607478 0.1111485 -0.063728616 0.05284141
0.014985594 -0.24036387 0.1290602 -0.08991157 -0.31563592 0.03375193 0.09195418 -0.0128264
0.04962021 -0.15404435 0.06605057 -0.10629197 0.21832572 0.016600499 0.21197121 0.17058359
0.26877755 0.045380935 0.041541364 0.0991259 0.15936041 0.114006124 0.01755975 0.10295282
0.14980446 -0.05368833 0.09748444 0.012748896 -0.06975108 0.17340118 -0.19089684 0.20175898
0.028300764 0.13581933 0.06288605 0.041104257 -0.140423 -0.0278565 0.030002162 0.04340188
-0.5489749 -0.5685733 -0.50294834 0.30872825 0.10771816 -0.019340405 -0.14536816 0.15542588
0.06905636 -0.07075282 -0.014356251 0.15292472 -0.040962715 -0.0908817 0.111623675 0.07025286
0.3595927 0.4985795 0.21411724 -0.15820844 -0.07652567 0.15911688 0.1302838 -0.08937619
0.09749338 0.099849805 0.0555646 0.16745754 0.03260046 0.063135825 0.32142738 0.11314289
0.042747386 0.29034206 0.010859364 0.04725259 -0.031863175 -0.035266493 0.12010602 -0.018648077
0.042493764 0.13778028 0.13835783 0.00019400602 -0.21301068 -0.06587012 -0.17892535 0.15781431
0.07322972 -0.15248807 0.14824145 0.12016068 0.046955094 -0.13680114 -0.024410183 0.072576314
-0.05394983 0.15452081 0.0051952517 -0.122070536 -0.22930612 -0.025782805 0.14038508 0.030247375
-0.023425933 0.17528346 0.016888788 0.04267645 0.12964319 0.09700426 -0.051488053 0.17329584
-0.2857318 -0.16183671 -0.17021967 0.14349864 0.050248757 -0.0043980745 0.095910594 0.007297434
-0.014621389 0.0963991 0.119996116 -0.18748178 0.041864656 0.004664701 0.27875194 -0.028003277
0.034804676 0.21297137 0.12515962 0.2290262 0.14680104 0.13338855 0.24301429 -0.11102883
-0.059070252 0.12117075 -0.027145438 0.16871114 -0.5139875 -0.6248045 -0.39143333 0.19055285

layer.0.bias f4 [32]
00000000: 61a7 403e bf4e 173e 1a77 61bd 764d 103e
00000010: c458 9fbd e051 333e dc34 df3d 38e7 3f3e
00000020: f511 b73e b8ee ab3c 2f2e 0e3c dbe2 83be
00000030: f718 973e 25b0 b0be 2634 9b3d c327 d83d
00000040: a5a0 ed3d 49c3 983e fcf4 7f3e 0223 0fbd
00000050: b0ef 87bb b0f3 06be d804 173e c207 a43d
00000060: 1cc2 0abd feab 803e 7533 94bd 2f7a 85bc
00000070: 967f 4a3c 6279 6c3e 0a58 9b3e 4ebd 033e
0.1881385 0.14776133 -0.055045225 0.14092049 -0.077806026 0.17511702 0.10898754 0.18740547
0.35755888 0.020987853 0.008678003 -0.25759014 0.29511234 -0.34509388 0.07578306 0.10554459
0.11602906 0.2983649 0.24995798 -0.034945495 -0.004148446 -0.13178897 0.14747941 0.08009292
-0.033876523 0.2513122 -0.07236377 -0.016293613 0.01235952 0.23093179 0.30340606 0.12865183

layer.2.weight f4 [64, 32]
00000000: cb46 b63d b37a 583e 2d0f cbbe 5ace 8dbd
00000010: bd1d ae3d 3a9f 8b3e 169e 2dbe 8856 78bd
00000020: c7e1 ef3d 7ead e13d 6ea6 1a3d 266f 0ebf
00000030: 2754 3b3e 8c55 1bbf 2c85 5b3e 228d 3f3e
00000040: 5fa6 b53d 5e85 843d 5b0b 2dbe d3da 923d
00000050: 4c4f 81be 1047 26bd 086d 85be cb9a b6bd
00000060: 92dd f13d 8273 58bd e0f2 a73d c917 2dbd
00000070: 8dd3 893e 235e 8c3e abc7 663e d0e1 e43d
00000080: 5c80 ad3d 2722 7f3d 152d 13be 1b62 a4bd
00000090: 8eda 123e 0e5d 0f3e d044 64bd d301 473e
000000a0: 0e7a 48bc 5526 eb3e 156f f439 3339 8bbe
000000b0: 7776 093e 6a0d 1bbf 7246 453e 5d12 c93e
000000c0: 009d e93c 209f 74bc d65d 2e3c 8252 33bd
000000d0: 6fb4 f3bd 6f14 adbd dfef c43c e40f a73c
000000e0: 41af 103e dc40 4f3d 5013 02be 88fc dc3d
000000f0: f0da 383e d2f7 273e 99e1 223c 6c52 b5be
00000100: 6637 6ebe f2cf 6abb efb5 e0bb f800 70be
00000110: 83f0 613d 0e2a 7fbe bcc9 9f3d 816d bd3b
00000120: 494d d8bd 3f04 d5be ec35 253e 452b 54bf
00000130: a12a 33bd 5989 743e f2d0 b5bc 1bb9 75be
00000140: b6d4 9fbe 468f 3c3e 81e1 ffbc 5cb4 1bbd
00000150: 4af8 4dbe 1be2 79bd 9d1c 7d3e 97fd 263e
00000160: 6ffd efbe 032d c4bd cf7c 473e d821 67bf
00000170: 2b54 1fbf c0eb ab3e 5d4a 2c3d a3ff 5f3e
00000180: ec17 f0bd 68ad 5b3d 23ed 77be 62b0 34bc
00000190: 0978 6ebd 091a 9f3e 1215 4b3e 1097 cf3c
000001a0: 2033 f9bd 0c60 b7be 781c e2bc fb54 133c
000001b0: de3f db3d 0abe 8ebf f980 263e 7567 7ebe
000001c0: 4688 9abd b2e8 5e3e 1e30 713d 9422 233e
000001d0: 2b54 7ebc 0f9c 793d f9ad 6cbe f536 fb3b
000001e0: efbc 503e eaf6 523d 9421 f73c ba34 07be
000001f0: e1ff b03e c6d6 6a3c aa1e f03d 2d6a 59bf
00000200: c5f5 fdbd cb42 0dbd 4508 253e 1a92 92bd
00000210: e0bd 25bd e548 a8be 241e fa3d 7313 72be
00000220: b736 d6bb 3034 94be be85 9c3c d4bb 8abf
00000230: 6eb0 72bd c0f8 803e bb0e bebd ecad a5be
00000240: 3606 f9be 7731 973e 0f8c 103e f8cf 1e3d
00000250: b693 88be bd09 4c3e bb3d 503e 1e7f 3b3e
00000260: a6ca d4be 332f ccbd fa29 083e ee12 86bf
00000270: e11e 50bf 4bf9 943e 3e94 f0bd 65fa 833e
00000280: 2ef5 65bd 32cc a3bd b67a 8abe e28d 24be
00000290: 1368 0fbd 3585 943e cc11 123e fc96 283e
000002a0: 5043 ba3d 8a26 40bf 114e e9bd 2ef8 cfbe
000002b0: b835 8a3e cb66 b1bf 63c5 9c3d 66cd 4abd
000002c0: 5842 3b3a 68c1 6a3e 929d 23be aeb9 a33d
000002d0: afe7 2abe 501a 693e 8525 8a3d 7e7e 2a3e
000002e0: 863b 103e e549 623e 133a 623e 7225 c5be
000002f0: 09f4 a73e b417 8abc 41fa 1b3e 4099 6fbf
00000300: a049 cebe 308b bfbd ee7c a93d c7d1 123e
00000310: 4116 72bb 3447 68be 2fdc 4cbc 21d4 68be
00000320: f49d a63d a27a 20bf dcf0 f53d c0e3 113e
00000330: 354f 403e c764 ad3e a8ea 503c 0aa4 e9be
00000340: 35b7 62be 5482 283e 004c eb3d 1ebb dfbd
00000350: c2b2 a0bd 5812 20bd 9778 8a3e f152 903d
00000360: aec0 ffbe 83ae c5bc 3385 143e 8742 fb3d
00000370: 5827 d9be fe7c 813e d594 97bd bf1d 7ebd
00000380: fe34 a43e b9ab 193d 922b 10bd c748 8d3c
00000390: aa58 743d ab49 413e fb40 34be 437d 103d
000003a0: 70c0 233a 4ce3 933e 07a5 823d 0ce9 f9be
000003b0: 63c5 50bd 72d5 32bf f52c f6bb 6c80 693e
000003c0: b38c 863d a4dd d03d 33df 85bb 266b 463e
000003d0: 902c 9abc 4c0c 8bbd 2bc9 77be b3b5 fbbd
000003e0: 9432 983d 84f3 0e3e 457e 233e 42bd f0bd
000003f0: e97c a63e bb58 943e 520f 423e bd64 b9b9
0.089002214 0.21140556 -0.39660016 -0.06924124 0.08501766 0.27269918 -0.16954836 -0.060629398
0.117129855 0.11019419 0.037756376 -0.5563835 0.1829382 -0.6067741 0.2143752 0.18706182
0.088696234 0.0647075 -0.16898863 0.07170644 -0.2525581 -0.040595114 -0.26059747 -0.08916243
0.11809839 -0.05284453 0.082006216 -0.04225901 0.26919213 0.2741557 0.22537105 0.11175883
0.08471748 0.06228843 -0.14372666 -0.08026525 0.14341184 0.14000341 -0.055729687 0.1943429
-0.012236131 0.45927683 0.0004662207 -0.27192077 0.13424097 -0.60567343 0.19265154 0.39271823
0.028517246 -0.0149305165 0.010642489 -0.043779857 -0.11899649 -0.08451163 0.02404016 0.02039332
0.14129354 0.050598964 -0.1270268 0.10790354 0.18052268 0.1640313 0.009941482 -0.35414445
-0.2326332 -0.0035829511 -0.0068576257 -0.2343787 0.05516101 -0.24918386 0.0780215 0.005780876
-0.10561616 -0.41604802 0.16133851 -0.82878524 -0.043741826 0.23880519 -0.02219436 -0.23996393
-0.31216973 0.1841403 -0.031235458 -0.0380138 -0.20114246 -0.061006647 0.24717946 0.16307674
-0.46873042 -0.09578898 0.19481204 -0.90286016 -0.62237805 0.335783 0.042063106 0.21874861
-0.11723313 0.05363217 -0.24211554 -0.011028381 -0.058219943 0.3107455 0.19832256 0.025340587
-0.121679544 -0.35815465 -0.027601466 0.008992429 0.10705541 -1.1151745 0.16260137 -0.24844153
-0.07545523 0.21768454 0.05888378 0.1593116 -0.015522997 0.060939845 -0.2311324 0.0076664635
0.20384572 0.051505007 0.030167378 -0.13203707 0.3457022 0.014333433 0.11724599 -0.84927636
-0.124003924 -0.034487527 0.16116436 -0.07156773 -0.040464282 -0.32868114 0.1221278 -0.23640232
-0.0065372842 -0.28946066 0.019106742 -1.083857 -0.059250288 0.2518978 -0.09280153 -0.32359254
-0.4863755 0.29529926 0.14115928 0.038772553 -0.26675195 0.1992559 0.20336048 0.1831021
-0.41560858 -0.0996994 0.13297263 -1.0474527 -0.8129712 0.29096445 -0.11747025 0.25776973
-0.056142025 -0.079979315 -0.27046746 -0.16069749 -0.035011362 0.2900788 0.14264601 0.16463846
0.0909487 -0.75058806 -0.11391843 -0.40619034 0.2699411 -1.3859495 0.07654836 -0.04951229
0.000714337 0.22925341 -0.15978077 0.079944 -0.16689943 0.22763944 0.067454375 0.16649815
0.14085206 0.22098501 0.22092466 -0.3850513 0.32803372 -0.016857006 0.15232183 -0.93593216
-0.40290546 -0.0935272 0.082757816 0.14337836 -0.0036939534 -0.22683412 -0.012503668 -0.22737171
0.08135596 -0.6268712 0.12008831 0.14247036 0.18780215 0.3386595 0.012751259 -0.45632964
-0.221402 0.16455966 0.11489105 -0.10924362 -0.07846595 -0.039079994 0.27045128 0.0704707
-0.4995169 -0.024131065 0.14503936 0.122685485 -0.4241283 0.25290674 -0.07401434 -0.062040087
0.3207168 0.037517283 -0.035197802 0.017246617 0.05965487 0.18875758 -0.17602913 0.03527571
0.0006246632 0.2888435 0.06379133 -0.48810613 -0.050969493 -0.6985694 -0.0075126835 0.22802895
0.06569805 0.101985246 -0.0040854453 0.19376811 -0.018820077 -0.06789455 -0.24197833 -0.12290516
0.07431522 0.13960081 0.15966137 -0.11754848 0.32517174 0.28973946 0.18951157 -0.00035361006

layer.2.bias f4 [64]
00000000: 42d1 893e f12c 613e aed0 fe3c b8ea 7c3e
00000010: 8fea d93c a62c 553e d3d4 6f3e cdb5 a73e
00000020: 81d6 fe3d 897d 673e 79fe b7be e006 30bd
00000030: dd20 423d 99f6 7d3d 1a4b 263e 5bca a53d
00000040: 48e3 863e f467 413e f8e1 ee3e 13b1 893e
00000050: 0a14 d03d 8a6e f4ba 38f9 873e 7ed5 443e
00000060: 49d6 08be 7e32 c33d 9d55 403e 7f24 1d3d
00000070: 1c78 093e 97c7 103e f32a 363e 8f09 ed3d
00000080: 8fb8 d53e 6744 473e 909e ca3c fcbb 173e
00000090: c545 763d 5511 673e 1e97 a13e 90cb 4a3e
000000a0: 9c95 a2ba cbbd ba3d 0f29 a43e c702 4b3d
000000b0: 17e1 5f3e 1430 a43e b8ad f03b 3413 8f3d
000000c0: 8b5f 963d 9baf 653e affa a93d 190a 463e
000000d0: f208 383e 1a10 56bc cc87 bb3d e173 cb3d
000000e0: 7399 eebd 145b d53d f5af 9f3e 0b58 ac3e
000000f0: 39f3 50be f977 3bbe bcb9 88bd 89a5 893e
0.26917464 0.219898 0.031105366 0.24698913 0.026601104 0.20817813 0.2342103 0.3275589
0.12443257 0.22606482 -0.35936335 -0.042975307 0.047394622 0.062002752 0.16239586 0.08095237
0.26345277 0.18887311 0.46656775 0.2689291 0.10160072 -0.0018648666 0.26557326 0.19222066
-0.13362993 0.09531115 0.18782659 0.038364884 0.13424724 0.14138637 0.17789821 0.11574089
0.4174237 0.19459687 0.024733812 0.14817804 0.06012513 0.22565205 0.31560606 0.19804215
-0.0012404206 0.091182314 0.32062575 0.049563196 0.21863209 0.3206793 0.0073449276 0.069860846
0.07342442 0.2243027 0.08299767 0.1933979 0.17972162 -0.013065362 0.091567606 0.099342115
-0.11650362 0.104177624 0.31188932 0.3366092 -0.20405282 -0.18307485 -0.06676051 0.26884106

layer.4.weight f4 [8, 64]
00000000: 2062 b53e 24b6 9b3e 9e68 593c 7cee 0a3f
00000010: 2aa1 bbbe 0a9d 423f ab9e f4bd 416a af3e
00000020: 096c 42bf 9941 a33c c28d ddbd 9005 d33b
00000030: 7de8 313c ebae 64be e7e5 313f 4ed5 433f
00000040: 03ec 593f 41e0 cb3e 0184 293e 598a 403e
00000050: f760 1bbc 409b 423f 435c 203d 6b97 093e
00000060: a2a1 fcbe e4f6 bbbe 8069 1b3f 9ecf ccbe
00000070: 75de 793d 90a4 d5be ee3e 3cbf a7fb 12bf
00000080: 5f7d dfbd c8d3 0e3e fff9 883e 857c 3f3e
00000090: 85b6 52be d44c 833e a647 99be 84ee d63d
000000a0: 93f8 6d3f 8a8d cfbe 83ac 143e 3f3e 2d3e
000000b0: c2dc cdbe 45ec 42bd 3b81 78bc 8ac9 e73d
000000c0: 6af6 4f3e 0a53 c4bd 6edb c8be 1a58 aa3d
000000d0: a6dd 03bd c593 d63e 5f9b c7bd 0e39 633e
000000e0: 3392 b33d 705a 64be d71e 823d 6dd0 a13d
000000f0: 0c48 80be 3d85 23be f7f4 a2bd 45fc 4d3d
00000100: d6e1 58bd ae55 503d c013 363c 9c64 9b3c
00000110: 9538 9ebd d28e ccbc ccba ba3d 692b 153d
00000120: 9de9 3b3d 603d 783c 7543 0fbc 3e82 ab3c
00000130: 4b75 223d a7d7 0dbd f5c5 e6bc 34cb 193d
00000140: 858e a93d 250b 2c3d facf fa3c 5053 003c
00000150: 6aed 4a3d 2882 85bd 879f f3bc 43b1 8e3c
00000160: eb89 193c 2087 0dbb b76b a2bd ae15 793d
00000170: 3eac 673d f475 6bbd dfe3 23bd fb52 83bd
00000180: e850 cdbc 52e3 04b9 07d4 c73c ea70 e9bc
00000190: 507f 893c 450e e33c 39ec fcbc baac dbbd
000001a0: 7176 213d 1764 94bc 7d06 633c 1c6d b03c
000001b0: 485e 3c3d 9a56 cf3c 4212 c43c 32e8 6c3c
000001c0: c31e 83bd fe5a 1f3b 43b6 afbc 9274 093c
000001d0: 01a5 73bd c67b 1ebc c64d 25bc 0701 dd3b
000001e0: 3b0c 23bd 181f a13c 917c 393d 2972 2a3d
000001f0: d5ce 80bc 43c8 4fbc 2c48 4cbd 1731 033c
00000200: 78c7 303e b0b6 393e 7e82 b5bc ab18 3ebe
00000210: e8c8 e9bd 7c3b 0abd a62c 4ebe 34a8 923e
00000220: 6674 283f fd24 9f3e 5832 e6bd 66a0 c7be
00000230: 416e db3e 4608 4a3c faa7 b2be bf0e d0ba
00000240: 0062 68be 0c6a 953e 50a3 793e f5e9 313e
00000250: 60a2 97be da86 57be c7b6 6a3e af59 3c3d
00000260: 8fb0 02bd b3d7 80be 96b9 6cbd be81 0abe
00000270: 605b c6be 5f90 0c3f af5a 003f 63a3 a4bd
00000280: e6a9 c83e fc9b b13e 272b 343d 7e0c 343e
00000290: 1dda 873e c8cd 85be 8d35 e5be 05fb f7be
000002a0: 9264 883e 869d 32be 3162 ddbe e89e a33b
000002b0: a6a1 fe3e a06b f03e fd82 e53e 894d c23e
000002c0: f069 6e3e 862e 12bf 3f75 fe3e 2589 b9be
000002d0: 5ea2 a43e 0a06 6bbe 9da1 c9be 6274 5e3e
000002e0: 8d64 53be a058 1b3e 14fb abbe 2966 ffbe
000002f0: acdc 01be eba1 dc3f 2d1d e8be 3c60 f8be
00000300: a907 aebc cc28 8dbd 201a 2dbd f974 b23d
00000310: e9fc 6fbd 7c48 5c3c d332 353d c52f 43bc
00000320: 5e37 c23b 0334 2f3b 9c4b aabc 8bed 86bc
00000330: 6824 2f3c 2ffa bb3c e3ae 14bd e25a 40bd
00000340: f814 38bd 4106 1e3d 7f77 e83b e216 e7bc
00000350: b159 c53c 8303 bcbb 94c8 c23a 4a33 be3d
00000360: a947 36bc 8bc0 7ebd d78b 293d b886 7dbc
00000370: d6e1 633d a470 65bc 8ac0 9cbc 5711 82ba
00000380: e029 0ebb a671 813c cf1a 92bc e5ec 6abd
00000390: 7a76 653d 090e 72bb c18b 183d 4bba 7cbd
000003a0: 034e 113d f8e0 6ebc 42c5 6c3c da5b 4abd
000003b0: e95d 14ba 776c 633c 908e 433c d306 1fba
000003c0: 21d0 1dbb 0223 163d dded abbc 77a3 89bd
000003d0: 6a1c 7dbd d46f 7d3c 593e d23c dc3f 5b3d
000003e0: 4c62 b3bb 03de c13c 5e9c b13b f99e 263d
000003f0: 1d03 ba3d 571b 7a3c 4f2e 5fbd fb11 0a3d
0.35426426 0.304124 0.013269572 0.5427015 -0.36646396 0.7602087 -0.11944326 0.34260753
-0.759461 0.01992874 -0.10818054 0.006439872 0.010858652 -0.22332351 0.6949143 0.7649735
0.8512575 0.3981953 0.16554262 0.18802775 -0.009483567 0.7601814 0.039150488 0.13436668
-0.49342066 -0.367118 0.60707855 -0.4000215 0.061003167 -0.41727114 -0.73533523 -0.5741524
-0.109125845 0.13947976 0.26753232 0.18699844 -0.20577438 0.25644553 -0.29937476 0.10494712
0.9295742 -0.40537673 0.14518933 0.16918276 -0.40207487 -0.047588605 -0.01516753 0.113177374
0.20308843 -0.09586151 -0.39229912 0.08317585 -0.032193802 0.41909614 -0.097464316 0.22189733
0.0876812 -0.22300124 0.063535385 0.07901082 -0.25054967 -0.15968795 -0.079568796 0.05028941
-0.05294975 0.05086296 0.011113107 0.018968873 -0.07725636 -0.024970446 0.0911766 0.036418352
0.045877088 0.015151352 -0.00874411 0.020936128 0.03966264 -0.03462949 -0.028170565 0.037547305
0.082791366 0.042002816 0.03061675 0.007832363 0.049542822 -0.06518966 -0.029739155 0.01741851
0.009371261 -0.0021595433 -0.07930701 0.06081169 0.056560747 -0.057485536 -0.040012237 -0.06412312
-0.025062993 -0.00012673184 0.024393095 -0.028496224 0.01678434 0.027716765 -0.030874358 -0.10726304
0.039419595 -0.018114133 0.013856527 0.021536402 0.04598835 0.02530985 0.023934487 0.014459657
-0.06402352 0.002431571 -0.021449214 0.008389609 -0.05948353 -0.009673065 -0.010089343 0.0067445072
-0.039806586 0.019668147 0.04528481 0.041612778 -0.015723625 -0.012682023 -0.049873516 0.008007309
0.17263591 0.18136096 -0.02215695 -0.18564098 -0.11415273 -0.033748135 -0.2013422 0.28643954
0.6580261 0.31082907 -0.11240071 -0.38989562 0.42857555 0.012331074 -0.3489378 -0.0015873535
-0.22693634 0.2918247 0.24378705 0.17374404 -0.2961607 -0.21047536 0.22921287 0.045983966
-0.03190666 -0.25164565 -0.057794176 -0.13526055 -0.3874159 0.5490779 0.5013837 -0.08038976
0.39192122 0.3468932 0.043986466 0.1758289 0.26533595 -0.2613356 -0.44767419 -0.484337
0.2663923 -0.17442903 -0.43238977 0.0049933083 0.49732703 0.4695711 0.448265 0.3794978
0.232826 -0.5710224 0.49698827 -0.36237445 0.32155126 -0.22951522 -0.39381114 0.21724084
-0.20643826 0.15170527 -0.33589995 -0.4988263 -0.12681836 1.7236913 -0.4533476 -0.4851092
-0.021243887 -0.06892547 -0.042261243 0.08713717 -0.058590803 0.013445016 0.044237923 -0.011913245
0.0059270104 0.0026733882 -0.020788006 -0.016470691 0.010689832 0.022946445 -0.036299597 -0.046961673
-0.044941872 0.038580183 0.007094323 -0.028209154 0.02409062 -0.0057377233 0.0014860802 0.09287126
-0.011125484 -0.062195342 0.041393127 -0.015474014 0.055635296 -0.014003906 -0.019134779 -0.000992338
-0.002169244 0.015801262 -0.017835049 -0.057354826 0.05602119 -0.0036934635 0.037242655 -0.0617011
0.03547479 -0.014580004 0.014451327 -0.049404003 -0.00056597457 0.0138808405 0.011935845 -0.00060663855
-0.0024080353 0.03665448 -0.020987445 -0.067206316 -0.061794676 0.015468556 0.025664495 0.053527698
-0.0054743644 0.023665434 0.0054202517 0.040678952 0.09082625 0.015265307 -0.054487523 0.033708554

layer.4.bias f4 [8]
00000000: 904e b13d 8223 e7bc 46cb 6a3e 34bd 423c
00000010: 9689 be3b 3088 63bb 6a68 063e 9bff 7a3e
0.08657563 -0.028215174 0.22929105 0.01188593 0.0058147414 -0.0034718625 0.13125768 0.24511568
