final/save/0.9_0.99_500/save3_2500.pth (torch_old, 15355 bytes, 6 tensors)

layer.0.weight f4 [32, 28]
0	0xbd33c85a	-0.043892242
1	0x3dda5c53	0.10662141
2	0xbe02a15b	-0.12756865
3	0xbd9d71db	-0.07687732
4	0xbd909e0e	-0.070613965
5	0xbe1d6eca	-0.15374294
6	0xbde379fe	-0.111072525
7	0x3e1cbe93	0.15307073
8	0x3e39779f	0.18112038
9	0x3de0cd8c	0.10976705
10	0x3da2ebcf	0.07955133
11	0x3d82617b	0.06366249
12	0xbd3496ce	-0.04408913
13	0xbdac2506	-0.08405499
14	0xbcaec04f	-0.021331934
15	0x3e6e5166	0.23273239
16	0xbd83d7b4	-0.064376265
17	0x3e25f04f	0.16204952
18	0x3c24215d	0.01001772
19	0x3b83ed92	0.0040261233
20	0x3c89df68	0.016830161
21	0x3e8597a0	0.26092243
22	0x3e16ffde	0.14746043
23	0xbcf2a8d0	-0.029621512
24	0x3d9ec80a	0.07752998
25	0xbd8af96e	-0.06785856
26	0xbdb877b8	-0.090072095
27	0x3e1af6d5	0.15133221
28	0xb78a09f8	-1.6455524e-05
29	0x3e2aad50	0.16667676
30	0xbe22a188	-0.15881932
31	0xbe32f2d1	-0.1747544
32	0xbdc89409	-0.097938605
33	0x3df49208	0.11941916
34	0xba6c8893	-0.00090230367
35	0xbcbf2364	-0.023332305
36	0x3e2e909a	0.17047349
37	0x3d0e3d1c	0.034726247
38	0xbddee8c5	-0.10884241
39	0x3d809765	0.06278876
40	0xbdb96c28	-0.09053832
41	0xbe1847c0	-0.1487112
42	0x3e2701bd	0.16309257
43	0x3de656a6	0.11246996
44	0x3e3b8e67	0.18316041
45	0x3e835d10	0.2565694
46	0xbe119a12	-0.1421893
47	0xbc6b1f0f	-0.014350667
48	0x3dfc4e59	0.12319631
49	0x3e30d241	0.17267706
50	0x3e9a3117	0.30115578
51	0x3e4a2ea5	0.19744356
52	0xbd7b8bc2	-0.06141258
53	0xbe238ba4	-0.15971237
54	0x3d41dce8	0.047329813
55	0xbbc978af	-0.00614842
56	0x3e86cb37	0.26326916
57	0x3dcd18f6	0.100145265
58	0x3d8162f8	0.06317705
59	0xbb336579	-0.0027373715
60	0xbd9d1746	-0.07670455
61	0xbd587b6e	-0.052852087
62	0x3e297108	0.16547024
63	0x3e8d6549	0.27616337
64	0x3e791a81	0.24326517
65	0x3ddcdb22	0.10783984
66	0x3d526599	0.051366422
67	0xbdd9c407	-0.106330924
68	0xbe138671	-0.14406754
69	0xbe30cfbc	-0.17266744
70	0x3dd5c8cf	0.10438692
71	0x3d96f8c0	0.07371664
72	0x3e145073	0.14483814
73	0xbd2c1320	-0.042010427
74	0x3e1a0012	0.1503909
75	0xbe136131	-0.14392544
76	0xbe294416	-0.16529879
77	0x3c661434	0.014042903
78	0xbaf3c4c4	-0.001859807
79	0x3dd7b5b1	0.10532702
80	0x3e1439c1	0.14475156
81	0xbce09569	-0.027414994
82	0xbdc06ee9	-0.093961544
83	0x3e4625a9	0.19350304
84	0x3e2065cb	0.15663831
85	0xbde07f13	-0.109617375
86	0xba5ea53f	-0.00084932515
87	0x3e1689e3	0.14701037
88	0x3d78f960	0.060784698
89	0x3e1ea50c	0.15492648
90	0xbda43985	-0.080187835
91	0xbe3c726b	-0.18403022
92	0xbe13de44	-0.14440256
93	0x3e0d5135	0.1380051
94	0x3e6a9fd2	0.22912529
95	0xbd8c9791	-0.068648465
96	0xbda54fa5	-0.080718316
97	0xbd0fcdb9	-0.0351083
98	0x3c5056ed	0.012716037
99	0x3d8459ab	0.06462415
100	0xbde3ff46	-0.11132674
101	0x3dd2954a	0.10282381
102	0xbda061b2	-0.07831134
103	0xbd15f838	-0.036613673
104	0x3cdcc267	0.026948167
105	0x3caa77be	0.02080905
106	0x3c7497c1	0.014928759
107	0x3e87c106	0.26514453
108	0xbd2778b2	-0.04088659
109	0xbd7f2d05	-0.062298793
110	0xbd138220	-0.03601277
111	0xbb68ad71	-0.003550377
112	0xbe74dd37	-0.23912512
113	0x3ccc3510	0.024927646
114	0x3d13a41b	0.036045175
115	0xbd4bbe24	-0.04974188
116	0x3e10c949	0.14139284
117	0x3e3f125e	0.1865935
118	0xbd8d23af	-0.06891572
119	0xbe56d7b7	-0.20980726
120	0x3dbb8f8c	0.09158239
121	0x3c908773	0.017642712
122	0xbdf50aeb	-0.11964973
123	0xbde7306d	-0.11288533
124	0x3e25513f	0.16144274
125	0x3de396ec	0.111127704
126	0x3da6a0ae	0.08136116
127	0xbcbc8513	-0.023012673
128	0x3d9d356b	0.07676204
129	0xbda63175	-0.08114902
130	0x3e6d85b9	0.23195542
131	0x3e021be6	0.12705955
132	0xbc8ee8b9	-0.017444955
133	0x3e4eff8c	0.20214671
134	0xbda9907a	-0.0827951
135	0x3e275132	0.16339567
136	0x3e024d41	0.12724783
137	0xbbc3eaf0	-0.0059789345
138	0x3db23ef0	0.087034106
139	0xbd0770ee	-0.033066683
140	0xbe3c08a7	-0.18362676
141	0x3d61ebf3	0.05515666
142	0x3db29eed	0.08721719
143	0x3e8d449c	0.27591407
144	0x3db4e0c9	0.08831937
145	0x3e6a425a	0.22876874
146	0xbd55d840	-0.052208185
147	0xbe043090	-0.1290915
148	0xbd7008f2	-0.05860228
149	0x3e056093	0.13025121
150	0x3e6f66c5	0.23379047
151	0x3e424395	0.18971093
152	0x3d3dbb1a	0.046321012
153	0xbe376860	-0.1791091
154	0x3dbe13b9	0.092811055
155	0x3e04a607	0.1295396
156	0xbcce21b8	-0.025162563
157	0x3c350dd8	0.011050664
158	0xbe6efc75	-0.23338492
159	0xbdcf6e4d	-0.1012846
160	0x3e17f093	0.14837866
161	0xbd84f64c	-0.0649229
162	0xbcdb5283	-0.026772743
163	0x3e8585e3	0.2607871
164	0xbe00bd2f	-0.12572168
165	0x3df706bb	0.120618306
166	0xbd6305d5	-0.055425484
167	0xbe308b9b	-0.17240755
168	0x3df46e2b	0.11935075
169	0xbe0c6a09	-0.13712324
170	0x3dada3b4	0.084784895
171	0x3d393493	0.045216154
172	0xbe6359f5	-0.22202285
173	0xbdfbad76	-0.122889444
174	0x3e055811	0.13021876
175	0x3d35b3dd	0.044360984
176	0x3d0a65ea	0.0337886
177	0xbd4e83fb	-0.050418835
178	0xbe1d5b74	-0.15366918
179	0xbe5e999b	-0.21738283
180	0x3d07f3f5	0.03319164
181	0xbd0dc952	-0.034615822
182	0x3d81c2c0	0.06335974
183	0x3dab5e77	0.08367627
184	0x3daad551	0.08341468
185	0x3e49bbf9	0.19700612
186	0x3ddf7c82	0.1091242
187	0xbe15749e	-0.14595267
188	0xbe225aef	-0.15855001
189	0x3daf8d8c	0.0857192
190	0x3e2c3eab	0.16820781
191	0x3e12fea5	0.14354952
192	0xbe1d56a4	-0.15365082
193	0xbe3b619c	-0.18298954
194	0x3b3b2767	0.0028557421
195	0xbd95c81e	-0.0731356
196	0xbd89639b	-0.06708451
197	0xbe6c881d	-0.23098798
198	0x3e083c99	0.13304366
199	0xbe05e53b	-0.13075726
200	0x3da3cbdd	0.07997868
201	0xbd6d6603	-0.057958614
202	0xbe37f04a	-0.17962757
203	0x3d2b8e5b	0.041883808
204	0xbe173f8e	-0.14770338
205	0x3e429c04	0.19004828
206	0xbe0b27e6	-0.13589439
207	0x3e0c26d9	0.13686694
208	0x3e233753	0.15939073
209	0x3cca0f41	0.024665477
210	0x3da1a09b	0.07891961
211	0xbcafe92a	-0.021473486
212	0xbd28e848	-0.041237146
213	0x3e303a51	0.17209746
214	0x3e89d144	0.2691747
215	0x3d7cebff	0.0617485
216	0x3e0f740f	0.14009117
217	0x3e126d9f	0.1429963
218	0xbdd632b8	-0.104588926
219	0xbd05d00d	-0.032669116
220	0x3d6880a4	0.056763306
221	0x3e353520	0.17696047
222	0x3b54505a	0.0032396526
223	0xbe141be6	-0.14463767
224	0xbd0dfb97	-0.034663763
225	0x3df56fa1	0.11984182
226	0x3e0460f3	0.12927608
227	0xbdfcfd8f	-0.1235305
228	0xbe4e0426	-0.2011877
229	0x3d1b055f	0.03784692
230	0xbdfa0627	-0.12208205
231	0x3e5bb272	0.2145479
232	0x3e0fc205	0.14038856
233	0xbe03f955	-0.12888081
234	0xbe24d547	-0.16096984
235	0x3d2a315f	0.04155099
236	0xbcf48803	-0.029850012
237	0xbd46ba55	-0.048517544
238	0x3e1f721b	0.15570872
239	0x3dc9d90c	0.098558515
240	0x3de192f4	0.11014357
241	0x3dc45733	0.095869444
242	0xbd8363e0	-0.06415534
243	0x3d43792a	0.047722973
244	0x3c4e0c4f	0.012576177
245	0x3e41d7e8	0.18930018
246	0x3e632cd7	0.22185074
247	0x3c4ba1e6	0.012428736
248	0xbe2c415c	-0.16821808
249	0x3d7064f0	0.05869001
250	0xbb5de184	-0.0033856342
251	0xbd9dd919	-0.07707424
252	0xbd64f620	-0.055898786
253	0xbe4d0f85	-0.20025451
254	0x3e1f391f	0.15549134
255	0x3cc7d59a	0.024393845

layer.0.bias f4 [32]
0	0x3dc59aa9	0.0964864
1	0x3cd6e705	0.026233206
2	0xbd76e173	-0.0602736
3	0x3cb5fc42	0.022215012
4	0xbdb2ea64	-0.08736113
5	0x3e352821	0.17691089
6	0x3d42d4ed	0.047566343
7	0xbd979f44	-0.074034244
8	0x3d927858	0.0715186
9	0x3e274ec1	0.16338636
10	0xbc453f34	-0.012038995
11	0xbe5b0945	-0.21390255
12	0xbdbb9b9a	-0.09160538
13	0x3e162250	0.14661527
14	0x3d68332c	0.056689426
15	0xbd661544	-0.056172624
16	0x3dc7a335	0.09747926
17	0xbd85e5f0	-0.06537998
18	0x3e253556	0.16133627
19	0x3d5b2724	0.053504124
20	0x3e59cc43	0.21269326
21	0xbe0fc878	-0.14041317
22	0x3dacd634	0.084392935
23	0x3e14ca4b	0.14530294
24	0x3e7a1053	0.2442029
25	0x3dc92aad	0.09822593
26	0x3cbb5ed3	0.022872364
27	0x3ec33878	0.3812902
28	0xbdd1be26	-0.10241346
29	0xbd3a8bab	-0.045543354
30	0xbd7d36c1	-0.061819796
31	0x3d9ff380	0.07810116

layer.2.weight f4 [64, 32]
0	0x3d9e6a87	0.07735162
1	0xbe9531e3	-0.29139623
2	0x3de5bc3b	0.11217543
3	0x3c8e4858	0.01736848
4	0xbe0c6e6d	-0.13713999
5	0xbe0b9e73	-0.13634662
6	0xbd040dda	-0.032239772
7	0x3d5a1005	0.053237934
8	0xbe6cb205	-0.23114784
9	0xbe0f803d	-0.14013763
10	0x3e525017	0.20538364
11	0xbe1a5bee	-0.15074131
12	0xbe025327	-0.12727033
13	0xbd32c3ec	-0.043643877
14	0xbe0675bc	-0.1313085
15	0xbe604e66	-0.21904907
16	0x3eb5346c	0.35391557
17	0x3e027e16	0.1274341
18	0xbe32f333	-0.17475586
19	0xbda280f2	-0.079347506
20	0x3dfa81e7	0.12231808
21	0x3d8fd49e	0.070229754
22	0xbe088fb1	-0.13336064
23	0x3dad1094	0.08450428
24	0xbda05af0	-0.07829845
25	0x3d7620ec	0.06008999
26	0xbd4d6c41	-0.050152067
27	0xbe3f9620	-0.18709612
28	0x3df7e598	0.121043384
29	0xbd3d466c	-0.046209738
30	0x3eaefd90	0.34177828
31	0xbc901d46	-0.017592084
32	0xbd138415	-0.036014635
33	0x3de4da9c	0.11174509
34	0xbceb2d1a	-0.02870803
35	0x3e188bda	0.14897099
36	0xbe4efa40	-0.2021265
37	0x3dc2180a	0.09477241
38	0x3c07b4f5	0.00828289
39	0x3d96007d	0.07324312
40	0xbe49db6c	-0.19712609
41	0x3e418f72	0.18902376
42	0xbd80c5f9	-0.0628776
43	0x3d8246d8	0.063611686
44	0x3d612922	0.054970868
45	0xbda88c02	-0.08229829
46	0x3e8f7d4f	0.2802529
47	0xbe6c4dad	-0.23076506
48	0xbe50e9ab	-0.20401637
49	0xbdaf9945	-0.08574156
50	0x3e66027c	0.22461885
51	0xbea2de3e	-0.31810182
52	0x3c02eb4f	0.007990672
53	0x3d41c71d	0.04730903
54	0x3e4e8211	0.20166804
55	0x3e202472	0.15638903
56	0xbec2fd7e	-0.38084024
57	0xbd80f6d0	-0.06297076
58	0xbc048033	-0.008087206
59	0x3cd87ad0	0.026425749
60	0xbe19a00b	-0.15002458
61	0xbe235fc2	-0.15954497
62	0xbe81c83a	-0.25348073
63	0xbdb73d6d	-0.08947263
64	0xbe627fb8	-0.22119033
65	0xbe53805f	-0.20654438
66	0xbd07ba66	-0.033136748
67	0x3dcda6e2	0.10041596
68	0xbe40f2c9	-0.18842615
69	0xbdbe1d91	-0.09282983
70	0xbe18ab8c	-0.1490919
71	0x3d64c077	0.05584761
72	0x3dcfcfcf	0.10147058
73	0xbd89911b	-0.0671713
74	0x3cbde93d	0.023182506
75	0xbe16bde3	-0.14720874
76	0x3d9f819b	0.07788392
77	0x3debdac4	0.115163356
78	0xbdfbbf9d	-0.12292407
79	0xbd6e3cbf	-0.0581634
80	0x3db78bef	0.08962237
81	0xbe296cc2	-0.16545394
82	0xbc57e8e4	-0.013178084
83	0xbe47c5de	-0.19509074
84	0x3da68e9c	0.08132669
85	0x3dc24fcb	0.094878756
86	0x3d8900e8	0.06689626
87	0xbd3af473	-0.04564328
88	0x3c9d7351	0.019220026
89	0xbe16cded	-0.14726992
90	0xbd90eb0c	-0.07076082
91	0xbcdfe363	-0.027330106
92	0x3dd0e0e0	0.101991415
93	0xbe4b120e	-0.19831106
94	0xbd93d08a	-0.0721751
95	0xbd2e551f	-0.042561647
96	0xbca069d8	-0.01958172
97	0xbd95d1ea	-0.073154286
98	0xbda3cbfb	-0.079978906
99	0x3b0eb782	0.002177686
100	0x3e4323ba	0.19056597
101	0xbd5a468d	-0.05328994
102	0xbe56c973	-0.20975284
103	0x3e555aef	0.2083547
104	0xbe60a479	-0.21937741
105	0xbc47d053	-0.012195664
106	0xbd855bdf	-0.06511664
107	0x3e0e0676	0.13869652
108	0x3d8b5e32	0.06805076
109	0x3d04d894	0.032433107
110	0xbe70f4c2	-0.23530868
111	0xbeb8e703	-0.36113748
112	0xbdc8d5f7	-0.098064356
113	0x3dda5827	0.10661345
114	0xbdf3ec22	-0.11910273
115	0xbe9cb3ca	-0.30605918
116	0x3e5a70ef	0.21332143
117	0x3e020694	0.12697822
118	0xbddc9d14	-0.10772148
119	0xbe3b7195	-0.18305047
120	0x3e840cc4	0.2579099
121	0xbe443b54	-0.19163257
122	0x3cd876e6	0.026423883
123	0x3e5648f6	0.2092627
124	0x3d0eb6ad	0.034842182
125	0xbd0e5c8a	-0.03475622
126	0xbd348e70	-0.04408115
127	0x3d8ab525	0.06772832
128	0x3e366318	0.17811239
129	0xbdd7947d	-0.10526369
130	0x3e303e83	0.17211346
131	0x3e1a1931	0.15048672
132	0x3da28650	0.07935774
133	0xbe03fb1e	-0.12888762
134	0x3e211517	0.15730701
135	0x3c013f2e	0.007888598
136	0xbe2e2a94	-0.1700843
137	0xbdd2486f	-0.10267722
138	0x3dcf003c	0.101074666
139	0x3d30667b	0.043066483
140	0x3d5f14af	0.054463085
141	0x3deabf2f	0.114622466
142	0xbe1b6d33	-0.15178375
143	0xbd88f640	-0.066875935
144	0xbe42eff8	-0.19036853
145	0xbd845203	-0.06460955
146	0xbcebe697	-0.028796477
147	0xbe3a8872	-0.18216112
148	0x3e15de6a	0.14635625
149	0x3d34c858	0.044136375
150	0xbe1e4f5c	-0.1545996
151	0x3d9ce3f4	0.07660666
152	0xbc009684	-0.007848386
153	0xbd92d6fd	-0.07169912
154	0xbd3f97a3	-0.04677547
155	0x3af86422	0.001895074
156	0xbd359f1c	-0.04434119
157	0x3d9b84cb	0.075936876
158	0xbb584efa	-0.0033006058
159	0x3de8528f	0.11343872
160	0xbe8469cb	-0.25861964
161	0xbe92fa79	-0.2870672
162	0x3db252c5	0.08707193
163	0xbe587d31	-0.21141507
164	0xbd95c4e4	-0.073129445
165	0xbe949594	-0.2902037
166	0xbc99bf4c	-0.018767975
167	0xbdba59fe	-0.09099196
168	0xbe272785	-0.16323669
169	0xbd56c235	-0.052431304
170	0x3e91de9e	0.28490156
171	0xbe159c3d	-0.14610381
172	0x3de5189b	0.11186334
173	0x3b9f8749	0.004868422
174	0xbba80d93	-0.0051285713
175	0xbe7ef662	-0.24898675
176	0x3eedd811	0.46453908
177	0xbc8c7d76	-0.017149668
178	0xbd9bd7af	-0.07609498
179	0x3d233a0b	0.039850276
180	0x3af11248	0.0018392289
181	0x3e6f08fc	0.23343271
182	0xbe4751b4	-0.19464761
183	0x3ddf32f1	0.10898388
184	0xbe44bb4e	-0.19212076
185	0x3c996f30	0.018729776
186	0xbd231b9c	-0.039821252
187	0xbcc15059	-0.023597883
188	0x3e0f7e22	0.1401296
189	0xbdd646cb	-0.104627214
190	0x3ee94161	0.45557693
191	0x3da5cd26	0.080957696
192	0xbd5721bf	-0.052522417
193	0xbe63e814	-0.222565
194	0x3d673f54	0.05645688
195	0xbe1ca846	-0.15298566
196	0xbe1b162d	-0.15145178
197	0xbe7bbc65	-0.24583586
198	0xbd8f7b01	-0.07005883
199	0xbe2dcddb	-0.16973059
200	0xbe951edf	-0.29125115
201	0x3c1ddbb4	0.009634901
202	0x3e64ec4a	0.22355762
203	0xbdb1ab6e	-0.08675276
204	0xbd965391	-0.07340158
205	0xbc97a213	-0.0185099
206	0x3d8c0d3f	0.06838464
207	0xbc6da28e	-0.014504088
208	0x3ec0dfb9	0.37670687
209	0x3e309be0	0.17246962
210	0xbe074db4	-0.13213235
211	0xbd1be313	-0.03805835
212	0x3e428c86	0.18998918
213	0x3d85ea2f	0.065388076
214	0xbe85c891	-0.26129583
215	0xbd067c83	-0.032833587
216	0xbdc744d3	-0.09729924
217	0xbc4c12bf	-0.012455641
218	0xbe5cc864	-0.21560818
219	0xbdafb7d6	-0.08579986
220	0x3e565857	0.20932136
221	0x3d14032d	0.03613584
222	0x3eda2693	0.42607555
223	0x3bcd30de	0.006261929
224	0x3df53856	0.11973636
225	0xbda90efb	-0.082548104
226	0x3e17ebb8	0.14836013
227	0x3d3a1297	0.045427885
228	0xbd5c37ab	-0.053764027
229	0x3d8f3082	0.06991674
230	0x3cf49712	0.029857192
231	0xbe3cf9cf	-0.1845467
232	0x3d9bd453	0.07608857
233	0x3dabe452	0.08393158
234	0x3e930752	0.28716522
235	0x3c80a954	0.015705742
236	0x3dc7779c	0.097396106
237	0xbe529ad6	-0.20566878
238	0xbdb8e98f	-0.09028923
239	0x3e1363f1	0.14393593
240	0x3ea293e5	0.3175346
241	0x3d940a3c	0.072285146
242	0xbd76ea3d	-0.06028198
243	0xbde4a74b	-0.11164721
244	0xbcebf023	-0.02880103
245	0x3dea2cfc	0.11434361
246	0x3e60977c	0.21932787
247	0x3e388fa9	0.18023552
248	0xbe131a73	-0.14365558
249	0xbb97d1a5	-0.004633146
250	0x3cba7c14	0.022764243
251	0xbdfeefbb	-0.12448069
252	0x3e2c0962	0.16800454
253	0x3d02112e	0.031754665
254	0x3e6d7fd2	0.23193291
255	0x3e4b1254	0.1983121

layer.2.bias f4 [64]
0	0x3d99a385	0.07501892
1	0xbd932bc7	-0.07186084
2	0xbde77d0b	-0.11303147
3	0xbdac29c3	-0.08406403
4	0xbe2f71e6	-0.17133293
5	0x3dfd7eb4	0.12377682
6	0x3e010036	0.12597737
7	0x3df12bbb	0.11775919
8	0x3daa9caa	0.083306625
9	0x3debc51c	0.11512205
10	0xbd76e415	-0.06027611
11	0x3c3e8093	0.011627334
12	0x3e177918	0.14792287
13	0x3e67c020	0.22631884
14	0x3d6e852d	0.058232475
15	0x3c286915	0.01027896
16	0x3e35e8d9	0.17764606
17	0x3ddfedaa	0.10934003
18	0x3db70d86	0.08938126
19	0xbd853eac	-0.06506094
20	0x3e552134	0.20813447
21	0x3db65f25	0.08904866
22	0x3e0f4f87	0.13995181
23	0x3ea65bd5	0.32491937
24	0x39b4fede	0.00034522166
25	0x3d7b1134	0.061295703
26	0xbd8f21c5	-0.06988863
27	0x3e55fd64	0.20897442
28	0x3e9acce8	0.30234456
29	0x3b830fa9	0.0039996696
30	0x3e1ec2c9	0.15503992
31	0x3e7c1159	0.24615993
32	0x3e09f929	0.13473953
33	0xbdd81b82	-0.10552122
34	0x3e832f1b	0.25621876
35	0x3c028247	0.007965631
36	0x3dad463d	0.084606625
37	0x3e9f9c3f	0.31173894
38	0x3e578bc9	0.21049418
39	0x3ea710d0	0.32630014
40	0x3e1a432b	0.15064685
41	0x3e2f5539	0.17122354
42	0x3d9990d3	0.07498326
43	0x3e66744e	0.22505304
44	0xbe472d10	-0.19450784
45	0xbd48e905	-0.04905035
46	0xbcac28b6	-0.021015506
47	0x3e8f33b8	0.27969146
48	0x3d80beea	0.06286414
49	0x3e87857c	0.26469028
50	0x3da2e606	0.0795403
51	0x3e59f4fb	0.21284859
52	0x3e7e4b55	0.24833424
53	0x3e2f41fc	0.17115015
54	0x3d717bdb	0.05895601
55	0x3dd68f75	0.10476581
56	0x3e8a7b56	0.27047223
57	0x3d2a4638	0.041570872
58	0x3e8be46a	0.27322704
59	0x3dde97ba	0.10868783
60	0x3d433881	0.04766131
61	0x3db0dd2f	0.086359374
62	0xbd61006a	-0.054932036
63	0x3d4f3837	0.05059072

layer.4.weight f4 [8, 64]
0	0x3edb0df9	0.42784098
1	0xbe0fd730	-0.14046931
2	0xbd98e2f7	-0.07465165
3	0x3e017454	0.12642032
4	0xbd16edea	-0.036847986
5	0x3ed836bb	0.42229256
6	0x3edad89c	0.42743385
7	0x3e51e46c	0.20497292
8	0xbeb5a33a	-0.35476094
9	0x3dc2c991	0.09511102
10	0x3e0d6c24	0.13810784
11	0x3e87e5ad	0.26542416
12	0x3d9d4bd1	0.076804765
13	0x3e65b376	0.2243174
14	0xbdd68139	-0.10473866
15	0x3ece9cb1	0.4035392
16	0xbd0dce54	-0.034620598
17	0xbdbbaba1	-0.09163595
18	0x3de25945	0.11052183
19	0xbe41d9b6	-0.18930706
20	0x3e17cc34	0.14823991
21	0x3d469388	0.04848054
22	0xbe21322a	-0.15741792
23	0xbda0bd4c	-0.078486055
24	0xbe612489	-0.21986593
25	0x3e554433	0.20826797
26	0xbdc9c513	-0.09852042
27	0x3dba11d4	0.09085432
28	0x3de8263c	0.11335418
29	0x3d3c4b00	0.045969963
30	0xbd4728d8	-0.048622936
31	0x3e833920	0.2562952
32	0x3e11d64a	0.14241901
33	0x3e79e79f	0.24404763
34	0x3e28fa89	0.16501822
35	0xbe2bd385	-0.16779907
36	0xbcea66fb	-0.028613558
37	0x3e3b33f8	0.18281543
38	0x3d40e541	0.047093634
39	0x3e5a2f62	0.21307138
40	0xbe56d42b	-0.20979373
41	0x3e332e2a	0.17498079
42	0xbe4b1969	-0.19833912
43	0x3c81f76b	0.015865048
44	0xbdd3b7e9	-0.103378125
45	0xbe71b851	-0.23605467
46	0x3d97de65	0.07415465
47	0xbe0d43d0	-0.137954
48	0xbdabf92a	-0.08397134
49	0x3cacf603	0.021113401
50	0xbdd75aa4	-0.10515335
51	0x3e5e595b	0.21713774
52	0x3d79efc2	0.061019666
53	0x3e223198	0.15839231
54	0x3f13ff4c	0.5781143
55	0x3e18aaf2	0.1490896
56	0x3d66d48f	0.056355055
57	0xbdcf19e7	-0.10112362
58	0xbe1083c5	-0.14112766
59	0xbdc2b7f5	-0.09507743
60	0x3d36e4ef	0.04465192
61	0x3eb278dd	0.34857836
62	0xbd931957	-0.071825676
63	0x3c42a112	0.0118792225
64	0xbe4579a9	-0.19284691
65	0xbd49f76d	-0.04930823
66	0x3cb0b6fa	0.021571625
67	0x3eb7a68a	0.35869247
68	0x3ce911ff	0.028450964
69	0xbe27ae66	-0.16375121
70	0xbd8e7a52	-0.069569245
71	0xbe83c6e6	-0.25737685
72	0x3f0c78ca	0.5487181
73	0x3d7550cc	0.059891507
74	0xbe339863	-0.175386
75	0x3da70d73	0.08156862
76	0x3e094d7f	0.13408469
77	0x3d1cc43f	0.038273092
78	0x3dbe74c6	0.092996165
79	0xbe2e67f0	-0.17031837
80	0x3e32d7be	0.17465112
81	0x3e69f02c	0.22845525
82	0x3e3321ac	0.17493314
83	0xbe063072	-0.13104418
84	0x3e084bed	0.13310213
85	0x3e54dbe0	0.20787
86	0x3e4ddf01	0.201046
87	0x3ddcc86a	0.107804134
88	0x3f507322	0.8142568
89	0xbe09ea09	-0.13468184
90	0x3d06729e	0.03282415
91	0xbe1e8a34	-0.15482408
92	0x3d60165e	0.05470883
93	0xbe295ba3	-0.16538863
94	0xbdf88cb6	-0.121362135
95	0x3e66496a	0.22488943
96	0xbe01e49b	-0.12684862
97	0x3e389d62	0.18028787
98	0x3d80d6ad	0.06290946
99	0xbe154cee	-0.14580128
100	0x3d6070e3	0.054795157
101	0x3e303251	0.17206694
102	0xbe40bb1b	-0.18821375
103	0x3d839521	0.064249285
104	0xbe160405	-0.14649971
105	0xbdac1056	-0.08401553
106	0x3eac4e5d	0.33653536
107	0x3e9fa9f1	0.31184343
108	0x3d89bb92	0.06725229
109	0x3e041d9a	0.12901917
110	0x3de67d54	0.11254373
111	0x3e1f5218	0.1555866
112	0xbe7d28b3	-0.24722557
113	0xbe7eb6b8	-0.24874389
114	0xbe0d9fe1	-0.1383052
115	0xbdfb1c00	-0.122612
116	0x3d122e49	0.035688672
117	0xbe7f2777	-0.24917398
118	0xbd7dd8c6	-0.06197431
119	0xbd89376f	-0.06700026
120	0x3e36d4d1	0.1785462
121	0x3f07db9f	0.5306949
122	0x3c9a1b38	0.018811807
123	0xbea8716c	-0.32899034
124	0x3e5e7e42	0.21727851
125	0xbde35966	-0.11101036
126	0xbda7bc84	-0.081902534
127	0x3e074f48	0.13213837
128	0xbdd5c368	-0.104376614
129	0x3ea98982	0.33112723
130	0xbd3aa51d	-0.04556762
131	0xbe69d301	-0.22834398
132	0xbd85c352	-0.06531395
133	0xbe2ed50e	-0.17073461
134	0x3da492bf	0.08035802
135	0x3dcb2920	0.09919953
136	0xbeb170b9	-0.34656313
137	0xbe415edb	-0.1888384
138	0x3dbd7730	0.09251249
139	0x3e950933	0.2910858
140	0x3cff94ea	0.031198937
141	0xbddb11ec	-0.10696778
142	0x3da68164	0.08130148
143	0x3d69b312	0.05705554
144	0x3b56a9d4	0.0032755034
145	0x3e2dbb92	0.16966084
146	0x3e4bdeb2	0.1990917
147	0x3ef5d5e7	0.48014757
148	0xbde442b8	-0.11145538
149	0x3cbca88a	0.023029584
150	0x3dec1f5a	0.11529417
151	0x3dc4c9b7	0.096087866
152	0xbd3d572a	-0.046225704
153	0x3c0d660e	0.008630289
154	0x3cd661fb	0.026169768
155	0x3e8f42f0	0.27980757
156	0x3b9b7c11	0.0047450145
157	0xbdf0e96e	-0.11763273
158	0xbe9141ce	-0.28370517
159	0x3d852d98	0.06502837
160	0x3d4ff76c	0.05077307
161	0xbe3455fb	-0.17610924
162	0x3c02479c	0.007951643
163	0xbe3c8e5f	-0.18413685
164	0xbe226e8a	-0.1586248
165	0x3dde158a	0.10843952
166	0x3bea9f80	0.007160127
167	0x3dfcb75a	0.12339659
168	0xbe29718c	-0.16547221
169	0x3e875a39	0.26436022
170	0xbe4b7141	-0.19867422
171	0x3e4e34f1	0.20137383
172	0x3d35627b	0.04428337
173	0xbc091219	-0.008366131
174	0xbd36934b	-0.044574063
175	0x3dd4fe7b	0.10400101
176	0x3e74d34f	0.23908733
177	0x3e4d4425	0.20045526
178	0x3f1d24e5	0.6138442
179	0x3d98c3b7	0.07459205
180	0xbe24b646	-0.16085157
181	0x3f0dd6fa	0.55406153
182	0x3d5c29dc	0.053750858
183	0xbd9c8cac	-0.076440185
184	0x3de813fe	0.11331938
185	0xbe1e7f3b	-0.15478222
186	0x3e5c4091	0.21509005
187	0xbcce2075	-0.025161961
188	0x3e910f57	0.28332016
189	0xbe137367	-0.14399491
190	0x3e05d66f	0.13070081
191	0xbe9ebfe8	-0.31005788
192	0xbcdb6dc5	-0.02678574
193	0xbe38afa8	-0.18035758
194	0xbd23aa3a	-0.039957263
195	0x3e00da65	0.12583311
196	0xbd97f301	-0.07419396
197	0xbe06afbb	-0.13152973
198	0xbe2977ca	-0.16549602
199	0xbc2a665d	-0.010400382
200	0xbe10426b	-0.14087836
201	0xbd8339c6	-0.06407504
202	0x3e8a7bd1	0.2704759
203	0x3e327db0	0.17430758
204	0xbe2621ce	-0.16223833
205	0x3d86b66a	0.065777615
206	0x3e148041	0.1450205
207	0xbd679458	-0.056537956
208	0x3e54eef0	0.20794272
209	0xbdf97669	-0.12180788
210	0xbda3f83b	-0.080063306
211	0xbe84597b	-0.25849518
212	0xbd5ae83c	-0.053444132
213	0x3e55f936	0.20895848
214	0x3c64cc98	0.013964795
215	0x3e5843c5	0.21119602
216	0x3ee11bee	0.4396662
217	0x3e301b62	0.17197946
218	0xbd84721b	-0.064670764
219	0x3e478697	0.19484936
220	0x3dce6e03	0.10079577
221	0x3db0ec59	0.0863883
222	0x3eb73324	0.35781205
223	0x3df6f93a	0.12059255
224	0xbda92f41	-0.08260966
225	0xbe5d55ae	-0.21614715
226	0x3e157ea2	0.14599088
227	0x3f1ac652	0.6045886
228	0x3dd277b6	0.10276739
229	0x3c270433	0.010193872
230	0x3a993614	0.001168909
231	0x3e0c7379	0.13715924
232	0x3e848d1b	0.25888905
233	0xbdf7aefd	-0.12093923
234	0xbc9e7db5	-0.019347051
235	0x3dfc6c87	0.123253874
236	0xbdf0f61d	-0.117656924
237	0x3e3a2632	0.18178633
238	0xbbee533f	-0.0072731073
239	0x3e0abd6f	0.13548826
240	0x3db99191	0.09060968
241	0x3e8dd89d	0.27704325
242	0xbec0c494	-0.37649977
243	0x3def05c1	0.11671019
244	0x3e15d621	0.14632465
245	0xbe19dddd	-0.1502604
246	0xbdc3c7f4	-0.095596224
247	0x3e904f36	0.28185433
248	0xbe556744	-0.20840174
249	0xbe83ff20	-0.25780582
250	0x3e086474	0.1331957
251	0x3ed23860	0.41058636
252	0xbe4cd827	-0.2000433
253	0xbdb798fb	-0.089647256
254	0x3d52e0f4	0.051484063
255	0x3df52e7a	0.11971755

layer.4.bias f4 [8]
0	0x3cafcb01	0.021459104
1	0x3dd5abfd	0.10433195
2	0x3e87c9f8	0.26521277
3	0x3c48064b	0.012208532
4	0xbdb4b373	-0.0882329
5	0xbd51e228	-0.05124107
6	0xbdb6992b	-0.08915933
7	0xbdac43ce	-0.0841137
