final/save/0.9_0.99_500/save0_4500.pth (torch_old, 15355 bytes, 6 tensors)

layer.0.weight f4 [32, 28]
000000 c5 ab 92 be 97 82 47 be f1 d8 b1 be 82 6a 4c 3e
       -0.28646675 -0.1948341 -0.34735826 0.19962505
000010 f6 47 b1 3e fa 98 c9 bd ca 1e b5 bd 21 a7 9d bd
       0.34625214 -0.09843631 -0.08843763 -0.07697893
000020 df bd 0e 3e 52 1a bb 3c 10 42 59 3e 3b d6 27 be
       0.13939618 0.022839699 0.21216607 -0.16390316
000030 5d 70 93 bd 52 e9 15 bd ac 98 ec bd 80 ae f0 bd
       -0.07199166 -0.036599465 -0.11552557 -0.11752033
000040 bb af 35 3c 26 29 e1 3d c3 06 de 3d d4 49 b0 bd
       0.011089261 0.109941766 0.108411334 -0.086078316
000050 a0 e5 20 be b4 8b 0e bd 52 77 11 3d 2a e4 bf 3d
       -0.15712595 -0.0348012 0.035514183 0.09369691
000060 82 b1 29 3d 84 a6 60 bd 1d 76 11 3e 12 60 9f bc
       0.04142905 -0.0548463 0.14205213 -0.01945499
000070 be d0 58 3c d0 a8 3b 3e 23 db 19 3d ed b7 5c 3e
       0.013233362 0.18326116 0.0375625 0.21554537
000080 d0 80 d6 3e e8 a2 2a 3e f1 bc 35 bc f8 e5 76 3d
       0.4189515 0.16663706 -0.01109241 0.06027791
000090 63 e1 22 3e f1 8f 4e 3e 68 f1 f7 bc 56 d4 d4 bc
       0.1590629 0.20172097 -0.030266479 -0.025980156
0000a0 59 8b ae 3d 8a f2 3b bc 43 c5 40 be 43 28 ff 3d
       0.08522672 -0.0114714 -0.1882525 0.12458851
0000b0 e7 1d 2b 3e b2 ba c8 bd 60 ef e5 3d 8a a0 05 be
       0.16710626 -0.09801234 0.11227298 -0.13049522
0000c0 c6 35 2f 3e b6 ca 29 be 82 76 3e 3e 90 fb a4 3d
       0.17110357 -0.16581234 0.18599895 0.08055794
0000d0 d6 34 2d 3e 41 71 6f 3c 9b 1f 99 3c 9a fc ab bd
       0.16914687 0.014614404 0.018691828 -0.08397789
0000e0 da 86 16 bd 64 96 68 3e 34 8e f9 3d d8 3a c4 3d
       -0.0367497 0.2271362 0.12185326 0.09581536
0000f0 78 90 7c bd a2 0e 33 3e 90 18 15 3d 69 6c 53 3d
       -0.061661214 0.1748605 0.036400378 0.05161706
000100 d4 46 58 bd 20 b1 3c 3e 0b 4a 13 be c6 c0 4b 3d
       -0.052801922 0.18426943 -0.14383714 0.04974439
000110 8d 5a 6b 3d 32 b9 83 3e 65 35 90 3e 57 a4 ca 3d
       0.057459403 0.2572723 0.28165737 0.098946266
000120 75 89 8c 3e b5 a1 fc 3d 84 a8 7e be 09 99 37 bd
       0.2744862 0.12335531 -0.24868971 -0.04482368
000130 19 c9 f5 3d 4d c1 00 be 66 20 16 be c2 c2 00 be
       0.12001247 -0.12573738 -0.14660797 -0.12574294
000140 3e e3 6d bd 0c 62 a8 bd 38 06 f9 bc e5 5a 7b be
       -0.058078043 -0.08221826 -0.030398473 -0.24546392
000150 6e b7 13 be 4d d3 66 be cc 8f 17 3e 34 37 32 be
       -0.14425442 -0.22541542 0.14800948 -0.17403871
000160 e3 50 61 bd b8 4b fe bc d3 4d d0 3d 35 05 ef 3d
       -0.05500878 -0.031041965 0.10171094 0.11670915
000170 00 6a d7 3d bd f1 42 be 8a 7e 8a bc 2a fa 26 be
       0.10518265 -0.19037528 -0.016906042 -0.16306368
000180 83 d5 2d 3e b4 59 72 3e aa 69 8e 3d 03 bf f8 3b
       0.1697598 0.23667032 0.069537476 0.0075911297
000190 f3 20 f5 3d 7f 37 83 3e be a4 60 3d 8c 78 03 3e
       0.11969175 0.25628278 0.05484461 0.12838954
0001a0 a5 82 0a 3d dd 4e 83 3d 33 41 4c 3e ba 94 49 3e
       0.033816 0.06411526 0.19946747 0.19685641
0001b0 2f a8 e9 bd c9 89 ee 3d b9 02 24 bd b4 ae 9a 3d
       -0.114090316 0.11647374 -0.04004166 0.07552853
0001c0 b6 3e f9 3c 50 4b 53 be 27 fe da 3d 6c 57 34 bd
       0.03042541 -0.20634198 0.10693007 -0.044028684
0001d0 6d 48 88 be 65 8d 44 3d ae 6f ee 3d a9 ac 80 3b
       -0.26617756 0.047986407 0.11642395 0.0039268327
0001e0 0e 15 88 3d 6b 11 2e be 06 db 63 3d bc 0d f5 bd
       0.06644641 -0.16998832 0.0556288 -0.1196551
0001f0 4a 5e 63 3e 77 9a 87 3c b3 29 57 3e 4a f3 25 3e
       0.22203937 0.016553147 0.21012 0.16206089
000200 ac c3 7e 3e 99 3d dd 3c 3c 68 60 3d 8e ea e8 3d
       0.2487933 0.027006911 0.054786906 0.11372863
000210 ab 66 27 3e 60 d3 00 3e d4 45 9b 3c 17 5f f3 3d
       0.16347758 0.12580633 0.018954195 0.11883371
000220 3a 78 1c 3e 4e fa 82 bd 45 64 f8 3d 17 34 1e 3d
       0.15280238 -0.06395398 0.121285 0.038623895
000230 3b b4 78 bd d8 6a 3f 3e 9d 44 64 be 96 f5 57 3e
       -0.060718756 0.18693101 -0.22291799 0.21089777
000240 48 a0 0c 3d 8c 15 06 3e c7 a8 74 3d cf ea 33 3d
       0.034332544 0.13094157 0.05973127 0.043925103
000250 db 54 16 be fd a4 cf bc 04 5c 01 3d e2 5e 3e 3d
       -0.14680807 -0.025347227 0.031581894 0.046477206
000260 d6 99 de be 80 30 e6 be 48 46 c9 be f7 40 83 3e
       -0.43476743 -0.44958878 -0.39311433 0.25635502
000270 b4 cb 5c 3d 8e b8 9c bd b2 8c 18 be 32 d8 23 3e
       0.053905204 -0.076523885 -0.14897421 0.1600044
000280 9a 25 82 3d b5 3e a5 bd fb 46 b7 bc 9c 12 20 3e
       0.06354828 -0.08068601 -0.022372713 0.15632099
000290 10 63 a2 ba ad e4 8e bd 11 c4 07 3e 04 f1 b6 3d
       -0.0012389142 -0.0697721 0.13258387 0.08932689
0002a0 be df a9 3e 1c 11 ec 3e b0 17 18 3e 8a 09 1f be
       0.33178514 0.46106803 0.14852786 -0.15530983
0002b0 45 39 8b bd 71 65 20 3e b9 8b 05 3e 56 de c3 bd
       -0.06798033 0.15663697 0.13041581 -0.095638916
0002c0 c0 b2 e3 3d 32 33 b4 3d 78 8c 2c 3d 96 2f 1e 3e
       0.11118078 0.08798827 0.04212615 0.1544784
0002d0 b1 9f 3a 3d 4e f1 97 3d a5 68 94 3e 60 f4 e5 3d
       0.04556245 0.07419072 0.28986087 0.112282515
0002e0 1d 88 f4 3c 97 ab 81 3e db 34 d4 3b 22 fe 2b 3d
       0.02985006 0.25326225 0.0064760274 0.041990407
0002f0 47 70 1e bd 95 eb 10 bd d3 b7 f3 3d eb ca b5 bc
       -0.038681295 -0.03538092 0.11900296 -0.022191485
000300 15 da 2f 3d 44 f6 05 3e 78 8b f9 3d 3e 50 a9 bb
       0.04293259 0.13082224 0.12184805 -0.0051670363
000310 77 01 48 be e2 54 56 bd 3b 5e 31 be 43 43 20 3e
       -0.19531809 -0.052327044 -0.17321102 0.15650658
000320 30 9e 87 3d 2d be 31 be a7 91 11 3e f7 cc e8 3d
       0.06621969 -0.17357703 0.14215718 0.11367219
000330 bc 58 16 3d 22 a5 01 be 0a 49 b3 bc a6 aa aa 3d
       0.036705717 -0.1266065 -0.021885414 0.0833333
000340 ad 00 98 bd 5f 41 0f 3e 16 ed ff ba c8 a1 f2 bd
       -0.07422004 0.13989781 -0.0019525613 -0.118472636
000350 4a b4 61 be 60 ea 7d bc d5 34 16 3e 20 0b 14 3d
       -0.22041431 -0.015497774 0.14668591 0.036143422
000360 1b a7 d7 bc 4f 8e 3c 3e 4d 66 d5 3c 3f 10 57 3d
       -0.0263248 0.18413661 0.026049757 0.052505728
000370 11 06 02 3e f1 49 cc 3d 7a 6f 59 bd 81 5d 42 3e
       0.12697627 0.09975041 -0.053084828 0.18980981
000380 02 0d 80 be 7c 06 0d be 26 3d 34 be d2 22 10 3e
       -0.25009924 -0.13772005 -0.17601451 0.14075783
000390 78 02 2f 3d a6 60 83 bd 7a bc ae 3d 88 3f f6 bb
       0.042726964 -0.064149186 0.08532043 -0.0075148977
0003a0 f5 d5 d4 bc ff d9 c3 3d c2 82 f1 3d 2b 9a 45 be
       -0.025980929 0.09563064 0.11792518 -0.19297092
0003b0 7a 7b cd 3c a3 cc 7d bc 06 ef 86 3e 04 84 32 bd
       0.025083292 -0.015490684 0.26354235 -0.04358293
0003c0 27 eb 2f 3c 7c 41 4c 3e 96 af 07 3e af 99 6f 3e
       0.010737217 0.19946855 0.13250574 0.2339847
0003d0 51 c4 18 3e a5 20 0c 3e 1b 3e 7c 3e da c7 f0 bd
       0.14918639 0.13684328 0.24633066 -0.11756869
0003e0 2c 12 8b bd e3 01 e3 3d 50 f5 ca bc 34 fe 36 3e
       -0.067905754 0.11084344 -0.024775177 0.17870408
0003f0 6b 15 d5 be 14 12 05 bf 36 31 ac be 69 2d 29 3e
       -0.41617903 -0.5198071 -0.33631295 0.16521229

layer.0.bias f4 [32]
000000 45 c7 49 3e f7 2f 0b 3e 01 bb 02 bd e0 06 18 3e
       0.19704922 0.13592516 -0.031916622 0.14846373
000010 cc c1 ac bd 1c 86 56 3e f9 ca a2 3d ba cc 38 3e
       -0.08435401 0.20949596 0.0794887 0.18046847
000020 f2 49 ad 3e b4 66 fe 3c e0 c1 e1 bc 99 69 71 be
       0.33845478 0.031054832 -0.027558267 -0.23575439
000030 7c c8 93 3e a9 7d a0 be 45 b0 8f 3d e2 40 f5 3d
       0.28863895 -0.3134587 0.070160426 0.11975266
000040 73 de ee 3d 28 c5 91 3e 58 7a 5e 3e 85 1a 5d bd
       0.116635226 0.2847073 0.21726358 -0.05398037
000050 30 8c 20 3c fa 9d fd bd fe c2 06 3e 06 92 93 3d
       0.009799048 -0.12383647 0.13160321 0.07205586
000060 de 5d ce bc 47 2f 85 3e 71 c1 7e bd bb 22 a3 bc
       -0.025191244 0.26012632 -0.0621962 -0.019914022
000070 87 35 a2 3c ac d6 54 3e fb c8 a5 3e 53 7d 1e 3e
       0.019800914 0.20785016 0.32379898 0.15477495

layer.2.weight f4 [64, 32]
000000 49 ae b2 3d 9a 52 48 3e af 76 c1 be a9 1c bb bd
       0.087246485 0.1956276 -0.3778586 -0.09136326
000010 2f 7a ab 3d 1d b4 71 3e 40 ca 2e be 2e e3 9d bd
       0.08372914 0.23603864 -0.1706934 -0.07709347
000020 57 71 d7 3d fb 73 f6 3d 48 2e ea 3c 14 99 f4 be
       0.10519665 0.1203384 0.028586522 -0.4777304
000030 80 67 31 3e 11 59 11 bf fb 3f 58 3e d8 b4 47 3e
       0.17324638 -0.5677653 0.21118157 0.1950258
000040 82 84 de 3d 98 4f 97 3d 42 18 30 be 9a e1 66 3d
       0.108651176 0.07388228 -0.17196754 0.056367494
000050 97 77 60 be 3e ce 23 bd 18 83 76 be 1f d8 b9 bd
       -0.2192062 -0.03999161 -0.24073446 -0.09074425
000060 42 b5 08 3e fc c2 65 bd 28 9e a8 3d 6e 79 b0 bc
       0.13350394 -0.056094155 0.08233291 -0.021542277
000070 9a fd 8a 3e 07 44 7a 3e 3c cc 5f 3e 30 93 07 3e
       0.27146608 0.24440013 0.21855253 0.13239741
000080 29 e4 ac 3d b8 00 77 3d 02 c6 31 be d0 08 cb bd
       0.084419556 0.06030342 -0.1736069 -0.0991379
000090 61 eb 13 3e 3b 2c 74 3d 7e a1 47 bd 7b ef 3c 3e
       0.14445259 0.059612494 -0.048737995 0.1845073
0000a0 b1 93 11 bc a7 49 ea 3e 59 4b d1 3b d0 f6 7b be
       -0.00888531 0.45759317 0.006387156 -0.2460587
0000b0 a0 29 15 3e 29 18 0b bf 14 53 40 3e e7 1d ca 3e
       0.1456666 -0.5433374 0.18781692 0.3947594
0000c0 ca 31 79 3d 04 73 46 bc 58 37 80 3c 8a 67 35 bd
       0.0608385 -0.012112383 0.01565139 -0.044288196
0000d0 6e 9e f9 bd c0 32 99 bd 74 cc 8c 3c 00 d9 9a 3c
       -0.12188421 -0.07480383 0.017187335 0.018902302
0000e0 7d 74 22 3e b5 5a 78 3d 6e 2b f9 bd cb 10 d7 3d
       0.15864749 0.06063338 -0.12166487 0.1050125
0000f0 1a b8 39 3e 77 f2 10 3e 4e 53 c8 3c a4 12 95 be
       0.18136635 0.14154993 0.024453785 -0.29115784
000100 8b c0 50 be 7d 9f fb bb c0 94 91 3c 84 4a 6c be
       -0.2038595 -0.0076789246 0.017771125 -0.230753
000110 fe ef 80 3d bd 63 5d be b3 5d 8c 3d e2 8e 56 bb
       0.06295775 -0.21620078 0.06853809 -0.0032738973
000120 6b 00 eb bd aa fd b2 be 03 bb 1f 3e e9 d9 3a bf
       -0.11474689 -0.34959155 0.15598683 -0.72988755
000130 4a 9a 89 bd 60 92 85 3e b1 e7 c3 bc b4 17 5f be
       -0.067188814 0.26088238 -0.02391419 -0.21786386
000140 b9 dc 65 be b1 03 33 3e 00 f0 34 bd c0 19 05 bd
       -0.2244748 0.17481877 -0.044174194 -0.03249526
000150 fe 25 2b be b4 61 94 bd 8e 5f 80 3e c1 43 20 3e
       -0.16713712 -0.07245198 0.25072902 0.15650846
000160 7d 93 d4 be eb b1 e1 bd 72 77 3c 3e f2 3a 3b bf
       -0.41518775 -0.11020263 0.1840494 -0.7313682
000170 5f 22 1b bf 4d 91 ac 3e 5e bc fe 3c 45 15 6d 3e
       -0.6059932 0.33704606 0.03109568 0.23152645
000180 2b 5c ab bd 77 04 3f 3d a8 a8 68 be 17 0d 7e bc
       -0.08367189 0.046635117 -0.22720587 -0.015506051
000190 a5 1f 33 bd 5b 65 64 3e b1 e4 4f 3e 1d 26 b6 ba
       -0.04373135 0.22304289 0.20302083 -0.0013896857
0001a0 f6 34 fd bd d2 66 59 be 16 60 8b bc d8 4e 22 3c
       -0.12363617 -0.21230629 -0.01701359 0.009906493
0001b0 c4 81 ec 3d ea 86 77 bf e3 8b 1a 3e 8d dc 60 be
       0.11548188 -0.9669024 0.15092425 -0.21959133
0001c0 24 3b 7b bd 5b 0d 58 3e 76 eb 78 3d 93 bc 21 3e
       -0.061335698 0.21098845 0.060771428 0.15794592
0001d0 c1 18 a3 3b de 23 6e 3d 91 b2 62 be fa 3d 8a 3a
       0.004977316 0.058139674 -0.2213843 0.0010547035
0001e0 5a 84 5b 3e 8e ee 20 3d 82 d2 e7 3c 42 44 bd bd
       0.21437207 0.039290003 0.02829862 -0.09241535
0001f0 80 a6 b4 3e ee e0 01 bc 45 24 fb 3d 52 88 2a bf
       0.3528328 -0.007927163 0.12262777 -0.6661426
000200 07 1e ac bd 06 6f 24 bd 83 09 40 3e 5f ee 86 bd
       -0.08404165 -0.040144943 0.18753628 -0.065884344
000210 03 86 0a bd d3 d4 91 be 5b 8a ec 3d 91 db 7a be
       -0.03381921 -0.28482684 0.11549827 -0.2449782
000220 25 26 93 bc d5 31 61 be e2 f8 12 3c 2c e0 7c bf
       -0.017962525 -0.21991666 0.008970471 -0.9877956
000230 79 61 a3 bd 9f 12 8e 3e 70 d0 b4 bd 8c 36 9c be
       -0.07977576 0.27748582 -0.08828819 -0.30510366
000240 8a 68 d0 be d3 1d 96 3e c9 55 03 3e 5a a4 0a 3d
       -0.40704757 0.2931963 0.12825693 0.033848144
000250 4b d5 6b be 57 f3 46 3e e5 03 5b 3e 21 d0 36 3e
       -0.23030584 0.19428764 0.21388204 0.17852832
000260 44 75 b3 be e3 1b e6 bd 91 96 03 3e 3a ec 5f bf
       -0.35050404 -0.11235788 0.12850405 -0.8746983
000270 4f d7 49 bf f8 f7 95 3e 77 83 ff bd a8 e4 8a 3e
       -0.7884416 0.29290748 -0.12476247 0.27127576
000280 c3 9d d6 bc 06 bc bb bd 82 e5 84 be 8e bb 3e be
       -0.026198274 -0.09166722 -0.2595635 -0.18626234
000290 ed df 0c bd 19 77 42 3e 58 92 10 3e 98 06 00 3e
       -0.03439324 0.18990745 0.14118326 0.12502515
0002a0 17 26 9e 3d 82 84 19 bf ce 02 ec bd 52 75 c7 be
       0.07722109 -0.59967816 -0.115239725 -0.38956696
0002b0 d1 59 8a 3e b4 86 9b bf 02 36 86 3d 10 cd d6 bc
       0.2702165 -1.2150483 0.0655327 -0.026220828
0002c0 6a e3 0e 3c 86 86 63 3e d3 3a 2a be ae 62 8f 3d
       0.008721212 0.22219285 -0.16624002 0.070012435
0002d0 db cd 29 be db 4c 64 3e 51 55 9f 3d a0 60 25 3e
       -0.16582434 0.22294943 0.07779945 0.16150141
0002e0 09 13 1b 3e 1b 77 59 3e 52 9a 63 3e a2 96 bb be
       0.1514398 0.21236841 0.22226837 -0.3663836
0002f0 15 11 ad 3e 4d f1 37 bd e1 2b 1b 3e a2 ed 39 bf
       0.33802095 -0.044907857 0.15153457 -0.72628224
000300 05 87 a9 be b8 97 d3 bd 29 da 7d 3d 09 db 20 3e
       -0.33110824 -0.103316724 0.061975632 0.15708555
000310 9b f6 91 3b 7d f6 45 be 8b c2 d0 bc 49 91 5b be
       0.0044544465 -0.19332309 -0.02548339 -0.2144214
000320 ba b7 9e 3d f2 8a 11 bf a3 55 d5 3d a8 36 1b 3e
       0.07749887 -0.5685264 0.104167245 0.15157568
000330 9c 84 40 3e cc e4 ae 3e 5d f6 24 3c 3a fd d4 be
       0.18800586 0.34158933 0.010068503 -0.41599447
000340 05 de 1d be c8 59 16 3e 73 81 e8 3d dc fb f7 bd
       -0.15416725 0.14682686 0.113528155 -0.12108585
000350 00 00 66 bd 27 3d 4c bd 27 0a 85 3e 55 c4 44 3d
       -0.056152344 -0.049863007 0.25984308 0.0480388
000360 14 9a ce be f3 d6 15 bd e3 73 0c 3e 2e ae 0a 3e
       -0.40351927 -0.036581945 0.13716082 0.13543007
000370 ae 0a bf be 53 57 7b 3e f0 84 86 bd bf dc 71 bd
       -0.37312835 0.2454503 -0.065683246 -0.05904841
000380 c9 11 a2 3e 0d f0 fb 3c ab 87 4e bd c0 40 19 bc
       0.31654194 0.030754114 -0.05042235 -0.0093538165
000390 6e e8 59 3d 37 fe fa 3d a9 a1 2d be 27 93 c8 3c
       0.053200178 0.12255519 -0.169562 0.02448423
0003a0 2d 89 0a bb c7 bb 90 3e 22 1a 7a 3d 64 50 df be
       -0.0021138892 0.28268263 0.06106008 -0.4361602
0003b0 25 62 3a bd 71 81 28 bf c2 63 0b bc e6 85 67 3e
       -0.045503754 -0.6582251 -0.008507671 0.22609672
0003c0 70 8a c3 3d 52 10 f3 3d b6 02 8d ba 60 e6 40 3e
       0.09547889 0.11868347 -0.0010758254 0.18837881
0003d0 e4 d6 1e bc 15 27 52 bd 20 ab 70 be ea 95 f1 bd
       -0.009694789 -0.051306803 -0.23502779 -0.11796172
0003e0 18 f2 c7 3d 9e 8f 16 3e 67 33 31 3e 6f df ec bd
       0.097629726 0.14703223 0.17304765 -0.11566054
0003f0 f2 66 aa 3e f3 e8 85 3e 29 ee 4c 3e d4 b4 c7 3c
       0.33281666 0.2615429 0.20012726 0.024378218

layer.2.bias f4 [64]
000000 33 2d 8f 3e 27 4d 61 3e a5 5b bf 3a ba e4 79 3e
       0.27964172 0.22002088 0.0014599456 0.24403659
000010 dd da 24 3b 51 0b 48 3e bd 5d 3e 3e 0c 51 aa 3e
       0.0025154867 0.19535567 0.18590446 0.3326496
000020 86 f7 b5 3d 70 dd 60 3e 0f 6d ba be 58 1b 8f bd
       0.08885102 0.21959472 -0.3641133 -0.06987637
000030 5f 01 e8 3c e2 dc ee 3c 58 b5 1f 3e 1f ae 87 3d
       0.028320966 0.02915806 0.15596521 0.06625008
000040 1f 86 82 3e 47 d4 4b 3e 6b 8e e6 3e cb 9a 84 3e
       0.2549295 0.19905196 0.4503053 0.25899348
000050 1d 4a 80 3d 17 48 7e bc f1 3f 83 3e 4e 49 37 3e
       0.06264136 -0.015520117 0.2563472 0.17899057
000060 8b 5a 1e be 14 22 87 3d 06 b9 36 3e c5 c7 72 3c
       -0.15464227 0.06598297 0.17844018 0.014818137
000070 8c c7 df 3d df bc e6 3d 19 0a 05 3e 17 c6 bd 3d
       0.109267324 0.11266493 0.12992133 0.09266298
000080 35 df cc 3e b0 80 40 3e 23 ba 8b 3c 51 31 19 3e
       0.40014043 0.1879909 0.01705653 0.14960219
000090 b3 cf a0 3c 39 63 4e 3e 2a a0 8b 3e f7 64 32 3e
       0.019630289 0.20155038 0.27270633 0.17421328
0000a0 ac bf fc bc 3b 75 6c 3d 7d 7a a1 3e dc f9 36 3d
       -0.030853115 0.057728987 0.31538764 0.04467188
0000b0 a1 0a 3c 3e 82 6f 9f 3e 54 44 29 3d 37 33 8b 3d
       0.1836343 0.3113976 0.04132493 0.06796878
0000c0 30 ef 92 3d 99 61 3a 3e 1c 8f 3f 3d 3d 20 25 3e
       0.07174528 0.18201293 0.04676734 0.16125579
0000d0 e4 8a 19 3e 07 56 e0 3c 39 23 64 3d f9 c5 d2 3d
       0.14994389 0.027384771 0.055697653 0.102916665
0000e0 f7 9f 00 be fd c2 89 3d 68 fd 88 3e 3a 92 a2 3e
       -0.12561022 0.06726644 0.26755834 0.31752187
0000f0 0c 96 6b be 63 9f 44 be 18 a8 ba bd cb 22 76 3e
       -0.23006457 -0.19201426 -0.091140926 0.2403671

layer.4.weight f4 [8, 64]
000000 32 d3 a7 3e 6a 48 8c 3e da d0 fc 3c d2 63 e8 3e
       0.32778317 0.27398998 0.030861307 0.45388657
000010 d5 17 a6 be 16 73 2a 3f 32 cf 07 bd bb 1e a1 3e
       -0.32440057 0.6658186 -0.03315658 0.31468758
000020 34 e3 33 bf 81 a4 91 3c eb 86 02 be f5 7f 22 3c
       -0.7026856 0.017778637 -0.1274678 0.009918203
000030 35 29 f9 3b 85 f4 19 be c6 c8 15 3f 1f 05 2e 3f
       0.007603789 -0.15034683 0.5850948 0.67976564
000040 03 4a 45 3f d4 bb bd 3e ef 2d 17 3e fb d0 32 3e
       0.7706606 0.37057364 0.14763616 0.17462532
000050 2b c9 34 bc cd 27 2b 3f ba 56 16 3d 5a 69 03 3e
       -0.01103429 0.66857606 0.036703803 0.12833157
000060 c2 1e dc be c4 a6 ae be b3 96 03 3f e4 ef a6 be
       -0.42992216 -0.34111607 0.51401824 -0.32604897
000070 4a 74 77 3d 13 4d ba be ec 65 28 bf e8 e6 fc be
       0.060413636 -0.36386928 -0.6578052 -0.49394917
000080 55 5b ab bd c7 da 0d 3e 4f 02 79 3e 97 e4 2e 3e
       -0.083670296 0.13852988 0.24317287 0.17079388
000090 3e c3 38 be 73 58 78 3e b6 bf 68 be 0e 7f d8 3d
       -0.18043229 0.2425249 -0.22729382 0.10571109
0000a0 53 04 43 3f 4a df c8 be 5a b5 e5 3d e9 f0 23 3e
       0.76178473 -0.39232856 0.11216231 0.16009869
0000b0 ce 89 bb be ab d4 12 bd 25 0d 5d bd 6a 23 dd 3d
       -0.36628574 -0.035847347 -0.053967614 0.1079777
0000c0 38 a2 2c 3e d6 a9 7f bd 04 99 b4 be c2 f4 98 3d
       0.16858757 -0.062417828 -0.35272992 0.07468559
0000d0 da f7 2e bd 24 02 dc 3e dd bc c3 bd 62 c3 35 3e
       -0.04271684 0.42970383 -0.09557507 0.17750314
0000e0 68 9a af 3d 2e 1c 59 be 81 f2 85 3d cd 5b 9d 3d
       0.085743725 -0.21202156 0.065403946 0.07683525
0000f0 0d 76 46 be b9 ec 0e be e6 c6 94 bd f4 bb 3a 3d
       -0.1938097 -0.1395749 -0.07264499 0.045589402
000100 ad 69 66 bd de 02 54 3d b7 79 ae 3c 7b fe 3e 3c
       -0.056253124 0.051760547 0.021298273 0.011657353
000110 d6 52 8f bd 2c 28 09 bd d8 99 bf 3d ae 3f 07 3d
       -0.069982216 -0.033485577 0.09355515 0.033019714
000120 1a 47 3a 3d b9 03 96 3c 91 26 3b 3b 7e cc 9a 3c
       0.045477964 0.018312322 0.0028556923 0.018896338
000130 e2 92 1f 3d df 12 fb bc eb 30 f4 bc 5a ef 04 3d
       0.038958438 -0.030648647 -0.029808482 0.032454826
000140 3a 77 9e 3d 95 fd 1b 3d c8 4f fd 3c 5f b5 10 3c
       0.077375844 0.03808363 0.030921832 0.008832305
000150 9d 3d 3f 3d 33 2c 92 bd 1b f9 e0 bc 9f 53 8c 3c
       0.04668962 -0.071373366 -0.027462533 0.017129717
000160 0b a6 a0 3c bb c9 dc b9 58 a5 b0 bd e6 57 89 3d
       0.019610425 -0.0004211197 -0.08625287 0.067062184
000170 4d 17 5a 3d 2a d8 6b bd 12 48 24 bd 9d 24 7c bd
       0.053244878 -0.057579197 -0.040107794 -0.061558355
000180 e2 e1 c8 bc fb 20 99 3a 7d af a5 3c cd 7b dc bc
       -0.024521772 0.0011682803 0.02022528 -0.026914502
000190 06 93 3c 3c bf 3c f9 3c 93 28 ea bc 0a 80 e2 bd
       0.0115096625 0.030424474 -0.0285838 -0.11059578
0001a0 d7 b6 4f 3d ed 83 98 bc f8 d3 5e 3c 08 5c b8 3c
       0.05071148 -0.018617595 0.013600342 0.022504821
0001b0 a1 13 39 3d b7 50 d0 3c b8 12 b7 3c 19 fe 8c 3c
       0.045184735 0.025429113 0.022347793 0.017211007
0001c0 52 70 88 bd f3 06 8a 38 b3 b8 be bc 73 44 a6 3b
       -0.066620484 6.581647e-05 -0.02328143 0.0050740778
0001d0 ec 79 84 bd a2 f5 1d bc 47 42 53 bc c1 58 d1 3b
       -0.06468567 -0.009641083 -0.01289422 0.006388754
0001e0 bf a1 22 bd 25 e0 c1 3c ab 96 38 3d 6f e3 34 3d
       -0.039705034 0.02366645 0.045065563 0.04416221
0001f0 b9 0e e5 bb a6 e4 8a bc 52 fe 54 bd 2d e0 a7 3b
       -0.0069902805 -0.016954731 -0.05200035 0.0051231594
000200 4d c4 28 3e e9 48 3c 3e 39 00 d4 bc 5e 48 4e be
       0.16481133 0.18387188 -0.025879012 -0.20144793
000210 23 63 f0 bd 89 79 23 bd cf 9b 45 be 39 48 90 3e
       -0.11737659 -0.039910827 -0.19297718 0.28180102
000220 8c 81 24 3f e9 0c 96 3e 91 86 e9 bd 39 75 ac be
       0.6426017 0.29306725 -0.1140262 -0.33683184
000230 e5 fa ce 3e 95 9a 01 bc c6 41 ab be 51 fb 84 bc
       0.40425792 -0.00791039 -0.3344862 -0.016233118
000240 86 eb 70 be 29 a0 93 3e 4f d9 72 3e 17 21 28 3e
       -0.23527345 0.2883313 0.23715709 0.16418873
000250 eb 27 8e be 68 38 65 be bb cb 62 3e 23 e6 3a 3d
       -0.2776483 -0.22384799 0.2214803 0.04562963
000260 51 f0 07 bd 03 d3 69 be ac a5 89 bd 9b 04 13 be
       -0.033188168 -0.22834401 -0.067210525 -0.14357226
000270 f0 9b ae be 61 c8 07 3f d9 08 fa 3e 13 fc c5 bd
       -0.34103346 0.5304013 0.48834875 -0.0966722
000280 6c c4 c2 3e 28 71 a7 3e dd 33 18 3d 12 48 2e 3e
       0.38040483 0.3270352 0.037158836 0.1701968
000290 09 4f 7f 3e 70 fc 7f be 06 89 da be 88 51 e6 be
       0.24932493 -0.24998641 -0.42682666 -0.44984078
0002a0 60 fe 6d 3e 02 9c 0e be 93 5a d0 be ac 23 30 bc
       0.23241568 -0.139267 -0.40694103 -0.010750692
0002b0 11 2e f5 3e 6a 47 e8 3e 49 f7 df 3e 20 19 b9 3e
       0.47886708 0.45366985 0.4374335 0.3615198
0002c0 37 32 66 3e 02 e1 05 bf 32 a3 f5 3e 90 3e ab be
       0.22480093 -0.5229646 0.4797607 -0.3344617
0002d0 a3 9d 9d 3e fc 90 5e be 9e 6b b4 be 28 ab 5a 3e
       0.3078433 -0.21734995 -0.35238355 0.21354353
0002e0 d7 68 4b be 3f df 12 3e a8 86 9e be a1 f0 f6 be
       -0.19864212 0.14342974 -0.3096211 -0.4823046
0002f0 c0 d1 05 be 55 08 d3 3f 8a 3c d1 be b8 f5 df be
       -0.13068295 1.6486918 -0.408665 -0.43742156
000300 af c3 d1 bc 7b 13 95 bd b6 fe 3b bd e4 70 ae 3d
       -0.025606005 -0.07279106 -0.04589721 0.08517626
000310 9d c9 7a bd 6f 56 60 3c a1 35 46 3d ec d0 73 bc
       -0.06122743 0.013692482 0.04839099 -0.014881354
000320 31 5b 08 3c 52 84 cb 3b 75 51 9e bc b1 71 7e bc
       0.008322523 0.006210842 -0.019325951 -0.015530036
000330 11 86 46 3c de fd 8a 3c b6 3c 18 bd ce f2 45 bd
       0.012116925 0.016966756 -0.037167273 -0.04832726
000340 dc 33 36 bd 81 41 18 3d d7 7c 0c 3c 83 84 ee bc
       -0.04448305 0.037171844 0.008574686 -0.02911592
000350 9f f2 bd 3c 1c c5 d3 bb d2 57 20 3b 7a 55 c2 3d
       0.02318698 -0.0064627063 0.0024466407 0.094889596
000360 e9 71 56 bc e4 ff 63 bd 50 6a 26 3d 37 5b 98 bc
       -0.013088682 -0.05566396 0.04062873 -0.018598182
000370 85 60 7b 3d 2f d2 6c bc 97 31 9e bc 81 9b c0 bb
       0.061371345 -0.014454409 -0.019310756 -0.0058779125
000380 7e b2 8f 3a fd 9e a6 3c 35 a5 a4 bc 01 4d 70 bd
       0.0010963229 0.020339483 -0.020098308 -0.058667187
000390 a4 6c 61 3d 9f ea 99 bb 19 38 19 3d bd 4a 74 bd
       0.05503525 -0.0046971585 0.037407015 -0.05964159
0003a0 82 b9 e3 3c 10 46 0e bc 6b 2a c5 3c ac f8 56 bd
       0.027798418 -0.008683696 0.024068078 -0.052483246
0003b0 72 96 2d ba 39 0e 5b 3c 59 d6 a6 3b e5 22 c9 3a
       -0.00066218444 0.01337009 0.00509147 0.0015345482
0003c0 03 57 70 bb b2 7a 13 3d c4 48 a3 bc 17 60 8e bd
       -0.0036672957 0.036005683 -0.019932158 -0.069519214
0003d0 6f a2 80 bd 06 4d 9d 3c ab d2 f1 3c 31 2e 5b 3d
       -0.06280982 0.019201767 0.0295194 0.05351085
0003e0 8d 32 9f bb 57 25 d3 3c 7a 6d 92 3b 94 d2 34 3d
       -0.004858321 0.025774641 0.004468617 0.044146135
0003f0 50 43 b7 3d 4e 44 61 3c f6 e4 53 bd f2 12 1e 3d
       0.08948386 0.013749195 -0.051732026 0.038592286

layer.4.bias f4 [8]
000000 6b 76 e3 3d 18 11 bf bc 33 6e 5e 3e 77 ef 1e 3c
       0.11106571 -0.02332358 0.21721725 0.009700648
000010 99 b8 25 3c 0f d5 35 bc 0e 26 e5 3d fe f1 70 3e
       0.010114812 -0.01109816 0.11188899 0.23529813
