final/save/0.9_0.99_500/save1_3500.pth (torch_old, 15355 bytes, 6 tensors)

layer.0.weight f4 [32, 28]
0	0x3d12dbf2	0.035854287
1	0x3e0eb221	0.13935138
2	0xbd1b973f	-0.037986036
3	0xbd085502	-0.033284195
4	0x3e3daad9	0.18522204
5	0xbcb632a2	-0.02224094
6	0x3d0fcf20	0.03510964
7	0xbdce3ec3	-0.100705646
8	0x3e8063aa	0.25076038
9	0x3cb94eac	0.022620521
10	0x3ec819be	0.3908214
11	0x3e87f7a0	0.2655611
12	0x3e80461d	0.25053492
13	0x3e407b52	0.18797043
14	0x3e3ed9b1	0.1863773
15	0xbdb1bd84	-0.08678725
16	0xbdf98370	-0.12183273
17	0x3cbc1309	0.022958295
18	0x3b686036	0.0035457737
19	0x3e400b08	0.18754208
20	0x3e996c70	0.29965544
21	0x3cb07835	0.021541694
22	0xbc8ebaef	-0.017423121
23	0x3df3e466	0.11908798
24	0xbb16b5b2	-0.0022996482
25	0xbdd196a8	-0.102338135
26	0x3d9d8c0d	0.07692728
27	0xbccdd3f6	-0.025125485
28	0x3db98077	0.09057706
29	0xbde14823	-0.11000087
30	0xbdfb64f3	-0.12275114
31	0x3be5af4c	0.0070094224
32	0x3d83c98f	0.064349286
33	0xbd85dffa	-0.06536861
34	0xbf0eb425	-0.5574363
35	0xbf50418b	-0.8135001
36	0xbe810a99	-0.25203398
37	0x3e998745	0.29986015
38	0x3e031583	0.12801175
39	0xbcb23025	-0.021751473
40	0x3d8a4bff	0.06752776
41	0x3e21178a	0.15731636
42	0x3dc4a48b	0.096016966
43	0xbbeddfa0	-0.007259324
44	0xbd761988	-0.060082942
45	0xbdc61207	-0.09671407
46	0x3c533ada	0.012892449
47	0x3dec61d3	0.11542096
48	0x3e1084e7	0.14113198
49	0xbcb4822b	-0.022034725
50	0xbdc04f30	-0.09390104
51	0xbcc8aa0e	-0.02449515
52	0xbde3b65f	-0.11118769
53	0x3df4508d	0.11929426
54	0x3dfe00f5	0.12402526
55	0xbe0d8b60	-0.13822699
56	0xbe1b5285	-0.15168197
57	0xbdf4bbd8	-0.11949891
58	0xbcde4229	-0.027131157
59	0xbcda97e0	-0.026683748
60	0x3dd56a43	0.104206584
61	0x3c31e09a	0.010856772
62	0x3d67fe8c	0.05663924
63	0xbdb03f97	-0.08605879
64	0xbde4e118	-0.11175746
65	0x3ead73af	0.33877322
66	0x3ed80bea	0.4219659
67	0x3e9b4cb3	0.30331954
68	0x3d993616	0.07481019
69	0xbe699d57	-0.22813927
70	0x3c84ff54	0.016235031
71	0x3e4be485	0.19911392
72	0x3e2ac704	0.16677481
73	0x3e3eda28	0.18637908
74	0xbde273aa	-0.110572174
75	0x3e1249ef	0.14286016
76	0xbdc80176	-0.09765904
77	0x3e56a2f4	0.20960599
78	0x3df29e9a	0.11846657
79	0x3e2424b3	0.16029625
80	0x3e94d7f8	0.2907102
81	0xbd509065	-0.050918955
82	0x3dae8541	0.0852151
83	0x3e6558ca	0.22397152
84	0x3d5b70b9	0.053574298
85	0x3e0fc6d4	0.1404069
86	0x3db2ba06	0.087268874
87	0xbe28aff3	-0.1647337
88	0x3e2c3271	0.16816117
89	0xbd92d480	-0.071694374
90	0x3e217d27	0.15770398
91	0x3ee49ce2	0.44650942
92	0x3eda28e8	0.42609334
93	0xbdc80434	-0.09766427
94	0xbe3eedf2	-0.18645456
95	0xbdba206c	-0.09088215
96	0x3e22d31a	0.15900841
97	0x3e6d68ea	0.23184553
98	0x3db70829	0.08937103
99	0xbde3b394	-0.11118236
100	0xbe97fb0a	-0.29683715
101	0x3dd32932	0.10310592
102	0x3d851e51	0.06499923
103	0x3d842e56	0.064541504
104	0x3ed5973a	0.4171694
105	0xbe4a12e9	-0.19733776
106	0xbe26d89c	-0.16293567
107	0xbe5cdba2	-0.21568158
108	0xbd152693	-0.03641374
109	0xbdff4f73	-0.124663256
110	0x3de3dac2	0.11125709
111	0x3db2230b	0.0869809
112	0x3dd90122	0.10595919
113	0x3d32e323	0.043673646
114	0xbd3ec7b4	-0.04657717
115	0x3c38543d	0.011250553
116	0x3b5ea5ca	0.003397333
117	0x3df0c849	0.11756951
118	0x3ed30953	0.4121805
119	0x3f2a234a	0.66460097
120	0x3eba6c4d	0.36410752
121	0xbdd8aa8d	-0.10579405
122	0xbe452525	-0.19252451
123	0x3d3592e2	0.04432953
124	0x3d39b825	0.04534163
125	0x3dcff049	0.10153253
126	0x3d631ac6	0.055445455
127	0xbcba9ba8	-0.0227793
128	0x3e241612	0.16024044
129	0x3dfc14c6	0.1230865
130	0xbcb1723a	-0.021660913
131	0x3df453b6	0.11930029
132	0x3e479659	0.19490947
133	0x3d8de0c3	0.069276355
134	0x3dacf387	0.08444887
135	0xbc835cda	-0.016035486
136	0x3d2d628e	0.042330317
137	0xbd1ec614	-0.03876312
138	0xbd462e82	-0.048384197
139	0xbda34a3c	-0.079731435
140	0x3dea7541	0.11448146
141	0x3cd6b2b3	0.026208257
142	0x3c896936	0.016773801
143	0x3d1b166d	0.037863184
144	0x3de1b734	0.11021271
145	0x3dbb8456	0.091561005
146	0x3f09b343	0.53789157
147	0x3f0003e3	0.5000593
148	0x3e1a4613	0.15065794
149	0x3e37a665	0.17934568
150	0x3e3d70c3	0.18500046
151	0x3e087643	0.13326363
152	0xbddf4497	-0.10901754
153	0x3d94af50	0.07260001
154	0x3df899d3	0.12138715
155	0x3e04370f	0.12911628
156	0xbdde74e2	-0.108621374
157	0x3d82fa6e	0.06395422
158	0x3d83dd56	0.06438701
159	0xbdfbe56a	-0.12299617
160	0x3d3cbb0f	0.04607683
161	0x38957678	7.12694e-05
162	0xbe2b28f0	-0.16714835
163	0xbca8a044	-0.020584233
164	0xbcf849be	-0.0303086
165	0x3e404ec0	0.1878004
166	0xbc9b4852	-0.018955383
167	0x3cf15e10	0.029463798
168	0x3d5a0b7c	0.05323361
169	0xbd7774f1	-0.06041426
170	0xbdffde15	-0.12493531
171	0x3d1b8c31	0.037975494
172	0x3cc848fc	0.024448864
173	0xb942c508	-0.00018574682
174	0xbf29e58d	-0.6636589
175	0xbf2fdaf4	-0.6869347
176	0xbe68dc80	-0.22740364
177	0x3e7bd402	0.24592593
178	0x3e1dc7e9	0.15408291
179	0x3e07b8de	0.13254115
180	0x3e0189d8	0.1265024
181	0xbccf49a2	-0.025303666
182	0xbc9cac3b	-0.019125095
183	0xbdc3467a	-0.09534927
184	0xbdd01d94	-0.101618916
185	0x3e1ec17c	0.15503496
186	0x3e147388	0.14497197
187	0xbcd7b00f	-0.026329068
188	0x3dd1b929	0.102403946
189	0xbd9959e3	-0.07487848
190	0xbc83b808	-0.016078964
191	0xbd572819	-0.052528474
192	0xbdf21b7c	-0.118216485
193	0x3e03af73	0.12859897
194	0xbda01e83	-0.0781832
195	0x3d4a74e4	0.04942788
196	0xbd032154	-0.032014206
197	0xb9b698e4	-0.00034827658
198	0xbdf08782	-0.11744596
199	0x3d34f2bc	0.044176802
200	0xbe23dcb3	-0.16002159
201	0xbd0293c3	-0.031879198
202	0x3e895185	0.26820007
203	0x3cef43a7	0.029207064
204	0x3da110de	0.07864545
205	0xbe7040dc	-0.23462242
206	0xbecd9218	-0.40150523
207	0xbd33fdf4	-0.04394336
208	0x3e6f1dd0	0.23351216
209	0x3e848c59	0.25888327
210	0x3e1a42b0	0.15064502
211	0xbe15126d	-0.1455781
212	0xbeb62a63	-0.35579214
213	0xbe17e1e6	-0.14832267
214	0x3dcbd161	0.09952045
215	0x3e8916f8	0.26775336
216	0x3e0c064c	0.13674277
217	0xbe1ac97f	-0.15115927
218	0xbe3aaa38	-0.18228996
219	0xbdc73307	-0.097265296
220	0x3d49d7ef	0.049278196
221	0xbd27d89e	-0.040978067
222	0xbce9f4c8	-0.028559104
223	0x3d3a7238	0.045519084
224	0x3cae43ec	0.021272622
225	0x3e18a7b5	0.14907725
226	0x3df552c8	0.1197868
227	0x3d5ad55a	0.053426124
228	0x3d87ae76	0.06625073
229	0xbd8640f5	-0.06555358
230	0x3ebeb5ad	0.37247983
231	0x3ea05787	0.31316778
232	0xbd41d1f3	-0.047319364
233	0x3e7dbb3b	0.24778454
234	0x3eb5ec74	0.35531962
235	0x3e54b3e2	0.20771745
236	0xbe8d19a5	-0.27558628
237	0xbdebe8f4	-0.11519042
238	0x3d24fda0	0.04028094
239	0x3d8adbde	0.067802176
240	0x3e26118d	0.16217633
241	0x3de64038	0.112427175
242	0xbe484fc7	-0.19561683
243	0x3d8e73b0	0.069556594
244	0xbe3e4097	-0.18579327
245	0x3a8ebc49	0.0010889854
246	0x3e3a469a	0.18190995
247	0x3e5b3562	0.21407083
248	0xbdc30d33	-0.09524002
249	0x3cc63d0b	0.02419903
250	0x3e10351b	0.14082758
251	0x3e38fa9f	0.18064354
252	0xbd40c2fd	-0.047060955
253	0x3d60d43b	0.0548899
254	0x3d83cef9	0.06435961
255	0x3e01ccec	0.12675828

layer.0.bias f4 [32]
0	0x3cc73c7a	0.02432083
1	0x3c84a92e	0.016193952
2	0x3de09246	0.109653994
3	0x3e4ca41f	0.19984482
4	0x3dea94b2	0.11454143
5	0x3dc3aaf0	0.09554088
6	0x3ccd1402	0.025033955
7	0xbe68928c	-0.22712153
8	0x3c0e82b4	0.008698154
9	0x3e936839	0.28790453
10	0xbcb5b2d7	-0.022180004
11	0x3e9629fc	0.29328907
12	0x3cea8a01	0.028630259
13	0x3e4cceee	0.20000812
14	0x3e226a2e	0.15860817
15	0x3e50fea6	0.2040964
16	0x3d84b0f5	0.064790644
17	0x3e267fc3	0.16259675
18	0x3dd36719	0.10322399
19	0x3d6b8956	0.05750402
20	0x3ea7bfbb	0.32763466
21	0x3e2873b8	0.16450393
22	0xbe33cf1b	-0.17559473
23	0x3e0f6d46	0.14006528
24	0x3dc02aa6	0.093831345
25	0x3e0d1a07	0.1377946
26	0x3e614a71	0.22001053
27	0x3e8dfdfc	0.27732837
28	0xbd0e8c19	-0.034801576
29	0x3d6663fa	0.05624769
30	0x3e52b30f	0.20576118
31	0xbe09da49	-0.13462175

layer.2.weight f4 [64, 32]
0	0x3e57797b	0.21042435
1	0xbd9d5ae7	-0.07683354
2	0xbe44603f	-0.1917734
3	0x3ea5e2ce	0.323996
4	0xbdf28637	-0.11842006
5	0xbe203435	-0.15644915
6	0xbe394024	-0.18090874
7	0x3ed2632e	0.41091293
8	0xbe121592	-0.14266041
9	0x3c44cb1b	0.012011315
10	0x3e5a8ef3	0.21343593
11	0x3db0b9ef	0.08629214
12	0xbe396a46	-0.18106946
13	0x3e3037f0	0.17208838
14	0x3e8d9b3e	0.27657503
15	0xbdf7e487	-0.12104135
16	0x3ded88c4	0.115983516
17	0xbd46416b	-0.04840223
18	0x3d3fdd35	0.04684182
19	0x3e647536	0.22310337
20	0x3da386ae	0.079846725
21	0x3eccabb1	0.3997474
22	0xbe8679c5	-0.26264778
23	0xbe3f7dd6	-0.18700346
24	0x3eb92aaa	0.36165363
25	0x3e98be7e	0.29832834
26	0xbe48416d	-0.19556208
27	0xbe380acd	-0.1797287
28	0xbe317be1	-0.17332412
29	0xbd2d04e6	-0.042241
30	0x3d7f191d	0.06227981
31	0x3e1eb620	0.15499163
32	0x3e4551d8	0.19269502
33	0x3e7f3808	0.24923718
34	0x3ece40f3	0.40283927
35	0xbdd95934	-0.10612717
36	0xbd971e60	-0.073788404
37	0x3e2889c9	0.16458811
38	0x3d5dc350	0.054141343
39	0xbf0d2bce	-0.55144966
40	0x3da037f2	0.07823171
41	0x3c0fac4f	0.008769109
42	0xbd7badee	-0.06144517
43	0x3dc5e397	0.0966255
44	0x3e642c12	0.22282436
45	0xbe9f4599	-0.31107786
46	0xbe569153	-0.20953874
47	0x3d6ac314	0.057314947
48	0xbe727925	-0.23679025
49	0xbeac561b	-0.33659443
50	0x3dfc9238	0.123325765
51	0x3cfb2ebd	0.030661935
52	0xbcf99c95	-0.030470172
53	0xbededb46	-0.43526667
54	0x3e2db12d	0.16962118
55	0x3e58b873	0.21164112
56	0xbea36fa8	-0.31921124
57	0xbe8423b5	-0.25808492
58	0x3d841473	0.06449213
59	0x3e0b81f8	0.13623798
60	0xbb99cf02	-0.0046938667
61	0x3c865d1f	0.016401825
62	0x3e3faf84	0.18719298
63	0xbe642f55	-0.2228368
64	0x3e09438e	0.13404676
65	0xbd2f2d10	-0.042767584
66	0x3ebc5a31	0.3678756
67	0xbe68a2c1	-0.22718336
68	0x3e7cb11a	0.24676934
69	0x3e276010	0.16345239
70	0x3da97ca2	0.08275725
71	0xbf3c3e55	-0.7353261
72	0x3dfd8119	0.12378139
73	0x3ceb5cce	0.028730776
74	0xbe47171b	-0.19442408
75	0x3d25e48e	0.04050117
76	0x3e703561	0.23457862
77	0xbd984c70	-0.07436454
78	0x3e50175e	0.20321414
79	0x3e757fb3	0.23974495
80	0x3c5e9787	0.013585932
81	0x3d35499d	0.044259656
82	0x3d256f9c	0.040389642
83	0xbdec8627	-0.11549025
84	0xba9e340e	-0.0012069957
85	0xbda420e5	-0.08014087
86	0x3e924f17	0.28575966
87	0x3e649ebc	0.22326177
88	0xbdca7428	-0.09885436
89	0xbe8bf599	-0.27335814
90	0x3e597dfe	0.21239468
91	0x3e838904	0.25690472
92	0x3da3f583	0.08005812
93	0xbc50a24c	-0.012734007
94	0xbd9b340a	-0.07578285
95	0xbe182386	-0.14857301
96	0xbdaf6d48	-0.085657656
97	0xbe1554a8	-0.14583075
98	0x3e3d202e	0.18469307
99	0xbcd811e9	-0.026375728
100	0xbd658c58	-0.056042045
101	0x3dacd082	0.08438207
102	0xbe322d70	-0.17400146
103	0xbf0bf106	-0.5466465
104	0x3e8e94d6	0.27847928
105	0xbe097547	-0.13423644
106	0xbd739a64	-0.05947341
107	0x3db22e95	0.08700291
108	0x3e1b10f7	0.1514319
109	0xbd6f7ef5	-0.058470685
110	0x3d8abbda	0.06774111
111	0x3eb520c6	0.35376567
112	0x3dbe4f8a	0.092925146
113	0x3cd87ed3	0.026427662
114	0x3e799325	0.24372537
115	0xbde8a4f0	-0.11359584
116	0x3e7b404d	0.24536248
117	0x3d652554	0.055943802
118	0x3dc3a949	0.09553773
119	0x3e0f067b	0.13967316
120	0xbcf55b66	-0.029950809
121	0xbd761c8d	-0.060085822
122	0x3dd0fe78	0.10204786
123	0x3e6bc467	0.2302414
124	0x3e80d547	0.25162718
125	0xbd10c93e	-0.03534817
126	0x3d7cd730	0.061728656
127	0xbe00345f	-0.12519978
128	0x3d7d0d74	0.061780408
129	0xbe90f37b	-0.2831076
130	0xbdc5b4c6	-0.096536204
131	0x3e081a9c	0.132914
132	0x3e5654cc	0.20930785
133	0x3ea51348	0.32241273
134	0xbf011ffb	-0.50439423
135	0x3ea005ee	0.31254524
136	0x3d67b016	0.056564413
137	0xbe0f7bee	-0.14012119
138	0x3e055816	0.13021883
139	0xbe22e78e	-0.15908644
140	0x3d301e1e	0.042997472
141	0x3eb5fdf2	0.35545307
142	0x3e49008c	0.19629115
143	0x3dd0fab0	0.10204065
144	0xbbba37fa	-0.0056829425
145	0x3e556625	0.20839746
146	0xbe0602f0	-0.13087058
147	0xbd025d0c	-0.031827018
148	0xbe02fd1c	-0.12791866
149	0x3e223684	0.15841109
150	0xbea54c3a	-0.3228472
151	0xbe6970db	-0.22796957
152	0x3e5c5094	0.21515113
153	0x3d9c6d45	0.07638029
154	0x3ea86d0d	0.328957
155	0xbca2ec6a	-0.019888122
156	0x3e2a95b4	0.1665867
157	0xbe93dadc	-0.28877914
158	0xbdca3d99	-0.0987503
159	0x3cf66859	0.030079054
160	0x3dc6ffcc	0.09716758
161	0x3e03e691	0.12880923
162	0xbe5c310d	-0.21503086
163	0x3cd19e5c	0.025588207
164	0x3d5aeccc	0.053448483
165	0xbdbdc217	-0.09265535
166	0xbc03e0ed	-0.008049232
167	0x3edee52f	0.43534228
168	0xbe6af4b5	-0.22944911
169	0x3e0b444a	0.13600269
170	0x3e3242db	0.17408316
171	0xbdf71e8d	-0.12066374
172	0xbddc5dc1	-0.1076007
173	0x3e0d7bd7	0.13816772
174	0x3e2ab84f	0.1667187
175	0xbe3ba961	-0.18326332
176	0xbc8f117f	-0.017464397
177	0x3e85d5c3	0.2613965
178	0xbe6725d8	-0.2257303
179	0x3ce870a4	0.028374024
180	0xbc60ff5b	-0.0137327565
181	0x3e178689	0.14797415
182	0x3b566d75	0.003271905
183	0x3c6a7a6d	0.014311415
184	0x3e9ccada	0.30623513
185	0x3e2e7253	0.17035799
186	0xbda865ba	-0.08222528
187	0xbd2371da	-0.0399035
188	0xbde3668a	-0.11103542
189	0x3e07aad6	0.13248762
190	0x3e2d77af	0.16940187
191	0x3e9906b0	0.29887915
192	0xbe3aa263	-0.18226008
193	0xbe57a833	-0.21060257
194	0x3d672818	0.05643472
195	0xbe4e964e	-0.20174524
196	0x3e1110ba	0.14166537
197	0xbde17fd4	-0.110107094
198	0xbe067139	-0.13129129
199	0xbe25c01e	-0.16186568
200	0xbe9da0a9	-0.30786636
201	0x3e569677	0.20955835
202	0x3e86a644	0.26298726
203	0x3dd8233f	0.10553598
204	0xbd072a3d	-0.032999266
205	0x3e2558fe	0.16147229
206	0x3c777db9	0.015105658
207	0xbc490323	-0.012268814
208	0x3e3351be	0.17511651
209	0x3d5aeca1	0.053448323
210	0xbe216a5b	-0.15763228
211	0x3bb5a51a	0.0055433633
212	0x3d936411	0.071968205
213	0x3e9429de	0.28938192
214	0xbe611cd2	-0.2198365
215	0x3cfb2354	0.030656494
216	0x3ea3e0d4	0.32007468
217	0x3cfa9afb	0.030591479
218	0xbe8e43b6	-0.27786034
219	0x3db73968	0.08946496
220	0xbe6e50f6	-0.23273072
221	0x3e341422	0.17585805
222	0xbd70c480	-0.058781147
223	0x3e5eebcd	0.21769638
224	0x3d8cd4b3	0.06876507
225	0x3ea7e793	0.32793865
226	0x3da8e690	0.08247101
227	0x3d3dce65	0.04633941
228	0x3d38c27b	0.045107346
229	0xbe7c9501	-0.24666215
230	0x3e7ab9b9	0.2448491
231	0x3e0aff7f	0.13574027
232	0xbe81544c	-0.25259626
233	0x3e7c0593	0.24611501
234	0xbcdafae5	-0.026730964
235	0x3e3216a3	0.17391448
236	0xbef04f6b	-0.4693559
237	0xbd6c3b98	-0.05767402
238	0xbe1c2e22	-0.15251973
239	0x3d48ecb9	0.04905388
240	0xbc28194c	-0.0102599375
241	0xbb3c42b6	-0.0028726286
242	0x3c6e18b5	0.014532258
243	0xbc3c6bb8	-0.0115002915
244	0x3ea35297	0.3189895
245	0x3dc0a5f8	0.09406656
246	0x3e5fa15e	0.218389
247	0xbcb48e07	-0.02204038
248	0x3d4b1326	0.04957881
249	0x3e50a1e8	0.20374262
250	0xbf30e51e	-0.69099605
251	0xbddd34ce	-0.10801087
252	0xbe8dd5d9	-0.27702215
253	0x3db583c3	0.08863022
254	0x3e905884	0.28192532
255	0xbaac0ae5	-0.0013125805

layer.2.bias f4 [64]
0	0x3e886a2b	0.266435
1	0x3e985059	0.297488
2	0x3dc50afc	0.09621236
3	0x3e70c837	0.23513876
4	0x3d623534	0.05522652
5	0x3e0726c7	0.13198386
6	0xbcd9c340	-0.02658236
7	0xbe69f747	-0.22848235
8	0x3e5242dd	0.20533319
9	0xbc12d982	-0.008962991
10	0x3e0d150e	0.13777563
11	0x3d116724	0.035498753
12	0xbd9e255c	-0.077219695
13	0xbdb8d1fe	-0.09024428
14	0x3d84465a	0.06458731
15	0xbd0bdc73	-0.034145784
16	0xbe477829	-0.19479431
17	0xbe553d29	-0.20824112
18	0x3d272d49	0.04081467
19	0x3db86cf0	0.09005153
20	0xbd179793	-0.037009787
21	0x3e121ae6	0.14268073
22	0x3e89231e	0.26784605
23	0x3e3ff658	0.18746316
24	0x3d3c9925	0.046044488
25	0x3eb14eef	0.34630534
26	0x3e2c50d6	0.16827711
27	0x3e0e722b	0.13910739
28	0x3ea0681f	0.31329438
29	0x3d953059	0.07284612
30	0xbd232cfe	-0.03983783
31	0x3e772800	0.24136353
32	0x3d767a24	0.060175076
33	0x3e0bf3e6	0.13667259
34	0x3e12076d	0.14260645
35	0x3e89a859	0.26886252
36	0xbda605e2	-0.08106591
37	0x3e1d8e28	0.1538626
38	0x3e068b62	0.13139108
39	0x3ee377ef	0.4442744
40	0x3e886306	0.2663805
41	0x3e1926bb	0.14956181
42	0xbd30b078	-0.043137044
43	0x3ea84d62	0.32871538
44	0x3e900d2e	0.28135055
45	0x3dd32472	0.10309686
46	0x3e3b9de6	0.18321952
47	0x3ee431f8	0.44569373
48	0x3e23ca65	0.15995176
49	0x3f1de41a	0.6167618
50	0x3d98ac7c	0.07454774
51	0x3d471948	0.048608094
52	0x3d364a0f	0.04450422
53	0xba06af94	-0.00051378575
54	0x3e1b451b	0.1516308
55	0x3e2a3988	0.16623509
56	0xbdb974a3	-0.0905545
57	0xbdb0ea27	-0.08638411
58	0xbdb2ea6e	-0.0873612
59	0x3e024eda	0.12725392
60	0x3a8d4269	0.0010777238
61	0xbd4043d4	-0.046939686
62	0xbeafd319	-0.34340742
63	0xbd3a38cc	-0.045464322

layer.4.weight f4 [8, 64]
0	0xbe90b23b	-0.2826098
1	0x3e9b7e05	0.30369583
2	0x3ec3561a	0.38151628
3	0x3ec1441e	0.37747282
4	0xbe3fbe0f	-0.18724845
5	0xbea0f98f	-0.31440398
6	0xbe2f8f24	-0.17144448
7	0x3f80b174	1.0054154
8	0xbeaed5ab	-0.3414739
9	0xbeaba12c	-0.33521402
10	0xbe028f6b	-0.12750022
11	0x3e280a82	0.16410258
12	0x3c6f73ee	0.014615042
13	0xbeda7132	-0.42664486
14	0x3f158f18	0.5842147
15	0xbe0b5073	-0.13604908
16	0xbdd61db6	-0.10454886
17	0xbe262a3f	-0.16227053
18	0x3ed0897e	0.40729898
19	0xbb24a54a	-0.0025122934
20	0xbdc6fc89	-0.09716136
21	0xbeb3f757	-0.35149643
22	0xbe2e2c36	-0.17009053
23	0xbefbf84b	-0.4921287
24	0x3ded9b0a	0.11601837
25	0x3d21eda6	0.03953328
26	0xbd15f3d2	-0.03660948
27	0xbef26f71	-0.47350648
28	0x3e95757e	0.29191202
29	0xbe065a0a	-0.13120285
30	0xbe470a61	-0.19437553
31	0x3e2e4fe5	0.17022665
32	0x3e5a3173	0.21307926
33	0xbe8745de	-0.26420492
34	0xbe7db81a	-0.2477726
35	0x3f0f9114	0.56080747
36	0xbe772e8d	-0.24138851
37	0x3f174280	0.59085846
38	0xbd0701b4	-0.03296061
39	0x3da29f5a	0.0794055
40	0xbe6c3011	-0.23065211
41	0x3e09806d	0.13427897
42	0xbea48f57	-0.3214061
43	0xbea387d1	-0.31939557
44	0xbe8fc118	-0.28077006
45	0x3e8eceec	0.27892244
46	0x3f0af656	0.5428213
47	0x3e22cacd	0.15897675
48	0xbe419cdc	-0.18907493
49	0xbe76595d	-0.24057527
50	0x3f8d4b6a	1.103864
51	0xbe1325e2	-0.1436992
52	0xbebbdcde	-0.36691946
53	0x3e600f94	0.21880943
54	0x3ddb495e	0.10707353
55	0xbdbb891b	-0.0915701
56	0xbdd8e701	-0.105909355
57	0xbd8664f2	-0.065622225
58	0xbdaaf467	-0.08347397
59	0x3e90747c	0.2821387
60	0xbd717496	-0.058949076
61	0xbe949325	-0.29018512
62	0xbde2a340	-0.11066294
63	0xbef12531	-0.47098687
64	0x3e864850	0.26227045
65	0xbd203f46	-0.039122842
66	0xbe4e1aa5	-0.20127352
67	0xbdcbf83e	-0.09959458
68	0x3df3dd0d	0.119073965
69	0x3cf0ec4a	0.029409546
70	0xbd57490c	-0.052559897
71	0xbe8dc143	-0.2768651
72	0x392bf858	0.00016400346
73	0x3da744f8	0.081674516
74	0x3cb9d9d4	0.022686876
75	0xbe23adab	-0.15984218
76	0x3f0dc46c	0.5537784
77	0xbc2a86a3	-0.010408076
78	0xbe2c446f	-0.1682298
79	0x3e79d619	0.24398078
80	0x3dbbb801	0.09165955
81	0x3e9ef853	0.3104883
82	0xbe50aa0f	-0.20377372
83	0xbe7d98a1	-0.24765255
84	0xbe2324af	-0.15931962
85	0x3d279607	0.04091456
86	0x3e96c7ba	0.29449254
87	0xbe25a4e3	-0.1617618
88	0xbd701d52	-0.058621712
89	0x3e171f0c	0.14757937
90	0x3ede44c1	0.4341183
91	0xbe5147b8	-0.20437515
92	0x3ed99dbe	0.4250316
93	0x3f1a4e9d	0.60276204
94	0x3f1a07f1	0.6016837
95	0x3df67b5d	0.120352484
96	0x3dcea8bf	0.100907795
97	0x3dc0bf7f	0.09411525
98	0xbdbaab95	-0.09114758
99	0x3e8874c7	0.26651594
100	0xbe9cb57e	-0.30607218
101	0xbdf2d41b	-0.11856862
102	0x3f8b2fe8	1.0873995
103	0x3dbbcfce	0.09170495
104	0x3bc6e025	0.0060692006
105	0xbe4aaece	-0.19793245
106	0x3da5dedd	0.080991484
107	0xbca3be55	-0.019988218
108	0xbc8cb8a8	-0.017177895
109	0xbcd4ac79	-0.025961148
110	0xbda59333	-0.08084717
111	0xbdcdf49c	-0.10056421
112	0xbe8f296e	-0.27961296
113	0xbee03c08	-0.437958
114	0xbc8ba8d3	-0.017048275
115	0x3f09fe47	0.5390362
116	0xbdab0df3	-0.0835227
117	0xbe083ddf	-0.13304852
118	0x3d8228db	0.06355449
119	0x3e8ca041	0.27466014
120	0xbe3f3280	-0.18671608
121	0xbd8cd9d7	-0.06877487
122	0x3f2af01b	0.6677262
123	0xbe173e93	-0.14769964
124	0xbcb52eed	-0.022117103
125	0x3e2bb20f	0.16767143
126	0x3ec5fe1a	0.38670427
127	0xbe0efd01	-0.13963701
128	0xbe2a79fe	-0.16648099
129	0x3eb9cf37	0.36290905
130	0x3dbd1bb3	0.09233799
131	0x3dabaf42	0.08383037
132	0x3f923838	1.1423407
133	0xbd679454	-0.05653794
134	0xbe5a522a	-0.21320406
135	0x3e22fa31	0.15915753
136	0x3e587b29	0.21140732
137	0xbe86eb2b	-0.26351294
138	0x3e76b3ce	0.24092028
139	0xbe5df754	-0.2167638
140	0xbdbc51d3	-0.09195294
141	0x3eed1b5f	0.46309945
142	0xbe8c940c	-0.274567
143	0x3e8ae9cb	0.27131495
144	0x3eefefc4	0.46862614
145	0xbe6201ea	-0.22071043
146	0xbe090793	-0.13381796
147	0x3ed70522	0.41996104
148	0xbdcf6e6d	-0.10128484
149	0x3e9cbde0	0.30613613
150	0x3eab2a5f	0.33430764
151	0x3ee343f8	0.44387794
152	0xbd6d4fa0	-0.057937264
153	0x3dbfbc0c	0.09362039
154	0x3ea4b0a8	0.32166028
155	0x3f33cddc	0.7023599
156	0x3d47b104	0.0487528
157	0xbda10db2	-0.0786394
158	0xbce501fe	-0.027955052
159	0xbd94a094	-0.0725719
160	0xbe01af39	-0.12664498
161	0xbe304cc5	-0.17216785
162	0x3f271dd5	0.65279895
163	0xbe4f6441	-0.20253088
164	0xbec4e331	-0.38454583
165	0xbeb5cd09	-0.35507992
166	0xbd871462	-0.065956846
167	0xbd1ed67e	-0.038778774
168	0x3e40b0d2	0.18817452
169	0xbea863a8	-0.32888532
170	0x3d8f524b	0.06998118
171	0x3e952e14	0.29136717
172	0x3e4f5de3	0.20250659
173	0xbdefd547	-0.11710601
174	0xbe049ed5	-0.12951215
175	0x3d3bcf96	0.045852266
176	0x3dfb0223	0.12256267
177	0xbf1369b1	-0.5758315
178	0xbe793f58	-0.2434057
179	0xbe247987	-0.16061984
180	0x3f3d76bd	0.74009305
181	0x3e167238	0.14692008
182	0x3e11c48b	0.14235131
183	0x3e9000af	0.28125522
184	0xbe6f5c74	-0.23375112
185	0xbdec190c	-0.11528215
186	0x3c63548e	0.01387514
187	0x3dcdcb86	0.10048585
188	0xbcede377	-0.029039128
189	0x3ed897ff	0.42303464
190	0xbd86216e	-0.06549345
191	0x3edea167	0.43482515
192	0x3ee7da7d	0.4528388
193	0x3e6312d5	0.22175153
194	0xbe7505ef	-0.23928045
195	0xbe3ff818	-0.18746984
196	0xbd27bc09	-0.04095081
197	0x3e0a3c2f	0.1349952
198	0x3ee05660	0.438159
199	0xbe201725	-0.15633829
200	0x3e65cc9c	0.22441334
201	0xbd0a1311	-0.03370959
202	0x3e0a30d1	0.13495184
203	0x3dfd161e	0.12357734
204	0xbeada63a	-0.33915883
205	0xbe92b073	-0.28650245
206	0xbaee31d5	-0.001817281
207	0xbe24b5cd	-0.16084976
208	0xbeaf702c	-0.34265268
209	0xbf2676b6	-0.6502489
210	0xbe2cd0f3	-0.16876583
211	0xbdd28039	-0.10278363
212	0x3f114568	0.5674653
213	0x3e1d43b7	0.15357862
214	0xbd68515c	-0.056718215
215	0xbbb1c3e2	-0.0054249624
216	0x3eb63bb2	0.3559242
217	0x3e5abb58	0.21360528
218	0xbd8146e9	-0.06312353
219	0xbd0ca0ba	-0.03433297
220	0xbea16903	-0.3152543
221	0xbecff6e0	-0.40618038
222	0xbe9dbb66	-0.30807036
223	0x3e063597	0.1310638
224	0xbc5eae58	-0.0135913715
225	0x3e5b813e	0.2143602
226	0xbd9eb70e	-0.07749759
227	0x3d412370	0.047152936
228	0x3f1ef692	0.62094986
229	0x3bbee635	0.0058257827
230	0x3e79a04b	0.24377553
231	0x3e65f122	0.22455266
232	0x3eb5faf3	0.35543022
233	0x3f137f1a	0.57615817
234	0x3d9e734a	0.077368334
235	0x3e84d5de	0.25944418
236	0x3e4cbbcd	0.19993515
237	0x3e398dc7	0.1812049
238	0x3e815a24	0.25264084
239	0x3e5787bb	0.21047871
240	0x3e9117fd	0.28338614
241	0xbf5de5c5	-0.86678725
242	0x3e17bd50	0.1481831
243	0xbed93a15	-0.42427126
244	0x3d99f401	0.07517243
245	0xbe96781e	-0.29388517
246	0xbe232073	-0.15930347
247	0x3e40b104	0.18817526
248	0x3f082bc4	0.5319178
249	0xbe127077	-0.14300714
250	0xbe1f2665	-0.1554199
251	0x3da31edd	0.07964871
252	0xbd9ef69a	-0.07761879
253	0x3ea8d1d0	0.32972574
254	0xbeb7f99d	-0.35932627
255	0xbdf1d547	-0.118082576

layer.4.bias f4 [8]
0	0x3de08ece	0.10964738
1	0x3e28f48f	0.16499542
2	0x3c220a4e	0.009890152
3	0x3e39dc6d	0.18150492
4	0x3d4fa60a	0.050695457
5	0x3c9d4e66	0.019202422
6	0xbd9aa4d2	-0.07550968
7	0x3c749353	0.014927703
