final/save/0.9_0.99_500/save2_500.pth (torch_old, 15355 bytes, 6 tensors)

layer.0.weight f4 [32, 28]
0.11428001 0.04034703 0.032902192 0.00044452448 0.14019926 0.021062013 -0.10067254 0.14566949
-0.09848818 -0.019315178 0.022998929 -0.06260326 0.068403475 -0.17386773 -0.05658965 -0.20421828
-0.00074088806 -0.12190538 0.13411242 0.114336126 -0.045535356 0.08582993 -0.0040395595 -0.07380323
-0.095087 0.048898816 -0.05877795 0.036394637 -0.11130224 -0.11010573 0.11951044 -0.036459886
0.08546426 -0.13694422 -0.10993104 0.17921619 0.018332822 0.16047189 -0.00043670984 0.18420474
0.09777088 -0.025273675 -0.115451925 0.21783379 -0.0223908 0.19949211 0.00784447 -0.059022762
-0.16115344 -0.1230806 0.16851348 -0.014674953 0.15394875 0.09321571 0.016815398 -0.0914074
0.16639334 0.16877015 0.10111441 0.134461 -0.0820318 -0.03377146 -0.10883682 -0.0076526217
0.1668849 -0.14597462 -0.022737108 -0.00179859 -0.0638926 0.06010607 -0.0026738693 -0.028080903
0.17948267 -0.14472811 -0.13222711 0.02808404 0.13965495 -0.15143053 -0.015629057 -0.04878447
-0.09833205 -0.12662712 0.15816554 -0.04076125 0.025649121 0.18594085 -0.14737669 -0.08818656
-0.20579304 -0.12077143 -0.13000174 -0.14365695 0.08304474 0.027533555 0.07450813 0.082841545
-0.14576311 0.06205958 0.19735818 0.032980178 -0.09377593 0.12369091 0.17969593 -0.06724334
-0.091058366 0.13414057 0.14579691 0.00022460296 -0.0036378503 0.057860415 -0.08015075 -0.14675996
0.17553544 0.0027657307 0.13056503 0.06502641 0.18411657 0.15472889 0.14140506 -0.13418297
0.17088568 0.17932051 -0.12581734 0.022517812 -0.12124734 -0.14194065 -0.06467395 -0.14349623
0.19885692 0.1496416 -0.14970674 -0.058702853 0.092993855 0.07612102 0.15688165 0.01452975
0.14358276 -0.03039795 -0.09349848 0.087070234 -0.099685706 0.04082267 -0.08400251 -0.07466812
0.1602247 0.16055654 -0.080382116 0.18898612 0.017454127 -0.03832769 0.13360804 0.06804364
-0.06342272 0.20254634 0.04491641 0.08357708 0.21536076 0.12206912 0.10906494 0.2127601
0.13274038 -0.043166265 -0.10595829 0.041550525 -0.09182491 -0.019877605 -0.0889229 0.09134365
0.07625504 -0.037858155 -0.06284466 -0.16621305 -0.17028923 -0.052098572 0.12219564 0.122801915
0.08351019 0.085999645 0.17256778 -0.1781953 0.16372156 -0.02767646 0.012561177 0.026603542
0.10441178 0.15802214 0.069042526 -0.032004505 0.14234658 -0.036532175 -0.16845879 -0.12918691
-0.1075217 0.014982336 -0.17519794 0.025222309 -0.080337375 0.13081484 -0.1455444 -0.07190575
-0.010540819 -0.19728144 0.029580718 0.117716506 -0.117612235 -0.20572817 -0.016031329 0.014943249
-0.04844323 0.18206039 0.102880925 -0.119282745 0.15051018 -0.15050605 0.10757827 -0.11358493
0.010032717 0.024359439 0.16621456 0.14774609 -0.11081642 -0.104811095 0.11939777 0.15755188
0.08300023 0.17613465 0.14476487 -0.031028667 0.19468156 0.1723639 0.11889478 0.10391458
-0.00972112 -0.021564977 -0.1427621 0.015410479 0.15149389 0.090309486 -0.08176717 -0.1447793
-0.1423404 0.045439973 0.06564607 -0.061064027 0.07051931 -0.09450519 -0.09136927 0.05484203
-0.08376703 0.20005755 0.034848046 -0.12888196 0.18806697 -0.1217454 -0.10054883 0.12723537
00000000: a30b ea3d ed42 253d 73c4 063d 110f e939
00000010: 6590 0f3e 3e8a ac3c 682d cebd 622a 153e
00000020: 2cb4 c9bd dd3a 9ebc 4068 bc3c 2336 80bd
00000030: 1f17 8c3d 620a 32be 8dca 67bd 991e 51be
00000040: 2838 42ba 87a9 f9bd c454 093e 0f29 ea3d
00000050: 4883 3abd 9ac7 af3d 485e 84bb 2626 97bd
00000060: f9bc c2bd 204a 483d 26c1 70bd 8b12 153d
00000070: 6ef2 e3bd 1d7f e1bd e4c1 f43d f656 15bd
00000080: e307 af3d 1b3b 0cbe 8623 e1bd 7384 373e
00000090: b72e 963c be52 243e 34f6 e4b9 2ba0 3c3e
000000a0: 193c c83d bd0a cfbc 0f72 ecbd d20f 5f3e
000000b0: e96c b7bc a947 4c3e 1886 003c dac1 71bd
000000c0: 6805 25be ae11 fcbd cc8e 2c3e 376f 70bc
000000d0: bea4 1d3e e1e7 be3d 72c0 893c ce33 bbbd
000000e0: 0463 2a3e 15d2 2c3e 1215 cf3d 25b0 093e
000000f0: 4a00 a8bd f153 0abd d7e5 debd d8c2 fabb
00000100: e0e3 2a3e 5f7a 15be 2c43 babc aabe ebba
00000110: 20da 82bd c831 763d 153c 2fbb ec09 e6bc
00000120: 4eca 373e 9b33 14be 8b66 07be 8010 e63c
00000130: b501 0f3e 9b10 1bbe 8208 80bc 39d2 47bd
00000140: 5062 c9bd 8aaa 01be 26f6 213e 45f5 26bd
00000150: 1b1e d23c 4767 3e3e eae9 16be 289b b4bd
00000160: 69bb 52be 0357 f7bd 2d1f 05be cf1a 13be
00000170: 5c13 aa3d 0d8e e13c b897 983d d4a8 a93d
00000180: ed42 15be 3032 7e3d 4318 4a3e 3916 073d
00000190: 980d c0bd a951 fd3d 3602 383e e0b6 89bd
000001a0: cf7c babd 255c 093e c94b 153e 6683 6b39
000001b0: 0069 6ebb 0bff 6c3d 1426 a4bd 3e48 16be
000001c0: 90bf 333e 4341 353b d7b2 053e 912c 853d
000001d0: 0e89 3c3e 4071 1e3e 7dcc 103e 4367 09be
000001e0: a8fc 2e3e cc9f 373e 43d6 00be 4677 b83c
000001f0: 8750 f8bd e458 11be c773 84bd adf0 12be
00000200: 26a1 4b3e a63b 193e b94c 19be 6772 70bd
00000210: 9073 be3d 56e5 9b3d 95a5 203e 300e 6e3c
00000220: 5c07 133e 1f05 f9bc 227c bfbd e151 b23d
00000230: 0528 ccbd ac35 273d 8209 acbd 99eb 98bd
00000240: f211 243e ef68 243e 619f a4bd 9485 413e
00000250: f5fb 8e3c 7ffd 1cbd 8cd0 083e 775a 8b3d
00000260: c5e3 81bd 4f68 4f3e 45fa 373d 762a ab3d
00000270: 8887 5c3e 60ff f93d 705d df3d c9dd 593e
00000280: 18ed 073e 1ccf 30bd a900 d9bd e230 2a3d
00000290: b30e bcbd 5cd6 a2bc 361d b6bd 6112 bb3d
000002a0: 9a2b 9c3d 2711 1bbd b3b4 80bd c133 2abe
000002b0: 4d60 2ebe 5065 55bd b541 fa3d 927f fb3d
000002c0: 6407 ab3d 9520 b03d 9cb5 303e d478 36be
000002d0: a0a6 273e beb9 e2bc 65cd 4d3c acef d93c
000002e0: d8d5 d53d 8ed0 213e 2b66 8d3d 2817 03bd
000002f0: 4dc3 113e c3a2 15bd 7680 2cbe 9349 04be
00000300: 5634 dcbd 7978 753c 1767 33be 049f ce3c
00000310: ec87 a4bd 53f4 053e 9709 15be 5243 93bd
00000320: 66b3 2cbc 2504 4abe 4353 f23c 5a15 f13d
00000330: afde f0bd 68aa 52be 2254 83bc 87d4 743c
00000340: 696c 46bd 0a6e 3a3e 3cb3 d23d 834a f4bd
00000350: 571f 1a3e 421e 1abe ff51 dc3d 379f e8bd
00000360: 4460 243c 728d c73c 2634 2a3e c04a 173e
00000370: b8f3 e2bd 33a7 d6bd d186 f43d 4855 213e
00000380: 06fc a93d a45c 343e 3e3d 143e d52f febc
00000390: 9a5a 473e 2a80 303e 1b7f f33d 2bd1 d43d
000003a0: 5545 1fbc 09a9 b0bc 3a30 12be 3c7c 7c3c
000003b0: 3721 1b3e 2ef4 b83d 8c75 a7bd 0641 14be
000003c0: afc1 11be 441f 3a3d 7271 863d 461e 7abd
000003d0: 6e6c 903d f08b c1bd d01f bbbd 09a2 603d
000003e0: 0c8e abbd e3db 4c3e d3bc 0e3d a2f9 03be
000003f0: a194 403e a755 f9bd 8cec cdbd fd49 023e

layer.0.bias f4 [32]
0.08700436 0.029059501 -0.0066134282 -0.11365909 0.07854117 0.17321971 0.11821457 0.032244727
0.22740148 0.0011575811 0.19371468 0.21886444 0.18982594 0.20991637 -0.057415027 -0.00086261146
-0.00860586 -0.1469142 -0.11344615 -0.016573671 0.010879575 -0.0007600142 0.0176385 0.0028359862
0.16769624 0.19145747 -0.15431838 -0.077767104 -0.007829963 0.09114942 0.18279348 0.03308216
00000000: 582f b23d 310e ee3c 75b5 d8bb 19c6 e8bd
00000010: 31da a03d 8260 313e 7b1a f23d 0c13 043d
00000020: efdb 683e fab9 973a 245d 463e 001e 603e
00000030: bb61 423e 51f4 563e 052c 6bbd e020 62ba
00000040: 98ff 0cbc ad70 16be 7556 e8bd 82c5 87bc
00000050: 3f40 323c b13b 47ba 9e7e 903c f4db 393b
00000060: 90b8 2b3e 6d0d 443e a305 1ebe 5c44 9fbd
00000070: 3f49 00bc 8cac ba3d 372e 3b3e 2981 073d

layer.2.weight f4 [64, 32]
-0.066293895 0.1577193 0.10411028 0.008263836 -0.05651277 -0.105675794 0.18422508 0.117626585
0.18686762 0.071896955 -0.037994064 -0.08619378 -0.06381523 -0.090480775 0.14031684 -0.023788687
0.18838789 0.15463546 0.099293105 0.044367112 -0.15717502 -0.17311206 -0.13541207 0.1620767
0.08007775 0.022664027 0.17442481 -0.044900287 0.0671237 0.14217421 -0.08497039 -0.1106663
0.04768766 -0.023746151 -0.09833746 -0.14640377 -0.14612666 -0.13433118 0.02844716 -0.11311797
0.17108259 -0.0419191 0.10923943 0.0031677352 0.16258849 0.03000685 0.0818736 -0.07960283
-0.069989435 -0.13711937 0.12176935 -0.05951841 0.04410579 -0.091199204 -0.13154091 -0.075140074
0.07376398 -0.15946144 0.01510191 0.026340712 -0.08425178 -0.13402702 0.010054855 -0.053723928
-0.08733452 0.12535797 0.10759775 -0.033168346 -0.040613174 0.17829646 0.014468414 0.0034769115
0.1358759 0.03171076 0.16456142 -0.081488885 0.0781894 0.18211235 -0.045557704 0.15094112
0.23009093 0.19904608 0.15284835 -0.0045456574 -0.19706379 -0.094315305 -0.15269028 0.16238083
0.00913093 0.060715213 -0.0806435 -0.026855826 -0.13993074 -0.10706491 -0.113654464 -0.12799476
-0.17178841 0.16956158 0.06490772 -0.15473184 -0.091026075 -0.027500605 0.05053148 0.0020832028
-0.10298392 -0.103987575 0.16065839 -0.103470445 0.11336911 0.18840969 -0.19135103 -0.087818116
0.099974185 -0.18148735 -0.15476961 0.1611811 0.06611806 0.050743084 -0.09455231 0.16048828
0.15401097 0.13803956 -0.06869208 0.04061871 0.1452101 -0.16065742 -0.06639587 0.0043963976
0.109457515 -0.14729667 -0.019667605 0.032788318 -0.16893296 -0.027190182 0.08059281 0.18531932
0.06348416 -0.04124122 0.10463481 0.18181391 0.07806498 0.09589275 0.13709316 0.21471843
-0.08978559 -0.008445775 0.103800125 0.10040668 0.18641397 -0.10369936 -0.01501632 0.09392257
-0.07979418 0.15118188 -0.10553091 -0.14074816 -0.11235393 0.03627706 0.079892024 0.07934427
0.1455368 -0.16741428 -0.028740827 0.13550729 0.16875303 0.066461645 0.18748966 0.057604317
-0.11478726 0.2401059 0.0840836 0.01381853 0.12907058 0.22749573 0.20261411 -0.12656914
0.17649311 0.058605183 0.09735693 -0.09396911 -0.012143591 -0.09297213 -0.06859307 -0.17104751
0.18898958 -0.11605204 0.036232192 -0.09146869 0.028814033 0.18527816 -0.108537965 -0.15002108
-0.09834297 0.07520643 0.07292295 -0.09339966 0.037548836 0.1381561 0.15495516 -0.15596981
0.17090897 0.093349464 0.10682063 -0.042734675 -0.0047449116 0.059517004 0.028313663 -0.181807
-0.103261314 -0.040451024 -0.11106849 -0.043220323 0.035276417 0.054217722 0.10900259 -0.0615122
-0.0029298472 -0.15163451 -0.13602741 0.1288585 0.1648561 -0.06569644 0.006844995 0.11910027
0.01932512 -0.01827847 -0.04373017 -0.1060472 0.03918859 -0.07475554 -0.16059664 0.10783925
0.18574132 0.17752847 -0.056980103 0.06953262 0.12597997 -0.21775448 -0.039833367 0.112127826
-0.1982631 0.09748004 -0.11391862 -0.056543775 0.067624055 0.091754176 0.09064382 0.07006795
0.041736305 -0.09267571 -0.07753211 -0.100787155 0.13886827 0.04661908 -0.11573623 0.08674177
00000000: 18c5 87bd 2b81 213e c537 d53d 0a65 073c
00000010: ef79 67bd 8d6c d8bd 80a5 3c3e 35e6 f03d
00000020: 3a5a 3f3e b63e 933d aa9f 1bbd 5d86 b0bd
00000030: 8fb1 82bd fc4d b9bd 38af 0f3e 7ee0 c2bc
00000040: c1e8 403e c258 1e3e 2f5a cb3d 4aba 353d
00000050: 7df2 20be 4a44 31be 76a9 0abe 6ff7 253e
00000060: ceff a33d e9a9 b93c 6b9c 323e 5de9 37bd
00000070: 2778 893d 1e96 113e f504 aebd 03a5 e2bd
00000080: 2354 433d 4a87 c2bc 2665 c9bd dfea 15be
00000090: 3aa2 15be 1d8e 09be 050a e93c 65aa e7bd
000000a0: 4630 2f3e 5db3 2bbd ecb8 df3d c799 4f3b
000000b0: 997d 263e edd0 f53c 59ad a73d cf06 a3bd
000000c0: 9f56 8fbd 0569 0cbe 3562 f93d 94c9 73bd
000000d0: 46a8 343d a6c6 babd a9b2 06be 0ae3 99bd
000000e0: 9211 973d dc49 23be 006e 773c 7ac8 d73c
000000f0: 328c acbd 613e 09be 1ebd 243c 9f0d 5cbd
00000100: 71dc b2bd d75d 003e 365c dc3d 88db 07bd
00000110: 005a 26bd 5993 363e ed0c 6d3c e5dc 633b
00000120: 0d23 0b3e 24e3 013d ca82 283e a5e3 a6bd
00000130: c421 a03d a97b 3a3e b79a 3abd 4f90 1a3e
00000140: f59c 6b3e bcd2 4b3e 4784 1c3e bdf3 94bb
00000150: 17cb 49be 6228 c1bd d75a 1cbe 2947 263e
00000160: e599 153c 84b0 783d 6b28 a5bd c000 dcbc
00000170: 014a 0fbe d944 dbbd acc3 e8bd 0f11 03be
00000180: 4de9 2fbe 8da1 2d3e 57ee 843d 0672 1ebe
00000190: e16b babd f348 e1bc 19fa 4e3d 5886 083b
000001a0: 3ce9 d2bd 70f7 d4bd a283 243e 50e8 d3bd
000001b0: 102e e83d 78ee 403e 86f1 43be fcd9 b3bd
000001c0: 44bf cc3d d2d7 39be ed7b 1ebe a90c 253e
000001d0: e868 873d fbd7 4f3d a4a4 c1bd 0a57 243e
000001e0: 0db5 1d3e 3e5a 0d3e 6fae 8cbd ce5f 263d
000001f0: f5b1 143e 6183 24be 8ffa 87bd a80f 903b
00000200: 432b e03d f0d4 16be f51d a1bc 0b4d 063d
00000210: c3fc 2cbe f2bd debc d80d a53d 59c4 3d3e
00000220: fc03 823d 8eec 28bd c64a d63d 6d2d 3a3e
00000230: 88e0 9f3d 6b63 c43d 2662 0c3e 26df 5b3e
00000240: 82e1 b7bd 2660 0abc 2995 d43d 04a2 cd3d
00000250: 4ee3 3e3e 5460 d4bd 0307 76bc 7a5a c03d
00000260: 226b a3bd 6ccf 1a3e 9720 d8bd 4920 10be
00000270: d119 e6bd 4197 143d 6e9e a33d 407f a23d
00000280: 9907 153e a66e 2bbe e271 ebbc 6cc2 0a3e
00000290: 98cd 2c3e 0b1d 883d 4afd 3f3e 81f2 6b3d
000002a0: 9515 ebbd 52de 753e 0634 ac3d 1e67 623c
000002b0: 142b 043e a4f4 683e 137a 4f3e 579b 01be
000002c0: 9cba 343e fd0b 703d 1263 c73d e072 c0bd
000002d0: eaf5 46bc 2c68 bebd 867a 8cbd 1427 2fbe
000002e0: 7c86 413e b1ac edbd 3568 143d f053 bbbd
000002f0: 680b ec3c 8fb9 3d3e 2749 debd 209f 19be
00000300: 0a68 c9bd d405 9a3d a158 953d 5248 bfbd
00000310: cfcc 193d cb78 0d3e 91ac 1e3e 8db6 1fbe
00000320: c302 2f3e 012e bf3d c6c4 da3d 8e0a 2fbd
00000330: 347b 9bbb 1ac8 733d 0ef2 e73c 9d2b 3abe
00000340: ab7a d3bd f9af 25bd e077 e3bd cb07 31bd
00000350: 017e 103d 6713 5e3d c03c df3d 37f4 7bbd
00000360: ae02 40bb 1446 1bbe c54a 0bbe 7cf3 033e
00000370: 0ad0 283e db8b 86bd fb4b e03b d8ea f33d
00000380: b74f 9e3c bbbc 95bc 681e 33bd 462f d9bd
00000390: 3784 203d 6f19 99bd 7273 24be d3da dc3d
000003a0: f932 3e3e 06ca 353e f863 69bd 1e67 8e3d
000003b0: e500 013e 08fb 5ebe 5028 23bd 46a3 e53d
000003c0: 7b05 4bbe 9da3 c73d 2a4e e9bd 729a 67bd
000003d0: 7b7e 8a3d 9de9 bb3d 78a3 b93d c97f 8f3d
000003e0: b0f3 2a3d c3cc bdbd 28c9 9ebd 7f69 cebd
000003f0: 7c33 0e3e a6f3 3e3d 1e07 edbd aba5 b13d

layer.2.bias f4 [64]
0.13447519 -0.076411635 0.15046933 0.19631425 0.008979261 -0.07137574 0.13132249 0.2057355
0.123267844 -0.12854883 0.15254486 0.12080979 0.09604487 0.16022095 0.005724763 -0.067535214
-0.034255214 -0.12186635 -0.1505056 0.13711537 0.016408691 -0.14994878 0.12710248 -0.10167915
0.11595843 0.013535841 -0.08270263 -0.026966464 -0.101746015 0.0743024 0.15849783 -0.137288
-0.15283817 0.094674475 -0.096572965 -0.07843852 -0.06498831 0.1974763 0.1432859 -0.039921604
-0.15608673 0.057353202 0.095655605 -0.08347467 -0.02011013 0.0012226556 -0.10419899 0.030681804
0.14195728 -0.018904055 0.17741744 -0.02462331 0.10328072 0.048174735 -0.051041238 0.18817458
0.10337622 0.13597162 0.03282234 -0.045387566 -0.07920237 -0.09855827 0.19003147 -0.032300763
00000000: ddb3 093e b47d 9cbd a214 1a3e 9a06 493e
00000010: c01d 133c 722d 92bd 6779 063e 54ac 523e
00000020: da73 fc3d 4ea2 03be b834 1c3e 206b f73d
00000030: 2cb3 c43d f610 243e cb96 bb3b e74f 8abd
00000040: 324f 0cbd 1195 f9bd 241e 1abe f967 0c3e
00000050: 856b 863c 2c8c 19be 2727 023e 283d d0bd
00000060: 9d7b ed3d 6fc5 5d3c ff5f a9bd c6e8 dcbc
00000070: 3760 d0bd db2b 983d 414d 223e 3a95 0cbe
00000080: 9c81 1cbe b1e4 c13d 0cc8 c5bd 60a4 a0bd
00000090: 9718 85bd 3a37 4a3e 8ab9 123e d684 23bd
000000a0: 33d5 1fbe 31eb 6a3d 16e7 c33d c5f4 aabd
000000b0: 00be a4bc 8441 a03a 4866 d5bd 6858 fb3c
000000c0: 405d 113e addc 9abc ebac 353e d3b6 c9bc
000000d0: d884 d33d df52 453d 9e10 51bd d6b0 403e
000000e0: e9b6 d33d 253c 0b3e b870 063d 50e8 39bd
000000f0: da34 a2bd ebd8 c9bd 9c97 423e ce4d 04bd

layer.4.weight f4 [8, 64]
0.20591292 -0.043151986 0.11319033 -0.16138686 0.04034122 0.13940942 0.119919896 -0.06691697
-0.06453383 0.11556017 0.114810556 -0.10494596 0.010530128 -0.12662663 0.042470414 0.08731446
-0.011065258 0.099500015 0.062196027 0.10348841 0.009256433 0.013700472 0.11884208 0.041597266
0.045117095 -0.025276572 -0.0056726476 -0.12301496 -0.07295369 -0.0126273045 -0.13364312 -0.10751873
-0.099748924 0.13193357 0.04927244 -0.16793108 -0.12417312 -0.09275905 -0.14688212 0.1879019
0.1156252 0.082677886 0.032300867 0.10478416 -0.1784301 -0.14413118 0.049772553 -0.12203174
-0.010960963 -0.0016092879 -0.007907848 0.032799825 0.08243266 0.12045299 -0.013321697 0.18282844
-0.06510399 0.051441263 -0.08925493 -0.08525776 0.061665703 -0.05014753 0.13788807 -0.04391538
-0.014081615 -0.045990635 0.004526095 -0.08851139 0.11207471 -0.13084894 -0.1136699 0.09679776
0.11971612 0.033545412 -0.080904506 -0.030063115 0.09968252 -0.07225274 -0.08764872 -0.09826592
-0.016819464 0.10996894 -0.110279284 0.06104525 0.004272764 0.11418431 0.048164077 -0.05317811
0.05091163 0.16096473 -0.124823116 -0.082191944 -0.10148236 0.11957011 -0.0085572 0.009035567
0.14352122 -0.03668083 -0.098244354 0.06701983 0.09986357 0.14147842 0.13849233 0.03452089
-0.06930578 0.0740477 0.053203214 0.08167195 0.20788936 0.044253252 0.103185035 0.07501289
-0.09429044 0.0024466387 -0.02483644 -0.07555282 -0.056835335 0.04674707 0.13556196 -0.037503388
0.10163032 -0.15582997 0.09604557 0.00084046973 0.17207018 0.09197214 0.1379948 -0.117699295
0.064668946 -0.08004285 -0.1321703 -0.049450576 -0.08857866 0.055356197 0.1745907 0.15737827
0.06378569 -0.061687507 -0.052600317 -0.083971076 0.14402953 0.08938716 0.0024047608 0.113451496
-0.03707945 -0.036414176 0.033408154 -0.03119377 -0.12250166 -0.06959793 0.12090166 -0.07224072
0.07600334 -0.0029883035 -0.0498954 -0.009457544 0.028430639 0.09833956 0.05105122 0.06143085
0.0025005538 -0.07295282 -0.11103656 0.048426405 0.122549474 0.013351021 0.10173507 0.020231165
0.07802303 -0.17517659 0.054765716 0.109792426 -0.034177877 -0.03916119 -0.08334312 0.13568324
0.07613448 -0.1308242 0.106840864 0.13302183 -0.0028195244 -0.005906331 0.016822707 -0.010273503
0.028978841 -0.06572996 0.1330866 0.10724725 -0.15997703 0.008148349 -0.014620942 -0.15545927
0.041140124 -0.017968485 0.027752157 0.16391815 -0.040622715 0.14652447 -0.013625999 -0.051069774
-0.07538923 0.039089434 -0.07005091 0.14882211 0.03973136 0.099934034 0.10138316 0.01098831
0.008044792 -0.06080694 -0.14829648 0.15858904 0.13714668 -0.09365898 0.011805308 -0.12948175
0.109789714 -0.093285784 0.099084005 -0.023850393 0.094647326 -0.058219597 -0.20788758 -0.014103956
-0.051033363 -0.05654968 -0.0091729835 0.0804695 0.096199565 0.058028433 0.076872624 -0.020186178
-0.048372816 0.0091248555 0.07959548 -0.105049595 0.068794444 0.12163613 -0.084588476 0.0030307746
0.031081142 -0.08102355 -0.076478064 0.01725526 0.13341631 0.06711547 -0.055971604 0.011316876
-0.16928324 0.17860067 0.14514862 0.13841759 -0.016316094 -0.13758788 0.06387404 0.048725158
00000000: d6da 523e 23c0 30bd 55d0 e73d 9942 25be
00000010: d63c 253d 58c1 0e3e 9098 f53d c40b 89bd
00000020: 502a 84bd cfaa ec3d cc21 eb3d e8ed d6bd
00000030: 8f86 2c3c 69aa 01be 75f5 2d3d ecd1 b23d
00000040: 0e4b 35bc aac6 cb3d 43c1 7e3d bbf1 d33d
00000050: 4ba8 173c f277 603c 7a63 f33d e561 2a3d
00000060: b4cc 383d d010 cfbc 9ee1 b9bb 44ef fbbd
00000070: bf68 95bd c1e2 4ebc bed9 08be c832 dcbd
00000080: 2a49 ccbd 9819 073e e6d1 493d 20f6 2bbe
00000090: 7a4e febd 75f8 bdbd 4468 16be 5b69 403e
000000a0: e8cc ec3d 0653 a93d ea4d 043d 1499 d63d
000000b0: 61b6 36be 2097 13be 4ede 4b3d c7eb f9bd
000000c0: 9c95 33bc beee d2ba eb8f 01bc 1c59 063d
000000d0: 74d2 a83d 0fb0 f63d 3f43 5abc 6137 3b3e
000000e0: 3e55 85bd 13b4 523d 4acb b6bd 9f9b aebd
000000f0: 2d95 7c3d 7f67 4dbd 8832 0d3e 9de0 33bd
00000100: 93b6 66bc ad60 3cbd a34f 943b 7645 b5bd
00000110: 6d87 e53d 44fd 05be c4cb e8bd e73d c63d
00000120: ba2d f53d ea66 093d 43b1 a5bd ec46 f6bc
00000130: 5926 cc3d 3ff9 93bd 2c81 b3bd a53f c9bd
00000140: f9c8 89bc 6537 e13d 1bda e1bd 960a 7a3d
00000150: 8b02 8c3b 77d9 e93d b247 453d 4ad1 59bd
00000160: b788 503d f0d3 243e 43a3 ffbd 4054 a8bd
00000170: fcd5 cfbd 2de1 f43d 8033 0cbc ea09 143c
00000180: 3af7 123e a33e 16bd 5634 c9bd b141 893d
00000190: 4585 cc3d b8df 103e efd0 0d3e c765 0d3d
000001a0: 30f0 8dbd 52a6 973d 9deb 593d a043 a73d
000001b0: f3e0 543e e642 353d ad52 d33d 5ca0 993d
000001c0: 591b c1bd c957 203b ca75 cbbc 70bb 9abd
000001d0: 2bcc 68bd db79 3f3d c1d0 0a3e 279d 19bd
000001e0: 8f23 d03d e491 1fbe 8ab3 c43d f852 5c3a
000001f0: 2a33 303e e45b bc3d 824e 0d3e 540c f1bd
00000200: 2771 843d 81ed a3bd a757 07be b08c 4abd
00000210: ba68 b5bd 2ebd 623d e8c7 323e c527 213e
00000220: 12a2 823d 0aac 7cbd 6e73 57bd 07f9 abbd
00000230: 7a7c 133e 9e10 b73d 3199 1d3b 4259 e83d
00000240: 9fe0 17bd 0827 15bd fdd6 083d 148a ffbc
00000250: 26e2 fabd 5c89 8ebd 4a9b f73d f1f2 93bd
00000260: a4a7 9b3d 6ad7 43bb 1e5f 4cbd d1f3 1abc
00000270: 5fe7 e83c 4066 c93d 161b 513d ea9e 7b3d
00000280: 55e0 233b 4a68 95bd 2367 e3bd c45a 463d
00000290: 38fb fa3d 3ebe 5a3c 7a5a d03d d4bb a53c
000002a0: 8aca 9f3d 7e61 33be 0452 603d dada e03d
000002b0: 1afe 0bbd 7c67 20bd ccaf aabd 8cf0 0a3e
000002c0: 65ec 9b3d c7f6 05be 62cf da3d e036 083e
000002d0: c5c7 38bb e589 c1bb c6cf 893c 3252 28bc
000002e0: 0965 ed3c 6e9d 86bd db47 083e 72a4 db3d
000002f0: 05d1 23be a780 053c ad8c 6fbc b730 1fbe
00000300: 8c82 283d a532 93bc 7e58 e33c 29da 273e
00000310: 0164 26bd 830a 163e 953f 5fbc 8a2e 51bd
00000320: ab65 9abd 3e1c 203d da76 8fbd d364 183e
00000330: 5abd 223d 37aa cc3d f9a1 cf3d 5008 343c
00000340: 4ece 033c b310 79bd 08db 17be 2a65 223e
00000350: 2e70 0c3e 48d0 bfbd 0d6b 413c dd96 04be
00000360: 6ed9 e03d 9e0c bfbd 8eec ca3d e661 c3bc
00000370: 75d6 c13d ac77 6ebd 7be0 54be 4714 67bc
00000380: 5c08 51bd a3a0 67bd 484a 16bc 31cd a43d
00000390: 4704 c53d 39af 6d3d 656f 9d3d 7c5d a5bc
000003a0: 9322 46bd 6b80 153c f402 a33d 3e24 d7bd
000003b0: 1ae4 8c3d 5d1c f93d b93c adbd f69f 463b
000003c0: e19d fe3c adef a5bd 88a0 9cbd e75a 8d3c
000003d0: 499e 083e d673 893d 7b42 65bd 6b6a 393c
000003e0: 9658 2dbe 18e3 363e d7a1 143e 57bd 0d3e
000003f0: 54a9 85bc d6e3 0cbe 65d0 823d 0894 473d

layer.4.bias f4 [8]
0.04895059 0.0012242317 0.15365322 0.08061583 0.09233133 -0.112360135 -0.07429631 -0.08788496
00000000: 6a80 483d 6676 a03a 4557 1d3e ea19 a53d
00000010: 3518 bd3d 121d e6bd aa28 98bd 08fd b3bd
